best_model/acc/Adaptivecora-b-h_dropout=0_wd=0_b=256_lr=0.001_walk=5_best_model.pt (torch_old, 289431 bytes, 15 tensors)

embedding.full.weight f4 [16, 1433]
0	0xbc5ac9d4	-0.013353784
1	0x3c85b3dc	0.016321115
2	0x3d1968be	0.037453406
3	0xbd580dcf	-0.052747544
4	0xbd3270c4	-0.043564573
5	0x3d4efa96	0.050531946
6	0xbcbf5d7e	-0.02336001
7	0xbd11d370	-0.035602033
8	0xbd238cfa	-0.039929368
9	0xbc9b14c2	-0.018930797
10	0xbd288181	-0.04113913
11	0x3c255930	0.010092065
12	0x3d5214f4	0.051289514
13	0xbc161158	-0.0091594085
14	0x3b949ba0	0.0045351535
15	0xbd60060e	-0.054693274
16	0xbcb6962c	-0.022288404
17	0xbc94de16	-0.018172305
18	0x39c4a200	0.00037504733
19	0xbd6b3241	-0.057420973
20	0xbc09dcf4	-0.008414496
21	0xbbfb6cb8	-0.0076728724
22	0xbd148e23	-0.036268365
23	0x3cd251ac	0.02567371
24	0x3d0e9ff2	0.034820504
25	0x3d7bab86	0.061442874
26	0x3d28b5ca	0.041188993
27	0x3ced82f8	0.028993115
28	0xbd2326be	-0.03983187
29	0xbb6d56b0	-0.0036215
30	0x3d4840ae	0.04888981
31	0xbc9292ca	-0.01789226
32	0xbd32fd96	-0.04369887
33	0xbd28091c	-0.041024312
34	0x3bba06b0	0.0056770667
35	0x3d44d0fe	0.048050873
36	0xbccec5e4	-0.025240846
37	0x3d6321be	0.0554521
38	0x3d425acc	0.047449872
39	0xbd345fb8	-0.044036597
40	0x3d726c48	0.059185296
41	0x3c2fc9c8	0.010729261
42	0x3ce30da4	0.027716465
43	0x3d6c745e	0.057728164
44	0xbd2370c3	-0.03990246
45	0xbd25fdb6	-0.04052516
46	0xbd5dd2a6	-0.054155968
47	0xbd5d4784	-0.05402328
48	0xbd5fd8a4	-0.054649964
49	0x3d7383cc	0.059451863
50	0xbb6130d0	-0.003436137
51	0xbd583bc3	-0.05279137
52	0xbd3aab5e	-0.045573585
53	0x3d77e1aa	0.060517944
54	0xbcf1b0dc	-0.029503278
55	0xbd6edf9d	-0.058318723
56	0xbd5b9954	-0.053613022
57	0xbd2b78a8	-0.041863114
58	0xbd2b7952	-0.041863747
59	0x3cb0346c	0.021509372
60	0x3c4abdf0	0.012374386
61	0xbaa0fd40	-0.0012282506
62	0x3d20babc	0.039240584
63	0x3d1a8d32	0.03773231
64	0x3d81b6d5	0.063337006
65	0x3d189fd0	0.037261784
66	0x3ce3c27c	0.027802698
67	0xbd359c06	-0.04433825
68	0xbd348e9c	-0.044081315
69	0x3c367920	0.011137277
70	0xbc903dc2	-0.017607573
71	0xbd087fe0	-0.033325076
72	0xbc724a4c	-0.014788222
73	0xbc376218	-0.011192821
74	0x3d255afe	0.04036998
75	0x3c8810c0	0.01660955
76	0x3d4f141c	0.050556287
77	0x3d839b1d	0.0642607
78	0x3d587156	0.05284246
79	0x3d1ea28c	0.038729236
80	0x3d1d6dc8	0.038434774
81	0x3ac73240	0.0015197471
82	0xbd2c5174	-0.042069867
83	0xbc042564	-0.008065555
84	0xbc2fb6e8	-0.010724761
85	0xbcc5ee94	-0.024161614
86	0x3cda4bac	0.026647411
87	0xbd74c683	-0.059759628
88	0xbd7b9de1	-0.061429862
89	0x3d1d98ba	0.03847573
90	0x3d2579ec	0.040399477
91	0xbd83644b	-0.06415614
92	0x3c8dcb54	0.017308868
93	0xbd35a46e	-0.044346265
94	0xbd3b23af	-0.045688327
95	0xbd1a5a6b	-0.037683886
96	0xbd40fa5c	-0.04711376
97	0xba10b480	-0.00055200607
98	0x3d4e9c2a	0.0504419
99	0x3ae28bc0	0.001728408
100	0xbcae087a	-0.021244276
101	0x3b0d1a00	0.002153039
102	0xbc55ed54	-0.013057072
103	0x3b3f1100	0.002915442
104	0xbd7063db	-0.05868898
105	0x3cad2480	0.021135569
106	0x3d55d356	0.0522035
107	0x3d2dcccc	0.042431638
108	0x3afc5c40	0.0019253567
109	0xbd54f777	-0.051993813
110	0x3c136ae8	0.008997656
111	0xbd5bb784	-0.05364181
112	0x3d5b9d50	0.05361682
113	0x3c9c3000	0.019065857
114	0xbd649305	-0.05580427
115	0x3d1a443e	0.037662737
116	0x3ceaf98c	0.028683446
117	0xbbcfeeb8	-0.006345596
118	0x3cdad5bc	0.026713245
119	0xbd538132	-0.051636882
120	0xbd4d54da	-0.05012975
121	0x3ba5ce40	0.0050599873
122	0xbc816e52	-0.015799675
123	0xbd4e4298	-0.050356477
124	0x3cafbae4	0.021451421
125	0xbccbb5f2	-0.024867032
126	0xbcd26c38	-0.025686368
127	0x3cba4e6c	0.022742473
128	0x3d64df50	0.05587703
129	0x3d354506	0.04425528
130	0x3ca361c4	0.01994408
131	0xbcda22c4	-0.026627906
132	0xbd49d153	-0.049271893
133	0x3c7a0590	0.015260115
134	0x3d08089e	0.033211343
135	0xbd482963	-0.048867594
136	0xbcaeb8b6	-0.021328311
137	0xbcc676b2	-0.02422652
138	0xbd65e024	-0.05612196
139	0x3d147898	0.03624782
140	0x3d620194	0.055177286
141	0x3c4442f8	0.011978857
142	0xbd40dcf1	-0.047085706
143	0x3d512b2c	0.051066563
144	0xbcac8e86	-0.021064054
145	0x3d49dd9a	0.0492836
146	0x3d77fc9c	0.06054364
147	0x3d788d2e	0.060681514
148	0xbd81ae3a	-0.06332059
149	0xbace81c0	-0.0015755221
150	0xbc9bf6dc	-0.01903861
151	0xbd81c3a8	-0.063361466
152	0xbb088660	-0.0020832047
153	0x3d322c2a	0.04349915
154	0xbd2a7e3e	-0.0416243
155	0xbd004ae3	-0.031321418
156	0xbd7f0a04	-0.06226541
157	0x3d193df6	0.037412606
158	0x3d48dfb0	0.04904145
159	0xbba49208	-0.005022291
160	0xbce61b68	-0.02808924
161	0xbd7e2ba0	-0.062053323
162	0x3ccb82fc	0.024842732
163	0x3cc255d0	0.02372256
164	0x3bf24ff0	0.007394783
165	0x3bfd81b0	0.007736407
166	0x3c8af470	0.01696226
167	0x3a645e80	0.00087115914
168	0x3d72db22	0.059291013
169	0x3d4d34cc	0.05009918
170	0x3d026c64	0.03184165
171	0x3c357bb0	0.011076853
172	0x3c935084	0.017982729
173	0xbc1b0504	-0.009461645
174	0x3d0f469e	0.034979455
175	0x3d742ebe	0.05961489
176	0xbb0ed500	-0.0021794438
177	0x3cd1654c	0.025560997
178	0x3bc5c180	0.00603503
179	0xbc2960a4	-0.010337982
180	0xbd025f0c	-0.031828925
181	0x3c966ff0	0.018363923
182	0x3c5f6da8	0.013636984
183	0xbcd90ec2	-0.026496295
184	0x3d65705a	0.05601535
185	0x3d3caeac	0.046065018
186	0x3d0681fa	0.0328388
187	0xbd1f0b96	-0.03882941
188	0x3d45064a	0.0481017
189	0xbc825540	-0.015909791
190	0x3d5c648e	0.053806834
191	0x3d78b47a	0.06071899
192	0x3d762b4a	0.060099877
193	0xbd1d1be4	-0.038356677
194	0x3c38d398	0.011280917
195	0x3d77c7a6	0.060493134
196	0xbb424cf0	-0.002964791
197	0xbd67d7e7	-0.056602385
198	0xbd5d93bf	-0.05409598
199	0x3cf142b0	0.029450744
200	0x3b181700	0.0023207068
201	0xbc57c6d0	-0.013169959
202	0x3d642e18	0.05570802
203	0xbcdc18c2	-0.026867274
204	0xbd2f8f56	-0.042861305
205	0x3cbf8d08	0.023382679
206	0x3c441698	0.011968277
207	0x3cf37c08	0.029722229
208	0x3d1c7a5a	0.03820262
209	0xbd826a56	-0.06367938
210	0x3c81b4d4	0.015833296
211	0xbbc59e40	-0.0060308278
212	0x3d38885c	0.045051917
213	0x3c4e9160	0.012607902
214	0xbd1f26e8	-0.038855463
215	0xbd748104	-0.05969335
216	0xbad00000	-0.0015869141
217	0xbc81b670	-0.015834063
218	0x3d6dc9f4	0.058053926
219	0x3d044a8c	0.032297656
220	0x3ce90618	0.028445289
221	0x3b52c620	0.0032161549
222	0x3d6d1c2c	0.057888195
223	0x3bbb1fe0	0.005710587
224	0x3d211fbc	0.039336905
225	0x3b8bcb50	0.00426618
226	0x3ce5e1ac	0.02806171
227	0xbce7a4c0	-0.028276801
228	0xbbc67d28	-0.0060574003
229	0xbc6f82a4	-0.0146185495
230	0x3c9eb6a4	0.0193742
231	0x3cbad824	0.022808142
232	0x3d0e1a4c	0.034693047
233	0x3c2f3d80	0.010695815
234	0xbcfdaa66	-0.030965041
235	0x3b4966c0	0.003073141
236	0xbbad30d0	-0.00528536
237	0x3d78fd9a	0.06078873
238	0x3c94f8d0	0.01818505
239	0xbd125a68	-0.03573075
240	0xbd5266d9	-0.051367614
241	0xbcdf6cda	-0.027273584
242	0xbd138d12	-0.036023207
243	0x3d58fb98	0.052974313
244	0x3d0af874	0.03392835
245	0x3baf3570	0.0053469464
246	0xbd5f9208	-0.054582626
247	0xbd4b2e06	-0.04960444
248	0xbd20d15c	-0.03926216
249	0xbd401dda	-0.04690347
250	0xbd1b9543	-0.037984144
251	0x3b9b1150	0.0047322884
252	0xbd1f7ef7	-0.038939442
253	0x3ba91600	0.0051600933
254	0x3d3651fa	0.044511773
255	0x3c728b10	0.014803663

embedding.full.bias f4 [16]
0	0xbc2fe8d4	-0.010736663
1	0xbc8d7bba	-0.017270911
2	0x3cbb555c	0.022867851
3	0x3be57330	0.007002257
4	0xbc9cd032	-0.019142244
5	0x3b5901d8	0.0033112671
6	0xbc5ee83e	-0.013605176
7	0xbc2e951c	-0.010655668
8	0xbcd6bd59	-0.026213335
9	0xbbfa2c4c	-0.007634675
10	0x3a89f5d0	0.0010525528
11	0x3c6204a4	0.013795052
12	0x398a5800	0.00026386976
13	0x3b779558	0.0037778225
14	0xbc888291	-0.016663821
15	0x3ca35312	0.019937072

aggregator.full.weight f4 [16, 2866]
0	0x3d55e663	0.052221667
1	0x3d29bbd8	0.041438907
2	0xbd358510	-0.04431635
3	0x3c9bb58f	0.019007472
4	0xbdadfda2	-0.08495642
5	0x3d25772c	0.040396854
6	0x3d9a75df	0.075420134
7	0xbd76c9f6	-0.0602512
8	0x3c2e5f3f	0.010642826
9	0x3c2442f8	0.010025732
10	0x3d63bfb6	0.05560275
11	0xbaa7c64c	-0.0012800186
12	0xbd7fc282	-0.062441356
13	0x3d4c2062	0.04983557
14	0xbdde55b8	-0.10856193
15	0xbd8b0224	-0.06787518
16	0xbd149fe5	-0.0362853
17	0x3dc51e7d	0.09624956
18	0x3c1a36ab	0.009412448
19	0x3d988b04	0.0744839
20	0x3d117f07	0.035521533
21	0xbd39c35c	-0.045352325
22	0x3dd5464a	0.10413797
23	0xbd04e3a9	-0.032443676
24	0x3dc38056	0.095459625
25	0xbd49e443	-0.049289953
26	0xbd986c19	-0.07442493
27	0xbd8762a9	-0.06610615
28	0xbe1b3b8d	-0.15159436
29	0x3c143b2c	0.009047311
30	0x3c916f37	0.017753227
31	0x3d2c1424	0.042011395
32	0x3e0be532	0.1366165
33	0x3bcc7b33	0.0062402724
34	0xbd268961	-0.04065836
35	0xbd1afae0	-0.03783691
36	0xbbdf60a5	-0.006816941
37	0xbba28fe9	-0.004961003
38	0xbc1ba950	-0.009500816
39	0x3dbef6a9	0.093243904
40	0xbd59ae7d	-0.05314492
41	0xbc88ec0d	-0.01671412
42	0x3d9e3380	0.077246666
43	0xbae12e62	-0.0017179961
44	0x3d3044ca	0.043034352
45	0xbd14217e	-0.036164753
46	0x3d289bdc	0.041164264
47	0xbd557a7b	-0.05211876
48	0x3e042c76	0.12907586
49	0xb9c99615	-0.00038449527
50	0xbd4a1519	-0.049336527
51	0xbd6b4a6d	-0.057444025
52	0x3cff5cde	0.031172212
53	0x3d7b622e	0.06137293
54	0xbe374cdd	-0.17900415
55	0x3daa7fdc	0.083251685
56	0xbd7993e7	-0.060932066
57	0x3da85105	0.08218578
58	0x3ce9e37a	0.028550852
59	0xbd360714	-0.044440344
60	0xbda267f4	-0.07929984
61	0x3c7714da	0.015080655
62	0x3e0397d2	0.12850884
63	0x3c66a620	0.014077693
64	0x3de1d2c3	0.11026528
65	0x3d5a10fc	0.053238854
66	0x3d7d6494	0.061863497
67	0xbae77d7d	-0.00176613
68	0x3d350364	0.044192687
69	0xbcdfa6dc	-0.027301244
70	0x3ca24d99	0.019812392
71	0xbb4ef7db	-0.003158084
72	0x3e0a4908	0.13504422
73	0x3dd84ebe	0.10561894
74	0x3d08d3a1	0.03340495
75	0x3db60447	0.088875346
76	0xbcd26fd9	-0.025688099
77	0x3c7a0e06	0.0152621325
78	0xbdee1b00	-0.116262436
79	0xbc145858	-0.009054266
80	0xbd238efc	-0.039931282
81	0xbc3076f0	-0.010770544
82	0xbda8e944	-0.08247617
83	0x3cf0cd3c	0.029394738
84	0x3d91a333	0.07111206
85	0x3db1fd2d	0.086908676
86	0xbd2e3ae1	-0.04253662
87	0xbb344c01	-0.0027511122
88	0x3dc607af	0.09669434
89	0x3d0744f0	0.03302473
90	0x3c3b7e88	0.011443742
91	0xbd733eef	-0.05938619
92	0xbd964107	-0.07336622
93	0xbd10447e	-0.03522157
94	0xbc4da912	-0.012552517
95	0xbba5cf57	-0.005060117
96	0x3c89fa96	0.016843121
97	0x3cb1dc73	0.021711564
98	0x3de9ffce	0.11425744
99	0x3dbe789a	0.09300347
100	0x3a82bd78	0.0009974679
101	0x3c9d03f4	0.019166924
102	0xbccfa675	-0.025347928
103	0x3d9f9e88	0.07793909
104	0xbca9b380	-0.020715475
105	0x3d673172	0.05644364
106	0xbdcac6e1	-0.099012144
107	0x3dc68afc	0.09694478
108	0xbd79aa5e	-0.06095349
109	0x3ce4ba3f	0.02792084
110	0x3d358812	0.04431922
111	0xbdacb06e	-0.08432089
112	0xbd80887f	-0.062760346
113	0xbaf4de99	-0.0018682062
114	0x3d961b06	0.07329373
115	0x3dbfd5ac	0.093669266
116	0x3cdac92f	0.02670726
117	0x3e22729d	0.15864034
118	0x3d0339b1	0.03203744
119	0xbd90c7a4	-0.070693284
120	0x3c71266a	0.014718631
121	0x3c3ef7f5	0.011655797
122	0xbb5239d4	-0.0032077925
123	0xbc935e3c	-0.01798927
124	0x3ba96f11	0.005170711
125	0xbcc470c9	-0.023979561
126	0x3de80aa9	0.11330158
127	0xba14f9c9	-0.0005682973
128	0x3d7bc8c0	0.061470747
129	0xbcffb1b9	-0.031212674
130	0x3d7bbf37	0.061461654
131	0x3d6f58cb	0.05843429
132	0x3d7d43b1	0.061832134
133	0xbd682136	-0.056672297
134	0xbd3f2a35	-0.04667111
135	0x3d71bcde	0.05901801
136	0x3d31f32f	0.04344481
137	0x3d91b84f	0.07115232
138	0x3c59a162	0.013283106
139	0x3d3c1ae8	0.045924097
140	0x3bd1ba29	0.006400366
141	0xbd166860	-0.036720634
142	0xbd545410	-0.05183798
143	0x3d4dbf66	0.05023136
144	0xbd10ee2b	-0.035383385
145	0xbd9b8497	-0.07593649
146	0x3c2d55f1	0.010579572
147	0xbdcbe9eb	-0.09956726
148	0x3d57696b	0.05259077
149	0xbd4005e4	-0.046880618
150	0x3dd399dd	0.103320815
151	0xbd96be26	-0.07360487
152	0x3d547207	0.051866557
153	0xbdc85fb7	-0.09783881
154	0x3e05c5d6	0.1306375
155	0xbdba994d	-0.09111271
156	0x3cbb09b9	0.022831785
157	0x3dae67fd	0.08515928
158	0x3d8026f8	0.06257433
159	0x3d371564	0.044698134
160	0x3df4fd40	0.11962366
161	0x3de0f78c	0.10984716
162	0xbbf438e4	-0.007453071
163	0x3ddd042e	0.10791813
164	0x3df38802	0.11891176
165	0xbbd0670d	-0.006359941
166	0x3c930aea	0.01794954
167	0x3d88d26c	0.0668076
168	0xbdc2f765	-0.09519843
169	0x3d7f0ee2	0.062270053
170	0xb9bcedf0	-0.00036035432
171	0x3cd5e40b	0.026109716
172	0x3d2bd42a	0.041950382
173	0xbcbed8db	-0.023296764
174	0x3befc60e	0.007317311
175	0x3ca644f4	0.020296551
176	0x3d21a098	0.039459795
177	0x3db94234	0.0904583
178	0x3d24e15e	0.04025399
179	0xbd4fcf6a	-0.050734915
180	0xbd145a84	-0.036219135
181	0x3d18d0f6	0.037308656
182	0x3ce1d0d8	0.027565405
183	0xbd92753e	-0.071512684
184	0x3d32aa37	0.04361936
185	0x3d85df83	0.06536772
186	0xbcc83bb4	-0.024442531
187	0xbcbd1454	-0.023080982
188	0xbc84f13e	-0.016228314
189	0x3d9fdc47	0.078056864
190	0xbc1e1715	-0.009649058
191	0x3dd7b05c	0.10531685
192	0x3cf2da01	0.029644968
193	0x3d86199a	0.06547852
194	0x3dae4a05	0.08510212
195	0xbb9953b3	-0.004679167
196	0x3c92c8e2	0.017918054
197	0x3d674705	0.056464214
198	0x3d0d7e0f	0.034544047
199	0x3dbf937d	0.09354303
200	0xbc9b1119	-0.018929051
201	0x3d0e0346	0.03467109
202	0xbd1d95e1	-0.038473014
203	0x3dd99459	0.10623998
204	0x3ae71039	0.0017628736
205	0x3c7b9b39	0.015356832
206	0xbddad575	-0.10685245
207	0x3bdbeef2	0.006711834
208	0x3b21b87e	0.0024676616
209	0x3c5359a4	0.01289979
210	0x3df35b16	0.11882608
211	0xbe1a38bc	-0.15060705
212	0xbd4203c7	-0.047366884
213	0x3d00c820	0.031440854
214	0xbd0ed428	-0.034870297
215	0x3de780f9	0.113038965
216	0x3cea6632	0.028613184
217	0x3c741f58	0.014900051
218	0x3d8bad4c	0.06820163
219	0x3d6e603c	0.058197245
220	0x3ce3847b	0.027773133
221	0x3e204991	0.15653063
222	0x3ca04ef2	0.019568894
223	0x3e08df3a	0.13366404
224	0xbd2edaff	-0.04268932
225	0x3ca8f40a	0.02062418
226	0x3bb10c6f	0.0054030935
227	0x3d8d962b	0.06913408
228	0x3d7a95ad	0.0611779
229	0xbd3d81ae	-0.04626625
230	0x3d3e9817	0.046531763
231	0xbd0fb676	-0.035086118
232	0x3cf7f04a	0.030265946
233	0x3dea6d22	0.11446597
234	0xbdf881ea	-0.12134154
235	0xbbfe2d93	-0.0077568977
236	0xbc9fb4a0	-0.019495308
237	0xbce992fb	-0.028512469
238	0x3d9f3e02	0.07775499
239	0xbd56332a	-0.052294888
240	0x3dd26316	0.102728054
241	0x3da41c23	0.08013179
242	0xbdb8ac09	-0.09017188
243	0x3c5fbed6	0.013656339
244	0x3d5e0920	0.05420792
245	0xbdbda2e4	-0.092595845
246	0x3d8a49e8	0.06752378
247	0x3e036116	0.12830004
248	0xbc3d0d02	-0.011538746
249	0xbdafb10d	-0.08578692
250	0xbdf59e1f	-0.1199305
251	0x3d3367af	0.043800052
252	0x3db3380f	0.08750927
253	0xbce8f331	-0.028436275
254	0xbd326e4a	-0.04356221
255	0xbd90dcb1	-0.070733435

aggregator.full.bias f4 [16]
0	0x3d9184b0	0.07105386
1	0x3d358f92	0.044326372
2	0x3ca93e21	0.020659508
3	0x3df080a5	0.11743287
4	0x3d93dd16	0.07219903
5	0x3d78bef9	0.060729
6	0x3d45955a	0.048238136
7	0x3cbe4ad2	0.023229036
8	0x3d7da0c6	0.061920904
9	0x3ddf5199	0.109042354
10	0x3dcfeb55	0.10152308
11	0xb9af602b	-0.00033450252
12	0x3dd09080	0.10183811
13	0x3d7033f0	0.05864328
14	0x3dfdb3bb	0.123877965
15	0x3c6d03be	0.014466224

step.full.weight f4 [1, 32]
0	0x3d0bde3c	0.034147486
1	0xbe20908f	-0.15680145
2	0x3e1c9eb5	0.15294917
3	0xbdd8e6fc	-0.10590932
4	0xbe100c41	-0.14067174
5	0x3d32b438	0.0436289
6	0x3e290271	0.16504838
7	0xbdab6b3f	-0.08370065
8	0x3e1757cd	0.14779587
9	0xbd690ea4	-0.056898728
10	0xbdc76eca	-0.09737928
11	0xbda1afbb	-0.07894846
12	0x3d23a234	0.03994961
13	0x3de00206	0.10937886
14	0xbe21698a	-0.15762916
15	0xbc621120	-0.013798028
16	0x3d84f3aa	0.06491788
17	0xbaf5c000	-0.0018749237
18	0x3df12202	0.117740646
19	0xbd2c311c	-0.04203902
20	0xbe133886	-0.1437703
21	0x3e130add	0.14359613
22	0x3cf08258	0.029359028
23	0x3dae7c02	0.08519746
24	0x3dd79dca	0.10528143
25	0xbe202f5d	-0.15643068
26	0xbe307e6f	-0.1723573
27	0xbcf11658	-0.0294296
28	0xbe0211e4	-0.12702137
29	0xbd0c6c44	-0.034282938
30	0xbe02ecd0	-0.1278565
31	0xbdebd12a	-0.11514504

lstm.lstm.weight_ih_l0 f4 [64, 16]
0	0x3e350186	0.17676362
1	0xbc8f0be4	-0.017461725
2	0x3e87e04e	0.26538318
3	0xbd8c6e28	-0.06856948
4	0x3e41264a	0.18862262
5	0x3e3f2648	0.18666947
6	0x3ea99d68	0.33127904
7	0xbd0f7183	-0.035020363
8	0x3e5b2323	0.21400122
9	0x3dee4f6f	0.116362445
10	0xbc8e098d	-0.017338539
11	0x3e58d48e	0.21174833
12	0x3e02216b	0.1270806
13	0x3e54199d	0.20712896
14	0x3eb73be4	0.3578788
15	0x3e82bb30	0.25533438
16	0x3e5a3b33	0.21311645
17	0xbd92aa59	-0.071613975
18	0x3d52868e	0.051397853
19	0xbd069b17	-0.03286275
20	0xbd9d4cef	-0.076806895
21	0x3eac73da	0.33682138
22	0xbd648a80	-0.055796146
23	0x3e1bcf98	0.1521591
24	0x3eb2f3d8	0.34951663
25	0x3d351236	0.04420682
26	0xbdf5708e	-0.11984359
27	0x3e87b753	0.26507053
28	0x3d5c0a21	0.053720597
29	0x3dfb8ae3	0.1228235
30	0x3bd70afe	0.0065625897
31	0x3da28ec7	0.07937389
32	0x3ec29cf2	0.38010365
33	0x3e83977c	0.2570151
34	0x3d5245bc	0.051336035
35	0x3e33e157	0.17566429
36	0xbda0fbeb	-0.078605495
37	0xbd5225ae	-0.051305465
38	0x3e3ca5de	0.18422648
39	0xbdc9e736	-0.09858553
40	0x3da50a6d	0.08058629
41	0x3e9bf4bd	0.30460158
42	0x3e8b9dc2	0.27268797
43	0x3dedd7fb	0.11613461
44	0x3ea19d91	0.31565526
45	0xbca741b1	-0.020417066
46	0x3d2c9805	0.042137165
47	0x3e3f4acc	0.18680876
48	0x3e9e6888	0.30939126
49	0x3ea062bd	0.3132533
50	0xbdcedd0e	-0.101007566
51	0x3da51e06	0.08062367
52	0x3e234085	0.15942581
53	0xbd00a9e4	-0.03141202
54	0x3d2278e1	0.03966606
55	0xbdb8ddc7	-0.09026676
56	0x3de23e59	0.11047048
57	0x3ea4db63	0.3219863
58	0x3e443569	0.19161
59	0x3eabdac4	0.33565342
60	0x3e9ed59d	0.3102235
61	0x3ebf905f	0.37414834
62	0x3de3e381	0.11127377
63	0xbbb922a0	-0.0056498796
64	0xbbd7687f	-0.006573736
65	0x3e7460c3	0.23865037
66	0x3bdd1c30	0.006747745
67	0x3eb37f61	0.3505812
68	0x3d02c6f9	0.031928036
69	0x3d68efa0	0.05686915
70	0xbd890a8e	-0.06691466
71	0x3eb93dee	0.3618006
72	0x3e48ed91	0.19621874
73	0xbd950922	-0.072771326
74	0x3d7ac42a	0.061222233
75	0x3e85c444	0.261263
76	0xbda5794b	-0.080797754
77	0x3e5f6121	0.21814395
78	0x3d943025	0.07235745
79	0x3e34fead	0.17675276
80	0x3e8c32ff	0.27382657
81	0x3e431eb6	0.19054684
82	0x3eb7c9c5	0.35896125
83	0x3ec1d58a	0.3785823
84	0x3ec9e925	0.39435688
85	0xbc7e6ad2	-0.015528398
86	0x3e975154	0.29554236
87	0x3e909cbd	0.28244582
88	0xbdc3a5db	-0.09553119
89	0x3eb30beb	0.3497003
90	0x3d58fb94	0.0529743
91	0x3ebe5119	0.37171248
92	0x3e96486d	0.2935213
93	0x3da47dd1	0.0803181
94	0x3ea6fa88	0.32613015
95	0x3eb7d475	0.3590428
96	0x3e5237f1	0.20529152
97	0x3e20e78d	0.1571333
98	0x3e716ca8	0.23576605
99	0x3ec2d676	0.38054246
100	0x3ea50de6	0.32237166
101	0x3dc7da42	0.09758426
102	0x3e100bed	0.1406705
103	0x3d5cee8c	0.053938434
104	0x3d365e26	0.04452338
105	0x3e88b200	0.26698303
106	0x3e65e699	0.22451247
107	0x3e3ad8a7	0.18246709
108	0x3da1df30	0.07903898
109	0x3e78cf62	0.2429786
110	0x3de42b13	0.11141028
111	0x3d4a1910	0.049340308
112	0xbdb7bb78	-0.08971304
113	0x3d7d4811	0.061836306
114	0x3d093e01	0.033506397
115	0x3e6dabb1	0.23210026
116	0x3ced31af	0.028954355
117	0xbdbc776b	-0.09202465
118	0x3e82569b	0.254567
119	0x3e0da3bf	0.13831995
120	0x3eb9c3b8	0.36282134
121	0x3b45ae36	0.0030163652
122	0x3dc14e62	0.094387785
123	0x3e2d1ccd	0.16905518
124	0x3dcec734	0.10096589
125	0x3eac282d	0.33624402
126	0x3eabac6d	0.33529988
127	0x3e7a241f	0.24427842
128	0xbe1e3e4a	-0.15453449
129	0xbe363fb7	-0.17797743
130	0x3e007181	0.12543298
131	0x3e27a47d	0.16371341
132	0x3df3c4a0	0.119027376
133	0xbe03499d	-0.1282105
134	0xbd1952e6	-0.037432574
135	0x3ea15027	0.31506464
136	0xbe7b92d0	-0.24567723
137	0xbe42088d	-0.18948574
138	0x3c864185	0.016388664
139	0x3ea2a407	0.31765768
140	0x3ae0a664	0.0017139432
141	0xbd435e74	-0.0476975
142	0xbe17fa14	-0.14841491
143	0x3e73b5d3	0.23799829
144	0x3ebdb486	0.3705179
145	0xbd8a84bf	-0.067636006
146	0x3db07a5d	0.08617089
147	0x3e234ce1	0.15947296
148	0xbdbd5b5a	-0.092459396
149	0x3e13966b	0.14412849
150	0x3ea15264	0.31508172
151	0x3e461b01	0.19346239
152	0x3ec21ce6	0.37912673
153	0x3e24d337	0.16096197
154	0x3e601e91	0.2188666
155	0x3dc2313e	0.094820485
156	0x3e6bb0b5	0.23016627
157	0xbbbd3bde	-0.005774959
158	0x3eab6c57	0.33481094
159	0xbda392d2	-0.07986988
160	0xbcbd15e5	-0.02308173
161	0x3e406bf7	0.18791185
162	0x3c9507eb	0.018192252
163	0x3c97d89f	0.01853591
164	0x3e8d3a80	0.27583694
165	0xbd8c0490	-0.06836808
166	0xbbdac2d6	-0.0066760583
167	0x3e8b21f0	0.2717433
168	0x3e084fc9	0.13311686
169	0xbb96e5a0	-0.00460501
170	0xbda4d1c7	-0.08047824
171	0x3d95441c	0.072883815
172	0x3e9dea90	0.3084302
173	0x3d42c287	0.047548797
174	0x3ec0c6dd	0.3765172
175	0xbdc4eeb2	-0.0961584
176	0x3eb36255	0.3503596
177	0x3e5a1d1c	0.21300167
178	0xbc781fb2	-0.0151442755
179	0x3e70778e	0.23483106
180	0x3e255329	0.16145004
181	0x3e2f797d	0.17136188
182	0x3e4615b7	0.19344221
183	0x3ea7d5bf	0.32780263
184	0x3d5d1ee2	0.05398453
185	0x3db3e18c	0.08783254
186	0x3e2c73ad	0.16841002
187	0xbc6e1b0d	-0.014532817
188	0xbdcce357	-0.10004299
189	0x3dead204	0.114658386
190	0x3e0f8a98	0.14017713
191	0x3e9be0e6	0.3044502
192	0x3e4af72d	0.19820853
193	0x3db3c95d	0.087786414
194	0x3e3e9b29	0.18613876
195	0x3ec01b20	0.37520695
196	0x3e86ac57	0.2630336
197	0xbc856591	-0.016283782
198	0x3bebc9f3	0.007195705
199	0x3da6b46c	0.081398815
200	0x3ea77e3b	0.32713494
201	0x3e13c25e	0.14429614
202	0x3da65379	0.0812139
203	0x3e4f4494	0.20241004
204	0x3e4d678b	0.2005903
205	0xbbb338ed	-0.0054694326
206	0x3e1f08b7	0.15530668
207	0x3e34c790	0.17654252
208	0x3d07bb78	0.03313777
209	0xbdb80097	-0.089844875
210	0x3e843b6f	0.25826594
211	0xbdbca9a3	-0.09212043
212	0x3e8335eb	0.25627074
213	0x3ea2cad2	0.31795365
214	0x3ec59cab	0.3859609
215	0x3ea415f1	0.3204799
216	0x3e07edbf	0.13274287
217	0x3e76d0ff	0.24103163
218	0x3e134624	0.14382225
219	0x3d015b27	0.03158107
220	0xbd0aa3b9	-0.033847544
221	0x3ea15959	0.3151348
222	0x3e412d24	0.18864876
223	0x3ec02d5d	0.3753461
224	0x3ea4cdd5	0.32188287
225	0x3defe8ee	0.1171435
226	0x3dfa6fd6	0.12228362
227	0xbd72b2da	-0.059252597
228	0x3d7be884	0.06150104
229	0x3e87cdbe	0.26524156
230	0x3e504a9c	0.20340961
231	0xba347989	-0.0006884565
232	0x3cc9d0ba	0.024635661
233	0x3df92492	0.12165178
234	0x3c71b30b	0.01475216
235	0x3e552b87	0.20817386
236	0x3e9c4a6a	0.30525523
237	0x3c981227	0.018563343
238	0x3eba49a7	0.36384317
239	0x3dd54b29	0.10414726
240	0x3e8a21be	0.26978868
241	0xbdc3b131	-0.09555281
242	0x3c2c6efb	0.010524507
243	0x3e3a35a0	0.18184519
244	0x3e3dfd0b	0.1855356
245	0xbd9c8d24	-0.07644108
246	0xbe3d5975	-0.18491156
247	0x3c823286	0.015893232
248	0x3c9ea973	0.019367909
249	0x3e609ba7	0.21934377
250	0x3e6e3d13	0.23265485
251	0xbdd9a3fe	-0.10626982
252	0x3ea7a635	0.32743993
253	0x3eab3978	0.33442283
254	0x3d224647	0.039617803
255	0x3d8bdca2	0.06829192

lstm.lstm.weight_hh_l0 f4 [64, 16]
0	0xbe39ab9f	-0.18131875
1	0x3e227a88	0.15867054
2	0x3d2ba4d6	0.041905247
3	0xbdaf76ce	-0.08567582
4	0xbda76391	-0.08173288
5	0xbe774b5a	-0.24149838
6	0xbe8e008a	-0.27734786
7	0x3dbdef22	0.092741266
8	0xbe0d5723	-0.13802771
9	0xbe8f8ea2	-0.28038508
10	0xbe5f5150	-0.21808362
11	0x3e7faefe	0.24969098
12	0x3eb0b42f	0.3451247
13	0x3ce271ee	0.027642217
14	0x3e362845	0.17788799
15	0x3ea3142c	0.31851327
16	0xbd75fe56	-0.060057007
17	0x3e8a6472	0.2702976
18	0xbc9f4fd6	-0.019447248
19	0xbee19c5b	-0.44064602
20	0xbe4bbe2c	-0.19896764
21	0x3db0178a	0.0859824
22	0xbd9321e2	-0.07184197
23	0xbca95230	-0.020669073
24	0xbe9ca89c	-0.3059739
25	0xbd4c770b	-0.049918216
26	0x3c503183	0.012707117
27	0x3e2b753e	0.16743943
28	0x3d8eb5ea	0.06968291
29	0x3e6a8d3f	0.22905444
30	0x3e16400a	0.14672866
31	0xba8a29cf	-0.0010541024
32	0xbe0d7853	-0.13815431
33	0x3ea6e284	0.32594693
34	0x3dd33d61	0.103144415
35	0xbd567827	-0.05236068
36	0x3d57a75d	0.052649844
37	0xbe186a79	-0.14884366
38	0xbccbe8a1	-0.0248912
39	0x3eab7ba0	0.33492756
40	0xbec2ef75	-0.38073316
41	0xbdd0baa6	-0.1019185
42	0xbcfd2c0e	-0.030904796
43	0x3dad9e05	0.084774055
44	0x3e64b1d5	0.22333463
45	0x3e5f908a	0.21832481
46	0xbe079cf0	-0.1324346
47	0x3e15f8b5	0.14645655
48	0xbd6b2386	-0.057406925
49	0x3e13403c	0.14379972
50	0x3e2c95a8	0.16853964
51	0xbd962cb5	-0.07332746
52	0x3cd7b78f	0.026332645
53	0xbb2fa691	-0.0026802162
54	0xbe25e5fc	-0.16201013
55	0x3e853114	0.26014006
56	0x3d9caf9d	0.07650683
57	0xbeb2baed	-0.34908238
58	0xbed25130	-0.41077566
59	0x3ecff46a	0.4061616
60	0x39a601a1	0.000316632
61	0x3e271085	0.16314895
62	0xbe1ed180	-0.15509605
63	0x3b3fed2d	0.0029285655
64	0xbdcd4ebe	-0.100247845
65	0xbdf12375	-0.11774341
66	0xbe2d417d	-0.16919513
67	0xbe81a3cd	-0.25320283
68	0xbcf045a3	-0.02933008
69	0xbe92975a	-0.28631097
70	0xbc9b1720	-0.018931925
71	0x3e370f1b	0.17876856
72	0xbe84d0c3	-0.25940523
73	0xbe965793	-0.2936369
74	0xbd985af1	-0.07439221
75	0xbd36959a	-0.044576265
76	0x3dd843e8	0.10559827
77	0x3daa5200	0.083164215
78	0x3e8cbd64	0.27488244
79	0xbdc8c8b0	-0.09803903
80	0x3d733d8d	0.05938487
81	0x3d8c1274	0.06839457
82	0x3b8db547	0.0043245885
83	0xbe9582dc	-0.292014
84	0xbd793e3d	-0.06085037
85	0xbdfca2a7	-0.12335711
86	0xbe0bc296	-0.13648447
87	0x3ec15de9	0.3776696
88	0xbe8a728a	-0.2704051
89	0x3c899499	0.01679449
90	0x3dc5466d	0.09632573
91	0x3d557f0b	0.05212311
92	0x3c1f0dd2	0.009707885
93	0x3cc1c732	0.023654554
94	0x3db5e1b6	0.088809416
95	0x3e362a8a	0.17789665
96	0xbe80bf73	-0.25146064
97	0x3e9f6f9c	0.3113984
98	0xbeaaacd4	-0.33334982
99	0xbed8709c	-0.42273414
100	0xbd2d3df4	-0.04229541
101	0x3e3ee7d7	0.18643127
102	0xbe5a374a	-0.21310154
103	0x3e7e5bee	0.24839756
104	0xbda99d48	-0.08281952
105	0x3def2ac9	0.116780825
106	0xbdc2756a	-0.09495051
107	0x3e5c34fb	0.21504585
108	0x3d884237	0.066532545
109	0x3eea44b6	0.45755547
110	0x3aa352b6	0.0012460563
111	0x3e266231	0.16248395
112	0xbd3795f5	-0.044820745
113	0x3d5b401d	0.05352794
114	0xbe85f5c0	-0.26164055
115	0xbecfc30a	-0.4057849
116	0x3ebafed6	0.3652255
117	0xbd609028	-0.054824978
118	0xbc8de00e	-0.017318752
119	0xbdcbeadb	-0.099569045
120	0xbe90d412	-0.28286797
121	0x3e88ba0f	0.2670445
122	0x3e3dece6	0.18547401
123	0x3eb3945e	0.35074133
124	0x3e23f0f0	0.16009879
125	0x3e993d37	0.29929516
126	0xbbbb3e3c	-0.005714206
127	0x3eb57ec8	0.3544829
128	0x3e8636ac	0.26213586
129	0xbdd9b912	-0.106310025
130	0xbe9951b9	-0.29945162
131	0x3d032bb7	0.03202411
132	0xbe95bb48	-0.29244447
133	0xbd92e84f	-0.071732156
134	0xbe9617fe	-0.2931518
135	0xbda52be6	-0.080650136
136	0x3daec14a	0.08532961
137	0xbe09830b	-0.13428895
138	0xbe9f11b0	-0.31068182
139	0xbda035b0	-0.0782274
140	0xbe2d32c8	-0.16913903
141	0x3e9302ca	0.28713065
142	0x3e6bc0f4	0.23022825
143	0x3c0ddfb6	0.008659294
144	0x3db23ffb	0.087036096
145	0x3ddb195a	0.10698195
146	0xbe7bad9d	-0.24577947
147	0xbda97929	-0.082750626
148	0x3d8954d3	0.06705632
149	0xbec0682a	-0.3757947
150	0xbe6c0c86	-0.23051652
151	0x3cb444d3	0.022005474
152	0xbea8ae64	-0.3294555
153	0xbca2a599	-0.019854354
154	0x3d56734b	0.052356046
155	0x3deb0fbe	0.11477612
156	0xbc7add42	-0.015311541
157	0xbe56c68f	-0.20974182
158	0xbad01d5e	-0.0015877893
159	0x3e793de8	0.24340022
160	0xb8612efa	-5.368793e-05
161	0x3e805623	0.25065717
162	0xbde05596	-0.10953824
163	0xbe97ad56	-0.29624432
164	0xbec7da2c	-0.3903364
165	0xbe0583eb	-0.13038604
166	0x3d871d4f	0.06597387
167	0xbb915d28	-0.004436154
168	0xbe168b77	-0.14701639
169	0x3daa1d0b	0.08306321
170	0x3cc1bbff	0.023649214
171	0x3eb1a8ab	0.34698996
172	0x3e81b383	0.2533227
173	0xbe211733	-0.15731506
174	0x3da8a31a	0.08234234
175	0x3ddc2a68	0.10750276
176	0xbe5c52a3	-0.21515898
177	0xbd66f8f4	-0.056389764
178	0xbcf15829	-0.029460983
179	0x3c3c51a2	0.011494072
180	0xbe98af4f	-0.2982125
181	0xbe180dd0	-0.14849019
182	0x3d1456a0	0.036215425
183	0x3e8b1935	0.2716767
184	0xbe3b0622	-0.18264058
185	0xbe4f8676	-0.20266137
186	0x3d83dcc5	0.06438593
187	0x3e333bbd	0.17503257
188	0xbe13e673	-0.14443378
189	0x3e79066b	0.24318855
190	0xbe01a4e8	-0.12660563
191	0x3d3c8520	0.046025395
192	0x3e1da4f8	0.15394962
193	0x3e17529c	0.14777607
194	0xbe696a2a	-0.22794405
195	0x3e4b19a9	0.19834007
196	0xbdc28681	-0.09498311
197	0xbdbbe8af	-0.0917524
198	0x3e122f03	0.14275746
199	0x3e69e837	0.22842489
200	0x3be4672e	0.006970308
201	0xbdd8481f	-0.10560631
202	0xbe8a4b8f	-0.27010772
203	0x3e619232	0.22028425
204	0x3e8ce0a8	0.2751515
205	0xbdf80a26	-0.12111311
206	0xbdcb26de	-0.09919523
207	0xba784515	-0.0009470743
208	0xbc80f249	-0.01574053
209	0x3e18a4ba	0.14906588
210	0xbe17d44e	-0.14827082
211	0xbeb45dc5	-0.3522779
212	0xbe1f0e37	-0.15532766
213	0xbe967fbc	-0.2939433
214	0xbd0df73f	-0.03465962
215	0xbd8c8fd9	-0.06863374
216	0xbe825cfa	-0.2546156
217	0x3dee584a	0.116379336
218	0x3d5f781b	0.0545579
219	0x3ea443e0	0.32083035
220	0x3dfa6047	0.12225395
221	0x3d8724fc	0.06598851
222	0x3e47afd8	0.19500673
223	0x3e5610dc	0.20904869
224	0xbd9487c2	-0.07252456
225	0x3e8858c5	0.26630226
226	0x3df3f6f3	0.11912336
227	0xbe6d1450	-0.2315228
228	0xbe832d9c	-0.25620735
229	0x3e0e4122	0.13892034
230	0xbe9042e7	-0.28176042
231	0xbc7f3c70	-0.015578374
232	0xbed541da	-0.41651803
233	0x3da0518b	0.07828053
234	0xbe8b90c8	-0.27258897
235	0x3e8ac90c	0.27106512
236	0xbbca61b6	-0.006176199
237	0xbd9fcf35	-0.078031935
238	0x3e865ec4	0.26244175
239	0x3e552ab9	0.20817079
240	0x3d8f56e8	0.06998998
241	0xbdee1e9b	-0.11626931
242	0xbda60c18	-0.081077754
243	0x3d3933c9	0.0452154
244	0xbe774b2b	-0.24149768
245	0x3e8dc499	0.27689055
246	0x3ca96ab8	0.02068077
247	0x3e3a4fe5	0.1819454
248	0xbe4242d7	-0.1897081
249	0xbe9d0a9c	-0.30672157
250	0x3dd4bd08	0.10387617
251	0x3d5c19bc	0.05373548
252	0x3da55ea7	0.08074694
253	0xbd74f9e2	-0.05980862
254	0xbdabf62b	-0.08396562
255	0x3ce64b71	0.028112145

lstm.lstm.bias_ih_l0 f4 [64]
0	0x3e732728	0.23745406
1	0xbd8283b4	-0.06372777
2	0x3e9fc4d6	0.3120486
3	0x3e021545	0.12703426
4	0x3e359575	0.17732795
5	0x3e94ed20	0.29087162
6	0xbce2d524	-0.027689524
7	0x3eb60e74	0.35557902
8	0x3e4f7ba3	0.20262007
9	0x3cd7d67c	0.026347391
10	0xbc047df2	-0.008086668
11	0xbd5da1dd	-0.054109443
12	0x3e123bde	0.1428065
13	0xbd3f29b6	-0.046670638
14	0x3e8ef1f6	0.27918977
15	0xbd240e33	-0.040052604
16	0xbd98b00a	-0.07455452
17	0x3e9f258f	0.31083342
18	0x3eb5bf80	0.35497665
19	0x3e0d6590	0.13808274
20	0xbca10277	-0.019654496
21	0x3dc9d9ea	0.09856017
22	0x3e61a0db	0.22034018
23	0x3e80efeb	0.25183043
24	0x3e6c2bec	0.2306363
25	0xbca515de	-0.020152029
26	0x3ea27982	0.31733328
27	0xbd9763eb	-0.07392105
28	0x3ebb84fc	0.36624897
29	0x3e3cf9a6	0.18454608
30	0x3d06fa29	0.032953415
31	0xbe127821	-0.14303638
32	0x3e24e58d	0.16103192
33	0x3d184561	0.03717554
34	0xbdb5ced7	-0.08877342
35	0x3bd719b0	0.0065643415
36	0x3e0a6c50	0.1351788
37	0xbe332e88	-0.17498219
38	0xbcb8883f	-0.022525905
39	0xbc696cc8	-0.014247127
40	0xbe8a7cd7	-0.2704837
41	0xbdcd7e72	-0.10033883
42	0xbc110c63	-0.008853051
43	0x3d4064cd	0.04697113
44	0x3dbba0bf	0.09161519
45	0xbdd82ed6	-0.10555808
46	0xbe8adc6b	-0.2712129
47	0x3e842b93	0.25814494
48	0x3df653b2	0.12027682
49	0x3e9a351b	0.3011864
50	0x3ebc8d5b	0.36826596
51	0x3e9918ca	0.29901725
52	0xbc251c17	-0.010077498
53	0x3e9e9829	0.30975464
54	0x3e52543d	0.20539947
55	0x3e780bf4	0.2422331
56	0x3e8dd80a	0.27703887
57	0x3e17f576	0.1483973
58	0x3e22eedc	0.1591143
59	0x3ec34b92	0.38143593
60	0x3e8ccbd0	0.27499247
61	0x3c9ac722	0.018893782
62	0x3cd08c51	0.025457533
63	0x3e41d81d	0.18930097

lstm.lstm.bias_hh_l0 f4 [64]
0	0x3e04b12e	0.12958214
1	0x3e76736b	0.24067466
2	0x3e6c6454	0.23085147
3	0xbd46bfba	-0.04852269
4	0x3e3fc808	0.1872865
5	0x3d3ece0c	0.04658322
6	0x3d99e6b1	0.07514704
7	0xbd21c171	-0.03949112
8	0x3ca71a69	0.020398336
9	0x3e893696	0.26799458
10	0x3e84fbab	0.25973257
11	0x3e6a4d37	0.22881018
12	0x3e1771c4	0.14789492
13	0xbd96c441	-0.07361651
14	0x3e0f2e63	0.13982539
15	0x3e4303af	0.19044374
16	0xbde037be	-0.10948132
17	0x3e274ead	0.16338606
18	0x3eaf609f	0.34253404
19	0x3dd11a0c	0.10210046
20	0x3ec81213	0.3907629
21	0x3e0bd068	0.1365372
22	0x3d876a30	0.066120505
23	0xbc893b7f	-0.016752003
24	0xbc945410	-0.01810649
25	0xbd49cafd	-0.04926585
26	0x3e120593	0.14259939
27	0x3e94ebf2	0.29086262
28	0x3ea1b225	0.31581226
29	0x3dca1364	0.0986698
30	0x3da80e39	0.08205838
31	0x3de196d4	0.11015096
32	0xbd8ca890	-0.06868088
33	0xbe08c581	-0.13356592
34	0x3e828789	0.2549403
35	0x3e298bac	0.16557187
36	0x3dd6b9b6	0.1048464
37	0x3d1fb573	0.038991403
38	0xbe4f3573	-0.20235233
39	0xbe22c945	-0.1589709
40	0xbe342f8a	-0.1759626
41	0xbac0a0fa	-0.0014696412
42	0xbc8168c4	-0.015797026
43	0x3e5ccd2e	0.21562645
44	0x3d886dc1	0.06661559
45	0x3d76e9ba	0.060281493
46	0x3e2eede8	0.17082942
47	0x3d8c293a	0.06843801
48	0xbd1741c5	-0.036927957
49	0x3eb12199	0.34595945
50	0x3e88be22	0.2670756
51	0x3ebf9f6e	0.37426323
52	0x3e4e80e3	0.20166354
53	0xbb5742ab	-0.0032846134
54	0x3eb5e858	0.35528827
55	0x3e1db79b	0.15402071
56	0x3e7b0826	0.24514827
57	0x3cc16cb1	0.023611398
58	0x3dae4df9	0.08510966
59	0xbd8257cf	-0.063644044
60	0x3e3a6798	0.1820358
61	0x3e28fdac	0.16503018
62	0x3e969411	0.2940984
63	0x3d81d963	0.06340291

downstream.full.weight f4 [7, 16]
0	0xbec403d8	-0.38284183
1	0xbe36b235	-0.17841418
2	0xbe444b52	-0.19169357
3	0xbda2bce1	-0.07946182
4	0x3d2f9b83	0.042872917
5	0xbed8f1ec	-0.42372072
6	0x3f1b17e3	0.60583323
7	0x3e7701b2	0.2412174
8	0xbb931230	-0.004488252
9	0xbeb12812	-0.34600884
10	0xbe8f1fc5	-0.27953926
11	0x3f192c59	0.59833294
12	0xbe9c17ca	-0.304869
13	0x3f0d5c73	0.5521919
14	0x3ee2de79	0.44310358
15	0xbe964b21	-0.29354194
16	0x3ec1eeea	0.3787759
17	0x3e17045e	0.1474776
18	0x3eb9c1df	0.36280724
19	0x3f314341	0.69243246
20	0x3dfc7e3e	0.12328766
21	0x3f34c6db	0.7061593
22	0x3e7145ee	0.23561832
23	0xbe4af11d	-0.1981854
24	0x3da32965	0.0796688
25	0xbe4d0f86	-0.20025453
26	0x3f318259	0.6933952
27	0x3f166d5d	0.58760625
28	0x3f033f47	0.5126843
29	0xbeeffa1e	-0.46870512
30	0xbef5b195	-0.47987047
31	0xbd5fbf56	-0.05462583
32	0x3f202f40	0.625721
33	0x3ef0e037	0.47046062
34	0x3e70bf09	0.23510374
35	0x3f366aa9	0.712565
36	0xbecc7f03	-0.39940652
37	0xbeba0f25	-0.3633968
38	0x3e97087c	0.2949866
39	0xbe9d09b8	-0.30671477
40	0xbe133d7e	-0.14378926
41	0xbee34d8a	-0.44395095
42	0xbefa1b7c	-0.48849094
43	0xbdc84f95	-0.09780804
44	0x3eb3a892	0.35089546
45	0xbf117140	-0.5681343
46	0xbec32e0f	-0.38121077
47	0x3e915be8	0.2839043
48	0x3e515f7a	0.20446578
49	0x3ef70bcc	0.48251188
50	0xbf1585b1	-0.5840712
51	0xbe182f25	-0.14861734
52	0xbd0734ac	-0.033009216
53	0x3cbb4654	0.022860684
54	0xbf053414	-0.5203259
55	0xbef205b0	-0.47269964
56	0xbe61d530	-0.22053981
57	0xbf275095	-0.65357333
58	0xbea9e1fe	-0.3318023
59	0x3d795d3e	0.06087994
60	0x3ebd8877	0.37018177
61	0x3efba2a7	0.4914753
62	0x3f2e72ae	0.6814374
63	0x3dba4c61	0.09096599
64	0xbf136c97	-0.5758757
65	0x3ea5010e	0.32227367
66	0x3f13c2ee	0.57719314
67	0xbec08c61	-0.376071
68	0x3da2a965	0.07942466
69	0x3e18605d	0.1488051
70	0xbed1eb9a	-0.41000062
71	0x3f098746	0.53722036
72	0x3e518c26	0.20463619
73	0x3eba1507	0.36344168
74	0x3f17e908	0.5933995
75	0xbf0ccb31	-0.54997545
76	0x3d654a13	0.055978846
77	0xbe594573	-0.21217899
78	0xbebb9fa6	-0.3664524
79	0x3f076f53	0.5290424
80	0xbf0f9276	-0.56082857
81	0xbec74518	-0.38919902
82	0xbe7a5613	-0.24446897
83	0xbda0da2d	-0.07854114
84	0x3f2606b5	0.64853984
85	0x3edbf5ae	0.42960876
86	0x3e88b482	0.26700217
87	0x3f1c10cc	0.6096313
88	0x3e3c8137	0.18408667
89	0x3e55186a	0.20810094
90	0xbe2254c6	-0.15852651
91	0xbf00d1bd	-0.50320035
92	0xbe9a793b	-0.30170617
93	0x3eddafc9	0.43298176
94	0xbee8b330	-0.4544921
95	0x3e4a109b	0.19732897
96	0xbe20893a	-0.15677348
97	0xbefce30d	-0.49391976
98	0xbef7a64a	-0.48369056
99	0xbe5e16cb	-0.21688382
100	0x3ef26046	0.47339076
101	0xbf05832e	-0.5215329
102	0xbf06317a	-0.52419245
103	0xbef96be5	-0.4871513
104	0xbef8068a	-0.4844249
105	0x3f02c768	0.5108552
106	0xbe86eafe	-0.2635116
107	0xbf2a05e3	-0.6641523
108	0xbde23911	-0.11046041
109	0x3e61317b	0.21991532
110	0xbecadfc5	-0.39623848
111	0xbef9a8ad	-0.48761502

downstream.full.bias f4 [7]
0	0x3e3141af	0.17310213
1	0xbd81dc3a	-0.06340833
2	0xbe8ee1e0	-0.27906704
3	0x3d96f828	0.07371551
4	0x3e2ef5f5	0.17086013
5	0x3d1f7b24	0.038935795
6	0xbe80bbb6	-0.25143212

maxpooling.full.weight f4 [16, 16]
0	0xbe7bd47c	-0.24592775
1	0xbea6a11c	-0.32544792
2	0xbeb873be	-0.36025804
3	0xbe8c1a50	-0.27363825
4	0x3ea69d2b	0.32541785
5	0xbe545c4c	-0.20738333
6	0x3e8b5df9	0.27220133
7	0x3eac3833	0.33636627
8	0xbecffb08	-0.4062121
9	0x3e68a50e	0.22719213
10	0xbe05de36	-0.13073048
11	0x3e6704fe	0.22560498
12	0x3ecb0273	0.39650306
13	0xbdd30b50	-0.10304892
14	0xbea9775c	-0.33098876
15	0xbe310192	-0.17285755
16	0xbe0ba1e4	-0.13635975
17	0x3e3a4286	0.18189439
18	0xbe4c40d7	-0.1994661
19	0xbde66780	-0.1125021
20	0x3e35555a	0.1770834
21	0xbed44092	-0.41455513
22	0xbecd3a1a	-0.4008339
23	0x3ec2dfdd	0.3806142
24	0xbe0842ca	-0.13306728
25	0x3e83cfb5	0.25744405
26	0x3d488458	0.048954338
27	0xbeb0a639	-0.34501818
28	0x3e6b9386	0.23005494
29	0x3bee2ac0	0.00726828
30	0xbec7942d	-0.38980237
31	0xbdba31e8	-0.0909155
32	0x3eb8ea0b	0.3611606
33	0xbed0cb58	-0.4078014
34	0xbe636f4e	-0.22210428
35	0x3e80a4af	0.25125644
36	0xbe43c3af	-0.19117616
37	0xbcfb75a0	-0.030695736
38	0xbd039c20	-0.032131314
39	0x3e6c351a	0.23067132
40	0x3e4068aa	0.18789926
41	0x3eaf3d8d	0.34226647
42	0x3e85ce35	0.26133886
43	0x3e8ad269	0.27113655
44	0xbecec43b	-0.40384087
45	0xbe744141	-0.23853017
46	0x3e38486a	0.17996374
47	0x3eb0047d	0.34378424
48	0xbdfeb228	-0.12436324
49	0x3e4bb182	0.19891933
50	0xbeb6c4a2	-0.35696894
51	0x3ea47d7b	0.32126984
52	0x3d32a128	0.04361072
53	0x3e85fc8d	0.26169243
54	0xbead80a1	-0.338872
55	0x3dadb5c4	0.08481935
56	0x3d423618	0.04741487
57	0xbe4dead4	-0.20109111
58	0x3eb83d4f	0.35984275
59	0x3ea64c69	0.3248017
60	0x3e8de04b	0.27710184
61	0xbd9ae044	-0.075623065
62	0xbeb9a82d	-0.3626112
63	0x3ec48be1	0.3838797
64	0xbe75d336	-0.24006352
65	0xbec19ac0	-0.37813377
66	0x3ec23ef7	0.37938663
67	0xbeb4a89b	-0.35284886
68	0xbedc6cf0	-0.43051863
69	0x3ab7c400	0.0014020205
70	0xbe0f3396	-0.13984522
71	0x3eb1f7f3	0.34759483
72	0xbebd8ce1	-0.37021545
73	0x3e261c4a	0.16221729
74	0x3ec49549	0.38395146
75	0x3b899bc0	0.004199475
76	0x3e29c58e	0.16579267
77	0x3ea7c1ab	0.32764944
78	0x3e900331	0.28127435
79	0x3e46e2de	0.1942248
80	0xbec1eae5	-0.37874523
81	0x3e7de18e	0.24793074
82	0xbd94c748	-0.072645724
83	0xbe4d43a2	-0.20045331
84	0xbebf5f5e	-0.37377447
85	0xbe09cb14	-0.13456374
86	0x3cd09530	0.025461763
87	0xbd0e9980	-0.034814358
88	0xbe9ca81c	-0.30597007
89	0xbe764221	-0.24048664
90	0xbdaf1610	-0.0854913
91	0x3ebd8a11	0.370194
92	0xbd640f78	-0.055678815
93	0xbdf8a9bc	-0.12141749
94	0xbe276a00	-0.1634903
95	0x3eb485c9	0.3525832
96	0x3e6e325a	0.23261395
97	0xb8eb2000	-0.00011211634
98	0xbe83e584	-0.25761044
99	0x3be0ecc0	0.0068641603
100	0x3e5a6346	0.21326932
101	0x3ec87535	0.39151922
102	0x3ec59c67	0.38595888
103	0x3df4aa3c	0.11946532
104	0x3e8cd3f5	0.2750546
105	0x3eab59d5	0.33466974
106	0x3e816413	0.25271663
107	0x3eb30c5d	0.3497037
108	0x3e5a1aa6	0.21299228
109	0x3e80b62f	0.25138995
110	0x3e206832	0.15664747
111	0xbec57444	-0.38565266
112	0x3de6e11c	0.11273405
113	0x3e9df13d	0.30848113
114	0x3e7a40e6	0.2443882
115	0xbd7febe8	-0.062480837
116	0x3e81a02b	0.2531751
117	0x3e462982	0.19351771
118	0x3e3c28fe	0.18375012
119	0x3e6fc9ca	0.2341682
120	0xbe8f6350	-0.28005457
121	0x3eaef809	0.3417361
122	0xbdaefd40	-0.08544397
123	0x3e2fea4a	0.17179218
124	0x3e06264a	0.13100544
125	0x3e970afd	0.2950057
126	0xbe7ba373	-0.2457407
127	0x3e5b7042	0.21429542
128	0xbebca765	-0.36846462
129	0xbc2aa720	-0.010415822
130	0xbd47d388	-0.048785716
131	0x3e0064a6	0.12538394
132	0xbeb9e688	-0.36308694
133	0xbe74c92a	-0.23904863
134	0x3e8be075	0.27319685
135	0x3c3c2ee0	0.011485785
136	0xbeb675f6	-0.35636872
137	0xbed12628	-0.40849423
138	0x3e286906	0.16446313
139	0x3ed3074b	0.41216502
140	0x3dc54ddc	0.09633991
141	0x3e42dff2	0.19030741
142	0x3ececa31	0.40388635
143	0xbe8149f6	-0.2525174
144	0x3eb4f52d	0.35343304
145	0xbe5d8e43	-0.216363
146	0x3ed97735	0.4247376
147	0x3cb8dd90	0.022566587
148	0x3eb8f02f	0.36120746
149	0x3dc92f54	0.0982348
150	0x3e0b640e	0.13612387
151	0xbda8ea60	-0.082478285
152	0x3ec79d25	0.3898708
153	0x3e287496	0.16450724
154	0xbbf31a00	-0.007418871
155	0x3ea95f19	0.33080366
156	0x3c134a20	0.008989841
157	0xbe9a5608	-0.30143762
158	0xbc25bd20	-0.010115892
159	0xbe292d9e	-0.16521308
160	0x3d7534c8	0.05986479
161	0x3d041dd0	0.032254994
162	0xbe504531	-0.20338894
163	0xbe8519f4	-0.25996363
164	0xbed6cb92	-0.41952187
165	0x3e5911fe	0.2119827
166	0xbe564666	-0.20925292
167	0xbd6f7598	-0.058461756
168	0x3e4b6d1e	0.19865844
169	0x3e9aa389	0.30202892
170	0xbe4d7f8d	-0.20068188
171	0xbd06f688	-0.032949954
172	0xbd1b5548	-0.037923127
173	0xbdc99520	-0.098428965
174	0xbecb4f08	-0.39708734
175	0xbed2360f	-0.41056868
176	0x3db89e24	0.09014538
177	0x3bd4dac0	0.0064958036
178	0x3eafa12b	0.3430265
179	0x3dfd347c	0.12363526
180	0xbea6fde2	-0.32615572
181	0xbe8b98e2	-0.27265078
182	0xbe96156c	-0.2931322
183	0xbe21d816	-0.15805086
184	0xbead64b1	-0.33865884
185	0x3e5ee302	0.21766284
186	0xbbb3d280	-0.00548774
187	0xbe7178f2	-0.23581293
188	0xbdc79480	-0.09745121
189	0xbe8bb14d	-0.27283707
190	0x3e6e5abe	0.23276803
191	0xbe4b06e1	-0.19826843
192	0x3dfb3314	0.12265602
193	0x3e6afdf2	0.22948435
194	0x3e2a90fa	0.16656867
195	0xbe1535c2	-0.14571288
196	0x3eca30e9	0.3949044
197	0x3e30a15a	0.1724905
198	0x3c492960	0.012277931
199	0x3d141488	0.036152393
200	0x3e99b6fb	0.30022416
201	0x3e8d7fdd	0.27636614
202	0x3e2df556	0.1698812
203	0xbed9211f	-0.42408082
204	0x3e04a522	0.12953618
205	0x3e75a58a	0.2398893
206	0x3e9fc8ad	0.3120779
207	0xbd4aa0c0	-0.04946971
208	0x3d99d5f4	0.075115114
209	0x3e587972	0.21140078
210	0xbbd35f00	-0.006450534
211	0x3e818575	0.25297132
212	0x3dd70d3c	0.10500571
213	0x3ed33853	0.4125391
214	0x3eba6cff	0.36411282
215	0x3e923011	0.28552297
216	0x3e10e95e	0.14151523
217	0x3d99f74c	0.07517871
218	0x3ecf0315	0.4043204
219	0x3ebf72cd	0.37392274
220	0x3ed5bc33	0.41745147
221	0xbe72a8b4	-0.23697168
222	0xbd8ea0b8	-0.069642484
223	0xbec43c68	-0.38327336
224	0x3e37dc16	0.1795505
225	0xbc61b340	-0.013775647
226	0x3bd2a140	0.006427914
227	0xbe7017d3	-0.23446588
228	0x3ed580a9	0.41699722
229	0x3e05269e	0.13003013
230	0xbd067408	-0.0328255
231	0xbdecc4cc	-0.115609735
232	0xbe21a7b4	-0.1578663
233	0xbe51a819	-0.2047428
234	0x3e96d4c1	0.29459193
235	0x3ec7278f	0.38897368
236	0x3df1324c	0.117771715
237	0x3e60a0ae	0.21936294
238	0x3d09e470	0.03366512
239	0xbebe7e4d	-0.37205735
240	0x3e5ae2b2	0.2137554
241	0x3eaf413b	0.34229454
242	0x3e0f28ca	0.13980404
243	0xbea030ef	-0.31287333
244	0x3d5a0440	0.05322671
245	0xbdb3672c	-0.08759913
246	0xbe7be138	-0.24597633
247	0xbe9913d6	-0.29897946
248	0x3ed7644d	0.4206871
249	0xbdd02438	-0.10163158
250	0xbea89b4b	-0.3293098
251	0xbdacc660	-0.084362745
252	0x3d407230	0.046983898
253	0xbd3f5230	-0.04670924
254	0x3ea93adb	0.33052716
255	0x3e906d63	0.28208455

maxpooling.full.bias f4 [16]
0	0x3e2b5936	0.1673325
1	0xbd4c5898	-0.049889177
2	0xbe520d6c	-0.20512933
3	0xbe307f90	-0.17236161
4	0xbbe7ec00	-0.007077694
5	0x3d8227f4	0.06355277
6	0x3df18450	0.11792815
7	0x3e1932e8	0.14960825
8	0xbe58e866	-0.21182403
9	0xbe7b68cc	-0.24551696
10	0x3de639a4	0.11241463
11	0x3e21a2d4	0.1578477
12	0xbdf78a84	-0.12086967
13	0xbd9e19f8	-0.07719797
14	0x3d818018	0.0632326
15	0x3cbb7810	0.022884399

mean.full.weight f4 [16, 16]
0	0x3ed45889	0.41473797
1	0xbcf20660	-0.029544055
2	0xbe5bd2fb	-0.21467201
3	0x3e4d1306	0.20026788
4	0xbd920aac	-0.07130942
5	0x3e79ec8e	0.24406645
6	0xbe0ad554	-0.1355794
7	0x3e71ec2a	0.23625246
8	0x3e953aaf	0.29146335
9	0xbea3b88d	-0.3197674
10	0x3e973aff	0.29537198
11	0x3e88431d	0.26613703
12	0xbe6f8829	-0.23391785
13	0x3e3355ca	0.17513195
14	0xbd97c448	-0.074104846
15	0x3e960245	0.29298607
16	0xbe5f6808	-0.21817029
17	0xbe93658d	-0.28788415
18	0x3df79fac	0.12091002
19	0x3e4f56ae	0.2024791
20	0xbd85e46c	-0.06537709
21	0x3e734546	0.23756894
22	0xbbd0eac0	-0.0063756406
23	0xbe4ae076	-0.19812188
24	0xbdba1908	-0.090868056
25	0x3ceff190	0.02928999
26	0xbdc9b060	-0.09848094
27	0x3da9dcdc	0.08294079
28	0x3ebfb32f	0.37441394
29	0x3e769d5a	0.24083462
30	0x3e0c1afa	0.13682166
31	0xbeb8e6e9	-0.3611367
32	0xbdedb47c	-0.1160669
33	0x3e9eceef	0.31017253
34	0x3e303e6a	0.17211309
35	0x3edbce97	0.42931053
36	0xbe8b92a8	-0.27260327
37	0x3ec246f7	0.37944767
38	0xbdd97a88	-0.10619074
39	0x3e4c428a	0.19947258
40	0xbd33b878	-0.043877095
41	0x3e42c6c2	0.19021133
42	0x3e72461a	0.23659554
43	0x3e02e98e	0.12784407
44	0x3e861dab	0.2619451
45	0x3eaf4bf3	0.34237632
46	0x3ea093d7	0.31362793
47	0x3e7c3102	0.2462807
48	0xbc952550	-0.018206269
49	0xbe68c013	-0.2272952
50	0x3eb551e9	0.35414055
51	0xbe0fb8ca	-0.14035335
52	0xbe876e39	-0.2645128
53	0x3eb70e91	0.357533
54	0x3e9e124b	0.3087333
55	0xbe5a22b9	-0.21302308
56	0xbe8f5ddc	-0.28001297
57	0xbe882942	-0.26593977
58	0xbe859dc0	-0.26096916
59	0xbdd45a94	-0.10368839
60	0x3ed1ef17	0.41002724
61	0x3e939a2d	0.28828564
62	0xbe93a498	-0.28836513
63	0x3d5d16d0	0.053976834
64	0xbe5e3edd	-0.21703668
65	0x3ed12ed1	0.4085603
66	0x3eb418a5	0.35175052
67	0xbed5c3e3	-0.41751012
68	0xbd539b58	-0.05166182
69	0x3e23529e	0.15949485
70	0x3e39c672	0.18142107
71	0x3ead657d	0.33866492
72	0x3df15c54	0.11785188
73	0xbe2c2ff0	-0.16815162
74	0xbead3f34	-0.33837283
75	0xbec38c9c	-0.38193214
76	0x3ecc4fbf	0.3990459
77	0x3ecdc5d1	0.40189984
78	0x3e9325f7	0.28739902
79	0xbe178004	-0.14794928
80	0xbea698e0	-0.3253851
81	0xbe6b4c16	-0.22978243
82	0x3d0b9168	0.034074217
83	0x3d05e618	0.032690138
84	0x3d17ec28	0.03709045
85	0x3ed3bc51	0.41354612
86	0x3e403e72	0.18773821
87	0x3ddb4854	0.10707155
88	0xbe4f5207	-0.20246135
89	0xbe920182	-0.28516775
90	0xbe9aae82	-0.30211264
91	0xbdacccf4	-0.08437529
92	0x3cc2d0c0	0.02378118
93	0x3e0bc8f6	0.1365088
94	0x3eaa6895	0.33282915
95	0x3eceed05	0.40415207
96	0xbdd90734	-0.10597077
97	0xbe85aa33	-0.26106414
98	0x3e9284e1	0.28617004
99	0xbed4139d	-0.41421214
100	0xbed993bb	-0.42495522
101	0xbddbe5c4	-0.10737184
102	0x3e831f2b	0.25609717
103	0xbeae7304	-0.34072125
104	0xbebb37e8	-0.3656609
105	0x3d443d10	0.047909796
106	0xbec037ac	-0.37542474
107	0xbed403b5	-0.41409078
108	0xbe6c3408	-0.23066723
109	0x3ec6a605	0.38798538
110	0x3e49ae72	0.19695452
111	0xbd58b918	-0.052910894
112	0xbd4e9018	-0.050430387
113	0xbe810d6c	-0.25205553
114	0x3dd989f4	0.106220156
115	0xbc2644c0	-0.010148227
116	0x3e64dfca	0.22350994
117	0xbdb99240	-0.09061098
118	0xbe3760e2	-0.17908052
119	0x3de88b5c	0.11354706
120	0x3eb92e5b	0.3616818
121	0x3e42aa3a	0.19010249
122	0xbe4e16b0	-0.20125842
123	0xbdbaab2c	-0.0911468
124	0x3c12aa20	0.008951694
125	0xbda85a14	-0.08220306
126	0x3de7ebc4	0.113242656
127	0x3e8de62b	0.27714667
128	0x3dfad67c	0.12247941
129	0x3e953369	0.29140785
130	0x3e57b3fe	0.21064755
131	0x3eba6445	0.36404625
132	0x3ecaf1b5	0.39637533
133	0xbe70f6a3	-0.23531584
134	0xbe8f883c	-0.28033626
135	0x3ec2327b	0.3792914
136	0xbe355788	-0.17709172
137	0xbdfaafd0	-0.12240565
138	0x3bfd7280	0.0077345967
139	0xbe79967d	-0.24373813
140	0xbeae1e57	-0.34007522
141	0xbca39800	-0.01996994
142	0x3dee1b14	0.116262585
143	0xbc893bf0	-0.016752213
144	0x3ed40747	0.41411802
145	0x3d60dd30	0.05489844
146	0x3e2cb866	0.16867217
147	0xbe0506f6	-0.12990937
148	0x3e995e23	0.29954633
149	0x3bad5f40	0.0052908957
150	0xbe009f38	-0.12560737
151	0xbd759d58	-0.059964508
152	0x3dfd9b6c	0.1238316
153	0xbeabe669	-0.33574226
154	0x3ec82ac3	0.39095125
155	0xbb4ce580	-0.0031264722
156	0xbe4f00ad	-0.20215102
157	0x3c0ee1e0	0.008720845
158	0x3eb560e5	0.35425487
159	0xbdf7e1d8	-0.12103623
160	0xbe26618c	-0.16248149
161	0x3e7303a6	0.2373186
162	0x3eaf35df	0.34220788
163	0x3deff094	0.117158085
164	0xbe051964	-0.12997967
165	0xbedc963e	-0.43083376
166	0x3e9f3057	0.31091568
167	0x3db89d94	0.09014431
168	0xbe9dfe9b	-0.3085831
169	0xbe4a66f6	-0.19765839
170	0x3eba4db3	0.36387405
171	0xbe0cdd14	-0.1375621
172	0xbc901e70	-0.017592639
173	0x3e23b3ca	0.15986553
174	0x3dc0d08c	0.09414777
175	0x3ecb753f	0.3973789
176	0xbe70c036	-0.23510823
177	0xbe88620b	-0.266373
178	0xbe1282f4	-0.14307767
179	0x3d87c834	0.066299826
180	0xbe88b90e	-0.26703686
181	0x3e976f43	0.29577073
182	0xbdb87318	-0.090063274
183	0xbddf33d8	-0.1089856
184	0xbeb50144	-0.35352528
185	0x3d9772c4	0.07394937
186	0xbc23a640	-0.009988368
187	0xbd454d28	-0.048169285
188	0xbe6e0759	-0.2324499
189	0x3e906ef1	0.28209642
190	0xbe00c2c8	-0.12574303
191	0xbe8d93d0	-0.27651834
192	0xbe017c34	-0.12645036
193	0x3d3eaad0	0.04654962
194	0xbed2f2fd	-0.4120101
195	0x3d07d960	0.03316629
196	0x3eb9d861	0.36297897
197	0x3bac3e80	0.005256474
198	0xbd54a868	-0.051918417
199	0xbe727b3d	-0.23679824
200	0x3de92fc4	0.11386064
201	0x3ed762d3	0.42067584
202	0x3dbaf164	0.09128073
203	0x3e909009	0.2823489
204	0x3e160676	0.14650902
205	0xbe69a4bc	-0.22816747
206	0x3d25f2f8	0.040514916
207	0xbce52ea0	-0.027976334
208	0x3cac54a0	0.021036446
209	0xbbcfc440	-0.0063405335
210	0xbe60b65c	-0.21944565
211	0x3eb4e2b5	0.35329214
212	0x3ea46a2f	0.32112262
213	0x3ea1d33d	0.31606475
214	0xbeb0cecc	-0.34532773
215	0x3ebb1723	0.3654109
216	0xbe12070e	-0.14260504
217	0xbcf3b900	-0.0297513
218	0xbe04f9fc	-0.12985986
219	0xbdddb610	-0.10825741
220	0xbe541a58	-0.20713174
221	0x3e3c2b3e	0.1837587
222	0x3e0676f2	0.13131312
223	0x3ec83087	0.39099523
224	0xbe483d70	-0.19554687
225	0x3daeddac	0.08538374
226	0xbd342328	-0.04397884
227	0xbe1f4b6a	-0.15556112
228	0x3e0777c2	0.13229278
229	0xbcb747c0	-0.02237308
230	0xbed6292e	-0.41828293
231	0xbe8e907c	-0.27844608
232	0xbe0799a0	-0.13242197
233	0x3de7e3c4	0.1132274
234	0xbd90194c	-0.07036075
235	0xbccdc760	-0.025119483
236	0xbe9f599b	-0.3112305
237	0xbe9baba2	-0.30404383
238	0x3e1d0dca	0.15337291
239	0x3ebfbd73	0.37449226
240	0x3e47fc6a	0.19529882
241	0xbd730788	-0.059333354
242	0xbd813968	-0.063097775
243	0x3ea6c091	0.32568792
244	0xbec2d4d1	-0.3805299
245	0xbe3bad27	-0.18327771
246	0xbea2d54b	-0.31803355
247	0xbd3c5cb8	-0.04598686
248	0xbe1dac72	-0.15397814
249	0x3b1f3b00	0.0024296641
250	0xbd8cefa4	-0.06881645
251	0x3e0165d2	0.12636498
252	0xbdad6800	-0.08467102
253	0x3e3b180e	0.18270895
254	0x3e518956	0.20462546
255	0xbea67863	-0.32513723

mean.full.bias f4 [16]
0	0x3da5eca4	0.08101776
1	0x3e754b38	0.23954475
2	0x3ce8c940	0.028416276
3	0x3e680e0c	0.22661608
4	0xbdc67d78	-0.096919
5	0xbd691580	-0.05690527
6	0xbe330232	-0.17481306
7	0x3cbf3ab0	0.023343414
8	0xbe4f3200	-0.20233917
9	0x3e51dd82	0.20494655
10	0x3dc674a8	0.09690219
11	0xbe774daa	-0.2415072
12	0x3e2b4094	0.16723853
13	0xbd461228	-0.04835716
14	0x3e4d07b4	0.2002247
15	0x3de368b0	0.11103952
