best_model/acc/Adaptivecora-b-h_dropout=0_wd=0_b=256_lr=0.001_walk=2_best_model.pt (torch_old, 289431 bytes, 15 tensors)

embedding.full.weight f4 [16, 1433]
-0.013353784 0.016321115 0.037453406 -0.052747544 -0.043564573 0.050531946 -0.02336001 -0.035602033
-0.039929368 -0.018930797 -0.04113913 0.010092065 0.051289514 -0.0091594085 0.0045351535 -0.054693274
-0.022288404 -0.018172305 0.00037504733 -0.057420973 -0.008414496 -0.0076728724 -0.036268365 0.02567371
0.034820504 0.061442874 0.041188993 0.028993115 -0.03983187 -0.0036215 0.04888981 -0.01789226
-0.04369887 -0.041024312 0.0056770667 0.048050873 -0.025240846 0.0554521 0.047449872 -0.044036597
0.059185296 0.010729261 0.027716465 0.057728164 -0.03990246 -0.04052516 -0.054155968 -0.05402328
-0.054649964 0.059451863 -0.003436137 -0.05279137 -0.045573585 0.060517944 -0.029503278 -0.058318723
-0.053613022 -0.041863114 -0.041863747 0.021509372 0.012374386 -0.0012282506 0.039240584 0.03773231
0.063337006 0.037261784 0.027802698 -0.04433825 -0.044081315 0.011137277 -0.017607573 -0.033325076
-0.014788222 -0.011192821 0.04036998 0.01660955 0.050556287 0.0642607 0.05284246 0.038729236
0.038434774 0.0015197471 -0.042069867 -0.008065555 -0.010724761 -0.024161614 0.026647411 -0.059759628
-0.061429862 0.03847573 0.040399477 -0.06415614 0.017308868 -0.044346265 -0.045688327 -0.037683886
-0.04711376 -0.00055200607 0.0504419 0.001728408 -0.021244276 0.002153039 -0.013057072 0.002915442
-0.05868898 0.021135569 0.0522035 0.042431638 0.0019253567 -0.051993813 0.008997656 -0.05364181
0.05361682 0.019065857 -0.05580427 0.037662737 0.028683446 -0.006345596 0.026713245 -0.051636882
-0.05012975 0.0050599873 -0.015799675 -0.050356477 0.021451421 -0.024867032 -0.025686368 0.022742473
0.05587703 0.04425528 0.01994408 -0.026627906 -0.049271893 0.015260115 0.033211343 -0.048867594
-0.021328311 -0.02422652 -0.05612196 0.03624782 0.055177286 0.011978857 -0.047085706 0.051066563
-0.021064054 0.0492836 0.06054364 0.060681514 -0.06332059 -0.0015755221 -0.01903861 -0.063361466
-0.0020832047 0.04349915 -0.0416243 -0.031321418 -0.06226541 0.037412606 0.04904145 -0.005022291
-0.02808924 -0.062053323 0.024842732 0.02372256 0.007394783 0.007736407 0.01696226 0.00087115914
0.059291013 0.05009918 0.03184165 0.011076853 0.017982729 -0.009461645 0.034979455 0.05961489
-0.0021794438 0.025560997 0.00603503 -0.010337982 -0.031828925 0.018363923 0.013636984 -0.026496295
0.05601535 0.046065018 0.0328388 -0.03882941 0.0481017 -0.015909791 0.053806834 0.06071899
0.060099877 -0.038356677 0.011280917 0.060493134 -0.002964791 -0.056602385 -0.05409598 0.029450744
0.0023207068 -0.013169959 0.05570802 -0.026867274 -0.042861305 0.023382679 0.011968277 0.029722229
0.03820262 -0.06367938 0.015833296 -0.0060308278 0.045051917 0.012607902 -0.038855463 -0.05969335
-0.0015869141 -0.015834063 0.058053926 0.032297656 0.028445289 0.0032161549 0.057888195 0.005710587
0.039336905 0.00426618 0.02806171 -0.028276801 -0.0060574003 -0.0146185495 0.0193742 0.022808142
0.034693047 0.010695815 -0.030965041 0.003073141 -0.00528536 0.06078873 0.01818505 -0.03573075
-0.051367614 -0.027273584 -0.036023207 0.052974313 0.03392835 0.0053469464 -0.054582626 -0.04960444
-0.03926216 -0.04690347 -0.037984144 0.0047322884 -0.038939442 0.0051600933 0.044511773 0.014803663
00000000: d4c9 5abc dcb3 853c be68 193d cf0d 58bd
00000010: c470 32bd 96fa 4e3d 7e5d bfbc 70d3 11bd
00000020: fa8c 23bd c214 9bbc 8181 28bd 3059 253c
00000030: f414 523d 5811 16bc a09b 943b 0e06 60bd
00000040: 2c96 b6bc 16de 94bc 00a2 c439 4132 6bbd
00000050: f4dc 09bc b86c fbbb 238e 14bd ac51 d23c
00000060: f29f 0e3d 86ab 7b3d cab5 283d f882 ed3c
00000070: be26 23bd b056 6dbb ae40 483d ca92 92bc
00000080: 96fd 32bd 1c09 28bd b006 ba3b fed0 443d
00000090: e4c5 cebc be21 633d cc5a 423d b85f 34bd
000000a0: 486c 723d c8c9 2f3c a40d e33c 5e74 6c3d
000000b0: c370 23bd b6fd 25bd a6d2 5dbd 8447 5dbd
000000c0: a4d8 5fbd cc83 733d d030 61bb c33b 58bd
000000d0: 5eab 3abd aae1 773d dcb0 f1bc 9ddf 6ebd
000000e0: 5499 5bbd a878 2bbd 5279 2bbd 6c34 b03c
000000f0: f0bd 4a3c 40fd a0ba bcba 203d 328d 1a3d
00000100: d5b6 813d d09f 183d 7cc2 e33c 069c 35bd
00000110: 9c8e 34bd 2079 363c c23d 90bc e07f 08bd
00000120: 4c4a 72bc 1862 37bc fe5a 253d c010 883c
00000130: 1c14 4f3d 1d9b 833d 5671 583d 8ca2 1e3d
00000140: c86d 1d3d 4032 c73a 7451 2cbd 6425 04bc
00000150: e8b6 2fbc 94ee c5bc ac4b da3c 83c6 74bd
00000160: e19d 7bbd ba98 1d3d ec79 253d 4b64 83bd
00000170: 54cb 8d3c 6ea4 35bd af23 3bbd 6b5a 1abd
00000180: 5cfa 40bd 80b4 10ba 2a9c 4e3d c08b e23a
00000190: 7a08 aebc 001a 0d3b 54ed 55bc 0011 3f3b
000001a0: db63 70bd 8024 ad3c 56d3 553d cccc 2d3d
000001b0: 405c fc3a 77f7 54bd e86a 133c 84b7 5bbd
000001c0: 509d 5b3d 0030 9c3c 0593 64bd 3e44 1a3d
000001d0: 8cf9 ea3c b8ee cfbb bcd5 da3c 3281 53bd
000001e0: da54 4dbd 40ce a53b 526e 81bc 9842 4ebd
000001f0: e4ba af3c f2b5 cbbc 386c d2bc 6c4e ba3c
00000200: 50df 643d 0645 353d c461 a33c c422 dabc
00000210: 53d1 49bd 9005 7a3c 9e08 083d 6329 48bd
00000220: b6b8 aebc b276 c6bc 24e0 65bd 9878 143d
00000230: 9401 623d f842 443c f1dc 40bd 2c2b 513d
00000240: 868e acbc 9add 493d 9cfc 773d 2e8d 783d
00000250: 3aae 81bd c081 ceba dcf6 9bbc a8c3 81bd
00000260: 6086 08bb 2a2c 323d 3e7e 2abd e34a 00bd
00000270: 040a 7fbd f63d 193d b0df 483d 0892 a4bb
00000280: 681b e6bc a02b 7ebd fc82 cb3c d055 c23c
00000290: f04f f23b b081 fd3b 70f4 8a3c 805e 643a
000002a0: 22db 723d cc34 4d3d 646c 023d b07b 353c
000002b0: 8450 933c 0405 1bbc 9e46 0f3d be2e 743d
000002c0: 00d5 0ebb 4c65 d13c 80c1 c53b a460 29bc
000002d0: 0c5f 02bd f06f 963c a86d 5f3c c20e d9bc
000002e0: 5a70 653d acae 3c3d fa81 063d 960b 1fbd
000002f0: 4a06 453d 4055 82bc 8e64 5c3d 7ab4 783d
00000300: 4a2b 763d e41b 1dbd 98d3 383c a6c7 773d
00000310: f04c 42bb e7d7 67bd bf93 5dbd b042 f13c
00000320: 0017 183b d0c6 57bc 182e 643d c218 dcbc
00000330: 568f 2fbd 088d bf3c 9816 443c 087c f33c
00000340: 5a7a 1c3d 566a 82bd d4b4 813c 409e c5bb
00000350: 5c88 383d 6091 4e3c e826 1fbd 0481 74bd
00000360: 0000 d0ba 70b6 81bc f4c9 6d3d 8c4a 043d
00000370: 1806 e93c 20c6 523b 2c1c 6d3d e01f bb3b
00000380: bc1f 213d 50cb 8b3b ace1 e53c c0a4 e7bc
00000390: 287d c6bb a482 6fbc a4b6 9e3c 24d8 ba3c
000003a0: 4c1a 0e3d 803d 2f3c 66aa fdbc c066 493b
000003b0: d030 adbb 9afd 783d d0f8 943c 685a 12bd
000003c0: d966 52bd da6c dfbc 128d 13bd 98fb 583d
000003d0: 74f8 0a3d 7035 af3b 0892 5fbd 062e 4bbd
000003e0: 5cd1 20bd da1d 40bd 4395 1bbd 5011 9b3b
000003f0: f77e 1fbd 0016 a93b fa51 363d 108b 723c

embedding.full.bias f4 [16]
-0.010736663 -0.017270911 0.022867851 0.007002257 -0.019142244 0.0033112671 -0.013605176 -0.010655668
-0.026213335 -0.007634675 0.0010525528 0.013795052 0.00026386976 0.0037778225 -0.016663821 0.019937072
00000000: d4e8 2fbc ba7b 8dbc 5c55 bb3c 3073 e53b
00000010: 32d0 9cbc d801 593b 3ee8 5ebc 1c95 2ebc
00000020: 59bd d6bc 4c2c fabb d0f5 893a a404 623c
00000030: 0058 8a39 5895 773b 9182 88bc 1253 a33c

aggregator.full.weight f4 [16, 2866]
0.036036402 -0.009616732 -0.005096928 0.012575195 -0.1349577 0.013220232 0.11420151 -0.05168289
0.04673099 -0.018756136 0.013386613 0.03886569 -0.08256575 0.08488789 -0.13548057 0.048426006
-0.046840962 0.103874385 -0.025546014 0.10436633 0.109073795 -0.10831536 -0.004693443 -0.0022980394
0.07919854 -0.08506991 -0.106729195 -0.055418782 -0.08294435 -0.11189436 -0.038602784 -0.04576941
0.13489296 -0.022468891 -0.04467216 -0.05226243 0.08974123 0.018053658 -0.051241226 0.07810556
-0.1016872 -0.09317746 0.07911955 -0.051673062 0.014515467 -0.09924427 0.079415694 -0.07250116
0.12995346 -0.05476671 -0.03959551 -0.09238549 0.024544558 0.0801468 -0.14804335 -0.031635556
-0.077416636 0.044573855 -0.022572052 -0.08470295 -0.09633004 0.020514773 0.19154161 0.061187897
0.111184664 -0.073073246 0.099958025 -0.0024306658 0.075459525 -0.05729057 -0.044457957 -0.034745432
0.12795459 0.12333139 0.006335778 0.121212885 -0.046570495 -0.07648272 -0.15095219 -0.026749032
-0.058587726 0.02119775 -0.08985371 -0.009261626 0.07413111 0.10051895 0.0641448 -0.04488381
0.10457234 -0.012388465 0.02975908 -0.087955184 -0.09945411 -0.07822445 -0.07547508 -0.030471018
-0.022139996 -0.007600266 0.12508489 0.026852481 -0.0025644111 0.042511668 -0.060549654 0.049880825
-0.025074014 0.050436843 -0.10838183 0.081126794 -0.10605202 0.058268666 0.11896805 -0.15707356
-0.16667967 -0.045170244 0.090525456 0.03662829 0.013123773 0.091239594 0.027320048 -0.08748155
0.028866893 0.06451053 0.04570147 0.049506012 0.012366145 -0.05664243 0.043053027 -0.058829345
0.111599565 -0.08991441 0.084450945 0.043461155 0.044302434 -0.08474828 -0.012865524 0.03302753
0.050787155 0.12548125 0.058349676 -0.07420939 0.0036037054 -0.097172156 -0.005863331 0.09699047
-0.0076607284 -0.10479123 0.016773427 -0.09726101 -0.006328604 -0.073166884 0.08138685 -0.109527275
0.09598196 -0.053190455 0.057382796 -0.02467908 0.08465999 0.05931951 0.07560124 0.05835345
0.13210995 0.0560756 0.034215465 0.079274505 0.028761253 0.033166196 -0.04824479 0.05829621
-0.12173639 0.09067856 -0.09405057 0.027645966 0.0044481363 -0.053294096 0.036312263 0.024696292
0.033340994 0.06601122 -0.06894397 0.034578875 -0.042432763 -0.0028047077 0.007077622 -0.07369602
0.06689848 0.014747903 0.009999765 -0.0905201 -0.013278263 0.0875893 0.010464039 -0.0520015
0.013698547 0.08024416 -0.013905209 -0.047944643 -0.12660822 -0.096379176 -0.0053177504 0.041018866
-0.10816044 0.044151697 -0.03187884 0.14478491 0.026980575 9.1505135e-05 -0.15886362 -0.056274142
-0.0499094 -0.13128664 0.055641536 -0.17982012 -0.061674837 0.027146403 -0.035548955 0.09268549
0.07945937 0.060102798 0.08509132 0.10184099 0.042238384 0.097341284 0.0023005966 0.103608124
0.0056577004 0.06772928 -0.037623066 0.10219157 -0.004206014 -0.016354442 0.05805258 -0.01517407
-0.051600378 0.09020556 -0.15126972 -0.021842116 -0.034225125 -0.0066421386 0.08219854 -0.023848351
0.13582784 0.07787627 -0.050507188 0.07832217 0.042881113 0.03258145 0.031153863 0.11024023
-0.017894763 -0.052895106 -0.18227488 -0.08864372 0.054721106 -0.055164076 -0.089815326 -0.094388396
00000000: e89a 133d 7f8f 1dbc 2204 a7bb 3108 4e3c
00000010: 5a32 0abe ac99 583c 7be2 e93d 70b1 53bd
00000020: ff68 3f3d 78a6 99bc 8653 5b3c a131 1f3d
00000030: 3b18 a9bd b4d9 ad3d 6bbb 0abe 595a 463d
00000040: 4fdc 3fbd 18bc d43d e045 d1bc 04be d53d
00000050: 1562 df3d 72d4 ddbd 74cb 99bb b49a 16bb
00000060: d832 a23d 2239 aebd d694 dabd cefe 62bd
00000070: bade a9bd df28 e5bd f41d 1ebd b478 3bbd
00000080: 6121 0a3e ae10 b8bc 28fa 36bd 2111 56bd
00000090: 40ca b73d 44e5 933c 52e2 51bd cff5 9f3d
000000a0: 6141 d0bd d3d3 bebd 6e09 a23d 22a7 53bd
000000b0: 48d2 6d3c 9440 cbbd b2a4 a23d 7d7b 94bd
000000c0: 8512 053e 0f53 60bd e72e 22bd 9b34 bdbd
000000d0: ab11 c93c 0124 a43d ad98 17be 4994 01bd
000000e0: 9d8c 9ebd 1393 363d 06e9 b8bc be78 adbd
000000f0: af48 c5bd 990e a83c 7c23 443e 29a0 7a3d
00000100: c9b4 e33d 6da7 95bd cbb6 cc3d ce4b 1fbb
00000110: 868a 9a3d 84a9 6abd 8c19 36bd 3a51 0ebd
00000120: 8706 033e 2b95 fc3d 5c9c cf3b 763e f83d
00000130: b4c0 3ebd f9a2 9cbd 3693 1abe c920 dbbc
00000140: aff9 6fbd e7a6 ad3c 3905 b8bd 13be 17bc
00000150: 0dd2 973d e1dc cd3d 595e 833d 16d8 37bd
00000160: 062a d63d fdf8 4abc 50c9 f33c d921 b4bd
00000170: 99ae cbbd 2434 a0bd ae92 9abd 5b9e f9bc
00000180: f05e b5bc a70b f9bb 4116 003e bcf9 db3c
00000190: ae0f 28bb b720 2e3d ea02 78bd d64f 4c3d
000001a0: 0568 cdbc dd96 4e3d 4bf7 ddbd ce25 a63d
000001b0: cd31 d9bd 20ab 6e3d 85a5 f33d e4d7 20be
000001c0: 13ae 2abe 6f04 39bd 6965 b93d 8c07 163d
000001d0: 1805 573c d3db ba3d 4bce df3c 8729 b3bd
000001e0: 437a ec3c 191e 843d 7731 3b3d d1c6 4a3d
000001f0: 5f9b 4a3c e501 68bd 5f58 303d 0af7 70bd
00000200: 508e e43d 0c25 b8bd 9ef4 ac3d 5304 323d
00000210: 7876 353d 8290 adbd ebc9 52bc e047 073d
00000220: 3106 503d 287e 003e 1200 6f3d 18fb 97bd
00000230: 252c 6c3b 3202 c7bd 2f21 c0bb f1a2 c63d
00000240: d906 fbbb c99c d6bd 6d68 893c c830 c7bd
00000250: 2e60 cfbb 85d8 95bd 26ae a63d d64f e0bd
00000260: 3192 c43d 3cde 59bd 390a 6b3d c82b cabc
00000270: 3862 ad3d 04f9 723d d3d4 9a3d 0704 6f3d
00000280: d547 073e 87af 653d 8425 0c3d ac5a a23d
00000290: b89c eb3c 47d9 073d 549c 45bd 02c8 6e3d
000002a0: ee50 f9bd aeb5 b93d 969d c0bd cb79 e23c
000002b0: acc1 913b e94a 5abd 2bbc 143d e14f ca3c
000002c0: 9190 083d e430 873d 7f32 8dbd 94a2 0d3d
000002d0: facd 2dbd 30cf 37bb 66eb e73b f0ed 96bd
000002e0: 1202 893d 30a1 713c 0ed6 233c 9a62 b9bd
000002f0: 128d 59bc 0562 b33d 5c71 2b3c 86ff 54bd
00000300: df6f 603c 0d57 a43d acd2 63bc 9a61 44bd
00000310: 96a5 01be 7262 c5bd 8640 aebb 6603 283d
00000320: 3983 ddbd 69d8 343d 6393 02bd 7f42 143e
00000330: 5e06 dd3c 72e6 bf38 25ad 22be b77f 66bd
00000340: cd6d 4cbd 0170 06be 61e8 633d c422 38be
00000350: c19e 7cbd 2262 de3c c89b 11bd e4d1 bd3d
00000360: 98bb a23d 5a2e 763d 5c44 ae3d 0292 d03d
00000370: 2802 2d3d de5a c73d 9bc5 163b 7f30 d43d
00000380: 3b64 b93b a6b5 8a3d a51a 1abd d049 d13d
00000390: 9ad2 89bb c0f9 85bc 8bc8 6d3d aa9c 78bc
000003a0: eb5a 53bd b1bd b83d 73e6 1abe 3dee b2bc
000003b0: a52f 0cbd 4ca6 d9bb b557 a83d 9e5d c3bc
000003c0: 7416 0b3e 987d 9f3d a0e0 4ebd 6067 a03d
000003d0: 1ba4 2f3d 2074 053d 6336 ff3c a1c5 e13d
000003e0: 0a98 92bc 8aa8 58bd 44a6 3abe d78a b5bd
000003f0: 3d23 603d baf3 61bd 19f1 b7bd b44e c1bd

aggregator.full.bias f4 [16]
0.058979183 0.055215392 0.047875084 0.10667809 0.059995804 0.04062342 0.053712916 0.05750099
0.07439463 0.10188556 0.10152723 0.021900933 0.096451595 0.06576112 0.13402592 0.021401286
00000000: 2894 713d 8929 623d aa18 443d 0b7a da3d
00000010: 29be 753d be64 263d 1302 5c3d 2886 6b3d
00000020: 365c 983d 60a9 d03d 82ed cf3d 9669 b33c
00000030: 6a88 c53d c4ad 863d 173e 093e c051 af3c

step.full.weight f4 [1, 32]
0.034147486 -0.15680145 0.15294917 -0.10590932 -0.14067174 0.0436289 0.16504838 -0.08370065
0.14779587 -0.056898728 -0.09737928 -0.07894846 0.03994961 0.10937886 -0.15762916 -0.013798028
0.06491788 -0.0018749237 0.117740646 -0.04203902 -0.1437703 0.14359613 0.029359028 0.08519746
0.10528143 -0.15643068 -0.1723573 -0.0294296 -0.12702137 -0.034282938 -0.1278565 -0.11514504
00000000: 3cde 0b3d 8f90 20be b59e 1c3e fce6 d8bd
00000010: 410c 10be 38b4 323d 7102 293e 3f6b abbd
00000020: cd57 173e a40e 69bd ca6e c7bd bbaf a1bd
00000030: 34a2 233d 0602 e03d 8a69 21be 2011 62bc
00000040: aaf3 843d 00c0 f5ba 0222 f13d 1c31 2cbd
00000050: 8638 13be dd0a 133e 5882 f03c 027c ae3d
00000060: ca9d d73d 5d2f 20be 6f7e 30be 5816 f1bc
00000070: e411 02be 446c 0cbd d0ec 02be 2ad1 ebbd

lstm.lstm.weight_ih_l0 f4 [64, 16]
0.19082524 -0.0017354991 0.28621772 -0.053286523 0.20492315 0.2032035 0.3483142 -0.016450496
0.23023146 0.13065359 -0.0008505717 0.23067659 0.14364205 0.22526602 0.37463742 0.26961252
0.21407647 -0.07602199 0.06053417 -0.032311704 -0.07888918 0.3341399 -0.057316903 0.1558542
0.34843975 0.04579079 -0.11574131 0.26441053 0.05677484 0.12154187 0.009968507 0.080843784
0.40097502 0.2805666 0.07868328 0.20080674 -0.054907702 -0.029108198 0.20938483 -0.07297444
0.10438372 0.32973272 0.296763 0.14229749 0.33937168 0.0042529013 0.06730791 0.21002865
0.3153773 0.31929186 -0.088576674 0.08397065 0.16556431 -0.024887653 0.044175 -0.085908994
0.11827694 0.3249115 0.19753163 0.34408435 0.3192525 0.38160473 0.1142928 0.0020252415
-0.0014122217 0.23276845 0.012848983 0.3601134 0.028501306 0.058478888 -0.065288894 0.36728078
0.1963428 -0.06508232 0.07442228 0.26396364 -0.07946809 0.22458322 0.091654524 0.1723799
0.28286365 0.19582826 0.37129438 0.38557437 0.40568608 -0.0022366417 0.3086918 0.29017287
-0.08426421 0.35677496 0.06542583 0.39117938 0.30386373 0.09154489 0.3413483 0.3694854
0.21433376 0.16343674 0.24643713 0.38863763 0.338801 0.10940048 0.15862346 0.06291071
0.054155767 0.27660793 0.2328238 0.22076142 0.0853497 0.25674203 0.1276486 0.061402127
-0.07529347 0.0819756 0.056195565 0.2494922 0.04025728 -0.07894697 0.26625508 0.19423915
0.37993255 0.02006528 0.11273408 0.17737855 0.11523163 0.35791025 0.3585247 0.25432867
-0.121112175 -0.1319156 0.22285607 0.19881192 0.1380934 -0.16070175 -0.027481362 0.36796287
-0.22357292 -0.18017526 0.055856172 0.318741 0.02995844 -0.056399833 -0.113018036 0.2685104
0.38050783 -0.05236919 0.11825313 0.16915412 -0.072457716 0.16512376 0.3277339 0.20531501
0.40264586 0.17277554 0.22689952 0.11452299 0.24981906 0.006214113 0.34672198 -0.0667269
-0.010791155 0.2037394 0.037710134 0.03492333 0.29358608 -0.044730786 0.0051810364 0.28142655
0.15393797 0.012170212 -0.066950895 0.0949669 0.325712 0.06683387 0.39424726 -0.08062734
0.3358612 0.19523527 -0.035952628 0.22454399 0.14512497 0.16291542 0.17957099 0.3090364
0.04418959 0.07817144 0.14839673 -0.019249372 -0.1232482 0.101896815 0.13954996 0.2932531
0.2069158 0.087569185 0.19835533 0.37694833 0.24068676 -0.056659203 0.036640093 0.091996476
0.30306792 0.14879158 0.087885946 0.23961955 0.21538515 -0.0050812266 0.161979 0.20138927
0.052455187 -0.08085831 0.2753648 -0.076151885 0.27387425 0.33155054 0.40514573 0.34201905
0.1461618 0.25877738 0.16032536 0.053486682 -0.01703725 0.32881233 0.20928773 0.39681697
0.3265961 0.11412442 0.1487561 -0.06762351 0.07428779 0.27350992 0.19464567 0.0049772924
0.03251264 0.11674469 -0.0006328691 0.21595271 0.31722078 0.0019627311 0.36367032 0.11389194
0.26124796 -0.11345311 0.0273253 0.17995307 0.1323379 -0.09785393 -0.21112008 0.0006301469
-0.0011488232 0.21456869 0.25935388 -0.1521689 0.33031657 0.3283832 0.017626949 0.04153361
00000000: b167 433e b079 e3ba 218b 923e f842 5abd
00000010: 60d7 513e 9414 503e 3d56 b23e 31c3 86bc
00000020: ccc1 6b3e 0eca 053e e7f8 5eba 7c36 6c3e
00000030: e716 133e 23ac 663e 7ad0 bf3e a70a 8a3e
00000040: dd36 5b3e 6bb1 9bbd aef2 773d 4759 04bd
00000050: a790 a1bd 6314 ab3e 21c5 6abd 3e98 1f3e
00000060: b266 b23e 208f 3b3d c809 edbd d160 873e
00000070: bc8c 683d f2ea f83d f352 233c 6d91 a53d
00000080: 994c cd3e 6da6 8f3e b324 a13d 48a0 4d3e
00000090: e6e6 60bd 5174 eebc fa68 563e a073 95bd
000000a0: 22c7 d53d bad2 a83e 52f1 973e 6fb6 113e
000000b0: 20c2 ad3e ec5b 8b3b bbd8 893d c011 573e
000000c0: 2279 a13e 397a a33e b067 b5bd cef8 ab3d
000000d0: b189 293e 31e1 cbbc d8f0 343d 0ef1 afbd
000000e0: 2e3b f23d cd5a a63e bb45 4a3e d32b b03e
000000f0: 1075 a33e b261 c33e 5812 ea3d eab9 043b
00000100: 4c1a b9ba da5a 6e3e 8a84 523c c960 b83e
00000110: 927b e93c 8f87 6f3d 2fb6 85bd 3a0c bc3e
00000120: 160e 493e e149 85bd b56a 983d 3e26 873e
00000130: 2ac0 a2bd 25f9 653e 5eb5 bb3d 5b84 303e
00000140: 81d3 903e 3487 483e 4c1a be3e 016a c53e
00000150: 16b6 cf3e 9f94 12bb da0c 9e3e 8a91 943e
00000160: b792 acbd 35ab b63e fafd 853d aa48 c83e
00000170: 0794 9b3e e37b bb3d 34c5 ae3e 312d bd3e
00000180: 4f7a 5b3e f65b 273e 045a 7c3e 83fb c63e
00000190: 5377 ad3e 5c0d e03d 306e 223e 55d7 803d
000001a0: 70d2 5d3d 8e9f 8d3e 5d69 6e3e 480f 623e
000001b0: d3cb ae3d b173 833e 51b6 023e cc80 7b3d
000001c0: 7633 9abd d3e2 a73d 522d 663d e27a 7f3e
000001d0: d1e4 243d f3ae a1bd 9652 883e a1e6 463e
000001e0: 8586 c23e f15f a43c 20e1 e63d b9a2 353e
000001f0: 90fe eb3d 0340 b73e 8d90 b73e 5e37 823e
00000200: a909 f8bd e214 07be 6234 643e 5a95 4b3e
00000210: 5b68 0d3e 008f 24be 9820 e1bc a165 bc3e
00000220: 4df0 64be dd7f 38be 71c9 643d 0532 a33e
00000230: 676b f53c 8303 67bd 0076 e7bd 327a 893e
00000240: ecd1 c23e 1381 56bd b22e f23d bd36 2d3e
00000250: b664 94bd 3416 293e bdcc a73e 193e 523e
00000260: 9927 ce3e 12ec 303e 5958 683e 088b ea3d
00000270: 91d0 7f3e c29f cb3b 8b85 b13e 1da8 88bd
00000280: 62cd 30bc 10a1 503e f175 1a3d c40b 0f3d
00000290: ea50 963e a137 37bd afc5 a93b 2417 903e
000002a0: eaa1 1d3e 9265 473c 8d1d 89bd 027e c23d
000002b0: b9c3 a63e 32e0 883d c7da c93e f21f a5bd
000002c0: 00f6 ab3e c1eb 473e 1043 13bd dcee 653e
000002d0: a49b 143e 4dd3 263e 75e1 373e 053a 9e3e
000002e0: 2500 353d 5918 a03d 50f5 173e dcb0 9dbc
000002f0: 8d69 fcbd 47af d03d 2fe6 0e3e 4525 963e
00000300: bce1 533e 7957 b33d a91d 4b3e 5fff c03e
00000310: 9776 763e 7b13 68bd ec13 163d a668 bc3d
00000320: b82b 9b3e d25c 183e 8cfd b33d d45e 753e
00000330: ed8d 5c3e 6b80 a6bb d3dd 253e fd38 4e3e
00000340: 40db 563d 0b99 a5bd 9dfc 8c3e 85f5 9bbd
00000350: 3f39 8c3e fec0 a93e 436f cf3e 1f1d af3e
00000360: 70ab 153e 787e 843e 552c 243e da14 5b3d
00000370: b491 8bbc 175a a83e 864f 563e 982b cb3e
00000380: 9b37 a73e 10ba e93d 8553 183e 327e 8abd
00000390: 3224 983d 7e09 8c3e 3251 473e 8e18 a33b
000003a0: f92b 053d d717 ef3d 20e7 25ba b522 5d3e
000003b0: c36a a23e 2aa1 003b ff32 ba3e 2d40 e93d
000003c0: 4bc2 853e 1b5a e8bd 4fd9 df3c 9e45 383e
000003d0: 9683 073e a467 c8bd dd2f 58be 7130 253a
000003e0: 1c94 96ba e5b7 5b3e 08ca 843e 2ad2 1bbe
000003f0: 411f a93e d821 a83e 6466 903c 261f 2a3d

lstm.lstm.weight_hh_l0 f4 [64, 16]
-0.15660445 0.15887438 0.030931206 -0.052791882 -0.10577418 -0.15419528 -0.28300294 0.04990439
-0.15260714 -0.30113396 -0.24966592 0.26495475 0.36283723 0.008434106 0.22098203 0.33546734
-0.11057738 0.29195026 -0.014966699 -0.40837237 -0.19948912 0.16097286 -0.091617554 -0.097632915
-0.2986017 -0.043656915 0.006580939 0.17028843 0.08112625 0.19578925 0.14970773 0.014120801
-0.15264334 0.32019025 0.08219403 -0.05364283 0.04412437 -0.014105493 -0.048013512 0.23468567
-0.40277734 -0.12092009 -0.063282505 0.09960127 0.24484773 0.2527646 -0.08761582 0.17100546
-0.04565857 0.14449188 0.1337603 -0.07932043 0.045740373 0.072841726 -0.15839936 0.116181664
0.073272176 -0.37229937 -0.4252039 0.3977196 0.013755758 0.20754184 -0.0724991 0.01282244
-0.04009669 -0.074508876 -0.18254668 -0.14093229 -0.07412611 -0.26924083 -0.053846657 0.02716142
-0.2465509 -0.33665243 -0.06097676 0.0062860865 0.14028096 -0.011713166 0.27529395 -0.0723185
0.0568454 0.09104147 0.025392458 -0.28164417 -0.09805649 0.01974395 -0.12827685 0.36501166
-0.27242738 -0.01790959 0.063432105 0.0638249 0.023753319 0.035454165 0.17265068 0.18899341
-0.2579236 0.36011127 -0.31494465 -0.3902164 -0.02325525 0.33205903 -0.23124565 0.075259745
-0.083777934 0.050887514 -0.13962355 0.23763297 0.10909601 0.42543104 0.020455891 0.17835796
-0.040192205 0.17064635 -0.3085511 -0.37869653 0.231891 0.17257501 -0.036725473 -0.089052334
-0.27948332 0.13640936 0.014893202 0.38149646 0.18958542 0.2856249 0.008566831 0.37396237
0.30526793 -0.081831075 -0.2970997 -0.038731016 -0.29701957 -0.036580764 -0.36728144 -0.042353448
0.09468166 -0.11319697 -0.29740578 -0.1861476 -0.2115874 0.1461075 0.18582065 0.045710765
0.08007993 0.10826766 -0.2544358 -0.08683205 0.06420516 -0.30847466 -0.23974906 -0.15834442
-0.33287936 -0.037535373 0.028249506 0.12178624 -0.010681649 -0.20294575 0.02333496 0.25759298
-0.094078474 0.22167227 -0.1386372 -0.31204262 -0.3782377 -0.05369281 0.06902207 -0.056226164
-0.15099792 0.079892784 0.01838887 0.34505245 0.26404697 -0.066198386 0.15825532 0.11322099
-0.21374553 -0.0680608 0.025940472 0.05676871 -0.3318386 -0.042523794 0.11224211 0.28556877
-0.1563483 -0.25232753 0.076581106 0.17660035 -0.13746089 0.26288828 -0.06745848 0.035645023
0.16528279 0.15750559 -0.30841595 0.19504696 -0.06785374 -0.033927996 0.08935648 0.05784759
-0.012760219 -0.1117482 -0.32651463 0.22306755 0.306552 -0.12970024 -0.034005497 0.013792303
0.038445067 0.16122103 -0.18545516 -0.33355576 -0.19612996 -0.28045216 -0.04398723 -0.24132763
-0.274259 0.081633665 0.018000437 0.3433552 0.14986621 0.10066616 0.25266072 0.23339762
-0.2305455 0.1763619 0.08379037 -0.25259486 -0.18207572 0.23320997 -0.2834079 -0.16203925
-0.39515048 0.103927284 -0.2866238 0.23161356 -0.03013971 -0.04237617 0.292898 0.19446284
0.0831203 -0.058171112 -0.06564919 0.09283484 -0.16968794 0.27513626 -0.08281242 0.1573603
-0.14609352 -0.25627697 0.12822023 -0.00979345 0.12464596 -0.10129303 -0.02087951 -0.0022019127
00000000: eb5c 20be f7af 223e 7163 fd3c 4d3c 58bd
00000010: 22a0 d8bd 5ee5 1dbe c3e5 90be 8c68 4c3d
00000020: 0c45 1cbe 3b2e 9abe 6ca8 7fbe 26a8 873e
00000030: cdc5 b93e 342f 0a3c 1d49 623e 60c2 ab3e
00000040: 6576 e2bd 817a 953e e336 75bc 2f16 d1be
00000050: e046 4cbe 12d6 243e fca1 bbbd c4f3 c7bd
00000060: 52e2 98be 98d1 32bd eba4 d73b 1760 2e3e
00000070: 8525 a63d fa7c 483e fc4c 193e ef5a 673c
00000080: 894e 1cbe faef a33e 5855 a83d 96b8 5bbd
00000090: c1bb 343d ba1a 67bc d1a9 44bd 7151 703e
000000a0: d538 cebe f4a4 f7bd 429a 81bd c0fb cb3d
000000b0: 5db9 7a3e 5d6a 813e ec6f b3bd 0e1c 2f3e
000000c0: 7b04 3bbd aef5 133e 76f8 083e c072 a2bd
000000d0: 425a 3b3d 0b2e 953d 7133 22be a7f0 ed3d
000000e0: b90f 963d 069e bebe 53b4 d9be e7a1 cb3e
000000f0: d55f 613c d985 543e 687a 94bd 3615 523c
00000100: 6d3c 24bd 1c98 98bd 84ed 3abe 8e50 10be
00000110: 6ecf 97bd efd9 89be 508e 5cbd a081 de3c
00000120: d777 7cbe b55d acbe c4c2 79bd 84fb cd3b
00000130: d0a5 0f3e 94e8 3fbc 54f3 8c3e b91b 94bd
00000140: b9d6 683d f373 ba3d d803 d03c aa33 90be
00000150: d7d1 c8bd 10be a13c 025b 03be cfe2 ba3e
00000160: 9a7b 8bbe 22b7 92bc b1e8 813d a1b6 823d
00000170: 5296 c23c 6338 113d 57cb 303e 7d87 413e
00000180: 900e 84be 8160 b83e 6d40 a1be 72ca c7be
00000190: cb81 bebc a403 aa3e a9cb 6cbe c821 9a3d
000001a0: c493 abbd 6d6f 503d 7af9 0ebe 0f56 733e
000001b0: bb6d df3d 19d2 d93e 1d93 a73c 78a3 363e
000001c0: 95a0 24bd ebbd 2e3e 69fa 9dbe 83e4 c1be
000001d0: d674 6d3e 81b7 303e 736d 16bd 1261 b6bd
000001e0: 7018 8fbe e5ae 0b3e 9e02 743c 8153 c33e
000001f0: ae22 423e 6d3d 923e e55b 0c3c ff77 bf3e
00000200: 144c 9c3e 0d97 a7bd 741d 98be 6aa4 1ebd
00000210: f312 98be b6d5 15bd 500c bcbe cf7a 2dbd
00000220: 75e8 c13d d0d3 e7bd 9245 98be 7a9d 3ebe
00000230: 5eaa 58be 349d 153e c547 3e3e 363b 3b3d
00000240: f200 a43d 6fbb dd3d 6945 82be 00d5 b1bd
00000250: ff7d 833d 64f0 9dbe c780 75be 0a25 22be
00000260: 2a6f aabe b1be 19bd 826b e73c 106b f93d
00000270: 1502 2fbc 03d1 4fbe f528 bf3c 3ae3 833e
00000280: 37ac c0bd 0efe 623e e9f6 0dbe 0dc4 9fbe
00000290: 5fa8 c1be feec 5bbd 715b 8d3d 684d 66bd
000002a0: 339f 1abe d49e a33d 41a4 963c b7aa b03e
000002b0: 2a31 873e 0593 87bd af0d 223e 68e0 e73d
000002c0: 1ce0 5abe 7663 8bbd 1d81 d43c 4f86 683d
000002d0: c0e6 a9be 6e2d 2ebd 31df e53d 1236 923e
000002e0: c519 20be 1331 81be 8ed6 9c3d b9d6 343e
000002f0: 8cc2 0cbe 4b99 863e ac27 8abd 8400 123d
00000300: e43f 293e 2549 213e b2e8 9dbe 64ba 473e
00000310: e7f6 8abd 15f8 0abd 8800 b73d 98f1 6c3d
00000320: 3d10 51bc 3edc e4bd ed2c a7be d26b 643e
00000330: 62f4 9c3e 24d0 04be 5949 0bbd 1df9 613c
00000340: 9378 1d3d 2017 253e f5e7 3dbe d2c7 aabe
00000350: 4bd6 48be 6d97 8fbe f42b 34bd 971e 77be
00000360: ad6b 8cbe 8d2f a73d a775 933c 41cc af3e
00000370: 8776 193e 0f2a ce3d bf5c 813e c9ff 6e3e
00000380: 1f14 6cbe 3798 343e 499a ab3d 1d54 81be
00000390: 0f72 3abe 98ce 6e3e d71a 91be 9eed 25be
000003a0: 2a51 cabe d4d7 d43d 5bc0 92be 1b2c 6d3e
000003b0: 8ee7 f6bc a392 2dbd baf6 953e 4421 473e
000003c0: fa3a aa3d d544 6ebd 1573 86bd 3120 be3d
000003d0: adc2 2dbe a9de 8c3e 8f99 a9bd 0f23 213e
000003e0: 8a99 15be bc36 83be 2a4c 033e b574 20bc
000003f0: 6246 ff3d b872 cfbd 820b abbc f74d 10bb

lstm.lstm.bias_ih_l0 f4 [64]
0.25597137 -0.059632175 0.33732542 0.13586196 0.1852026 0.3042248 -0.013490006 0.37365374
0.23618652 0.041601215 0.010295343 -0.06459958 0.15615486 -0.026737286 0.28192902 -0.051009618
-0.058209926 0.29361212 0.3788463 0.1359169 -0.020630108 0.10139752 0.21874553 0.2495952
0.21804205 -0.014504023 0.33660674 -0.10598672 0.39141384 0.20294815 0.018405953 -0.1634726
0.13568754 0.03680962 -0.07306838 -0.0014547936 0.14551753 -0.19013286 0.0058676205 -0.05796632
-0.28701 -0.098415226 -0.0057626036 0.06440031 0.07534353 -0.09334518 -0.2629041 0.2585998
0.13063364 0.28447986 0.38196257 0.28696084 -0.00506797 0.29253948 0.20838356 0.24701037
0.26893196 0.14686544 0.15679415 0.3534728 0.27553976 0.022540735 0.01306921 0.16766556
00000000: ae0e 833e de40 74bd ebb5 ac3e 661f 0b3e
00000010: c0a5 3d3e 5ac3 9b3e 3005 5dbc 8b4f bf3e
00000020: e1da 713e 0966 2a3d ccad 283c c94c 84bd
00000030: 0fe7 1f3e 2708 dbbc 0059 903e 76ef 50bd
00000040: 886d 6ebd 5454 963e 24f8 c13e cd2d 0b3e
00000050: 7900 a9bc 81a9 cf3d d4fe 5f3e e295 7f3e
00000060: 6a46 5f3e 48a2 6dbc b857 ac3e 910f d9bd
00000070: 6567 c83e a4d1 4f3e 15c8 963c 5c65 27be
00000080: adf1 0a3e afc5 163d e0a4 95bd c6ae beba
00000090: 8c02 153e 30b2 42be 2b45 c03b 186e 6dbd
000000a0: faf2 92be ec8d c9bd 39d4 bcbb 4fe4 833d
000000b0: b54d 9a3d c22b bfbd 5e9b 86be 3167 843e
000000c0: d3c4 053e 58a7 913e 9990 c33e 88ec 923e
000000d0: 3711 a6bb bcc7 953e 8062 553e 49f0 7c3e
000000e0: 73b1 893e e563 163e a58e 203e 63fa b43e
000000f0: 8c13 8d3e 59a7 b83c 3d20 563c 85b0 2b3e

lstm.lstm.bias_hh_l0 f4 [64]
0.14809927 0.24477033 0.25612825 -0.03969501 0.1951612 0.059936356 0.08934656 -0.021416385
0.053964812 0.28324845 0.27811468 0.21831995 0.16124325 -0.05368315 0.1425645 0.17948677
-0.09313678 0.14616494 0.36640358 0.09993466 0.38978726 0.13937443 0.064525835 -0.018987319
-0.03070068 -0.0436178 0.1618729 0.2587969 0.34097707 0.117071964 0.06751094 0.089714795
-0.094025336 -0.13393196 0.2706452 0.15755261 0.11518508 0.023840742 -0.17395888 -0.20269015
-0.19248909 0.00045394196 -0.01270658 0.23305562 0.05034391 0.07249448 0.17913832 0.06889285
-0.026571188 0.329253 0.2807724 0.36220682 0.20667309 -0.020499859 0.3582723 0.15879792
0.23704138 0.022079615 0.082789525 -0.09160722 0.18258302 0.1686771 0.28171003 0.041767552
00000000: 56a7 173e 13a5 7a3e 3e23 833e 3c97 22bd
00000010: 56d8 473e d37f 753d 54fb b63d 6a71 afbc
00000020: 350a 5d3d f105 913e 0c65 8e3e 448f 5f3e
00000030: f31c 253e dde2 5bbd 6efc 113e 61cb 373e
00000040: 7fbe bebd 43ac 153e 4099 bb3e 8baa cc3d
00000050: 3292 c73e 2cb8 0e3e 1f26 843d 4b8b 9bbc
00000060: fe7f fbbc 94a8 32bd 02c2 253e 0781 843e
00000070: 8c94 ae3e 6dc3 ef3d 2d43 8a3d 64bc b73d
00000080: 5b90 c0bd 7625 09be 0292 8a3e 7955 213e
00000090: 28e6 eb3d a94d c33c 4722 32be 028e 4fbe
000000a0: dc1b 45be 0fff ed39 422f 50bc 22a6 6e3e
000000b0: 6a35 4e3d fc77 943d 0970 373e b217 8d3d
000000c0: d2ab d9bc d993 a83e 66c1 8f3e 2c73 b93e
000000d0: 1ca2 533e 52ef a7bc 786f b73e ec9b 223e
000000e0: faba 723e 4fe0 b43c 8e8d a93d 919c bbbd
000000f0: 0bf7 3a3e b1b9 2c3e 4c3c 903e 7414 2b3d

downstream.full.weight f4 [7, 16]
-0.35834548 -0.13923684 -0.18015677 -0.00042392395 -0.019220268 -0.4179378 0.6417652 0.22670932
0.041269254 -0.37364686 -0.28814584 0.5584724 -0.279267 0.561849 0.4000702 -0.29755005
0.34492645 0.07641041 0.3623755 0.63515365 0.19653097 0.6500463 0.36975667 -0.2865134
0.055951398 -0.13955982 0.63018346 0.52997315 0.46369758 -0.4574402 -0.40196094 -0.10421632
0.65946555 0.5163521 0.20142658 0.6826591 -0.45079076 -0.34016472 0.29714626 -0.24599995
-0.16499138 -0.4651979 -0.42376524 -0.030624378 0.43074897 -0.5678542 -0.17359832 0.33842033
0.16636121 0.42201343 -0.58653754 -0.10832071 -0.0028631627 0.18463248 -0.49394482 -0.48271626
-0.21536644 -0.6306919 -0.33991417 0.012212289 0.33300412 0.44359398 0.630915 0.08256248
-0.53407264 0.42827535 0.56842124 -0.362776 0.0836516 0.15996742 -0.37387434 0.539062
0.18056862 0.34732798 0.5950858 -0.56557846 0.050852973 -0.12853628 -0.3718461 0.5169505
-0.59072685 -0.35166076 -0.20652394 -0.10179278 0.6172767 0.38118023 0.22777568 0.58930576
0.18179876 0.19552417 -0.14518978 -0.44155473 -0.28128648 0.3716618 -0.41730702 0.22188643
-0.16254404 -0.46674335 -0.48414505 -0.26649946 0.43415722 -0.5016531 -0.44685334 -0.4197946
-0.48474425 0.48968703 -0.24207135 -0.6085591 -0.13391271 0.24681118 -0.46951583 -0.452679
00000000: 0f79 b7be 1a94 0ebe 047b 38be 1c42 deb9
00000010: d373 9dbc f1fb d5be b94a 243f 7d26 683e
00000020: f309 293d a44e bfbe da87 93be 0cf8 0e3f
00000030: 16fc 8ebe 56d5 0f3f 00d6 cc3e 7b58 98be
00000040: 339a b03e 107d 9c3d 4889 b93e 6e99 223f
00000050: 6a3f 493e 6f69 263f bf50 bd3e e2b1 92be
00000060: 4b2d 653d c5e8 0ebe b453 213f 52ac 073f
00000070: c569 ed3e 9a35 eabe d3cd cdbe 5e6f d5bd
00000080: bcd2 283f a72f 043f c542 4e3e bfc2 2e3f
00000090: 0cce e6be 122a aebe 8e23 983e 69e7 7bbe
000000a0: 80f3 28be 6b2e eebe c2f7 d8be fadf fabc
000000b0: 218b dc3e e55e 11bf c2c3 31be 6e45 ad3e
000000c0: 985a 2a3e 2512 d83e 5327 16bf 40d7 ddbd
000000d0: e6a3 3bbb 4c10 3d3e 56e6 fcbe 9626 f7be
000000e0: 0589 5cbe 0675 21bf 3b09 aebe 0d16 483c
000000f0: 847f aa3e c01e e33e a583 213f 8416 a93d
00000100: fcb8 08bf e846 db3e 0e84 113f c7bd b9be
00000110: 8851 ab3d 80ce 233e 756c bfbe f8ff 093f
00000120: fbe6 383e f9d4 b13e 8b57 183f c0c9 10bf
00000130: 354b 503d 049f 03be 9d62 bebe de56 043f
00000140: e039 17bf e10c b4be 037b 53be bc78 d0bd
00000150: d905 1e3f 0e2a c33e 073e 693e bedc 163f
00000160: 7429 3a3e 7d37 483e a1ac 14be 7613 e2be
00000170: c804 90be 754a be3e 44a9 d5be 3236 633e
00000180: f271 26be fcf8 eebe dce1 f7be 9e72 88be
00000190: db49 de3e 566c 00bf f6c9 e4be 51ef d6be
000001a0: 6630 f8be 42b8 fa3e 8de1 77be 87ca 1bbf
000001b0: 6a20 09be 12bc 7c3e 6164 f0be 8bc5 e7be

downstream.full.bias f4 [7]
0.16402438 -0.08154056 -0.24441029 0.07939229 0.17534968 0.024062868 -0.24888699
00000000: 02f6 273e bdfe a6bd b146 7abe 6d98 a23d
00000010: de8e 333e 7e1f c53c 3bdc 7ebe

maxpooling.full.weight f4 [16, 16]
-0.24592775 -0.32544792 -0.36025804 -0.27363825 0.32541785 -0.20738333 0.27220133 0.33636627
-0.4062121 0.22719213 -0.13073048 0.22560498 0.39650306 -0.10304892 -0.33098876 -0.17285755
-0.13635975 0.18189439 -0.1994661 -0.1125021 0.1770834 -0.41455513 -0.4008339 0.3806142
-0.13306728 0.25744405 0.048954338 -0.34501818 0.23005494 0.00726828 -0.38980237 -0.0909155
0.3611606 -0.4078014 -0.22210428 0.25125644 -0.19117616 -0.030695736 -0.032131314 0.23067132
0.18789926 0.34226647 0.26133886 0.27113655 -0.40384087 -0.23853017 0.17996374 0.34378424
-0.12436324 0.19891933 -0.35696894 0.32126984 0.04361072 0.26169243 -0.338872 0.08481935
0.04741487 -0.20109111 0.35984275 0.3248017 0.27710184 -0.075623065 -0.3626112 0.3838797
-0.24006352 -0.37813377 0.37938663 -0.35284886 -0.43051863 0.0014020205 -0.13984522 0.34759483
-0.37021545 0.16221729 0.38395146 0.004199475 0.16579267 0.32764944 0.28127435 0.1942248
-0.37874523 0.24793074 -0.072645724 -0.20045331 -0.37377447 -0.13456374 0.025461763 -0.034814358
-0.30597007 -0.24048664 -0.0854913 0.370194 -0.055678815 -0.12141749 -0.1634903 0.3525832
0.23261395 -0.00011211634 -0.25761044 0.0068641603 0.21326932 0.39151922 0.38595888 0.11946532
0.2750546 0.33466974 0.25271663 0.3497037 0.21299228 0.25138995 0.15664747 -0.38565266
0.11273405 0.30848113 0.2443882 -0.062480837 0.2531751 0.19351771 0.18375012 0.2341682
-0.28005457 0.3417361 -0.08544397 0.17179218 0.13100544 0.2950057 -0.2457407 0.21429542
-0.36846462 -0.010415822 -0.048785716 0.12538394 -0.36308694 -0.23904863 0.27319685 0.011485785
-0.35636872 -0.40849423 0.16446313 0.41216502 0.09633991 0.19030741 0.40388635 -0.2525174
0.35343304 -0.216363 0.4247376 0.022566587 0.36120746 0.0982348 0.13612387 -0.082478285
0.3898708 0.16450724 -0.007418871 0.33080366 0.008989841 -0.30143762 -0.010115892 -0.16521308
0.05986479 0.032254994 -0.20338894 -0.25996363 -0.41952187 0.2119827 -0.20925292 -0.058461756
0.19865844 0.30202892 -0.20068188 -0.032949954 -0.037923127 -0.098428965 -0.39708734 -0.41056868
0.09014538 0.0064958036 0.3430265 0.12363526 -0.32615572 -0.27265078 -0.2931322 -0.15805086
-0.33865884 0.21766284 -0.00548774 -0.23581293 -0.09745121 -0.27283707 0.23276803 -0.19826843
0.12265602 0.22948435 0.16656867 -0.14571288 0.3949044 0.1724905 0.012277931 0.036152393
0.30022416 0.27636614 0.1698812 -0.42408082 0.12953618 0.2398893 0.3120779 -0.04946971
0.075115114 0.21140078 -0.006450534 0.25297132 0.10500571 0.4125391 0.36411282 0.28552297
0.14151523 0.07517871 0.4043204 0.37392274 0.41745147 -0.23697168 -0.069642484 -0.38327336
0.1795505 -0.013775647 0.006427914 -0.23446588 0.41699722 0.13003013 -0.0328255 -0.115609735
-0.1578663 -0.2047428 0.29459193 0.38897368 0.117771715 0.21936294 0.03366512 -0.37205735
0.2137554 0.34229454 0.13980404 -0.31287333 0.05322671 -0.08759913 -0.24597633 -0.29897946
0.4206871 -0.10163158 -0.3293098 -0.084362745 0.046983898 -0.04670924 0.33052716 0.28208455
00000000: 7cd4 7bbe 1ca1 a6be be73 b8be 501a 8cbe
00000010: 2b9d a63e 4c5c 54be f95d 8b3e 3338 ac3e
00000020: 08fb cfbe 0ea5 683e 36de 05be fe04 673e
00000030: 7302 cb3e 500b d3bd 5c77 a9be 9201 31be
00000040: e4a1 0bbe 8642 3a3e d740 4cbe 8067 e6bd
00000050: 5a55 353e 9240 d4be 1a3a cdbe dddf c23e
00000060: ca42 08be b5cf 833e 5884 483d 39a6 b0be
00000070: 8693 6b3e c02a ee3b 2d94 c7be e831 babd
00000080: 0bea b83e 58cb d0be 4e6f 63be afa4 803e
00000090: afc3 43be a075 fbbc 209c 03bd 1a35 6c3e
000000a0: aa68 403e 8d3d af3e 35ce 853e 69d2 8a3e
000000b0: 3bc4 cebe 4141 74be 6a48 383e 7d04 b03e
000000c0: 28b2 febd 82b1 4b3e a2c4 b6be 7b7d a43e
000000d0: 28a1 323d 8dfc 853e a180 adbe c4b5 ad3d
000000e0: 1836 423d d4ea 4dbe 4f3d b83e 694c a63e
000000f0: 4be0 8d3e 44e0 9abd 2da8 b9be e18b c43e
00000100: 36d3 75be c09a c1be f73e c23e 9ba8 b4be
00000110: f06c dcbe 00c4 b73a 9633 0fbe f3f7 b13e
00000120: e18c bdbe 4a1c 263e 4995 c43e c09b 893b
00000130: 8ec5 293e abc1 a73e 3103 903e dee2 463e
00000140: e5ea c1be 8ee1 7d3e 48c7 94bd a243 4dbe
00000150: 5e5f bfbe 14cb 09be 3095 d03c 8099 0ebd
00000160: 1ca8 9cbe 2142 76be 1016 afbd 118a bd3e
00000170: 780f 64bd bca9 f8bd 006a 27be c985 b43e
00000180: 5a32 6e3e 0020 ebb8 84e5 83be c0ec e03b
00000190: 4663 5a3e 3575 c83e 679c c53e 3caa f43d
000001a0: f5d3 8c3e d559 ab3e 1364 813e 5d0c b33e
000001b0: a61a 5a3e 2fb6 803e 3268 203e 4474 c5be
000001c0: 1ce1 e63d 3df1 9d3e e640 7a3e e8eb 7fbd
000001d0: 2ba0 813e 8229 463e fe28 3c3e cac9 6f3e
000001e0: 5063 8fbe 09f8 ae3e 40fd aebd 4aea 2f3e
000001f0: 4a26 063e fd0a 973e 73a3 7bbe 4270 5b3e
00000200: 65a7 bcbe 20a7 2abc 88d3 47bd a664 003e
00000210: 88e6 b9be 2ac9 74be 75e0 8b3e e02e 3c3c
00000220: f675 b6be 2826 d1be 0669 283e 4b07 d33e
00000230: dc4d c53d f2df 423e 31ca ce3e f649 81be
00000240: 2df5 b43e 438e 5dbe 3577 d93e 90dd b83c
00000250: 2ff0 b83e 542f c93d 0e64 0b3e 60ea a8bd
00000260: 259d c73e 9674 283e 001a f3bb 195f a93e
00000270: 204a 133c 0856 9abe 20bd 25bc 9e2d 29be
00000280: c834 753d d01d 043d 3145 50be f419 85be
00000290: 92cb d6be fe11 593e 6646 56be 9875 6fbd
000002a0: 1e6d 4b3e 89a3 9a3e 8d7f 4dbe 88f6 06bd
000002b0: 4855 1bbd 2095 c9bd 084f cbbe 0f36 d2be
000002c0: 249e b83d c0da d43b 2ba1 af3e 7c34 fd3d
000002d0: e2fd a6be e298 8bbe 6c15 96be 16d8 21be
000002e0: b164 adbe 02e3 5e3e 80d2 b3bb f278 71be
000002f0: 8094 c7bd 4db1 8bbe be5a 6e3e e106 4bbe
00000300: 1433 fb3d f2fd 6a3e fa90 2a3e c235 15be
00000310: e930 ca3e 5aa1 303e 6029 493c 8814 143d
00000320: fbb6 993e dd7f 8d3e 56f5 2d3e 1f21 d9be
00000330: 22a5 043e 8aa5 753e adc8 9f3e c0a0 4abd
00000340: f4d5 993d 7279 583e 005f d3bb 7585 813e
00000350: 3c0d d73d 5338 d33e ff6c ba3e 1130 923e
00000360: 5ee9 103e 4cf7 993d 1503 cf3e cd72 bf3e
00000370: 33bc d53e b4a8 72be b8a0 8ebd 683c c4be
00000380: 16dc 373e 40b3 61bc 40a1 d23b d317 70be
00000390: a980 d53e 9e26 053e 0874 06bd ccc4 ecbd
000003a0: b4a7 21be 19a8 51be c1d4 963e 8f27 c73e
000003b0: 4c32 f13d aea0 603e 70e4 093d 4d7e bebe
000003c0: b2e2 5a3e 3b41 af3e ca28 0f3e ef30 a0be
000003d0: 4004 5a3d 2c67 b3bd 38e1 7bbe d613 99be
000003e0: 4d64 d73e 3824 d0bd 4b9b a8be 60c6 acbd
000003f0: 3072 403d 3052 3fbd db3a a93e 636d 903e

maxpooling.full.bias f4 [16]
0.1673325 -0.049889177 -0.20512933 -0.17236161 -0.007077694 0.06355277 0.11792815 0.14960825
-0.21182403 -0.24551696 0.11241463 0.1578477 -0.12086967 -0.07719797 0.0632326 0.022884399
00000000: 3659 2b3e 9858 4cbd 6c0d 52be 907f 30be
00000010: 00ec e7bb f427 823d 5084 f13d e832 193e
00000020: 66e8 58be cc68 7bbe a439 e63d d4a2 213e
00000030: 848a f7bd f819 9ebd 1880 813d 1078 bb3c

mean.full.weight f4 [16, 16]
0.41473797 -0.029544055 -0.21467201 0.20026788 -0.07130942 0.24406645 -0.1355794 0.23625246
0.29146335 -0.3197674 0.29537198 0.26613703 -0.23391785 0.17513195 -0.074104846 0.29298607
-0.21817029 -0.28788415 0.12091002 0.2024791 -0.06537709 0.23756894 -0.0063756406 -0.19812188
-0.090868056 0.02928999 -0.09848094 0.08294079 0.37441394 0.24083462 0.13682166 -0.3611367
-0.1160669 0.31017253 0.17211309 0.42931053 -0.27260327 0.37944767 -0.10619074 0.19947258
-0.043877095 0.19021133 0.23659554 0.12784407 0.2619451 0.34237632 0.31362793 0.2462807
-0.018206269 -0.2272952 0.35414055 -0.14035335 -0.2645128 0.357533 0.3087333 -0.21302308
-0.28001297 -0.26593977 -0.26096916 -0.10368839 0.41002724 0.28828564 -0.28836513 0.053976834
-0.21703668 0.4085603 0.35175052 -0.41751012 -0.05166182 0.15949485 0.18142107 0.33866492
0.11785188 -0.16815162 -0.33837283 -0.38193214 0.3990459 0.40189984 0.28739902 -0.14794928
-0.3253851 -0.22978243 0.034074217 0.032690138 0.03709045 0.41354612 0.18773821 0.10707155
-0.20246135 -0.28516775 -0.30211264 -0.08437529 0.02378118 0.1365088 0.33282915 0.40415207
-0.10597077 -0.26106414 0.28617004 -0.41421214 -0.42495522 -0.10737184 0.25609717 -0.34072125
-0.3656609 0.047909796 -0.37542474 -0.41409078 -0.23066723 0.38798538 0.19695452 -0.052910894
-0.050430387 -0.25205553 0.106220156 -0.010148227 0.22350994 -0.09061098 -0.17908052 0.11354706
0.3616818 0.19010249 -0.20125842 -0.0911468 0.008951694 -0.08220306 0.113242656 0.27714667
0.12247941 0.29140785 0.21064755 0.36404625 0.39637533 -0.23531584 -0.28033626 0.3792914
-0.17709172 -0.12240565 0.0077345967 -0.24373813 -0.34007522 -0.01996994 0.116262585 -0.016752213
0.41411802 0.05489844 0.16867217 -0.12990937 0.29954633 0.0052908957 -0.12560737 -0.059964508
0.1238316 -0.33574226 0.39095125 -0.0031264722 -0.20215102 0.008720845 0.35425487 -0.12103623
-0.16248149 0.2373186 0.34220788 0.117158085 -0.12997967 -0.43083376 0.31091568 0.09014431
-0.3085831 -0.19765839 0.36387405 -0.1375621 -0.017592639 0.15986553 0.09414777 0.3973789
-0.23510823 -0.266373 -0.14307767 0.066299826 -0.26703686 0.29577073 -0.090063274 -0.1089856
-0.35352528 0.07394937 -0.009988368 -0.048169285 -0.2324499 0.28209642 -0.12574303 -0.27651834
-0.12645036 0.04654962 -0.4120101 0.03316629 0.36297897 0.005256474 -0.051918417 -0.23679824
0.11386064 0.42067584 0.09128073 0.2823489 0.14650902 -0.22816747 0.040514916 -0.027976334
0.021036446 -0.0063405335 -0.21944565 0.35329214 0.32112262 0.31606475 -0.34532773 0.3654109
-0.14260504 -0.0297513 -0.12985986 -0.10825741 -0.20713174 0.1837587 0.13131312 0.39099523
-0.19554687 0.08538374 -0.04397884 -0.15556112 0.13229278 -0.02237308 -0.41828293 -0.27844608
-0.13242197 0.1132274 -0.07036075 -0.025119483 -0.3112305 -0.30404383 0.15337291 0.37449226
0.19529882 -0.059333354 -0.063097775 0.32568792 -0.3805299 -0.18327771 -0.31803355 -0.04598686
-0.15397814 0.0024296641 -0.06881645 0.12636498 -0.08467102 0.18270895 0.20462546 -0.32513723
00000000: 8958 d43e 6006 f2bc fbd2 5bbe 0613 4d3e
00000010: ac0a 92bd 8eec 793e 54d5 0abe 2aec 713e
00000020: af3a 953e 8db8 a3be ff3a 973e 1d43 883e
00000030: 2988 6fbe ca55 333e 48c4 97bd 4502 963e
00000040: 0868 5fbe 8d65 93be ac9f f73d ae56 4f3e
00000050: 6ce4 85bd 4645 733e c0ea d0bb 76e0 4abe
00000060: 0819 babd 90f1 ef3c 60b0 c9bd dcdc a93d
00000070: 2fb3 bf3e 5a9d 763e fa1a 0c3e e9e6 b8be
00000080: 7cb4 edbd efce 9e3e 6a3e 303e 97ce db3e
00000090: a892 8bbe f746 c23e 887a d9bd 8a42 4c3e
000000a0: 78b8 33bd c2c6 423e 1a46 723e 8ee9 023e
000000b0: ab1d 863e f34b af3e d793 a03e 0231 7c3e
000000c0: 5025 95bc 13c0 68be e951 b53e cab8 0fbe
000000d0: 396e 87be 910e b73e 4b12 9e3e b922 5abe
000000e0: dc5d 8fbe 4229 88be c09d 85be 945a d4bd
000000f0: 17ef d13e 2d9a 933e 98a4 93be d016 5d3d
00000100: dd3e 5ebe d12e d13e a518 b43e e3c3 d5be
00000110: 589b 53bd 9e52 233e 72c6 393e 7d65 ad3e
00000120: 545c f13d f02f 2cbe 343f adbe 9c8c c3be
00000130: bf4f cc3e d1c5 cd3e f725 933e 0480 17be
00000140: e098 a6be 164c 6bbe 6891 0b3d 18e6 053d
00000150: 28ec 173d 51bc d33e 723e 403e 5448 db3d
00000160: 0752 4fbe 8201 92be 82ae 9abe f4cc acbd
00000170: c0d0 c23c f6c8 0b3e 9568 aa3e 05ed ce3e
00000180: 3407 d9bd 33aa 85be e184 923e 9d13 d4be
00000190: bb93 d9be c4e5 dbbd 2b1f 833e 0473 aebe
000001a0: e837 bbbe 103d 443d ac37 c0be b503 d4be
000001b0: 0834 6cbe 05a6 c63e 72ae 493e 18b9 58bd
000001c0: 1890 4ebd 6c0d 81be f489 d93d c044 26bc
000001d0: cadf 643e 4092 b9bd e260 37be 5c8b e83d
000001e0: 5b2e b93e 3aaa 423e b016 4ebe 2cab babd
000001f0: 20aa 123c 145a a8bd c4eb e73d 2be6 8d3e
00000200: 7cd6 fa3d 6933 953e feb3 573e 4564 ba3e
00000210: b5f1 ca3e a3f6 70be 3c88 8fbe 7b32 c23e
00000220: 8857 35be d0af fabd 8072 fd3b 7d96 79be
00000230: 571e aebe 0098 a3bc 141b ee3d f03b 89bc
00000240: 4707 d43e 30dd 603d 66b8 2c3e f606 05be
00000250: 235e 993e 405f ad3b 389f 00be 589d 75bd
00000260: 6c9b fd3d 69e6 abbe c32a c83e 80e5 4cbb
00000270: ad00 4fbe e0e1 0e3c e560 b53e d8e1 f7bd
00000280: 8c61 26be a603 733e df35 af3e 94f0 ef3d
00000290: 6419 05be 3e96 dcbe 5730 9f3e 949d b83d
000002a0: 9bfe 9dbe f666 4abe b34d ba3e 14dd 0cbe
000002b0: 701e 90bc cab3 233e 8cd0 c03d 3f75 cb3e
000002c0: 36c0 70be 0b62 88be f482 12be 34c8 873d
000002d0: 0eb9 88be 436f 973e 1873 b8bd d833 dfbd
000002e0: 4401 b5be c472 973d 40a6 23bc 284d 45bd
000002f0: 5907 6ebe f16e 903e c8c2 00be d093 8dbe
00000300: 347c 01be d0aa 3e3d fdf2 d2be 60d9 073d
00000310: 61d8 b93e 803e ac3b 68a8 54bd 3d7b 72be
00000320: c42f e93d d362 d73e 64f1 ba3d 0990 903e
00000330: 7606 163e bca4 69be f8f2 253d a02e e5bc
00000340: a054 ac3c 40c4 cfbb 5cb6 60be b5e2 b43e
00000350: 2f6a a43e 3dd3 a13e ccce b0be 2317 bb3e
00000360: 0e07 12be 00b9 f3bc fcf9 04be 10b6 ddbd
00000370: 581a 54be 3e2b 3c3e f276 063e 8730 c83e
00000380: 703d 48be acdd ae3d 2823 34bd 6a4b 1fbe
00000390: c277 073e c047 b7bc 2e29 d6be 7c90 8ebe
000003a0: a099 07be c4e3 e73d 4c19 90bd 60c7 cdbc
000003b0: 9b59 9fbe a2ab 9bbe ca0d 1d3e 73bd bf3e
000003c0: 6afc 473e 8807 73bd 6839 81bd 91c0 a63e
000003d0: d1d4 c2be 27ad 3bbe 4bd5 a2be b85c 3cbd
000003e0: 72ac 1dbe 003b 1f3b a4ef 8cbd d265 013e
000003f0: 0068 adbd 0e18 3b3e 5689 513e 6378 a6be

mean.full.bias f4 [16]
0.08101776 0.23954475 0.028416276 0.22661608 -0.096919 -0.05690527 -0.17481306 0.023343414
-0.20233917 0.20494655 0.09690219 -0.2415072 0.16723853 -0.04835716 0.2002247 0.11103952
00000000: a4ec a53d 384b 753e 40c9 e83c 0c0e 683e
00000010: 787d c6bd 8015 69bd 3202 33be b03a bf3c
00000020: 0032 4fbe 82dd 513e a874 c63d aa4d 77be
00000030: 9440 2b3e 2812 46bd b407 4d3e b068 e33d
