best_model/acc/citeseer-b-h_dropout=0_wd=0_b=256_lr=0.01_walk=1_best_model.pt (torch_old, 725205 bytes, 15 tensors)

embedding.full.weight f4 [16, 3703]
000000 52 d1 c4 3c a3 5c 06 3d 0c 26 8f 3c 73 0d 22 3d
       0.024025593 0.03280319 0.017474197 0.039563607
000010 7c 62 9d 3c 08 1e a1 bb 63 59 13 3d 63 13 09 3d
       0.019212 -0.00491691 0.035973918 0.033465754
000020 78 c6 2f 3c bc 21 57 3c e2 84 25 bc 8f 4c 9c bc
       0.010728471 0.0131306015 -0.0101024825 -0.019079475
000030 30 9b fb bb 18 ba 1a bd a0 f4 3c 3b ce c9 ad 3c
       -0.007678412 -0.03777513 0.0028832331 0.021214392
000040 40 0c b4 3a ee b5 c0 3c c3 7f 12 3d 40 a7 da 3a
       0.0013736561 0.02352425 0.035766374 0.0016681924
000050 8a be ad 3c 9c 70 6d bc 98 fe 43 3c fa 5b c9 3c
       0.02120902 -0.01449218 0.011962555 0.02457999
000060 90 18 a1 bb 8c 7a 35 bc 22 7c 36 bc f3 18 a0 bc
       -0.004916258 -0.011076581 -0.011137994 -0.019543147
000070 00 c8 e8 38 c0 9f e3 bc 9d c8 b3 bc 68 4e 9b 3c
       0.00011099875 -0.027786136 -0.021946246 0.018958285
000080 9e a2 43 bc cc ea f3 bc 8f 35 01 3d 7a e7 f0 3c
       -0.011940626 -0.029775046 0.031545218 0.029407252
000090 c8 69 7d bc 63 7c 14 3d a7 d8 0e 3d c0 aa b8 bc
       -0.015467115 0.036251437 0.034874585 -0.022542357
0000a0 52 e5 96 bc 10 8e bd 3b a9 a4 21 3d 1b 11 c5 bc
       -0.018419895 0.0057847574 0.039463673 -0.024056008
0000b0 d2 c2 86 3c 3c f3 1b 3c e5 d2 0e 3d 68 59 8b bb
       0.01645032 0.009518441 0.034869093 -0.0042526014
0000c0 9f 94 12 bd 60 b6 96 bc 5c 5d 80 3c 58 79 c6 3b
       -0.035786267 -0.01839751 0.015669517 0.006056946
0000d0 08 9d 0b bd f9 de 23 3d f0 fb 72 3c 1a e4 2f bc
       -0.034085304 0.040007565 0.014830574 -0.010735536
0000e0 60 c9 9a 3b 8e 71 e9 3c 75 59 24 3d 0d f5 13 3d
       0.004723713 0.02849653 0.040124375 0.03612237
0000f0 88 b4 a8 3b be c1 88 3c 50 ea 83 bb 40 06 dc 3b
       0.005148474 0.016693946 -0.004025735 0.0067146122
000100 f8 21 c0 bb 0e e1 cf bc 4b 10 11 bd 00 92 4e b9
       -0.0058634244 -0.02537587 -0.03541593 -0.0001970008
000110 34 6c 72 3c 90 11 b5 3c d0 1c 2f 3c c1 f5 02 3d
       0.014796305 0.022103101 0.010688022 0.03197265
000120 0c 21 1e bc 08 12 02 3c d2 e3 87 3c ad cc 04 bd
       -0.009651434 0.007938869 0.016588125 -0.032421757
000130 04 ec 8c bc ba 5d ce bc 39 fd 0e bd 7c 74 99 3c
       -0.017202385 -0.025191177 -0.03490946 0.018732302
000140 54 b2 7d 3c c0 74 61 3a 90 40 ac bb a3 a6 ab bc
       0.015484411 0.0008600466 -0.00525672 -0.020953482
000150 4a 5b d2 3c 6d 1a c3 bc f4 c2 02 bc 50 7c 13 3b
       0.025678296 -0.023816312 -0.007981051 0.0022504516
000160 f0 22 bf 3b 5a 6a b9 bc c6 06 9a 3c e9 81 04 3d
       0.0058330223 -0.02263372 0.018802058 0.032350454
000170 50 77 38 3c a8 6b fc 3b a5 ef 19 3d 2e af c6 3c
       0.011258915 0.0077032633 0.03758206 0.024253454
000180 be de d2 bc aa ea ea 3c d3 5e 20 3d 5a fb 16 bc
       -0.025740977 0.02867635 0.03915293 -0.0092152
000190 0b ab 18 3d e8 cb 26 3c 90 c0 38 bb b2 ea d6 bc
       0.037272494 0.010180451 -0.0028190948 -0.026234958
0001a0 90 89 63 bb 93 a6 1b 3d 81 a6 84 bc de e2 f0 3c
       -0.0034719445 0.038000654 -0.016192676 0.029405054
0001b0 41 74 06 3d 00 ce 3f bc 08 9f 17 3c 10 f6 77 bc
       0.032825712 -0.011706829 0.009254225 -0.015134349
0001c0 56 ab a9 bc 27 db 14 3d d2 6e d4 3c 4e 3c 85 bc
       -0.020711582 0.036341812 0.02593175 -0.016264107
0001d0 80 e6 57 3a e0 50 87 ba 50 93 02 3b 5a 9b c5 3c
       0.00082359463 -0.0010323785 0.001992423 0.024121929
0001e0 f0 26 6b 3b 20 3e 7f bc aa 61 9b 3c da 7a e4 3c
       0.0035881363 -0.015578777 0.018967468 0.027890611
0001f0 c6 ef 99 bc ba 3b 8c bc d0 20 ad bb 97 ba 03 3d
       -0.01879109 -0.017118324 -0.0052834526 0.032160368
000200 ff a9 80 bc aa cd bc bc ee f4 f2 3c 96 0c a5 3c
       -0.01570606 -0.023047287 0.029657807 0.020147603
000210 90 9c e2 bc a6 2d 91 3c 1a 7f 67 bc 12 a2 0d bd
       -0.027662545 0.017721962 -0.0141294245 -0.03457839
000220 30 d0 05 3c 3d dc 16 3d 5a 90 ed 3c 38 29 d2 bc
       0.008167312 0.03683113 0.028999496 -0.02565442
000230 2f f4 1e 3d 61 0b b4 bc 9c df 3e bc a8 9d aa 3b
       0.03880709 -0.021978082 -0.011649992 0.0052067824
000240 24 7a 61 3c 6a 0d e5 bc 50 4a 8e bb b6 1f fa 3c
       0.013762031 -0.027960498 -0.004342355 0.0305327
000250 5c 1d 6a 3c eb bc 0c 3d ac 5f 5e 3c 28 83 f1 bc
       0.014289226 0.034359854 0.013572615 -0.029481485
000260 76 ee c9 3c 00 8d 00 ba e8 8f 59 bc cc 5d b2 3c
       0.02464984 -0.0004903823 -0.013278939 0.021773241
000270 5c e4 26 bc f0 60 88 3c dc 59 08 bc 38 8f 0b 3c
       -0.010186281 0.016647786 -0.008322205 0.008518033
000280 06 24 20 bd 21 81 1e 3d 0c 8d 04 bc f2 84 c8 3c
       -0.039096855 0.038697366 -0.008090269 0.024477456
000290 c8 4f f5 bb 2e 26 e1 3c 20 24 5e bb 92 bf cc 3c
       -0.0074863173 0.027484026 -0.0033896044 0.024993692
0002a0 a6 66 7a bc db a5 17 3d 3b 75 01 3d 28 95 86 bb
       -0.015283262 0.037023406 0.03160594 -0.0041071363
0002b0 da 86 df bc e8 88 34 3c 5e 61 bc 3c 36 03 91 bc
       -0.027285982 0.011018969 0.022995647 -0.017701726
0002c0 95 c5 d8 bc 45 ca 0c bd f0 3d b7 3b 78 49 74 bc
       -0.026461402 -0.034372587 0.0055921003 -0.014910094
0002d0 50 73 37 3b c0 11 f8 bc 58 b7 fb bc 7b b6 17 bd
       0.0027992316 -0.030281901 -0.030727074 -0.03703926
0002e0 02 af 9f bc 90 f5 55 3c b2 59 0c bd 1a 52 9b 3c
       -0.01949263 0.013059035 -0.034265228 0.018960048
0002f0 54 66 84 bc d8 fc 83 3b 6c 5f a5 3c b4 cc 15 bd
       -0.016162075 0.004027944 0.020187102 -0.036572173
000300 c0 31 3b 3a f7 05 18 3d a2 5c 16 bd 00 db 4d bc
       0.0007140897 0.037115064 -0.036709435 -0.012564421
000310 94 14 63 3c 40 79 3e bc 6f 79 0f 3d 4b 02 c0 bc
       0.013859887 -0.011625588 0.035027917 -0.023438593
000320 16 3a 49 bc 89 cc 1a bd 64 c1 52 bc bd 1d 10 3d
       -0.012281915 -0.037792716 -0.012863491 0.03518461
000330 48 dd 1b 3c 9c 74 9e 3c c0 f0 da bb 6e 44 4a bc
       0.009513207 0.019342713 -0.0066815317 -0.0123454165
000340 a0 a9 77 bc 78 6f 06 bd 39 a7 21 bd 44 55 b9 bc
       -0.015116125 -0.03282115 -0.039466117 -0.022623666
000350 f3 50 0c 3d a8 91 5c 3c dc 15 48 3c 3a 40 98 bc
       0.034256887 0.0134624615 0.012212243 -0.018585313
000360 e6 5f 04 bd e8 bf 0c 3c 50 15 98 3b d4 fa 12 3c
       -0.03231802 0.008590676 0.0046412125 0.008970935
000370 f8 cf 11 3c 20 cd a0 ba b2 51 ba 3c bf 28 a5 bc
       0.008899681 -0.0012268163 0.022744033 -0.02016103
000380 d5 ad d6 bc 6e 37 2b bc dc cd 76 bc b6 57 c7 bc
       -0.026205936 -0.010450227 -0.015063729 -0.024333816
000390 83 51 f7 bc da 7d c8 3c 5e e6 a3 3c 32 8e 8f 3c
       -0.030190235 0.024474073 0.020007309 0.017523859
0003a0 87 e8 0f 3d 30 85 de 3b 40 0a 2f bb 54 3b 70 3c
       0.035133865 0.0067907795 -0.002670899 0.014662582
0003b0 a4 e9 15 3c f0 f4 50 bb a1 50 1f 3d b8 a7 9a 3c
       0.009149943 -0.0031884275 0.038895253 0.018878803
0003c0 59 dd b9 bc 09 02 c2 bc b3 a1 8f bc 6e 3f 09 bd
       -0.022688555 -0.023682611 -0.017533159 -0.033507757
0003d0 cc 4d 24 3c fe c8 f0 3c 12 24 2b bc 30 c1 8d bb
       0.010028314 0.029392716 -0.010445612 -0.0043260083
0003e0 80 4d 87 b9 02 31 ea 3c 2e ac a4 bc 54 85 9b 3c
       -0.00025806949 0.028587822 -0.020101633 0.018984474
0003f0 32 04 65 bc d3 9d 90 bc 40 68 bf ba 60 bd 47 bc
       -0.013978051 -0.017653381 -0.0014603212 -0.012191147

embedding.full.bias f4 [16]
000000 4c b0 c6 3b 90 27 8f bb 34 7e 80 bc 02 4c 34 bc
       0.0060634967 -0.00436873 -0.015685178 -0.01100445
000010 74 4f 40 bb 44 a2 29 bc 12 ad 44 3c d8 00 5d bb
       -0.0029344233 -0.010353629 0.012004154 -0.0033722427
000020 12 a1 3a 3c 80 26 4b b9 9d 0d 85 3c 58 51 c3 3b
       0.011390941 -0.00019373931 0.016241843 0.0059606247
000030 3a 9b 1f 3c 6c cf 64 bb 56 d3 33 3c a0 9e 02 3c
       0.009741599 -0.0034913672 0.010975679 0.007972389

aggregator.full.weight f4 [16, 7406]
000000 32 3c ef be 5e 04 0e bf 8c cb 2f 3f c4 bc d6 be
       -0.46725613 -0.55475414 0.6866996 -0.41940892
000010 86 8e 5f bf c9 e5 52 bf 85 23 5a bf 62 18 1d be
       -0.8732685 -0.82381874 -0.8521045 -0.15341333
000020 b8 b3 41 3f 04 d4 02 3f 96 c6 a7 be 23 dd 17 3f
       0.75664854 0.5110476 -0.32768697 0.593218
000030 a2 4c 08 3f 34 e1 e4 3d 9d cb f5 3e 73 d9 84 3f
       0.5324193 0.111757666 0.48006907 1.037886
000040 b2 1d e2 be d0 d0 ac 3e 71 56 26 3d 67 cd 64 be
       -0.4416328 0.3375306 0.04060978 -0.2234398
000050 4c 3b 20 bf f5 81 08 bf 15 9c 23 3f 50 60 72 be
       -0.6259048 -0.533233 0.6391004 -0.23669553
000060 33 97 eb 3e 6e c6 08 3f 88 2c a2 3e 04 1e d2 be
       0.46013793 0.5342778 0.316746 -0.41038525
000070 2b 57 28 be 2e 83 e9 bc b8 e2 88 3d a5 44 df be
       -0.16439502 -0.028504934 0.06683868 -0.4360706
000080 35 9e 1b 3f 02 22 55 bf f4 c6 37 be 97 8b 2c bf
       0.6078828 -0.83255017 -0.17946988 -0.674005
000090 2e 39 56 bf 53 29 99 be 30 39 53 3e 35 37 20 bf
       -0.83681 -0.2991434 0.20627284 -0.6258424
0000a0 37 b9 f3 3d fc c6 95 bc 78 6c 83 bf 44 80 80 bf
       0.11900561 -0.01828336 -1.0267477 -1.0039144
0000b0 50 95 ab be ac 68 25 bf d2 8d 97 3e 89 55 97 3d
       -0.33512354 -0.6461284 0.29600388 0.073893614
0000c0 53 f0 b3 3c 6a dc eb be f6 10 be 3e 66 a9 92 bc
       0.021965181 -0.460666 0.37122315 -0.017903041
0000d0 78 f5 04 3f 12 94 47 3f 3d c9 c0 be 9d 09 f0 bc
       0.51937056 0.7796031 -0.37653533 -0.029301459
0000e0 22 fb 14 3f 80 d5 a3 bf 4b d0 af be f8 2f 1b 3f
       0.581957 -1.279953 -0.34338602 0.6062007
0000f0 6d 97 cb be 8d a1 00 3e c2 7b 3c 3f 14 3d 71 3f
       -0.39763966 0.12561627 0.7362634 0.9423382
000100 0e 2b 4a bf 6d 64 97 bf be 37 78 bf 66 9d ec bc
       -0.78971946 -1.1827523 -0.96960056 -0.028883647
000110 f7 fd 81 bf 05 64 bb 3e 23 b9 07 3f 29 9d 57 3e
       -1.0155629 0.36599746 0.5301687 0.21056046
000120 39 1a c0 bd b1 29 0b bf 9b f3 03 bf a0 d8 0d bf
       -0.093800016 -0.5436049 -0.5154359 -0.5540867
000130 0a cf 05 bf e5 d7 ad be be c3 4d 3f 64 05 f7 bd
       -0.5226904 -0.33953777 0.80376804 -0.12061575
000140 ff 83 a9 3e bc 0a 3c bf 03 b2 6a bc df 4a 22 bf
       0.33108518 -0.7345388 -0.014324668 -0.63395494
000150 26 f8 29 bf 2e b4 37 bf fd 5e 86 bf 4d 3e 40 bf
       -0.6639427 -0.7175931 -1.0497738 -0.75095063
000160 b4 71 68 bf cc ea 94 3e a2 c5 44 3e ce ec ba 3e
       -0.907985 0.29085386 0.19216016 0.36508793
000170 fd 00 25 3f 87 a1 45 3f 88 8a bb be 91 1c c5 be
       0.64454633 0.77199596 -0.36629128 -0.38498357
000180 16 81 27 3f a5 cd 88 3e 15 ab 20 bf 01 fd 65 3f
       0.65431345 0.26719394 -0.6276105 0.8983918
000190 cc 50 22 3d 00 5f 53 3f 63 7b 3b bf eb 0b a1 be
       0.039627835 0.82566833 -0.7323515 -0.31454405
0001a0 09 0f 9b 3e 9f 8b 68 3e c0 fa 71 3f 57 c5 d3 3d
       0.30284908 0.22709511 0.9452324 0.10340374
0001b0 0d ba 92 3f 3f c1 56 3e 45 49 d7 3e 9e 6f 44 3d
       1.1463028 0.20972155 0.42048088 0.04795801
0001c0 45 fe 92 3f 60 4b 3f 3f 57 cd 78 3e 66 a1 39 3f
       1.1483847 0.7472439 0.24297081 0.725119
0001d0 27 dd 02 3f 68 ef d7 bd c8 30 c9 3d 6c ef 4a be
       0.511187 -0.1054371 0.098237574 -0.19817895
0001e0 2d 9c db bc 44 14 56 3f 9d a7 01 3e f6 a2 1e be
       -0.026807869 0.8362467 0.12661596 -0.15491852
0001f0 95 74 9b 3e dc 71 43 3f 6a df 2d 3f b8 fe ab 3e
       0.30362383 0.7634561 0.6791903 0.33592772
000200 50 8f 67 3e 31 39 83 bf 03 07 c5 3d 2f ad c8 bd
       0.22613263 -1.0251828 0.09620478 -0.09798657
000210 6c bd 19 3e 80 ad 9b be ce c8 4a bf e9 d8 e0 3e
       0.15013665 -0.30405807 -0.79212654 0.4391549
000220 91 9e 35 3e 00 da f8 bb 7c 44 a5 3d 70 49 22 bf
       0.1773627 -0.007594347 0.08069703 -0.63393307
000230 10 f2 2f bf 99 7d 1e 3f f6 dd 10 3e ba 96 02 bf
       -0.68728733 0.61910397 0.14147171 -0.5101124
000240 b2 f2 33 3e eb d1 a3 3e bf 30 59 be 2b 11 78 3f
       0.1757305 0.31996092 -0.21210001 0.96901196
000250 58 1c e2 bd 45 b8 d3 bd 93 d1 84 bf d9 4f 0e 3f
       -0.110405624 -0.10337881 -1.0376457 0.5559059
000260 c8 aa 9e 3b ed 70 91 3e a1 e5 96 bf 2b fa 6a bf
       0.004842136 0.28406468 -1.1788827 -0.91787976
000270 13 b3 05 bf 09 04 89 3e 47 51 81 3e 2c 87 76 bf
       -0.5222637 0.2676089 0.25257322 -0.96300006
000280 ed 6e 33 bf 59 c0 dc 3e e7 33 7e 3e de bd 0c 3e
       -0.70091134 0.431155 0.24824487 0.13744304
000290 0a ed 24 3f ca 05 33 be 5d 63 f1 be 38 3f 63 3f
       0.6442419 -0.17482677 -0.4714612 0.8876834
0002a0 cc 28 93 3e fc 55 f9 bd ca 9e a3 be ac 93 72 bf
       0.28742063 -0.12174603 -0.31957084 -0.9475658
0002b0 19 39 24 3f 6a 8d 85 bf 17 3b f6 3e ee 27 41 bf
       0.64149624 -1.0433781 0.48091957 -0.7545155
0002c0 83 f2 04 3e 72 ff 3d bf a5 33 86 3e 6e 45 8d bd
       0.12983136 -0.74217904 0.26211277 -0.06898008
0002d0 d3 9a 8f bd c0 19 e2 3e 98 3a 90 be 7f f8 d7 be
       -0.07011952 0.4416027 -0.28169703 -0.42181775
0002e0 70 01 79 3f 07 64 b7 be 2a f9 27 3e 80 eb ba 3e
       0.9726782 -0.35818502 0.16403642 0.36507797
0002f0 7e 91 5c 3e 25 ad 53 3d 1f a4 58 bd 73 46 69 bf
       0.21539876 0.051678795 -0.052890893 -0.9112312
000300 ec a7 be be 6e b0 65 bd f5 24 26 3e 39 da 26 3e
       -0.3723749 -0.05607646 0.16225035 0.16294183
000310 b8 9e f5 3e ab e3 9b be f7 a1 26 3d be 2f 68 bf
       0.47972655 -0.30447134 0.040681805 -0.9069785
000320 11 29 0d bf c6 4b 0b be 03 26 30 3e a8 27 ae 3e
       -0.5514079 -0.13603124 0.17202 0.3401463
000330 6b 93 cd be 21 6a b4 be 7b 88 b9 3e 20 0d 38 bf
       -0.40151533 -0.3523722 0.3623694 -0.7189503
000340 9e ba b0 3e ca 5a 41 bf 46 81 46 bf 71 74 84 bd
       0.34517378 -0.7552916 -0.77541006 -0.06467522
000350 73 fe 57 bf 6c 51 15 bf eb b6 86 be 41 a8 85 bf
       -0.84372634 -0.58327365 -0.2631143 -1.0441972
000360 7e 20 cd 3e 81 02 be be eb 9d d8 3e 31 40 ce bd
       0.40063852 -0.37111285 0.42307982 -0.10070837
000370 a7 18 02 3e 35 e5 9d be 1f 6a fc 3e 08 9d 76 3e
       0.12704717 -0.30838934 0.49299714 0.2408334
000380 4f f2 61 be 45 bd af 3d 19 dc ce bd 48 03 44 bf
       -0.2206509 0.08581022 -0.10100574 -0.76567507
000390 34 15 03 be 4c d8 05 bf 35 85 86 be a3 7a 85 3f
       -0.12801057 -0.5228317 -0.26273504 1.0428051
0003a0 95 58 72 bf b6 25 4c be 0f 60 80 3e 5d c5 45 bd
       -0.94666415 -0.1993626 0.25073287 -0.048283923
0003b0 fc 22 7e 3f 2a 8e ac 3e 99 06 13 bf e0 06 de be
       0.9927213 0.33702213 -0.5743194 -0.4336462
0003c0 23 30 4e 3e 06 9a 2e 3e 7d fb fa bd bf b0 be be
       0.2013555 0.17050943 -0.12254999 -0.37244222
0003d0 7d 18 19 bf fb c9 cf bd e8 e5 30 bf 8d f7 81 bf
       -0.5980299 -0.101459466 -0.6910081 -1.0153672
0003e0 d3 9b 28 bf f9 10 20 3f b8 4d b7 bf dd d6 29 bf
       -0.6586277 0.625259 -1.4320593 -0.6634348
0003f0 2b ef ca 3c 47 7f 46 3d eb 40 df 3e ed 1d 02 3f
       0.024772247 0.048461225 0.43604216 0.50826913

aggregator.full.bias f4 [16]
000000 27 5d 78 bd 57 08 5f bd 2f bf b5 bc 4d 0c a3 bd
       -0.060635712 -0.054451313 -0.02218589 -0.079613306
000010 fa d9 1b bd 04 d1 82 3c aa 64 9e bc 4c ce 14 be
       -0.038049676 0.015968807 -0.01933511 -0.14531821
000020 5c 9e 07 bc b6 0b 00 be 1e bb df 3b b6 0e ae 3c
       -0.008277502 -0.12504467 0.006827726 0.02124725
000030 2a 6a 90 bd 11 95 b9 bd 54 75 5b bd 73 6e 72 bc
       -0.07051499 -0.09061635 -0.05357869 -0.014796841

step.full.weight f4 [1, 32]
000000 53 ef 11 3e 9b 9b 32 be b7 29 2d 3e 4a 00 67 bd
       0.14251451 -0.17442171 0.16910444 -0.05639676
000010 f8 39 55 bd 68 2e 4f bd cf 22 2f 3e d0 02 05 bd
       -0.052057236 -0.050581366 0.17103122 -0.032473385
000020 9a 5f bf 3d db 78 01 be aa f1 b3 bd 00 3c 0c b9
       0.093444064 -0.12643759 -0.08786328 -0.00013373792
000030 fc 93 6c bd 07 61 b3 bd b6 21 c1 3d da b5 e0 3d
       -0.057758316 -0.08758741 0.09430258 0.109721854
000040 6d 0f 33 3e 63 df 24 be e3 59 04 be 12 04 c5 bd
       0.17486353 -0.1610084 -0.12924914 -0.09619917
000050 99 4f 32 3e 9d ae 05 3e 1f 1e 25 3e 70 d3 20 bc
       0.17413177 0.13054891 0.16124772 -0.009816036
000060 60 f8 13 bd f5 51 a2 bd 30 c1 0f bc 50 a2 8f bc
       -0.03612554 -0.07925788 -0.008774087 -0.017533451
000070 6f e5 26 3e 1f 76 17 be f0 8b 4c 3d ee 76 a8 3d
       0.1629846 -0.14791153 0.049938142 0.08225809

lstm.lstm.weight_ih_l0 f4 [64, 16]
000000 69 23 c8 3e 3e 7c ed 3e d1 1c 20 3f 2f 99 b8 3e
       0.39089516 0.46383852 0.6254397 0.3605437
000010 a7 1b 09 3f d5 74 fb 3e 72 51 a2 3e df 0f 2f 3f
       0.5355782 0.49112573 0.31702763 0.6838359
000020 cf 49 24 3f 4f c5 9c 3e 7c 9c c0 3e bb cd f0 3e
       0.6417512 0.30619285 0.37619388 0.4703196
000030 c5 e1 09 3f dc 06 32 3f ba aa 16 3f 78 b5 bf 3e
       0.5386012 0.69541717 0.5885426 0.37443137
000040 94 ae 12 3e fd 3b 38 3f 3d 72 ab 3e 5c 68 a0 3e
       0.14324409 0.71966535 0.33485594 0.3132962
000050 a8 e4 1d 3f 80 f6 4e 3f 0a bb c0 3e 35 26 32 3e
       0.61677027 0.8084488 0.376427 0.17397387
000060 bc d6 9d 3e d5 51 e6 3e 88 ce fb 3d 52 82 b2 3d
       0.30827892 0.44984308 0.12295252 0.08716263
000070 a1 49 69 3e f6 0d b5 3e 13 06 03 3f e1 99 fd 3e
       0.22781993 0.35362214 0.51181144 0.49531463
000080 0c f5 ef 3e 35 12 b8 3e 4f e5 fb 3e fe 05 07 3f
       0.46866643 0.3595139 0.49198386 0.5274352
000090 21 6a 31 3e 57 e7 9d 3e 13 82 f6 3e 4e 07 32 3f
       0.17325641 0.3084056 0.48146114 0.69542396
0000a0 d1 8c 45 3e 1c c7 02 3f d1 ed 30 3f 3c 85 ce 3e
       0.19291998 0.51085067 0.6911288 0.40336025
0000b0 a0 42 38 3e fe 12 b7 3e 7a 6f ae 3e b9 38 76 3e
       0.17994165 0.35756677 0.34069425 0.24045075
0000c0 99 07 19 3f 7e 8d 73 3e da 45 c7 3e a3 fa d8 3e
       0.5977722 0.23784444 0.3892048 0.4237872
0000d0 fc 72 2f 3f 5f dd 53 bd 6e 88 cb 3e ef 04 d6 3e
       0.6853483 -0.051724788 0.39752525 0.4180064
0000e0 35 2f 64 3e 28 9c fe 3e 4d 0e 00 3f 11 1e e5 3e
       0.22283633 0.49728513 0.5002182 0.447495
0000f0 ac 16 0a 3f f2 7c 29 3d f9 4c 9a 3e 74 bd a8 3e
       0.53940845 0.041378923 0.3013685 0.3295704
000100 80 53 49 3e a9 84 1d 3e 75 21 b4 3e d5 f2 5e be
       0.19660759 0.15382637 0.35181776 -0.2177232
000110 c7 ea ee 3c fe 4b 45 3e 8d 55 f3 bd 3d c4 b6 bd
       0.029164685 0.1926727 -0.11881552 -0.08924148
000120 96 46 ac bc 99 2b ca 3c d2 6a 08 3e 8d 58 e1 3e
       -0.021029752 0.024678992 0.13321999 0.4401287
000130 c8 b4 b8 bd c4 dd b7 3e b7 25 8d 3d 6b 81 b8 3e
       -0.09018856 0.3591138 0.06891959 0.36036238
000140 cb 88 07 3f bb 62 1c 3f 1e 2f a4 3d 79 2e 70 3e
       0.52943105 0.6108815 0.080167994 0.23455228
000150 f3 15 d0 3e 40 ff 1b 3f d9 c8 eb 3e d3 53 34 3f
       0.40641746 0.60936356 0.46051672 0.70440406
000160 02 c6 d3 3e ef e5 3c 3f 66 f3 8a 3e 76 e7 84 3e
       0.41362005 0.7378835 0.27138823 0.2595784
000170 c6 58 bf 3e c9 54 04 3f 2b f2 29 3f 53 7d 92 3e
       0.37372416 0.5169187 0.66385144 0.2861124
000180 e5 6a 1f 3e d3 e4 bb b7 e3 9f 3c 3f 84 8f a8 bd
       0.15568121 -2.2398692e-05 0.7368147 -0.082304984
000190 cc 69 c8 3e e2 61 06 3f 0c 0c c7 3e 0f ee b6 3d
       0.39143217 0.5249311 0.3887638 0.08932125
0001a0 2a a5 ab 3e c3 4d 79 3e 2f 31 b2 3e 75 8d 18 3f
       0.33524448 0.2434607 0.3480315 0.59590846
0001b0 1f bc f0 3e 8c d4 3b 3e d3 45 a6 3e 42 24 c9 3e
       0.47018525 0.18342799 0.32475147 0.39285475
0001c0 b7 d4 fe 3e 26 de 29 3f f2 4b b5 3e a6 1f 15 3f
       0.49771664 0.66354597 0.35409504 0.58251417
0001d0 69 1a 0b 3f b3 98 0f 3f 62 fc 0a 3f 8f 19 d8 3e
       0.54337174 0.56092376 0.54291356 0.42207
0001e0 c7 81 b6 3e d2 bc d9 3e ce 6a 55 3f 51 7e cb 3e
       0.35645887 0.4252687 0.83366096 0.3974481
0001f0 23 f7 d7 3e c1 8d 0e 3f ac d7 dd 3e 58 14 a3 3e
       0.42180738 0.5568505 0.43328607 0.3185146
000200 68 f5 11 3f 6c 25 3f 3e 48 2a 35 3e f8 87 12 bd
       0.57015085 0.18666619 0.1769191 -0.0357742
000210 ba 23 3c 3f 05 ad 15 3f e3 0c 1e 3e d0 f8 33 3f
       0.73492014 0.5846713 0.15434603 0.7030153
000220 1e d9 0f bc 65 fe 0c 3f 64 94 5f 3f 3a 2a c0 3e
       -0.008779792 0.55075675 0.873358 0.37532216
000230 a6 d1 1e 3f 93 9f 97 bc 78 a2 2d 3e 81 77 9b 3e
       0.6203865 -0.018508708 0.16956508 0.30364612
000240 ab 24 c6 3e c9 c3 c8 3e 92 48 85 3e 44 cd de 3e
       0.3869985 0.39211872 0.2603193 0.4351598
000250 fb ba e1 3e 2f ad 13 3f 66 08 14 3f 39 87 ce 3e
       0.44087967 0.5768613 0.57825315 0.40337542
000260 f9 f9 99 3e d2 20 2f 3f 62 4d 50 3f e5 7c 98 3e
       0.30073527 0.68409455 0.81368077 0.29782787
000270 db f2 fc 3e cc 85 27 3f 24 21 1f 3f aa 06 1e 3f
       0.49404034 0.6543853 0.62159944 0.6172892
000280 05 a2 10 3f 1a 78 db 3e 9c 66 ff 3e 5f 64 28 3f
       0.5649722 0.42865068 0.49882972 0.65778154
000290 ed c3 20 3f 6a 9e d0 3e 1e 9b 33 3f da e4 06 3f
       0.6279896 0.4074586 0.70158565 0.5269295
0002a0 36 01 71 3e ef ce 25 3f 26 cf 5b 3e 83 02 ec 3e
       0.23535618 0.6476888 0.2146574 0.46095666
0002b0 9f 36 0e 3f f7 70 e3 3e e1 d6 df 3e 82 30 5c 3e
       0.55552095 0.44422123 0.43718627 0.2150288
0002c0 22 b0 c3 3e e3 9e 87 3e d3 65 7a 3e 9f d4 66 3e
       0.38220316 0.26488408 0.24452905 0.22542046
0002d0 0c c1 ab 3e 84 77 74 3e da 3a d1 3e ab b5 ce 3e
       0.3354572 0.23873717 0.40865213 0.40372977
0002e0 82 82 35 3f 06 9e cf 3d 35 c7 cd bd 97 1d 00 3f
       0.70902264 0.101375625 -0.10047761 0.5004515
0002f0 f2 5b da bd e5 66 07 3f 6c 5f 16 3f a7 af 22 3f
       -0.106620684 0.5289138 0.5873935 0.63549274
000300 9c cf 4f 3e 63 47 8f bd 5c db 2b 3f 8f bd a7 bc
       0.2029404 -0.06996038 0.6713159 -0.02047613
000310 b5 86 aa bd 7b 30 73 3e 9f 18 b3 bb 67 fd 8c bd
       -0.083264746 0.23748963 -0.0054655815 -0.0688427
000320 1b 6b 22 3f 43 b9 05 be 52 8f 0d be ae e1 d0 3e
       0.6344468 -0.13058953 -0.13824204 0.4079718
000330 4b 14 b1 3d b1 d6 19 3f 89 25 ca 3e 56 1c c3 3e
       0.08646449 0.6009322 0.39481762 0.38107556
000340 2e 79 f4 3d c5 37 38 3f b1 76 d5 3e 92 85 4c 3e
       0.11937176 0.719601 0.41692117 0.19972828
000350 da 59 df 3e 7a 8c f8 3e b7 6b 31 3f d8 7a 0e 3e
       0.4362324 0.48544675 0.69304985 0.13914049
000360 cb 38 ab 3e df 6f 0a 3f c8 24 4e 3e ca 78 7c 3e
       0.33441767 0.5407695 0.20131218 0.24655452
000370 49 72 44 3e 99 8a 05 3f 97 b8 99 3e 7f b7 a7 3e
       0.19184221 0.5216461 0.30023643 0.32757184
000380 85 3e 99 3d ca 11 b0 3d b0 94 02 3f 00 41 04 3f
       0.07482628 0.08597143 0.5100813 0.5166168
000390 09 1b ee be a1 bd ad be e7 c3 a2 3d 57 ec 7f be
       -0.46505 -0.33933738 0.07947522 -0.249925
0003a0 e0 8b f8 3e 3a ff c8 be 8d 33 00 bf d0 3f 02 3f
       0.48544216 -0.39257222 -0.5007866 0.5087862
0003b0 c8 22 b7 be 3b 7e cf 3e 65 8b c7 3e 1b 5e 8e be
       -0.35768723 0.40525994 0.38973537 -0.27806172
0003c0 86 99 13 3f e5 fa 8e 3e 52 87 79 3e 59 b6 8e 3e
       0.57656133 0.27925792 0.24368027 0.27873495
0003d0 ff e8 2d 3f 9d 63 a6 3d af 57 38 3f f9 83 90 3e
       0.6793365 0.081244685 0.72008795 0.28225687
0003e0 c8 38 00 3d 89 8a f5 3e 8c 32 1f 3f 6d 45 01 3f
       0.03130415 0.47957256 0.62186503 0.5049656
0003f0 9a e5 29 3f 3a 49 8c 3d db 99 20 3f 9e d6 3e 3e
       0.6636597 0.06849904 0.62734765 0.18636557

lstm.lstm.weight_hh_l0 f4 [64, 16]
000000 f7 58 3c bf 2b be e5 3e 5f 83 aa be c4 a4 76 be
       -0.7357325 0.4487165 -0.33303353 -0.2408629
000010 18 cd 11 bf 2e ef ba be 1c 2b 8a be bd b3 47 3e
       -0.56953573 -0.36510605 -0.26986015 0.19502158
000020 4c 53 3c bf 09 5c 99 3e 81 94 ce 3c 43 19 09 bf
       -0.735646 0.2995303 0.025217297 -0.5355417
000030 cb 1d 15 bf 6a 56 31 bf 6d 79 f4 be f4 74 ce be
       -0.58248585 -0.6927248 -0.4774889 -0.40323603
000040 a7 6d 1f 3e 74 27 b7 3e 08 2c 1c 3e 72 68 b8 bc
       0.15569173 0.35772288 0.15251172 -0.02251074
000050 f6 9a bb be 20 a1 34 be 35 df 11 bf f1 81 b0 3d
       -0.36641663 -0.1763959 -0.5698121 0.08618534
000060 e7 0d 14 bf 21 16 51 be bc dc a9 3c dc ef 29 bf
       -0.57833713 -0.20418598 0.020735137 -0.6638162
000070 01 24 dd be 18 d3 06 bf 35 00 07 bf 02 bf 19 bd
       -0.4319153 -0.52665854 -0.5273469 -0.037535675
000080 53 89 2a bf b7 33 9b 3e e4 a9 7a be a3 09 05 bf
       -0.6661579 0.30312893 -0.2447887 -0.5196783
000090 bf ba c3 be 9e 48 67 be 3c 7d 5c bd 20 5d 40 3f
       -0.38228413 -0.22586295 -0.05383037 0.751421
0000a0 01 ac 06 bf 04 74 7b be 39 22 dc 3e 31 bd 44 3d
       -0.5260621 -0.24555975 0.4299486 0.04803199
0000b0 79 c3 92 be 26 a4 df bd de 4c d9 be af cd 7b be
       -0.2866476 -0.10919981 -0.42441458 -0.24590181
0000c0 6e 22 e9 be 62 14 19 3f f4 2f 9c be 28 d3 bb bd
       -0.4553408 0.59796727 -0.30505335 -0.09171134
0000d0 6b 51 8c be c1 c1 43 be 8a be 50 be 26 8e ee 3e
       -0.27405867 -0.1911688 -0.20385185 0.46592826
0000e0 45 10 bb be fe ee 61 3d aa 0a c1 3e 9a 95 4b be
       -0.3653585 0.05515956 0.3770345 -0.19881287
0000f0 be 03 03 bf 39 73 8e be d4 19 d3 be 6f 11 99 be
       -0.51177585 -0.27822283 -0.41230643 -0.29896113
000100 5c b2 b4 be e3 13 4e be b9 c6 c9 3e 61 26 15 3d
       -0.35292327 -0.20124774 0.39409426 0.036413554
000110 f0 5c 78 3d 09 c5 9a 3e ff d9 93 be 36 72 1f 3f
       0.060635507 0.3022845 -0.28877255 0.6228365
000120 b1 8d be 3e 32 f7 59 bb dc 08 59 bf bd df 33 be
       0.37217477 -0.0033258912 -0.84779143 -0.17565818
000130 92 8a 91 3e 7d 98 3f 3e a9 33 be 3e b3 2f 67 be
       0.28426033 0.18710513 0.3714879 -0.2257679
000140 d2 8d 38 bf d8 52 35 3f a7 72 dd be b1 18 12 bf
       -0.720914 0.70829535 -0.43251535 -0.57068926
000150 72 1e b4 be 7c 14 ca be 4d ae 02 bf 49 e4 1a 3f
       -0.35179478 -0.39468753 -0.5104721 0.60504586
000160 7d e6 17 bf fe 1d 4b 3e d7 d8 52 3d 04 36 a0 be
       -0.5933607 0.1983566 0.051476326 -0.3129121
000170 1f 04 ad be 36 f1 9a be 48 93 0d bf d3 ea 02 bf
       -0.33792207 -0.30262154 -0.5530286 -0.51139563
000180 c9 65 03 bf fe d0 f7 3c 7d 65 82 be 9b 4b 8d bd
       -0.51327187 0.030251022 -0.25468054 -0.06899186
000190 29 5c 98 be 8d e1 de 3e e9 58 77 be ec 1b 81 be
       -0.29757813 0.43531457 -0.2415501 -0.25216615
0001a0 bc 03 dc be 27 1b 16 3f 1e 8a ec be f1 70 83 3e
       -0.429716 0.5863518 -0.46199125 0.25672105
0001b0 6d db 49 bf 2f fd 63 be bf 34 00 bf db 97 71 be
       -0.7885044 -0.2226455 -0.50080484 -0.23593085
0001c0 1c 4c 56 bf e9 2a d7 3e b9 55 ea be cb 5b 92 be
       -0.83709884 0.42024925 -0.45768526 -0.28585657
0001d0 55 6a 3c bf c2 06 e0 be 85 84 25 bf 06 a4 45 3e
       -0.7359975 -0.43755156 -0.64655334 0.19300851
0001e0 c9 78 3d bf c7 95 a2 be 64 74 08 3f d7 1a e1 be
       -0.7401243 -0.31754896 0.533026 -0.4396579
0001f0 ab 8f 36 bf bb 00 06 bf d3 d0 05 bf b1 43 ea be
       -0.7131297 -0.52344865 -0.52271765 -0.4575477
000200 01 2a 23 bf 73 11 62 3e c8 a7 57 be 53 2f 60 be
       -0.6373597 0.22076969 -0.21060097 -0.21893053
000210 d4 7f 91 be b0 57 d2 be 06 70 cd be 01 e5 2a 3f
       -0.28417838 -0.41082525 -0.4012453 0.6675568
000220 03 64 2e bf d9 e7 83 3d e8 92 e8 3e c3 4d dd bc
       -0.68121356 0.06440706 0.4542458 -0.027014619
000230 ab c5 ed bc 9b 5e e0 be 12 26 12 bf e5 37 f3 be
       -0.02902492 -0.43822178 -0.5708934 -0.47503582
000240 a0 90 d2 be f1 ab 41 3f 62 23 77 bd 2b de 0e bf
       -0.41125965 0.75652987 -0.060336478 -0.5580775
000250 23 34 0a bf 6b 85 7b be d4 23 68 be 82 4d 19 3f
       -0.53985804 -0.24562614 -0.22669917 0.5988389
000260 43 2a e2 be 79 9d f5 bd e8 1f 99 3e 38 c4 fb be
       -0.44172868 -0.11992926 0.29907155 -0.4917314
000270 d0 46 11 bf cd 2a 23 bf ac 67 10 bf e1 90 4f be
       -0.56748676 -0.63737184 -0.5640819 -0.2027011
000280 38 87 36 bf 84 a1 1a 3e b5 81 d7 bd d0 ad 6a be
       -0.7130008 0.15100676 -0.105227865 -0.22917867
000290 5b 6e f1 be 15 8e ec be 4d 50 f9 be c5 71 1c 3f
       -0.47154507 -0.4620215 -0.48694077 0.611111
0002a0 bd 0d dc be 4e 85 74 bc 1a e5 b2 3e ca 9e 0e bf
       -0.4297923 -0.01492436 0.34940416 -0.5571104
0002b0 26 08 39 bf 35 ca 09 be 69 79 a3 be 06 e7 ee be
       -0.7227806 -0.13456042 -0.31928566 -0.46660632
0002c0 9f 2d 22 be 34 18 d7 3e 38 40 27 3e d7 22 c3 be
       -0.15837716 0.42010653 0.16333091 -0.38112518
0002d0 b6 2f 0d bf 3a ff 58 bd 33 92 e8 be 07 10 36 bf
       -0.55150926 -0.052977778 -0.4542404 -0.71118206
0002e0 d7 0b 8b be 52 75 0f 3e b2 14 86 be 70 d4 ac be
       -0.2715747 0.14009598 -0.26187664 -0.33755827
0002f0 fb 5d 13 bf d5 9f b2 be 6a 8e 6c bf 0c e6 20 3e
       -0.5756528 -0.34887567 -0.92404807 0.15712756
000300 b1 5c bf 3d 9a 52 d2 3e 79 b7 97 be 50 86 73 bd
       0.09343851 0.41078645 -0.29632166 -0.059454262
000310 85 0e 0a bf cc 90 57 be 3c 6d 38 be 4f 98 0e bf
       -0.53928405 -0.2105133 -0.1801042 -0.55701154
000320 0f de 30 bd ef 2a 58 3f 45 96 99 3d 1a 2c 8b be
       -0.04318052 0.8444051 0.07499365 -0.27182084
000330 2f 0c b0 be 4f a1 dd be 77 7b 3b bf 2e 62 5c 3e
       -0.34384295 -0.4328713 -0.7323527 0.21521828
000340 4b f6 d2 be 8f 68 e7 3e 33 ec d5 be 57 2b 82 be
       -0.41203532 0.4519696 -0.41781768 -0.2542369
000350 30 da 35 be da 7f 92 be 58 99 df be 35 d6 f7 3e
       -0.17759013 -0.28613168 -0.4367168 0.48405614
000360 9a 76 15 bf ea 73 ef 3d 24 b8 1f 3e 63 c6 b9 be
       -0.58384097 0.11692031 0.15597588 -0.3628417
000370 ed 3d 33 bf 99 0b 0b bf 24 d8 fc be aa 11 d9 3c
       -0.70016366 -0.5431457 -0.49383652 0.02649768
000380 ec 1c 22 3f e0 29 fb be f1 d5 68 bf 5e 16 fc 3d
       0.6332538 -0.49055386 -0.9095145 0.12308954
000390 da 62 f6 3d 2c d1 54 3e ad e3 ec 3e 7a bf 97 bf
       0.12030573 0.20782918 0.46267453 -1.1855309
0003a0 f8 34 c1 3e 11 a0 c3 3f c5 59 78 3e 7b b7 f3 be
       0.37735724 1.5283223 0.24252994 -0.47600922
0003b0 be 1f 13 be a2 5e d1 3e 82 54 a9 bd cc 88 47 3f
       -0.14367577 0.40892512 -0.08268072 0.7794311
0003c0 89 2a 02 bf 20 b7 f3 3e 2a 71 db be 8f 86 d3 be
       -0.50846153 0.4760065 -0.42859775 -0.41313598
0003d0 da 4c 16 bf 10 55 3d 3e f5 29 10 be 52 44 35 3f
       -0.58711016 0.1848948 -0.14078505 0.70807374
0003e0 c6 a0 c7 be 2a a9 73 3d 8a a0 c2 3e cc 73 08 be
       -0.38989848 0.0594875 0.38013107 -0.13325423
0003f0 01 98 90 be 4d 46 fd bc 95 b9 e5 be 49 41 ff be
       -0.2824097 -0.030917311 -0.4486815 -0.49854496

lstm.lstm.bias_ih_l0 f4 [64]
000000 52 1f cd 3e a3 0b cd 3e 03 91 d8 3e c7 1b ba 3e
       0.40062958 0.4004794 0.42298135 0.36349317
000010 8b 13 b1 3e 95 10 1e 3f 3d 0c 1c 3f fe 75 01 3f
       0.34585223 0.6174405 0.60956174 0.50570667
000020 31 ad 5a 3e ef 5b d3 3e 61 69 1e 3f 11 3c f0 3e
       0.2135513 0.41281077 0.61879545 0.46920827
000030 6c 8b b1 3e d2 cb c4 3e 8d 87 22 3d d3 63 65 3e
       0.34676683 0.38436753 0.039680053 0.22401361
000040 1f cd 21 3e 0c 7d b5 3e b2 a6 f9 3e 83 60 77 3e
       0.15800904 0.35446966 0.4875999 0.2415791
000050 91 1c 5f be 49 ce 06 3f 27 29 de 3d db 61 bb 3e
       -0.21788241 0.52658516 0.10847693 0.36598095
000060 8d a3 4f 3e 29 a7 b0 3e 84 16 f5 3e 92 0a aa 3e
       0.20277233 0.34502533 0.4786874 0.3321119
000070 e6 a2 8f 3e a3 96 f2 3e ba e4 9f bc 64 f3 d8 3e
       0.2805397 0.47380552 -0.019518245 0.42373192
000080 d1 83 44 3e a1 78 59 3d 29 73 d1 bd f8 07 67 3e
       0.19190909 0.053093556 -0.10227043 0.22561634
000090 c2 3e 81 be a4 93 a5 3e 9e 0c 2e be 37 82 f9 bd
       -0.25243193 0.32339203 -0.16997 -0.1218304
0000a0 4e 48 1b bd 35 31 0d bd ad f9 a4 bc 11 d5 9d 3e
       -0.037910752 -0.034470756 -0.020138586 0.3082662
0000b0 55 ae c5 bd c4 05 8d 3e 57 e0 17 bd d8 65 76 3d
       -0.09652392 0.2754346 -0.03707918 0.06015572
0000c0 fb 79 31 3f a7 d5 a7 3e 60 56 13 3f a5 6e e0 3e
       0.6932675 0.3278019 0.5755367 0.43834415
0000d0 36 b2 28 bd 98 a3 29 3e 53 f7 06 3f 41 9e ed 3e
       -0.04118558 0.16566312 0.52721137 0.464098
0000e0 a3 b3 cd 3e d3 95 0c 3f c8 f8 36 3f 23 35 13 3f
       0.40176114 0.54916114 0.7147336 0.57502955
0000f0 52 b0 ac 3e 15 61 06 3f a5 89 94 3e cf f5 a6 3e
       0.33728272 0.52491885 0.29011264 0.32609412

lstm.lstm.bias_hh_l0 f4 [64]
000000 05 65 b4 3e 7e 9f a4 3e d1 d4 c3 3e e4 24 23 3e
       0.35233322 0.32152933 0.38248304 0.15932041
000010 7b b1 2f 3c 08 a3 83 3e 14 d4 5a 3e ba 8f 49 3f
       0.010723467 0.2571032 0.21369964 0.78734934
000020 a7 5b 2b 3e d8 c4 49 3f f2 89 e5 3e ae 19 37 3e
       0.16734181 0.78815985 0.44831806 0.1788089
000030 ff 5c b2 3e dc 86 03 3f 42 d0 c4 3b 8d f5 fb 3e
       0.34836575 0.51377654 0.0060062716 0.49210778
000040 01 81 df 3e 7b a0 70 3e a1 d8 0c 3d 44 49 83 3e
       0.4365311 0.23498718 0.03438628 0.25641835
000050 9e af 8d bd 3c 94 08 3f 11 8d c8 3e ac a6 33 3f
       -0.06918262 0.5335119 0.39170125 0.70176196
000060 98 66 54 3e 23 36 95 3e c0 9f 7c 3e c8 a2 24 3e
       0.20742261 0.29142866 0.24670315 0.16077721
000070 65 9e b2 3e d0 0f 8d 3d 04 de b9 bd 79 df c0 3e
       0.3488647 0.068877816 -0.09075549 0.37670496
000080 6e c7 8e 3d 5c 85 84 bd fa 92 b1 bd 86 8c d7 3d
       0.06971632 -0.06470749 -0.08670612 0.105248496
000090 cd 0a 8a be 0c cb ae bc 61 84 34 3e da b3 79 3d
       -0.26961365 -0.021337055 0.17628624 0.060962535
0000a0 3e 5b 5f bd 4d 76 72 3e a4 90 93 bd 1e 5e 68 3d
       -0.054530375 0.2367794 -0.072053224 0.056730382
0000b0 8e 33 ab bc 71 f4 56 3e 54 21 cc be ce a8 29 be
       -0.020898607 0.20991684 -0.39869177 -0.165683
0000c0 bd 2a 1d 3f eb c1 1d 3f 9a 8a 00 3f 70 ce d7 3d
       0.6139334 0.6162402 0.5021149 0.10537422
0000d0 c8 7a c4 bc 46 42 f9 3e f8 a5 5d 3e c4 b9 f3 3e
       -0.023984328 0.48683375 0.21645343 0.47602665
0000e0 98 7f a0 3e b7 92 b4 3e 16 11 c5 3e 2a d4 a7 3e
       0.31347346 0.35268185 0.38489598 0.32779056
0000f0 d6 fe 48 3e 54 8d f3 3e c8 44 60 3e d7 f0 48 3e
       0.19628462 0.47568762 0.21901238 0.19623123

downstream.full.weight f4 [6, 16]
000000 42 93 d3 3e ac 00 1c bf e4 cf ba be c9 1c 1b 3e
       0.41323286 -0.60938525 -0.36486733 0.151477
000010 fe a1 4b be 3b 7c 07 3f 2b bd 32 3f 65 26 48 bf
       -0.19886014 0.52923936 0.698199 -0.78183585
000020 a5 5a 35 3f 76 29 41 3f c3 65 2d 3e a1 9f 3e 3d
       0.7084144 0.7545389 0.1693335 0.046538953
000030 7c 36 d2 3e 14 da 10 3f d7 97 15 bf dc 0f 0c 3f
       0.41057193 0.5658276 -0.58434814 0.547117
000040 29 4b 42 3f fa 09 79 bf b4 9f 6a 3e d1 25 09 3f
       0.75895935 -0.9728085 0.22912484 0.5357333
000050 de a2 a2 be 46 b5 ae 3e ba 40 64 bf 7e 13 37 bf
       -0.31764883 0.34122676 -0.89161265 -0.7151412
000060 a9 be 97 3e ff c6 16 be 60 15 b5 bf 53 e1 81 bf
       0.2963765 -0.14724348 -1.4147148 -1.0146888
000070 20 08 ee be e6 e7 8a 3f ca 1b ea be c2 a3 49 3f
       -0.46490574 1.085202 -0.45724326 0.787655
000080 7d 4c fc bd d1 76 5f 3f 03 c6 84 3f da 7d d3 be
       -0.123192765 0.87290674 1.0372928 -0.41306955
000090 4e 95 a5 be 7f b8 58 bf bc 48 52 be 93 48 77 3f
       -0.32340473 -0.8465652 -0.20535558 0.96595114
0000a0 ea 5f 8d bf 20 6f ca bf 3b 8b 9a 39 ab 02 25 3f
       -1.1044896 -1.5815163 0.00029476904 0.64457196
0000b0 e8 57 12 3e a4 20 44 bf 55 8b 35 3f c4 45 00 3e
       0.14291346 -0.76612306 0.7091573 0.12526613
0000c0 e8 8b ed be 25 5a a7 3c ad 04 90 bf ae b2 6b bf
       -0.46395802 0.020428726 -1.1251427 -0.9206952
0000d0 fd 07 cf be af f3 cf be 48 2e 76 3f ef 17 64 3f
       -0.40435782 -0.40615603 0.9616437 0.8909902
0000e0 e3 d2 2a bd af 9e 4c 3f 4c 83 9c 3f 2e de a6 3e
       -0.041705023 0.7992963 1.2227569 0.32591385
0000f0 65 fa aa 3f ed db 25 bf 69 26 3d bd 48 71 65 bf
       1.3357664 -0.64788705 -0.04617921 -0.8962598
000100 fb 8e 8b 3f f2 9b 5a 3f 2a 11 04 be 0c 4b fe 3d
       1.0903009 0.85394204 -0.12897173 0.12416658
000110 b8 d6 4f be d1 7e 16 bf 93 3a 08 3e e7 86 89 bf
       -0.20296752 -0.58787256 0.13303594 -1.0744294
000120 d4 7c 98 3e 62 5f b4 3d 3f a6 6e 3f 03 d5 47 bf
       0.29782736 0.08807255 0.9322242 -0.78059405
000130 8c d6 32 bf 26 3d 87 bf d7 5c dd be a6 f1 05 3f
       -0.6985862 -1.0565536 -0.43234894 0.5232185
000140 0a ce 91 bf ed c3 f6 be 30 19 81 3e 85 2f 01 be
       -1.1391003 -0.48196355 0.2521453 -0.12615784
000150 db 35 09 bf 95 61 43 3f cb 0e 13 bf d3 07 55 3f
       -0.535978 0.76320773 -0.5744445 0.83215064
000160 d4 02 c2 be 52 7b 45 3f 35 1f 9a bf 43 6f 09 3f
       -0.37892783 0.77141297 -1.2040774 0.53685397
000170 d8 67 fb bc 34 6b de 3e cc 38 95 bd fa 3f 84 bf
       -0.030689165 0.43441164 -0.07286224 -1.0332024

downstream.full.bias f4 [6]
000000 75 46 83 3e d9 30 d4 bd 32 5f 6b 3e 74 2f 65 be
       0.25639692 -0.103608795 0.22985533 -0.22381383
000010 3b 92 d6 bc 28 e4 12 bd
       -0.026192775 -0.035862118

maxpooling.full.weight f4 [16, 16]
000000 65 04 a7 3e 48 2b 23 3d 6d 1c a8 3e c6 37 01 3e
       0.3262054 0.039836198 0.32834187 0.12618932
000010 b0 14 f6 bd 94 d3 44 be 88 53 39 3d f5 af b7 3e
       -0.120156646 -0.19221336 0.045245677 0.35876432
000020 c6 75 1a 3e 52 64 10 be 04 9b 8a bd c9 11 b7 3e
       0.1508399 -0.14100769 -0.06767848 0.35755756
000030 f0 63 0f bd 46 f3 00 3e 8f 16 c1 3e e0 8d 9b be
       -0.035007417 0.12592801 0.37712523 -0.3038168
000040 2a 5d 42 3e b0 3d 54 bd f8 30 bf be 07 d5 dc 3e
       0.18980852 -0.051816642 -0.37342048 0.43131277
000050 e1 43 62 be 07 d2 c4 3e 2e f6 73 be c5 61 96 3e
       -0.22096206 0.38441488 -0.23824379 0.29371467
000060 1d 94 b0 3e cc 4a 8a bd e0 88 7b 3d 45 c0 bd be
       0.34488 -0.067525476 0.06140983 -0.37060753
000070 d0 98 30 bd 86 ef 4c 3e 86 f1 12 3e 82 87 a9 be
       -0.043114483 0.20013246 0.14349946 -0.33111197
000080 94 f5 95 bd 18 45 88 be a0 a1 9b be c0 09 b3 be
       -0.07322231 -0.26615214 -0.30396748 -0.34968376
000090 37 9c ad 3e 30 21 a5 be 58 c9 94 be 32 67 14 3e
       0.33908245 -0.32251883 -0.29059863 0.14492491
0000a0 3c 23 d8 bd 12 c7 5b be d5 bc 8a 3e 89 d5 90 3e
       -0.105535954 -0.21462658 0.27097192 0.28287914
0000b0 79 0c 94 3e 3a 3a 82 be a8 41 95 be 2e de 94 be
       0.28915766 -0.25435048 -0.29151654 -0.2907576
0000c0 13 9b aa 3e c0 d4 98 bb 31 8b a3 3e 17 a1 bb be
       0.33321437 -0.0046640337 0.31942132 -0.3664634
0000d0 29 6a c6 3e d8 2f 72 3d b6 df 12 be da 43 32 3e
       0.3875287 0.05912766 -0.14343151 0.17408696
0000e0 10 0d 84 3d 9c cf b6 3d 87 cf b5 3e f6 55 08 3e
       0.06447804 0.08926317 0.35509893 0.13314041
0000f0 38 56 2f bd b2 87 15 3e 79 e7 a0 3e b2 a8 d4 be
       -0.042806834 0.14602545 0.314266 -0.41534954
000100 a8 18 43 3d 60 30 71 bc 2c e4 9c bd 84 54 78 be
       0.047630936 -0.014721006 -0.07660708 -0.2425099
000110 2e 53 1b 3e ce f7 06 3e d5 4b bc 3e 1b 33 3f be
       0.1516845 0.13180467 0.36776605 -0.18671839
000120 08 4a 60 bd 60 81 76 bc c2 6c 3e be fe bb 79 3e
       -0.0547581 -0.015045494 -0.18596175 0.2438812
000130 a1 ea c6 3e 80 6b 9a be 7a 68 49 3e 62 93 54 3e
       0.38850883 -0.3016014 0.19668761 0.20759347
000140 07 5d 8d 3e c9 6b 83 3e c7 90 b9 3e 2b 29 7c be
       0.27610037 0.2566817 0.3624327 -0.2462508
000150 40 0c 67 3c 40 a4 c0 be 1a 1a 28 be 47 85 db 3e
       0.014102042 -0.37625313 -0.16416207 0.4287512
000160 00 e2 60 ba ec 94 99 be e8 45 1a 3d e6 4a 5f be
       -0.00085785985 -0.2999643 0.037664324 -0.21805915
000170 a5 12 87 3e 93 c3 81 3e 00 b7 a4 bd 04 77 fc bd
       0.26381412 0.25344524 -0.08042717 -0.12327388
000180 c2 00 55 3e 13 ea da 3e 1b 84 a9 3e b7 2a b9 3e
       0.2080107 0.4275671 0.331086 0.361654
000190 4b 81 d5 be 00 76 15 3a 2d f8 d6 3e 2f f9 92 be
       -0.41700205 0.00057014823 0.41986218 -0.28705737
0001a0 ec a8 f2 3d 4a 9f 0e 3e 24 2f 9b be 00 19 c4 bc
       0.118486255 0.13927951 -0.30309403 -0.023937702
0001b0 51 70 6f be e1 19 92 3e 8d c8 ba 3e ac e7 23 be
       -0.23382689 0.2853537 0.36481133 -0.16006345
0001c0 9a 3d 5b be a0 ba c0 be 98 2b bc be e7 f7 9a 3e
       -0.21410218 -0.37642384 -0.3675201 0.3026726
0001d0 2e 9c ad be 90 b7 8a 3c 0c e7 9d 3d 0c 91 af be
       -0.33908218 0.016933233 0.07710084 -0.3429035
0001e0 de f9 09 3e 8e bd 8f be f9 bf 6e be 2c 30 a7 3d
       0.13474223 -0.28074306 -0.2331542 0.08163485
0001f0 72 30 a5 be 52 cf 31 3e 2f a2 b9 3e 75 6e ac be
       -0.32263523 0.17364243 0.3625655 -0.33678022
000200 58 82 cd be bd 07 90 3e 76 59 6c be aa 30 67 3e
       -0.40138507 0.28130904 -0.23081002 0.22577158
000210 78 a5 47 3d 80 2a 74 bc 9b 09 aa 3e c6 0e cf be
       0.048741788 -0.014902711 0.33210453 -0.4044096
000220 70 d1 14 bd 5c 1d c5 3d 00 45 d2 3b 90 0d 8d be
       -0.036332548 0.096247405 0.006416917 -0.2754941
000230 02 ae b9 be b2 7a 4a 3e 98 a9 48 be 00 8c dd ba
       -0.3626557 0.19773367 -0.19595945 -0.0016902685
000240 fa ac aa be 11 ff bd 3e ea 98 5c 3e c4 78 94 3d
       -0.33335096 0.37108663 0.21542707 0.07249597
000250 9c 29 35 be 39 71 a1 3e f6 4c 4e be 18 c8 07 3d
       -0.17691654 0.31531695 -0.20146546 0.03314981
000260 50 66 94 bd 04 91 d6 bd 73 75 dd 3e 46 f8 0d be
       -0.07246077 -0.10476878 0.4325367 -0.1386424
000270 86 cf 21 3e 05 12 82 be 75 43 b5 3e a7 be b7 3e
       0.1580182 -0.25404373 0.35403028 0.35887644
000280 be 05 9f be b3 68 d0 3e a6 74 13 3e 5a 30 be be
       -0.31059068 0.4070488 0.14399967 -0.37146264
000290 18 c5 39 bd e4 fd b1 3d 61 95 a9 be 56 e2 96 be
       -0.04535398 0.08691004 -0.3312178 -0.29469556
0002a0 78 c6 16 be 43 f6 c8 3e 98 03 b1 bd 02 bf 5c 3e
       -0.14724147 0.39250383 -0.086432636 0.21557239
0002b0 94 71 f5 3d 76 49 43 3e 6c f1 2f be b7 43 4d be
       0.11984554 0.19070992 -0.17181939 -0.20045362
0002c0 bc d0 09 be d4 6b 92 bd b0 e6 b7 be 51 59 aa 3e
       -0.13458532 -0.07149473 -0.35918188 0.33271268
0002d0 13 a0 80 3e 2b c5 c2 be e5 1a c8 3e e0 d0 67 3d
       0.25122127 -0.38041052 0.3908302 0.056595683
0002e0 0a 64 2d 3e 7b c0 c4 3e 09 e2 ba 3e 80 f0 51 3c
       0.16932693 0.384281 0.36500576 0.012813687
0002f0 00 c4 1b 3b 12 f1 3f 3e f8 03 65 3d 6e 97 a1 be
       0.0023767948 0.18744305 0.055911988 -0.31560844
000300 f9 85 a8 3e 3b 45 d9 3e 0a 74 58 3e 79 54 bc 3e
       0.32914713 0.4243563 0.21138015 0.36783198
000310 53 82 8c 3e a3 a1 9d 3e ee 55 80 be 8e 4c 9a be
       0.2744318 0.30787382 -0.2506556 -0.30136532
000320 89 1c da 3e c7 53 84 3e ee a9 37 3e 58 3a 2d be
       0.42599896 0.25845167 0.17935917 -0.16916788
000330 d9 02 86 3e 64 64 cc 3d 75 45 88 be 35 fe 52 be
       0.26174048 0.099800855 -0.26615492 -0.20604785
000340 e7 5c b6 3e e0 da fe 3c 6b 48 89 3e 5d 09 ac 3e
       0.35617754 0.031110227 0.26813063 0.33600894
000350 c5 45 b4 3e 46 bd 0a 3e fb f7 b5 3e 8a 83 2d be
       0.3520948 0.13548765 0.35540757 -0.1694471
000360 1f 64 b8 be 65 da 95 3e fa 5a 26 3e f3 85 ae 3e
       -0.36013886 0.29268184 0.16245642 0.3408657
000370 0f a3 d6 be 80 52 bf 3b 80 90 52 3c e2 13 25 3e
       -0.4192128 0.005838692 0.012851834 0.16120866
000380 98 3f d1 bd 35 7c c3 3e fc 99 c0 be 8e 11 27 be
       -0.10217208 0.381807 -0.3761748 -0.1631529
000390 80 9b da bd 45 5f bd 3e 06 cf 2e 3e b8 25 84 be
       -0.106741905 0.36986747 0.1707116 -0.25810027
0003a0 76 09 74 be 10 20 8d 3c d4 99 9f bd e0 15 7c bd
       -0.23831734 0.017227203 -0.07793012 -0.0615443
0003b0 24 01 15 be 38 91 8a bd e8 65 75 bd 40 57 c9 bb
       -0.14551216 -0.067659795 -0.05991164 -0.006144434
0003c0 de 56 1d 3e f6 5f 19 3e f7 43 b7 be 90 18 b7 bd
       0.15365168 0.14978012 -0.3579404 -0.08940232
0003d0 4f 47 d9 3e 32 db 73 3e 84 ea 95 bd e8 e2 fd bd
       0.42437217 0.23814085 -0.07320121 -0.123967946
0003e0 66 b2 8b be ea 39 22 3e 61 fa b1 3e c1 81 9e be
       -0.27284545 0.15842405 0.34761336 -0.3095837
0003f0 db d0 d4 3e 66 f5 6b 3e 60 ec f0 3c e0 60 7d 3d
       0.41565594 0.23042831 0.029409587 0.061859965

maxpooling.full.bias f4 [16]
000000 26 25 3d be 48 87 66 be 32 c3 48 be 30 c9 87 3c
       -0.18471202 -0.22512543 -0.19605711 0.016575426
000010 78 a3 0b bd 60 0a 16 be f8 b9 50 bd 28 46 22 3d
       -0.034091443 -0.14652395 -0.050958604 0.039617687
000020 88 23 26 be 32 c5 48 3e cc f6 32 be e6 33 39 3e
       -0.16224492 0.19606474 -0.17476958 0.18086204
000030 90 2b 60 bd 38 1d dd bd 6a 2a 68 be 40 d1 83 bd
       -0.054729044 -0.10796589 -0.2267243 -0.06436396

mean.full.weight f4 [16, 16]
000000 12 30 05 be 68 37 3c be 6c 5b b5 3d 33 7e a5 3e
       -0.13006619 -0.18380511 0.08855328 0.32322845
000010 d2 04 83 be 0e fb bc be aa 81 28 3e a4 49 0e be
       -0.25589615 -0.3691029 0.16455713 -0.13895279
000020 5c f7 99 be 4c fc af 3d 48 80 c1 be 64 0a de 3d
       -0.30071533 0.08593044 -0.37793183 0.108418256
000030 cc 2e bd 3d 14 83 98 3d 2f f0 a7 3e de 78 3f 3e
       0.092374414 0.07446876 0.32800433 0.18698451
000040 ae 1d 0d 3e cf be d0 3e 0d e4 91 3e 32 77 30 3e
       0.13780853 0.40770575 0.284943 0.1723297
000050 6a 3f 1a be 65 c5 63 be eb 5a 42 be 60 e4 38 bc
       -0.15063253 -0.22243269 -0.18979995 -0.011284918
000060 18 05 81 be 08 48 f0 bd 74 d9 f0 3d 80 65 dc bb
       -0.251992 -0.11732489 0.11760226 -0.006725967
000070 80 c7 f8 3b ec 87 d2 bd 3a b3 ce be 3b 8b b3 3e
       0.0075921416 -0.10279831 -0.40371114 0.35067162
000080 52 13 8f be 97 fc c5 be 78 46 d5 bd a6 b5 77 3e
       -0.27944428 -0.38669273 -0.104138315 0.24190387
000090 10 b3 92 bd c5 91 49 be 1a 13 af be 5a 4c 74 3e
       -0.0716306 -0.19684513 -0.3419426 0.23857251
0000a0 89 db c5 3e a0 4a 54 3d c1 cf 80 3e 5f c1 d3 3e
       0.38644055 0.05182898 0.25158504 0.41358468
0000b0 18 1c 16 bd 75 72 c4 3e 17 b8 84 3e 6c c9 8c 3d
       -0.036647886 0.38368574 0.259217 0.06874356
0000c0 6e 0a ae be 78 06 2d be 30 5f 81 bd 2f 74 92 3e
       -0.33992332 -0.16896999 -0.06316984 0.28604266
0000d0 20 40 3d 3d f7 09 b0 3e c0 1b 72 3d 4c 19 1f be
       0.046203732 0.34382603 0.059108496 -0.15536994
0000e0 02 17 48 3e b3 b0 d1 be 96 2a 0b 3e cd 1d 90 3e
       0.19540027 -0.40955123 0.13590464 0.28147736
0000f0 17 6f a2 3e 08 1e 75 3d 54 03 c0 3d 1d 3c 87 3e
       0.3172538 0.059843093 0.09375635 0.2641305
000100 5b 55 8f 3e 70 62 c6 3c 66 2d b5 be b1 c4 b6 be
       0.2799481 0.02421686 -0.353862 -0.3569694
000110 87 04 a4 3e b6 70 4b 3e 94 b3 28 be 97 ae c3 3e
       0.32034704 0.19867215 -0.16474754 0.3821914
000120 4a 1b 47 3e 5d ef 9b 3e 14 e0 fa 3d 23 15 9a be
       0.19444004 0.30456057 0.12249771 -0.3009425
000130 e9 8a 60 be e7 43 8e 3e 18 a6 fb bd 44 82 d5 be
       -0.2192799 0.2778618 -0.12287539 -0.41700947
000140 ea 6e 00 3e ac c5 b7 be c2 4d 2f be 00 11 4f 3c
       0.1254231 -0.35893 -0.17119506 0.01263833
000150 cd 65 d0 3e 8c a0 f8 3d cb 29 63 be cc fb c6 3d
       0.40702668 0.12139997 -0.22183912 0.09715995
000160 84 10 90 3d 25 c1 83 3e e1 3b 57 be 0d 8b 97 3e
       0.070344 0.25733295 -0.21018936 0.29598275
000170 f8 7a b0 be 0a 27 9f be 46 2f 2d be e8 81 a9 be
       -0.34468818 -0.31084472 -0.16912565 -0.33106923
000180 5f 44 82 3e 80 db 67 bd 09 85 a6 3e 2c 8e f0 3d
       0.25442788 -0.056605816 0.32523373 0.11745867
000190 d8 99 e5 bd 46 26 78 3e 34 1b ca bd e1 c2 9a 3e
       -0.11210984 0.2423335 -0.0986847 0.30226806
0001a0 80 f4 13 3b d8 4d 65 bd 14 09 a7 3d 9a 2f 4f be
       0.0022576153 -0.05598244 0.081560284 -0.20233002
0001b0 e0 f1 0c bd b2 37 77 3e 20 a6 04 bc a1 1a 8a 3e
       -0.034410357 0.2414234 -0.008096248 0.2697344
0001c0 c6 ce 2a 3e 2d c5 8d be 00 ea 9e 3c a5 d9 cd be
       0.1668044 -0.27689496 0.01939869 -0.40205112
0001d0 c2 63 9c be 3c 11 de 3d a2 f5 5d 3e 9e 00 af be
       -0.3054486 0.10843131 0.21675733 -0.34180158
0001e0 ac ef d4 bd 8b 14 c3 3e 6c da da 3d 94 19 cd bd
       -0.10397276 0.3810161 0.10686192 -0.10014644
0001f0 58 ef 72 bd 30 3d e1 bd 18 40 25 3d 03 d4 54 be
       -0.059310287 -0.10997999 0.040344328 -0.20784001
000200 e8 0f 66 bd 24 58 b5 3d 29 bf d4 be 8e c6 43 be
       -0.056167513 0.08854702 -0.41552094 -0.19118711
000210 a0 13 8c 3c 30 ac 17 3d 7d 1e ce 3e 5d 48 90 3e
       0.017099202 0.037029445 0.40257636 0.2818021
000220 bf 30 cb be e5 7b d1 3e cb 77 96 3e 6c a3 d2 3d
       -0.39685628 0.40914837 0.2938827 0.102850765
000230 63 4b a5 3e 00 6c 23 bb 00 f2 17 bc cf 1a d3 3e
       0.32284078 -0.00249362 -0.009274006 0.4123139
000240 df 7a 5d be 1a f7 1f 3e 6e 91 39 3e 5d c6 bb be
       -0.21628903 0.15621606 0.18121883 -0.36674777
000250 29 bd a6 be ac a0 fb 3d 8d 68 83 3e 73 5c 7e be
       -0.32566193 0.12286505 0.25665703 -0.24839954
000260 7d cf c1 be 33 11 dd 3e a1 f9 80 3e 09 4e d7 3e
       -0.37853613 0.43177184 0.25190452 0.42051724
000270 2a 9c 06 be c9 d8 9f 3e 2b a4 a1 be 1a ea 47 3e
       -0.1314551 0.3122008 -0.31570563 0.19522896
000280 84 ba 22 be 3a 45 b6 be e0 3e 5e bc 0a 23 a4 be
       -0.15891463 -0.3559969 -0.013564795 -0.32057983
000290 a4 d9 bb be f0 3a 7b bd d1 bb 87 3e 78 45 7f bd
       -0.36689484 -0.061335504 0.2651048 -0.06232211
0002a0 15 e6 c1 3e 92 94 ba be 39 2f 9b be 02 45 d1 be
       0.3787085 -0.36441475 -0.30309466 -0.4087296
0002b0 e0 2c e4 bc 96 3a 26 3e b5 47 ae 3e a8 2c ca be
       -0.02785343 0.16233286 0.34039083 -0.39487195
0002c0 ab 1e d2 3e 3e 65 6e be a5 ca d5 3e e0 db 95 bd
       0.41039023 -0.23280808 0.41756168 -0.073173285
0002d0 86 fd 18 be f0 26 b4 be 48 ce 41 bd 78 99 4e bd
       -0.14940462 -0.35185957 -0.047315866 -0.050439328
0002e0 af 51 a7 be 2d 53 8a be 79 62 c5 3e 50 75 37 3d
       -0.32679507 -0.27016583 0.3855169 0.044789612
0002f0 2c 16 b9 bd 19 08 b1 3e 87 b3 b4 3e 75 ea b2 3e
       -0.09037432 0.3457649 0.35293218 0.34944502
000300 f3 7f ae 3e 88 37 61 3d 6c c4 f3 3d e6 ad 98 be
       0.34081993 0.0549846 0.11902699 -0.29820174
000310 00 92 41 3c ac 81 ca 3d 88 49 54 3d 58 00 08 bd
       0.011814594 0.09888014 0.051827937 -0.033203453
000320 33 30 91 3e 8b 3a 83 3e ef dc b1 3e da 96 5c 3e
       0.28357086 0.25630602 0.3473887 0.2154192
000330 00 9e f1 bc 80 85 4c bc 4d e8 da 3e d4 76 c8 bd
       -0.029494286 -0.012483001 0.42755356 -0.0978829
000340 80 1e 1a bd 8c f7 b5 3d c9 e9 80 3e 92 a7 13 be
       -0.037626743 0.088851064 0.25178364 -0.14419392
000350 03 0c 3f be f4 c4 8a 3d bb 08 d2 be 78 62 cb bd
       -0.18656926 0.06775847 -0.41022286 -0.09930891
000360 74 ca d4 3d 64 38 5d be 46 c1 0e 3e 40 ee 94 bd
       0.10390177 -0.21603543 0.13940915 -0.07272005
000370 9c 32 9d be 55 1f ac be c4 14 95 bd b6 c4 27 3e
       -0.30702674 -0.33617654 -0.07279351 0.16383633
000380 de 9b 10 3e 06 08 73 be 3a 2f 41 3e a2 10 22 3e
       0.14121959 -0.2373353 0.18865672 0.15826657
000390 a2 42 6c 3e 1e ee 5e 3e 0f 26 81 3e 0e 1b 67 3e
       0.23072293 0.21770522 0.2522435 0.22568914
0003a0 37 a8 bb be a0 46 b0 bc 42 29 7f 3e 2d 80 d0 3e
       -0.36651775 -0.021518052 0.24918082 0.4072279
0003b0 99 c0 9c 3e da cb 8b be 90 f5 5a 3d 6f 76 d4 3e
       0.3061569 -0.27303964 0.053456843 0.41496608
0003c0 58 85 02 be 1c 3d df 3d c0 9e 69 bd 6f fb c0 3e
       -0.12746179 0.109003276 -0.05703616 0.3769183
0003d0 11 1a b5 3e 27 c2 c6 be d3 87 b4 be 0d 75 da 3e
       0.3537145 -0.3882 -0.35259876 0.42667428
0003e0 d8 55 75 bd d4 61 d6 3d 51 83 87 3e d3 54 c4 be
       -0.05989632 0.10467878 0.26467374 -0.38345966
0003f0 2b 57 8d 3e bf 84 87 be a1 15 9f be 7a 28 83 be
       0.27605566 -0.26468465 -0.3107119 -0.2561682
