best_model/acc/citeseer-b-h_dropout=0_wd=0_b=256_lr=0.01_walk=0_best_model.pt (torch_old, 725205 bytes, 15 tensors)

embedding.full.weight f4 [16, 3703]
000000 52 d1 c4 3c a3 5c 06 3d 0c 26 8f 3c 73 0d 22 3d
       0.024025593 0.03280319 0.017474197 0.039563607
000010 7c 62 9d 3c 08 1e a1 bb 63 59 13 3d 63 13 09 3d
       0.019212 -0.00491691 0.035973918 0.033465754
000020 78 c6 2f 3c bc 21 57 3c e2 84 25 bc 8f 4c 9c bc
       0.010728471 0.0131306015 -0.0101024825 -0.019079475
000030 30 9b fb bb 18 ba 1a bd a0 f4 3c 3b ce c9 ad 3c
       -0.007678412 -0.03777513 0.0028832331 0.021214392
000040 40 0c b4 3a ee b5 c0 3c c3 7f 12 3d 40 a7 da 3a
       0.0013736561 0.02352425 0.035766374 0.0016681924
000050 8a be ad 3c 9c 70 6d bc 98 fe 43 3c fa 5b c9 3c
       0.02120902 -0.01449218 0.011962555 0.02457999
000060 90 18 a1 bb 8c 7a 35 bc 22 7c 36 bc f3 18 a0 bc
       -0.004916258 -0.011076581 -0.011137994 -0.019543147
000070 00 c8 e8 38 c0 9f e3 bc 9d c8 b3 bc 68 4e 9b 3c
       0.00011099875 -0.027786136 -0.021946246 0.018958285
000080 9e a2 43 bc cc ea f3 bc 8f 35 01 3d 7a e7 f0 3c
       -0.011940626 -0.029775046 0.031545218 0.029407252
000090 c8 69 7d bc 63 7c 14 3d a7 d8 0e 3d c0 aa b8 bc
       -0.015467115 0.036251437 0.034874585 -0.022542357
0000a0 52 e5 96 bc 10 8e bd 3b a9 a4 21 3d 1b 11 c5 bc
       -0.018419895 0.0057847574 0.039463673 -0.024056008
0000b0 d2 c2 86 3c 3c f3 1b 3c e5 d2 0e 3d 68 59 8b bb
       0.01645032 0.009518441 0.034869093 -0.0042526014
0000c0 9f 94 12 bd 60 b6 96 bc 5c 5d 80 3c 58 79 c6 3b
       -0.035786267 -0.01839751 0.015669517 0.006056946
0000d0 08 9d 0b bd f9 de 23 3d f0 fb 72 3c 1a e4 2f bc
       -0.034085304 0.040007565 0.014830574 -0.010735536
0000e0 60 c9 9a 3b 8e 71 e9 3c 75 59 24 3d 0d f5 13 3d
       0.004723713 0.02849653 0.040124375 0.03612237
0000f0 88 b4 a8 3b be c1 88 3c 50 ea 83 bb 40 06 dc 3b
       0.005148474 0.016693946 -0.004025735 0.0067146122
000100 f8 21 c0 bb 0e e1 cf bc 4b 10 11 bd 00 92 4e b9
       -0.0058634244 -0.02537587 -0.03541593 -0.0001970008
000110 34 6c 72 3c 90 11 b5 3c d0 1c 2f 3c c1 f5 02 3d
       0.014796305 0.022103101 0.010688022 0.03197265
000120 0c 21 1e bc 08 12 02 3c d2 e3 87 3c ad cc 04 bd
       -0.009651434 0.007938869 0.016588125 -0.032421757
000130 04 ec 8c bc ba 5d ce bc 39 fd 0e bd 7c 74 99 3c
       -0.017202385 -0.025191177 -0.03490946 0.018732302
000140 54 b2 7d 3c c0 74 61 3a 90 40 ac bb a3 a6 ab bc
       0.015484411 0.0008600466 -0.00525672 -0.020953482
000150 4a 5b d2 3c 6d 1a c3 bc f4 c2 02 bc 50 7c 13 3b
       0.025678296 -0.023816312 -0.007981051 0.0022504516
000160 f0 22 bf 3b 5a 6a b9 bc c6 06 9a 3c e9 81 04 3d
       0.0058330223 -0.02263372 0.018802058 0.032350454
000170 50 77 38 3c a8 6b fc 3b a5 ef 19 3d 2e af c6 3c
       0.011258915 0.0077032633 0.03758206 0.024253454
000180 be de d2 bc aa ea ea 3c d3 5e 20 3d 5a fb 16 bc
       -0.025740977 0.02867635 0.03915293 -0.0092152
000190 0b ab 18 3d e8 cb 26 3c 90 c0 38 bb b2 ea d6 bc
       0.037272494 0.010180451 -0.0028190948 -0.026234958
0001a0 90 89 63 bb 93 a6 1b 3d 81 a6 84 bc de e2 f0 3c
       -0.0034719445 0.038000654 -0.016192676 0.029405054
0001b0 41 74 06 3d 00 ce 3f bc 08 9f 17 3c 10 f6 77 bc
       0.032825712 -0.011706829 0.009254225 -0.015134349
0001c0 56 ab a9 bc 27 db 14 3d d2 6e d4 3c 4e 3c 85 bc
       -0.020711582 0.036341812 0.02593175 -0.016264107
0001d0 80 e6 57 3a e0 50 87 ba 50 93 02 3b 5a 9b c5 3c
       0.00082359463 -0.0010323785 0.001992423 0.024121929
0001e0 f0 26 6b 3b 20 3e 7f bc aa 61 9b 3c da 7a e4 3c
       0.0035881363 -0.015578777 0.018967468 0.027890611
0001f0 c6 ef 99 bc ba 3b 8c bc d0 20 ad bb 97 ba 03 3d
       -0.01879109 -0.017118324 -0.0052834526 0.032160368
000200 ff a9 80 bc aa cd bc bc ee f4 f2 3c 96 0c a5 3c
       -0.01570606 -0.023047287 0.029657807 0.020147603
000210 90 9c e2 bc a6 2d 91 3c 1a 7f 67 bc 12 a2 0d bd
       -0.027662545 0.017721962 -0.0141294245 -0.03457839
000220 30 d0 05 3c 3d dc 16 3d 5a 90 ed 3c 38 29 d2 bc
       0.008167312 0.03683113 0.028999496 -0.02565442
000230 2f f4 1e 3d 61 0b b4 bc 9c df 3e bc a8 9d aa 3b
       0.03880709 -0.021978082 -0.011649992 0.0052067824
000240 24 7a 61 3c 6a 0d e5 bc 50 4a 8e bb b6 1f fa 3c
       0.013762031 -0.027960498 -0.004342355 0.0305327
000250 5c 1d 6a 3c eb bc 0c 3d ac 5f 5e 3c 28 83 f1 bc
       0.014289226 0.034359854 0.013572615 -0.029481485
000260 76 ee c9 3c 00 8d 00 ba e8 8f 59 bc cc 5d b2 3c
       0.02464984 -0.0004903823 -0.013278939 0.021773241
000270 5c e4 26 bc f0 60 88 3c dc 59 08 bc 38 8f 0b 3c
       -0.010186281 0.016647786 -0.008322205 0.008518033
000280 06 24 20 bd 21 81 1e 3d 0c 8d 04 bc f2 84 c8 3c
       -0.039096855 0.038697366 -0.008090269 0.024477456
000290 c8 4f f5 bb 2e 26 e1 3c 20 24 5e bb 92 bf cc 3c
       -0.0074863173 0.027484026 -0.0033896044 0.024993692
0002a0 a6 66 7a bc db a5 17 3d 3b 75 01 3d 28 95 86 bb
       -0.015283262 0.037023406 0.03160594 -0.0041071363
0002b0 da 86 df bc e8 88 34 3c 5e 61 bc 3c 36 03 91 bc
       -0.027285982 0.011018969 0.022995647 -0.017701726
0002c0 95 c5 d8 bc 45 ca 0c bd f0 3d b7 3b 78 49 74 bc
       -0.026461402 -0.034372587 0.0055921003 -0.014910094
0002d0 50 73 37 3b c0 11 f8 bc 58 b7 fb bc 7b b6 17 bd
       0.0027992316 -0.030281901 -0.030727074 -0.03703926
0002e0 02 af 9f bc 90 f5 55 3c b2 59 0c bd 1a 52 9b 3c
       -0.01949263 0.013059035 -0.034265228 0.018960048
0002f0 54 66 84 bc d8 fc 83 3b 6c 5f a5 3c b4 cc 15 bd
       -0.016162075 0.004027944 0.020187102 -0.036572173
000300 c0 31 3b 3a f7 05 18 3d a2 5c 16 bd 00 db 4d bc
       0.0007140897 0.037115064 -0.036709435 -0.012564421
000310 94 14 63 3c 40 79 3e bc 6f 79 0f 3d 4b 02 c0 bc
       0.013859887 -0.011625588 0.035027917 -0.023438593
000320 16 3a 49 bc 89 cc 1a bd 64 c1 52 bc bd 1d 10 3d
       -0.012281915 -0.037792716 -0.012863491 0.03518461
000330 48 dd 1b 3c 9c 74 9e 3c c0 f0 da bb 6e 44 4a bc
       0.009513207 0.019342713 -0.0066815317 -0.0123454165
000340 a0 a9 77 bc 78 6f 06 bd 39 a7 21 bd 44 55 b9 bc
       -0.015116125 -0.03282115 -0.039466117 -0.022623666
000350 f3 50 0c 3d a8 91 5c 3c dc 15 48 3c 3a 40 98 bc
       0.034256887 0.0134624615 0.012212243 -0.018585313
000360 e6 5f 04 bd e8 bf 0c 3c 50 15 98 3b d4 fa 12 3c
       -0.03231802 0.008590676 0.0046412125 0.008970935
000370 f8 cf 11 3c 20 cd a0 ba b2 51 ba 3c bf 28 a5 bc
       0.008899681 -0.0012268163 0.022744033 -0.02016103
000380 d5 ad d6 bc 6e 37 2b bc dc cd 76 bc b6 57 c7 bc
       -0.026205936 -0.010450227 -0.015063729 -0.024333816
000390 83 51 f7 bc da 7d c8 3c 5e e6 a3 3c 32 8e 8f 3c
       -0.030190235 0.024474073 0.020007309 0.017523859
0003a0 87 e8 0f 3d 30 85 de 3b 40 0a 2f bb 54 3b 70 3c
       0.035133865 0.0067907795 -0.002670899 0.014662582
0003b0 a4 e9 15 3c f0 f4 50 bb a1 50 1f 3d b8 a7 9a 3c
       0.009149943 -0.0031884275 0.038895253 0.018878803
0003c0 59 dd b9 bc 09 02 c2 bc b3 a1 8f bc 6e 3f 09 bd
       -0.022688555 -0.023682611 -0.017533159 -0.033507757
0003d0 cc 4d 24 3c fe c8 f0 3c 12 24 2b bc 30 c1 8d bb
       0.010028314 0.029392716 -0.010445612 -0.0043260083
0003e0 80 4d 87 b9 02 31 ea 3c 2e ac a4 bc 54 85 9b 3c
       -0.00025806949 0.028587822 -0.020101633 0.018984474
0003f0 32 04 65 bc d3 9d 90 bc 40 68 bf ba 60 bd 47 bc
       -0.013978051 -0.017653381 -0.0014603212 -0.012191147

embedding.full.bias f4 [16]
000000 4c b0 c6 3b 90 27 8f bb 34 7e 80 bc 02 4c 34 bc
       0.0060634967 -0.00436873 -0.015685178 -0.01100445
000010 74 4f 40 bb 44 a2 29 bc 12 ad 44 3c d8 00 5d bb
       -0.0029344233 -0.010353629 0.012004154 -0.0033722427
000020 12 a1 3a 3c 80 26 4b b9 9d 0d 85 3c 58 51 c3 3b
       0.011390941 -0.00019373931 0.016241843 0.0059606247
000030 3a 9b 1f 3c 6c cf 64 bb 56 d3 33 3c a0 9e 02 3c
       0.009741599 -0.0034913672 0.010975679 0.007972389

aggregator.full.weight f4 [16, 7406]
000000 42 aa 25 bf 8e 11 1c bf e5 9b 29 3f 63 f4 12 bf
       -0.6471292 -0.60964286 0.662535 -0.57404155
000010 a1 02 49 bf 2a 70 13 bf d3 52 8c bf 28 0b 8d be
       -0.78519636 -0.57593024 -1.0962776 -0.27547574
000020 d6 af 7a 3f 34 e5 3b 3f b2 55 40 bf 44 54 1e 3f
       0.97924554 0.7339661 -0.7513076 0.6184733
000030 7d 35 00 3f de 2a 18 3e ac e5 33 3f 0d a3 79 3f
       0.50081617 0.14860103 0.70272326 0.9751442
000040 5e c1 82 bf a0 e6 fb 3e f2 62 41 bd 35 9e 09 bf
       -1.0215261 0.4919939 -0.047213502 -0.5375703
000050 b8 3c 51 bf cb 20 e2 be 62 cb 5a 3f fb 98 1c bf
       -0.81733274 -0.44165644 0.8546659 -0.6117093
000060 fa eb 77 3e 25 f2 23 3f 74 78 09 3f c6 24 b4 be
       0.24211112 0.6404136 0.5369942 -0.35184306
000070 b6 0d 54 3e d7 4e 6a 3e 4e 93 d9 3e 49 a9 6a bf
       0.20708355 0.22881638 0.42495197 -0.9166456
000080 11 66 48 3f 10 5e 3b bf 00 8d cd 3c fe f0 0a bf
       0.7828074 -0.73190403 0.025091648 -0.54273975
000090 cc ce 9b bf 1f cc 84 be a5 da db 3e 5c 93 9d bf
       -1.2172484 -0.25936982 0.4294025 -1.2310596
0000a0 44 37 97 bc d1 c2 d5 bd 6e 32 3a bf 40 a9 aa bf
       -0.01845897 -0.10437549 -0.727332 -1.3332901
0000b0 02 2d 4d be f0 d7 11 bf 25 62 47 be 26 dd a7 bd
       -0.200367 -0.5697012 -0.19471033 -0.081964776
0000c0 28 9f c5 bd 7a 15 76 bd ea 2c f4 3e 7b 7e 74 bd
       -0.09649497 -0.060079075 0.47690517 -0.059690934
0000d0 c5 5b 3e 3e 80 99 21 3f 35 f1 ef be 1c dd a4 3d
       0.18589695 0.6312485 -0.46863714 0.08049986
0000e0 e4 b2 af 3e 12 c7 a9 bf 46 fc 65 be 57 e7 47 3f
       0.3431617 -1.3263876 -0.22459516 0.7808737
0000f0 13 8b 05 bf e6 2d b4 3e 91 70 7c 3f 8b 49 62 3f
       -0.52165335 0.35191268 0.9860926 0.8839347
000100 04 e3 47 bf 78 bf bb bf 34 96 8a bf 80 ea 15 be
       -0.78080773 -1.4667807 -1.0827088 -0.14640236
000110 bd c7 4e bf ce a4 fa 3e 52 48 40 3f 7e f6 7b 3d
       -0.80773526 0.4895386 0.7511035 0.06151437
000120 3f 9e bd be 12 89 d8 be 89 42 1d bf 6b 03 36 bf
       -0.37034795 -0.42292076 -0.6142965 -0.71098965
000130 80 92 e9 be 89 c2 ba 3d d3 33 33 3f 56 c3 d7 bd
       -0.45619583 0.09119136 0.7000095 -0.10535304
000140 4b 4c 88 3e c1 48 be be 5c 1a b9 bd 91 6f ad be
       0.26620707 -0.37164882 -0.09038231 -0.3387418
000150 d7 f8 28 bf d6 6e 72 bf f9 16 6a bf e0 0f 00 bf
       -0.660047 -0.9470037 -0.91441303 -0.50024223
000160 70 fb 5e bf 88 41 e3 3d e3 ce a3 3e c2 2f 08 3f
       -0.87102413 0.110964835 0.3199378 0.5319787
000170 89 a8 48 3f 37 2c 59 3f 9f 24 12 bf 29 43 09 bf
       0.78382164 0.8483309 -0.5708713 -0.53618103
000180 99 60 22 3f bc a0 27 3e 6b 17 bb be 9f a3 68 3f
       0.63428646 0.16369909 -0.36541304 0.90874666
000190 08 20 40 3f c7 50 76 3f 4d 48 67 bf 2f c5 91 3e
       0.75048876 0.96217006 -0.903447 0.28470752
0001a0 a2 0f 9e 3e 5d 56 23 3f a6 f2 97 3f ca eb a2 3e
       0.30871302 0.63803655 1.1870925 0.31820518
0001b0 be 74 81 3f ee ad f5 3e 26 b6 e8 3e 75 c5 94 be
       1.0113752 0.4798426 0.45451468 -0.29056898
0001c0 65 d6 b1 3f 0e e2 47 3f 23 bd 86 be 9c 91 41 3f
       1.3893553 0.7807931 -0.26316175 0.7561281
0001d0 32 05 eb 3e 83 a6 76 be e4 22 f8 bd 83 8e d6 be
       0.459024 -0.24086957 -0.1211603 -0.41905603
0001e0 3f 70 de 3e a1 9c 64 3f bf 42 b7 be b6 53 c9 3e
       0.43445012 0.89301497 -0.3579311 0.3932168
0001f0 6b 2b 5a 3f 37 7b 5f 3f f0 cc 55 3f 0e 15 b6 be
       0.852225 0.87297386 0.83515835 -0.35562938
000200 95 a1 d1 be 33 a4 ab bf 5a ea 2e 3e 35 ad 1f be
       -0.4094359 -1.3409485 0.17081586 -0.15593417
000210 45 25 be 3d 95 9f 4b be a5 42 60 bf f2 5a f8 3e
       0.09284452 -0.19885094 -0.8760169 0.48506886
000220 2b 69 0e 3e 84 61 99 3d 56 71 b5 3e f1 5d 3f bf
       0.13907306 0.07489303 0.3543803 -0.7475272
000230 cf 01 3e bf c8 6e 2f 3f 70 db c4 bd 4d 3e 74 be
       -0.7422151 0.68528414 -0.09612167 -0.23851891
000240 05 db a9 3e cb 41 eb 3d b3 6b 29 bf 07 9a 88 3f
       0.3317491 0.114871584 -0.6617996 1.0672005
000250 53 e3 58 be 7b 0b d9 3d e8 12 85 bf 51 36 25 3f
       -0.21180467 0.10597893 -1.0396395 0.64536005
000260 6f 0c 2c 3e 2a c0 4f 3e fa e5 95 bf 8f 9b 84 bf
       0.16801618 0.20288149 -1.1710808 -1.0359973
000270 62 2c 87 be 82 8b 83 3f 7c 71 f7 3d 9f 47 85 bf
       -0.2640105 1.027695 0.12082192 -1.0412482
000280 ae 05 3e bf 76 a3 d5 3e de b3 bb 3e bb 24 c3 3e
       -0.74227417 0.41726273 0.36660665 0.3811396
000290 5b 3d 26 3e d5 7e 6f be ce b3 c5 be fb fb 99 3f
       0.16234343 -0.23388226 -0.38613743 1.2030023
0002a0 7a f1 09 3f 12 ae 3c 3e a0 d3 ef be ac 59 92 bf
       0.5388409 0.18425778 -0.46841145 -1.1433616
0002b0 d1 b2 03 3f 1b 97 9f bf 6a cd 38 3f 0a 9d e0 be
       0.5144473 -1.2467989 0.72188437 -0.4386981
0002c0 63 81 04 3f 75 9e 6f bf 95 ec b3 3e 25 21 6a bf
       0.5175993 -0.9360116 0.35141435 -0.91456825
0002d0 6f bd 9f bd 61 2c 3b 3f d1 b3 cb be af 51 17 bf
       -0.077998035 0.7311459 -0.39785627 -0.59109014
0002e0 4b b4 a4 3f de ce fc 3d d6 f9 a2 3d ff 81 31 3f
       1.2867521 0.12344144 0.07957809 0.69338983
0002f0 96 2c ea bc bd d0 b6 3e f6 21 b6 bc 8f d7 85 bf
       -0.028585713 0.3570613 -0.02223299 -1.0456408
000300 2c 6e 2f bf ab 8a e2 bd c2 c7 4b 3e 5e a1 8e bf
       -0.68527484 -0.11061605 0.1990042 -1.1142995
000310 02 8d 0d 3f b5 eb 14 bf d1 c3 3c bf fc 9d 3d bf
       0.55293286 -0.5817216 -0.7373629 -0.7406919
000320 5f 98 2e bf c0 60 45 be 81 f5 72 be eb d1 20 3f
       -0.6820125 -0.19275188 -0.23726465 0.6282031
000330 26 1e 76 bf c6 da c0 be e1 be 0d 3f c6 b4 2f bf
       -0.9613975 -0.3766691 0.55369383 -0.68635213
000340 82 53 f9 3d d2 82 19 bf 12 7f 9a bf 64 a8 b3 be
       0.12174131 -0.5996524 -1.2070029 -0.3508941
000350 3c bc cf be 92 d2 cf be ad 8e 2e bd 40 0a c1 bf
       -0.405733 -0.4059034 -0.042616535 -1.5081253
000360 97 2d e6 3e 92 33 49 be 45 bb 22 3f fd 69 7f bd
       0.44956657 -0.19648579 0.63567 -0.062356938
000370 bd 08 26 3f 6e 35 3b bf e6 de 77 3f 45 fe 59 3e
       0.64857084 -0.731284 0.9682449 0.21288402
000380 bb c5 88 be 38 44 57 bd c7 c7 a3 be 14 a7 4a bf
       -0.26713356 -0.052555293 -0.31988356 -0.7916119
000390 e3 87 b1 3e ce f7 06 bf 1d fc 1b bc e0 a2 88 3f
       0.34673986 -0.5272187 -0.009520558 1.0674706
0003a0 0c 37 a2 bf 01 66 4d be 53 60 9a bd b3 87 b4 be
       -1.2673049 -0.20058443 -0.07537904 -0.3525978
0003b0 18 6c a0 3f 77 95 c1 3e d5 f9 f6 be 66 89 4a be
       1.2532988 0.37809345 -0.48237482 -0.19778976
0003c0 39 4a 67 bc 5f 21 0e 3f 94 0e a7 3d c9 b3 70 bf
       -0.014116817 0.5551967 0.081570774 -0.9402433
0003d0 6a 56 0d bf 2d ac b8 be ff c6 86 bf 8d 30 85 bf
       -0.5520998 -0.3606886 -1.0529479 -1.0405442
0003e0 0e 24 22 bf 59 ff 38 3f d8 e0 bc bf 0b 18 3e bf
       -0.63336265 0.7226463 -1.4756117 -0.74255437
0003f0 4f 5b 29 3a 84 83 48 3e 05 06 83 3f f8 e8 49 3f
       0.00064604444 0.19581419 1.0236212 0.7887111

aggregator.full.bias f4 [16]
000000 59 15 1e bd 50 47 54 bd 8b 33 ff 3d 8f 87 b9 bc
       -0.038594577 -0.05182582 0.12461003 -0.022647647
000010 f8 35 5f bd ea f0 9d 3c 46 ed 0b bd ed ff 2b bd
       -0.054494828 0.019279916 -0.03416183 -0.041992117
000020 78 b6 e8 3d d4 19 08 bd fa 8e 11 bc 17 16 04 3e
       0.11362928 -0.033227757 -0.008884186 0.12899052
000030 65 a2 35 bd 4b ba 4a bd 2c a7 c8 3b fd d6 f2 3b
       -0.044344325 -0.04949407 0.006123444 0.0074108825

step.full.weight f4 [1, 32]
000000 53 ef 11 3e 9b 9b 32 be b7 29 2d 3e 4a 00 67 bd
       0.14251451 -0.17442171 0.16910444 -0.05639676
000010 f8 39 55 bd 68 2e 4f bd cf 22 2f 3e d0 02 05 bd
       -0.052057236 -0.050581366 0.17103122 -0.032473385
000020 9a 5f bf 3d db 78 01 be aa f1 b3 bd 00 3c 0c b9
       0.093444064 -0.12643759 -0.08786328 -0.00013373792
000030 fc 93 6c bd 07 61 b3 bd b6 21 c1 3d da b5 e0 3d
       -0.057758316 -0.08758741 0.09430258 0.109721854
000040 6d 0f 33 3e 63 df 24 be e3 59 04 be 12 04 c5 bd
       0.17486353 -0.1610084 -0.12924914 -0.09619917
000050 99 4f 32 3e 9d ae 05 3e 1f 1e 25 3e 70 d3 20 bc
       0.17413177 0.13054891 0.16124772 -0.009816036
000060 60 f8 13 bd f5 51 a2 bd 30 c1 0f bc 50 a2 8f bc
       -0.03612554 -0.07925788 -0.008774087 -0.017533451
000070 6f e5 26 3e 1f 76 17 be f0 8b 4c 3d ee 76 a8 3d
       0.1629846 -0.14791153 0.049938142 0.08225809

lstm.lstm.weight_ih_l0 f4 [64, 16]
000000 d1 a0 0d 3f 27 32 14 3f e3 fb 4f 3f d0 b6 04 3f
       0.5532351 0.57889026 0.81243724 0.5184145
000010 d2 ce 2a 3f e2 7c 19 3f e4 49 df 3e 56 98 5a 3f
       0.6672183 0.5995618 0.43611062 0.85388696
000020 4f 99 4b 3f 4a 65 de 3e 6b 6b 09 3f a8 d8 27 3f
       0.79530805 0.43436652 0.5367953 0.65564966
000030 83 dc 31 3f dd 16 4f 3f 17 ff 3a 3f 6c 37 02 3f
       0.694771 0.8089426 0.73045486 0.5086582
000040 ac 74 af 3e 7b 9d 5b 3f 2a 84 f2 3e 48 f5 e4 3e
       0.342687 0.8578717 0.47366458 0.44718385
000050 04 97 4d 3f 5d 8f 75 3f 44 1a 07 3f c9 b2 b8 3e
       0.80308557 0.9592188 0.52774453 0.36073902
000060 40 3f d3 3e 64 cf 19 3f 62 c3 ba 3e 14 5d 90 3e
       0.41259193 0.6008208 0.3647719 0.28196013
000070 fe 89 e0 3e 42 62 01 3f 49 d2 2d 3f 5b 4f 2b 3f
       0.4385528 0.50540555 0.67898995 0.6691796
000080 27 b6 f2 3e fe 15 c0 3e 8b 6d 1c 3f 4f 36 0f 3f
       0.47404596 0.3751678 0.6110465 0.55942243
000090 59 c3 24 3e 54 2a 9c 3e ae 70 00 3f e4 a5 3a 3f
       0.16090144 0.30501044 0.50171936 0.7290938
0000a0 e1 54 a9 3e b9 0a 04 3f fb 59 2c 3f 48 cb f8 3e
       0.3307257 0.5157886 0.673248 0.4859259
0000b0 87 93 2c 3e 1b 07 d2 3e 31 86 d1 3e 59 cd 97 3e
       0.16853152 0.41021046 0.40922692 0.29648855
0000c0 34 a4 43 3f 14 ac bc 3e 7b 5d 0d 3f e5 73 27 3f
       0.7642243 0.36850035 0.55220765 0.65411216
0000d0 fb e9 51 3f 81 52 b2 bd f5 95 0b 3f f4 44 15 3f
       0.8199765 -0.087071426 0.5452569 0.5830834
0000e0 9c ea 91 3e b5 78 22 3f 0d 7c 2a 3f 1c 6f 15 3f
       0.28499305 0.63465434 0.66595536 0.58372664
0000f0 c3 61 32 3f 71 f0 87 3d 3e 3e f1 3e 28 92 a8 3e
       0.6968042 0.066376574 0.471178 0.32924008
000100 d6 23 b5 3e 95 5d a0 3d 3b 2d d1 3e 68 34 df bd
       0.35378903 0.07830349 0.4085482 -0.108986676
000110 53 04 0d 3e 2a 43 4b bd 83 0b b0 bd f9 0d 37 3d
       0.13771181 -0.0496246 -0.08595946 0.04469106
000120 46 78 01 be cb 10 c4 bc 13 bc 58 3e 1a e4 fe 3e
       -0.12643537 -0.023933789 0.21165495 0.49783403
000130 05 b4 ae 3c 52 a9 91 3e 0d 16 12 3e e7 a7 a1 3e
       0.021326074 0.28449494 0.14266224 0.31573412
000140 72 8c 0a 3f 69 52 2c 3f 11 b9 75 3d ad d6 60 3e
       0.5412055 0.6731325 0.059990946 0.21956892
000150 5e 70 df 3e 04 6f 2f 3f 0e 44 01 3f d2 19 41 3f
       0.43640417 0.6852877 0.5049447 0.75430024
000160 21 3b d4 3e e5 c3 4f 3f df 6e a1 3e a2 87 72 3e
       0.41451362 0.81158286 0.315299 0.23684552
000170 04 96 d0 3e 0e ac 13 3f 4d f5 33 3f 03 de a9 3e
       0.40739453 0.5768441 0.70296174 0.33177194
000180 62 42 6c 3e 53 92 7e 3d 62 19 78 3f f3 c6 91 3c
       0.23072198 0.062151264 0.9691373 0.017795062
000190 a9 81 04 3f 5c 89 2a 3f ab 21 e7 3e 0c 14 31 3e
       0.51760346 0.66615844 0.45142874 0.17292804
0001a0 58 fd 1c 3f b0 42 a3 3e 10 38 c1 3e d7 0e 4f 3f
       0.6132407 0.31886816 0.37738085 0.8088202
0001b0 84 29 11 3f 55 bf dd 3e 30 e9 01 3f ae 0a 13 3f
       0.5670397 0.43310037 0.5074644 0.5743817
0001c0 2a f2 1d 3f 30 b4 46 3f f5 1e fe 3e b3 71 34 3f
       0.6169764 0.77618694 0.49632993 0.7048599
0001d0 2a a8 28 3f 1d cb 2d 3f 27 2d 27 3f eb f8 0c 3f
       0.658816 0.6788805 0.6530327 0.5506732
0001e0 98 53 fb 3e 1c f0 0a 3f 07 50 75 3f 21 b0 06 3f
       0.49087214 0.5427263 0.9582524 0.526125
0001f0 74 cb 0c 3f e9 3e 2c 3f a2 8a 0c 3f 82 63 e2 3e
       0.54997945 0.67283493 0.54899037 0.44216543
000200 be b1 3b 3f c0 12 0a 3f 7a df 91 3d 8a a5 c5 3e
       0.7331809 0.5393486 0.07122703 0.3860286
000210 c0 66 68 3f ff ce 4f 3f 8b a3 f0 3e d5 76 6a 3f
       0.90781784 0.81175226 0.46999773 0.91587573
000220 46 6f 0e ba 83 b3 52 3f e0 6d 7a 3f b9 d8 62 3e
       -0.0005433451 0.82305163 0.97823906 0.22152986
000230 db 11 40 3f 35 b4 c9 3e 8f 04 0c 3f 5b a8 e1 3e
       0.75027245 0.393953 0.54694456 0.44073758
000240 a2 99 ce 3e 75 dd e4 3e dc ce 94 3e b2 6d dc 3e
       0.40351588 0.44700208 0.2906407 0.4305244
000250 f7 e3 f8 3e 0f 5b 27 3f 52 f4 1d 3f 54 5c e2 3e
       0.48611423 0.6537332 0.6170093 0.44211066
000260 02 c2 ae 3e e5 ea 3d 3f c5 7b 59 3f 22 be a4 3e
       0.3413239 0.74186546 0.8495448 0.3217631
000270 60 39 09 3f b2 f6 3e 3f cb d2 2a 3f dc f4 30 3f
       0.5360317 0.7459518 0.66727895 0.69123626
000280 74 d9 1f 3f cb a8 00 3f 44 f9 0e 3f 58 cc 3a 3f
       0.6244118 0.5025756 0.558491 0.72968054
000290 39 3e 2e 3f 3b 1e dd 3e c3 1a 46 3f 38 a8 18 3f
       0.68063694 0.43187127 0.77384585 0.5963168
0002a0 d4 66 96 3e 96 e6 38 3f 9e b5 8c 3e af e4 01 3f
       0.29375327 0.72226846 0.27482313 0.5073957
0002b0 ee ab 1b 3f 5d 74 fc 3e 7f 61 03 3f 4d 7f 7d 3e
       0.6080922 0.49307528 0.5132064 0.24755593
0002c0 b0 25 0d 3f 07 0f d8 3e 44 23 f0 3e 84 e0 bb 3e
       0.5513563 0.42198965 0.46901906 0.3669473
0002d0 b4 c8 ff 3e 69 da c9 3e 97 00 13 3f 78 0c 19 3f
       0.49957812 0.39424446 0.57422775 0.5978465
0002e0 d7 bc 6a 3f 07 dd 86 3e ec 4f 63 3d 85 af 3f 3f
       0.91694397 0.26340505 0.05549614 0.74877197
0002f0 28 60 46 3d 0d b1 31 3f f2 92 46 3f cf a9 56 3f
       0.048431545 0.69410783 0.7756797 0.8385286
000300 81 d2 21 3f cd fb 97 3e 08 f9 49 3f 1b 51 b4 3e
       0.6321183 0.29684296 0.78895617 0.3521813
000310 12 1b 9a 3e e3 49 ca 3e 52 12 c7 3e ff 56 ce 3e
       0.30098778 0.39509496 0.38881165 0.40300748
000320 36 e7 42 3f a7 4a 8d 3e e6 aa 71 3e df cf 12 3f
       0.7613405 0.27596018 0.23600349 0.57348436
000330 88 f2 f1 3e 6d c9 48 3f ac a2 2b 3f b2 c2 ff 3e
       0.4725535 0.7843235 0.6704509 0.49953228
000340 4d ac 8e 3e a3 a8 53 3f ac b3 14 3f 6f a6 9b 3e
       0.2786583 0.82679194 0.5808666 0.30400416
000350 69 8f 14 3f 54 87 1f 3f 3e c1 4e 3f ea 68 94 3e
       0.58031327 0.6231587 0.80763614 0.28986293
000360 69 1e e3 3e c1 d0 29 3f 41 8b d4 3e 42 7d e5 3e
       0.4435914 0.6633416 0.41512492 0.44822127
000370 64 fb ba 3e bb 10 22 3f f0 54 da 3e f5 a6 fa 3e
       0.3651992 0.6330678 0.42642927 0.48955503
000380 8a 10 fe 3d e2 ee 7a 3d d6 5b 80 3f dc 20 38 3f
       0.12405498 0.061262973 1.0028026 0.7192514
000390 11 65 e9 be 4a b8 ea be eb 70 19 3e 1f a0 9f be
       -0.4558492 -0.45843726 0.14984481 -0.3117685
0003a0 41 20 71 3f 23 40 07 bf 84 0c 09 bf 84 7b 71 3f
       0.9418984 -0.5283224 -0.5353472 0.94329095
0003b0 68 17 bf be df 97 2d 3f 4d 44 43 3f 79 2d 63 bd
       -0.37322545 0.6780986 0.76276094 -0.055463288
0003c0 a9 14 2b 3f 36 8b a3 3e 26 de c8 3e 25 e0 be 3e
       0.668284 0.31942147 0.39231986 0.37280384
0003d0 e9 9c 41 3f 1f 60 ba 3d b2 35 47 3f f8 c4 be 3e
       0.7563005 0.09100365 0.7781631 0.3725965
0003e0 71 93 01 3e b9 97 09 3f c4 03 36 3f ed 34 22 3f
       0.126539 0.53747135 0.71099496 0.6336201
0003f0 0c 3b 40 3f d1 49 92 3d 8b 02 30 3f 5d 91 8c 3e
       0.750901 0.071429856 0.6875388 0.27454653

lstm.lstm.weight_hh_l0 f4 [64, 16]
000000 94 5e 0b be 8c c0 9d 3d f0 35 b2 3c cc fe c5 3d
       -0.13610297 0.07702741 0.021754235 0.09667739
000010 94 fe ef bd 60 78 01 be 82 45 7e 3e ce 81 5b be
       -0.11718479 -0.12643576 0.24831203 -0.21436235
000020 0c f1 50 be 78 b9 34 3e 3e 9b 4c be 06 c9 36 be
       -0.20404452 0.17648876 -0.19981095 -0.17850122
000030 a4 39 b9 3d 10 f0 65 be f8 67 00 3e 50 1b 51 bd
       0.09044197 -0.22454858 0.12539661 -0.051051438
000040 b8 09 55 3e c8 a9 ca bd da a9 77 3e 7c ee 22 3e
       0.20804489 -0.098956645 0.24185887 0.15911287
000050 d0 7c d5 3d be e4 55 3e b0 05 c8 3c 78 54 df 3d
       0.10424197 0.2088804 0.024416775 0.10904783
000060 e0 c8 24 be bc 8a 89 3d 10 17 15 be 06 8a 0e be
       -0.16092253 0.067159146 -0.14559579 -0.1391984
000070 38 52 6c 3e 00 6c 9b bd 88 03 6e 3d b4 68 88 bd
       0.23078239 -0.07588959 0.058108836 -0.066605955
000080 ec c2 77 be d4 ee bb bd c0 0f 14 be 98 87 62 be
       -0.2419545 -0.09176412 -0.14459133 -0.22122037
000090 60 ef a5 bd f0 0b 44 bd 2a b3 6b 3e 50 d5 5b 3e
       -0.08102298 -0.047862947 0.23017564 0.21468091
0000a0 e0 e3 1d be 48 22 69 bd 10 e6 7f 3e 94 fb ae 3d
       -0.15418959 -0.05691746 0.24990106 0.085440785
0000b0 58 33 5d bd b6 d3 45 3e f8 5d 7d bd 40 e4 7e 3c
       -0.054004043 0.19319043 -0.061857194 0.015557349
0000c0 30 fb 84 bc 8a 6b 7d 3e 80 53 dd 3b 90 f0 5a 3e
       -0.016233057 0.24748054 0.0067543387 0.2138083
0000d0 e8 3a d4 3d e0 76 7b 3c 6e 34 1f 3e 30 be f6 bd
       0.10362798 0.015348166 0.15547344 -0.12047994
0000e0 00 8a 9b 3a 90 79 d8 bc 50 96 ac 3c 58 41 19 3e
       0.0011866689 -0.026425153 0.021067768 0.14966333
0000f0 9e 57 68 be 28 41 44 bd 00 00 f9 37 90 6e 8e bc
       -0.22689673 -0.0479137 2.9683113e-05 -0.017386705
000100 e8 e9 3b 3d c0 00 b6 3b 0e 5e 5b 3e 20 71 d6 bc
       0.045877367 0.0055542886 0.21422598 -0.02617699
000110 84 c6 16 be c0 d6 17 3c a2 09 7f be d2 e2 77 3e
       -0.14724165 0.009267509 -0.24906018 0.24207619
000120 98 d0 0e 3e e8 f4 d3 3d 9c eb ea bd 98 83 14 be
       0.1394676 0.103494465 -0.1147072 -0.14503324
000130 c0 bf 9b bc d0 f6 ee bc 82 0b 33 be b0 90 e0 bc
       -0.019012332 -0.029170424 -0.17484859 -0.027412742
000140 50 40 5f be d6 97 31 3e 0a a1 6b be a8 4a 7a be
       -0.21801877 0.17343077 -0.2301065 -0.24442542
000150 60 01 9b 3d 32 bb 1f be 08 88 b5 bd 04 6d 03 be
       0.07568622 -0.15598753 -0.088638365 -0.12834555
000160 f4 6c 08 be e4 79 51 3e 12 e5 6d be 00 35 08 3b
       -0.13322812 0.20456654 -0.23231915 0.0020783544
000170 00 5a b0 3b 40 dc fd 3d 30 a5 3b bd a8 5d 62 be
       0.0053818226 0.12395525 -0.045811832 -0.2210604
000180 42 f5 3b be 1a ad 19 3e 28 9e 90 bd d2 57 65 3e
       -0.18355277 0.1500744 -0.07061416 0.22396782
000190 a0 65 3d 3e 7e fc 51 3e 90 a3 68 3d fe da 2f 3e
       0.18495798 0.20506474 0.05679661 0.17173383
0001a0 00 46 94 3b 3e 59 67 3e d0 e6 33 3d f6 a9 47 3e
       0.004524946 0.22592637 0.04392129 0.19498429
0001b0 42 01 69 be 68 1c 86 bd 6c 57 1c 3e b0 ce 76 bd
       -0.22754386 -0.06548387 0.15267724 -0.060255706
0001c0 e8 e7 d3 bd e8 21 88 bd c0 3f 31 bc cc db 2f 3e
       -0.10346967 -0.06647092 -0.010818422 0.1717369
0001d0 2a 5d 78 be 00 a1 27 bc fc 5f 19 be de 2a 41 be
       -0.2425429 -0.0102312565 -0.14978021 -0.18864009
0001e0 ec 52 1d be a0 7d b9 3c 30 f3 92 3d 40 6f cc 3b
       -0.15363663 0.02264291 0.071752906 0.006238848
0001f0 06 0c 06 be 68 35 39 bd a4 21 30 3e 80 c1 37 bb
       -0.13090524 -0.045216948 0.17200333 -0.002803892
000200 8c 6a 80 3d 94 18 06 be 30 b3 d5 bd 3a 53 6d 3e
       0.06270322 -0.13095313 -0.10434568 0.2317628
000210 0a 88 27 3e 9e f3 23 be ea c8 3f be 00 97 d0 3d
       0.16360489 -0.16010901 -0.18728986 0.10185051
000220 20 80 8f bd a0 e5 6c 3e b4 dd 1e 3e 74 18 2b be
       -0.0700686 0.2313447 0.1551426 -0.16708547
000230 22 7b 6d 3e 88 9e 33 3d d0 eb 2a bd e4 df da bd
       0.23191503 0.04385236 -0.041728795 -0.10687235
000240 42 1e 24 3e 24 60 69 3e e6 df 38 3e 32 c3 31 be
       0.16027167 0.22790581 0.1805416 -0.17359617
000250 c8 af df bd 90 91 78 3d aa 9e 35 3e 24 4e 37 be
       -0.109221995 0.060685694 0.17736307 -0.17900902
000260 ec 41 bb 3d f8 4d d3 3d 58 32 62 bd 7e f8 23 be
       0.09143433 0.10317606 -0.055223793 -0.16012761
000270 e8 54 0e be f8 c1 1f be 00 8a 8d ba 9c 55 2e 3e
       -0.13899577 -0.15601337 -0.0010798573 0.17024845
000280 00 43 68 be 2a 4f 62 be 5a 5e 39 3e 70 12 50 3d
       -0.22681808 -0.22100511 0.18102399 0.050798833
000290 98 fa ab bd 04 eb 66 be c0 e1 44 bd 10 ef ca 3c
       -0.08397406 -0.22550589 -0.048066854 0.024772197
0002a0 d0 de e4 3c 70 72 d6 3c b0 61 d3 3d aa e7 4a be
       0.027938277 0.026177615 0.10321367 -0.19814935
0002b0 c8 5a 63 be dc 57 32 3e 8c 76 79 3e 12 d1 49 be
       -0.22202599 0.17416328 0.24361628 -0.1970866
0002c0 80 87 f5 3b 84 9f ea 3d e8 9e 70 3e 60 09 15 be
       0.0074929595 0.114562064 0.23498118 -0.14554358
0002d0 e0 f1 5a bd cc cf b0 3d 94 51 de 3d 5a 3d 69 be
       -0.053453326 0.08633384 0.108554035 -0.2277731
0002e0 84 59 74 3e a8 66 be 3d 4c 31 97 3d 7e 61 09 be
       0.23862273 0.09296924 0.073824495 -0.13416097
0002f0 16 e5 1f 3e 84 3f 86 3d 20 a2 66 be 30 53 35 3e
       0.15614733 0.065550834 -0.22522783 0.17707515
000300 70 54 66 3d 86 94 35 3e 74 e2 db 3d 1a b9 03 3e
       0.05623287 0.17732438 0.10736552 0.1286358
000310 22 83 1b be a0 33 76 3d 00 3c 2a 3b 08 cc 6d bd
       -0.15186742 0.060107827 0.0025975704 -0.058055907
000320 00 93 91 3d 4c b4 48 3e 2e 4e 00 be 80 de 1e bc
       0.07108116 0.19600028 -0.12529823 -0.009696603
000330 78 3d 21 3e 30 47 8e bd c4 41 a3 bd ce f5 31 3e
       0.15746105 -0.06947172 -0.07971528 0.17378923
000340 4e 0b 6e be 20 b1 17 bc 1e 0c 70 be 44 b2 9d bd
       -0.232465 -0.0092585385 -0.23442122 -0.07700017
000350 10 d8 53 3e a0 ba 09 3c 10 01 a8 bc 08 e4 17 3e
       0.2068789 0.008406311 -0.02050832 0.14833081
000360 68 82 fa bd 98 5b 0c 3d ee dd 6c be 60 c8 cc 3c
       -0.12231904 0.034267038 -0.23131534 0.02499789
000370 c4 ed f3 bd 94 cc 8b bd 10 5a 1f 3e 00 a9 cf 3b
       -0.119105846 -0.068261296 0.155617 0.006337285
000380 34 24 a2 3d 60 8d 68 bc 88 e4 8c bd bc 79 37 be
       0.079170614 -0.014193863 -0.068795264 -0.17917532
000390 b8 cd eb 3d 4a 55 3d be e2 bf 15 3e aa 26 72 be
       0.11513847 -0.18489566 0.14623979 -0.23647562
0003a0 6c e9 ed bd 8c f2 7c 3e c0 67 36 3d 06 31 0e be
       -0.11616787 0.247019 0.044532537 -0.13885888
0003b0 60 04 1c 3d 90 c4 88 bc 50 58 41 3e 74 42 59 3e
       0.03809011 -0.01669529 0.18881345 0.21216756
0003c0 20 29 8e 3d 30 8e 15 3e 9c 09 1c be 80 17 ed bd
       0.06941438 0.14605021 -0.1523804 -0.11576748
0003d0 44 bb 4e be 3e 9f 5e 3e 08 f3 75 3e 56 d1 03 3e
       -0.20188624 0.21740434 0.2401849 0.12872824
0003e0 20 72 5f 3c f6 1d 5f be a6 65 4b 3e c8 1a dd 3d
       0.013638049 -0.21788773 0.19862995 0.10796124
0003f0 c0 4c 3d 3c 44 e7 47 3e c0 96 6a bc f2 cb 30 be
       0.011553943 0.19521815 -0.014318168 -0.17265299

lstm.lstm.bias_ih_l0 f4 [64]
000000 4f ef 0a 3f eb 01 11 3f 1f 05 d8 3e ad b4 cd 3e
       0.54271406 0.5664355 0.42191407 0.40176907
000010 6a 5c 8b 3e d7 be 1b 3f 86 8c 4e 3f 2a f8 1f 3f
       0.27218944 0.60838073 0.8068317 0.62488043
000020 57 a8 ae 3e b0 03 e9 3e 0f 72 25 3f bc e3 2d 3f
       0.34112808 0.45510626 0.64627165 0.6792562
000030 80 36 17 3f 77 69 03 3f 78 a5 64 3e e7 5c 88 3e
       0.59067535 0.513328 0.22328746 0.2663338
000040 4c c2 78 be 20 98 eb 3c b2 24 7c 3e 26 11 2c 3e
       -0.24292868 0.028759062 0.24623373 0.16803417
000050 80 ff 03 bd 60 38 5e 3e 34 bf 5a be c6 74 12 be
       -0.032226086 0.21701193 -0.21362 -0.14302358
000060 98 3b b8 3d ac a7 02 be d8 c8 43 3d 90 86 8d 3d
       0.089957416 -0.12759274 0.04779896 0.069104314
000070 d8 62 e8 3d d2 ef 6c 3e 68 5c 18 bd c4 fb 85 3d
       0.11346978 0.23138359 -0.0371975 0.06542161
000080 e8 e6 6e 3e 6b 5c 05 3c 24 e2 9a bb 96 62 c8 3e
       0.23330271 0.00813971 -0.004726665 0.39137715
000090 38 0d 36 3d 92 85 ce 3e ab 5d 27 be 40 46 33 be
       0.0444462 0.4033628 -0.16344325 -0.17507267
0000a0 67 8f dc 3d da d2 d4 bc ef 26 dd bd df a9 b4 3e
       0.10769539 -0.025979448 -0.107984416 0.3528585
0000b0 54 b3 b0 bd 08 7f c9 3e b3 17 0b 3e 93 7b 47 3e
       -0.08627954 0.3935473 0.1358326 0.19480734
0000c0 95 31 54 3f a3 14 f4 3e 8e 93 19 3f 59 1b f0 3e
       0.82888156 0.47671995 0.59990776 0.46895865
0000d0 9b 39 28 bd 65 85 30 3e 8f 05 3a 3f ac 5c 14 3f
       -0.04107056 0.17238386 0.7266473 0.57953906
0000e0 82 23 04 3f 7a 3b 1a 3f 60 52 3e 3f de 89 43 3f
       0.5161668 0.60247004 0.74344444 0.76382244
0000f0 6c a2 04 3f fa 53 24 3f d2 82 07 3f 44 82 bf 3e
       0.51810336 0.6419064 0.5293399 0.37404072

lstm.lstm.bias_hh_l0 f4 [64]
000000 4a 24 fd 3e b7 97 f9 3e eb 48 c3 3e ad 56 4a 3e
       0.4944175 0.48748562 0.3814157 0.19759627
000010 50 e6 80 bd 17 ff 7d 3e a7 6a d2 3e e3 11 68 3f
       -0.062939286 0.2480434 0.41096994 0.9065229
000020 95 ff 96 3e b7 98 54 3f 48 9b f3 3e 59 18 c7 3e
       0.2949187 0.83045524 0.47579408 0.38885763
000030 49 9f 17 3f 65 8a 24 3f 16 2a 42 3e 45 d0 08 3f
       0.59227425 0.64273673 0.18961367 0.53442794
000040 80 ca 11 3d 28 cd b9 bd 84 f2 53 be 2a 43 3b 3e
       0.03559351 -0.090723336 -0.20697981 0.1828734
000050 bc 89 ee 3d 36 50 65 3e b8 8c 8e 3d 44 62 45 3e
       0.116473645 0.2239388 0.06960434 0.19275767
000060 ac c1 c1 3d ba 89 39 be 12 9b 3c be 28 5e d1 bd
       0.09460768 -0.18118945 -0.1841853 -0.10223037
000070 66 28 3a 3e 7e b5 31 be 0c 13 de bd 40 b0 96 3c
       0.18179473 -0.1735439 -0.10843477 0.01839459
000080 ad 8d e3 3d 23 96 e0 bd 78 90 31 3c c3 c1 8a 3e
       0.11111007 -0.10966136 0.010837667 0.27100953
000090 bb 59 df 3c 15 2a 70 3d 5a 33 3b 3e ec f9 fc 3b
       0.027264467 0.058633883 0.18281308 0.0077202227
0000a0 f2 85 ba 3d 38 28 7b 3e 96 bc 23 be 51 82 cf 3d
       0.09107579 0.24527061 -0.15989909 0.10132278
0000b0 41 8f 2e bc 76 f3 a7 3e e0 32 67 be 3a 35 fe bc
       -0.010654272 0.32802933 -0.22578001 -0.03103124
0000c0 56 e2 3f 3f 67 e1 43 3f c6 c7 06 3f a2 40 0b 3e
       0.74954736 0.7651581 0.5264858 0.13598874
0000d0 91 89 c3 bc 39 b3 fc 3e 75 ef d4 3e 6d 6a 17 3f
       -0.023869308 0.49355486 0.4158894 0.5914677
0000e0 f7 12 db 3e 07 de cf 3e 53 c4 d3 3e cc 3e 04 3f
       0.42787907 0.4059908 0.4136072 0.5165832
0000f0 e8 13 c1 3e 91 b9 17 3f 5c 9e ea 3e c3 09 7a 3e
       0.377105 0.59267527 0.45823944 0.24417786

downstream.full.weight f4 [6, 16]
000000 a3 89 3c 3f 57 8d 76 bf d7 3d 78 be a5 8b 85 3e
       0.73647517 -0.9630942 -0.2424234 0.26083103
000010 7c c1 a0 bd 94 0e f8 3e 9f 9b 75 3f af 3d 80 bf
       -0.07849404 0.48448622 0.95940584 -1.0018824
000020 f5 4d 78 3f ed 8d 87 3f 88 77 85 3e a1 e7 c2 3e
       0.96993953 1.0590187 0.26067758 0.38067344
000030 03 6c 2a 3f e0 05 86 3f 2f b1 05 bf 40 a6 3a 3f
       0.6657106 1.0470543 -0.52223486 0.7290993
000040 de b3 77 3f f4 54 ac bf f4 4a 05 bf 73 a0 3a 3f
       0.9675883 -1.3463426 -0.52067494 0.72901076
000050 b4 cd e0 be f1 e7 3d 3f e0 e6 a3 bf 58 40 88 bf
       -0.4390694 0.7418204 -1.2804832 -1.0644636
000060 98 31 5f 3f 0b 6d 1f 3f 75 e1 d9 bf cd be d8 bf
       0.8718505 0.6227576 -1.7021929 -1.6933228
000070 96 fd 7c bf ef 95 c4 3f ad 1c 14 bf 16 bd 72 3f
       -0.9882444 1.5358256 -0.57856256 0.9481977
000080 d3 f9 70 be 5f f0 c1 3f f7 4f a0 3f a8 59 bc be
       -0.235328 1.515148 1.2524403 -0.36787152
000090 0f 45 c4 bd 9d da 73 bf d5 c3 55 be bd e0 b2 3f
       -0.095834844 -0.9525545 -0.20875485 1.3974835
0000a0 c9 67 c7 bf 39 ec e1 bf 94 ee df 3c ac ee 75 3f
       -1.5578548 -1.7650214 0.027335443 0.9606731
0000b0 f2 86 94 3e f6 d1 a3 bf e6 c4 86 3f 9b dd 11 3d
       0.29009205 -1.279845 1.0528839 0.03561173
0000c0 b4 2c 84 bf d7 2c 95 be bf c6 af bf 90 4f a2 bf
       -1.0326142 -0.29135773 -1.3732527 -1.268053
0000d0 95 d5 d8 be f6 ab e4 be 4d 54 bd 3f be a1 99 3f
       -0.4235045 -0.44662446 1.4791352 1.2002485
0000e0 00 90 a3 3d 79 7c 96 3f 93 fd cb 3f 54 4e ea 3e
       0.0798645 1.1756736 1.593676 0.45762885
0000f0 59 51 e5 3f 24 e1 84 bf 02 74 30 be 01 51 99 bf
       1.791545 -1.0381207 -0.17231753 -1.1977845
000100 c2 c2 da 3f 22 5a a3 3f 7a 36 b3 3d 48 08 53 3e
       1.7090685 1.2761881 0.08750625 0.20608628
000110 dc 57 a8 be 78 96 34 bf a8 81 9e 3d c4 8c bf bf
       -0.3287953 -0.705421 0.07739574 -1.4964833
000120 b6 0b a3 3d c4 11 64 bf dc 7c 92 3f cd ce a0 bf
       0.07961218 -0.8908961 1.1444354 -1.256311
000130 b0 68 af bf 26 a2 aa bf 09 ba 1b bf 15 2e 41 3f
       -1.3703823 -1.3330734 -0.6083074 0.7546094
000140 6d 16 d8 bf de b7 85 bf b8 77 a2 3e a7 b0 7e be
       -1.6881844 -1.0446737 0.31731963 -0.24872075
000150 bd a3 26 bf 0a 6c 69 3f e6 df 97 bf 39 5f a1 3f
       -0.65093595 0.9118048 -1.1865203 1.2607185
000160 c9 a7 f7 be 48 49 8c 3f f1 33 ca bf 88 68 73 3f
       -0.48370197 1.0959864 -1.5797101 0.9508138
000170 9a 8e 12 bf d6 0d 57 3f a4 87 24 be 31 bf 9f bf
       -0.5724884 0.84005487 -0.16067368 -1.2480222

downstream.full.bias f4 [6]
000000 44 f4 53 3e 11 04 0f be e9 55 40 3e 31 41 8d be
       0.20698649 -0.13966395 0.18782772 -0.275888
000010 5d 40 57 3d ed 9c 5c 3d
       0.052551616 0.053860594

maxpooling.full.weight f4 [16, 16]
000000 65 04 a7 3e 48 2b 23 3d 6d 1c a8 3e c6 37 01 3e
       0.3262054 0.039836198 0.32834187 0.12618932
000010 b0 14 f6 bd 94 d3 44 be 88 53 39 3d f5 af b7 3e
       -0.120156646 -0.19221336 0.045245677 0.35876432
000020 c6 75 1a 3e 52 64 10 be 04 9b 8a bd c9 11 b7 3e
       0.1508399 -0.14100769 -0.06767848 0.35755756
000030 f0 63 0f bd 46 f3 00 3e 8f 16 c1 3e e0 8d 9b be
       -0.035007417 0.12592801 0.37712523 -0.3038168
000040 2a 5d 42 3e b0 3d 54 bd f8 30 bf be 07 d5 dc 3e
       0.18980852 -0.051816642 -0.37342048 0.43131277
000050 e1 43 62 be 07 d2 c4 3e 2e f6 73 be c5 61 96 3e
       -0.22096206 0.38441488 -0.23824379 0.29371467
000060 1d 94 b0 3e cc 4a 8a bd e0 88 7b 3d 45 c0 bd be
       0.34488 -0.067525476 0.06140983 -0.37060753
000070 d0 98 30 bd 86 ef 4c 3e 86 f1 12 3e 82 87 a9 be
       -0.043114483 0.20013246 0.14349946 -0.33111197
000080 94 f5 95 bd 18 45 88 be a0 a1 9b be c0 09 b3 be
       -0.07322231 -0.26615214 -0.30396748 -0.34968376
000090 37 9c ad 3e 30 21 a5 be 58 c9 94 be 32 67 14 3e
       0.33908245 -0.32251883 -0.29059863 0.14492491
0000a0 3c 23 d8 bd 12 c7 5b be d5 bc 8a 3e 89 d5 90 3e
       -0.105535954 -0.21462658 0.27097192 0.28287914
0000b0 79 0c 94 3e 3a 3a 82 be a8 41 95 be 2e de 94 be
       0.28915766 -0.25435048 -0.29151654 -0.2907576
0000c0 13 9b aa 3e c0 d4 98 bb 31 8b a3 3e 17 a1 bb be
       0.33321437 -0.0046640337 0.31942132 -0.3664634
0000d0 29 6a c6 3e d8 2f 72 3d b6 df 12 be da 43 32 3e
       0.3875287 0.05912766 -0.14343151 0.17408696
0000e0 10 0d 84 3d 9c cf b6 3d 87 cf b5 3e f6 55 08 3e
       0.06447804 0.08926317 0.35509893 0.13314041
0000f0 38 56 2f bd b2 87 15 3e 79 e7 a0 3e b2 a8 d4 be
       -0.042806834 0.14602545 0.314266 -0.41534954
000100 a8 18 43 3d 60 30 71 bc 2c e4 9c bd 84 54 78 be
       0.047630936 -0.014721006 -0.07660708 -0.2425099
000110 2e 53 1b 3e ce f7 06 3e d5 4b bc 3e 1b 33 3f be
       0.1516845 0.13180467 0.36776605 -0.18671839
000120 08 4a 60 bd 60 81 76 bc c2 6c 3e be fe bb 79 3e
       -0.0547581 -0.015045494 -0.18596175 0.2438812
000130 a1 ea c6 3e 80 6b 9a be 7a 68 49 3e 62 93 54 3e
       0.38850883 -0.3016014 0.19668761 0.20759347
000140 07 5d 8d 3e c9 6b 83 3e c7 90 b9 3e 2b 29 7c be
       0.27610037 0.2566817 0.3624327 -0.2462508
000150 40 0c 67 3c 40 a4 c0 be 1a 1a 28 be 47 85 db 3e
       0.014102042 -0.37625313 -0.16416207 0.4287512
000160 00 e2 60 ba ec 94 99 be e8 45 1a 3d e6 4a 5f be
       -0.00085785985 -0.2999643 0.037664324 -0.21805915
000170 a5 12 87 3e 93 c3 81 3e 00 b7 a4 bd 04 77 fc bd
       0.26381412 0.25344524 -0.08042717 -0.12327388
000180 c2 00 55 3e 13 ea da 3e 1b 84 a9 3e b7 2a b9 3e
       0.2080107 0.4275671 0.331086 0.361654
000190 4b 81 d5 be 00 76 15 3a 2d f8 d6 3e 2f f9 92 be
       -0.41700205 0.00057014823 0.41986218 -0.28705737
0001a0 ec a8 f2 3d 4a 9f 0e 3e 24 2f 9b be 00 19 c4 bc
       0.118486255 0.13927951 -0.30309403 -0.023937702
0001b0 51 70 6f be e1 19 92 3e 8d c8 ba 3e ac e7 23 be
       -0.23382689 0.2853537 0.36481133 -0.16006345
0001c0 9a 3d 5b be a0 ba c0 be 98 2b bc be e7 f7 9a 3e
       -0.21410218 -0.37642384 -0.3675201 0.3026726
0001d0 2e 9c ad be 90 b7 8a 3c 0c e7 9d 3d 0c 91 af be
       -0.33908218 0.016933233 0.07710084 -0.3429035
0001e0 de f9 09 3e 8e bd 8f be f9 bf 6e be 2c 30 a7 3d
       0.13474223 -0.28074306 -0.2331542 0.08163485
0001f0 72 30 a5 be 52 cf 31 3e 2f a2 b9 3e 75 6e ac be
       -0.32263523 0.17364243 0.3625655 -0.33678022
000200 58 82 cd be bd 07 90 3e 76 59 6c be aa 30 67 3e
       -0.40138507 0.28130904 -0.23081002 0.22577158
000210 78 a5 47 3d 80 2a 74 bc 9b 09 aa 3e c6 0e cf be
       0.048741788 -0.014902711 0.33210453 -0.4044096
000220 70 d1 14 bd 5c 1d c5 3d 00 45 d2 3b 90 0d 8d be
       -0.036332548 0.096247405 0.006416917 -0.2754941
000230 02 ae b9 be b2 7a 4a 3e 98 a9 48 be 00 8c dd ba
       -0.3626557 0.19773367 -0.19595945 -0.0016902685
000240 fa ac aa be 11 ff bd 3e ea 98 5c 3e c4 78 94 3d
       -0.33335096 0.37108663 0.21542707 0.07249597
000250 9c 29 35 be 39 71 a1 3e f6 4c 4e be 18 c8 07 3d
       -0.17691654 0.31531695 -0.20146546 0.03314981
000260 50 66 94 bd 04 91 d6 bd 73 75 dd 3e 46 f8 0d be
       -0.07246077 -0.10476878 0.4325367 -0.1386424
000270 86 cf 21 3e 05 12 82 be 75 43 b5 3e a7 be b7 3e
       0.1580182 -0.25404373 0.35403028 0.35887644
000280 be 05 9f be b3 68 d0 3e a6 74 13 3e 5a 30 be be
       -0.31059068 0.4070488 0.14399967 -0.37146264
000290 18 c5 39 bd e4 fd b1 3d 61 95 a9 be 56 e2 96 be
       -0.04535398 0.08691004 -0.3312178 -0.29469556
0002a0 78 c6 16 be 43 f6 c8 3e 98 03 b1 bd 02 bf 5c 3e
       -0.14724147 0.39250383 -0.086432636 0.21557239
0002b0 94 71 f5 3d 76 49 43 3e 6c f1 2f be b7 43 4d be
       0.11984554 0.19070992 -0.17181939 -0.20045362
0002c0 bc d0 09 be d4 6b 92 bd b0 e6 b7 be 51 59 aa 3e
       -0.13458532 -0.07149473 -0.35918188 0.33271268
0002d0 13 a0 80 3e 2b c5 c2 be e5 1a c8 3e e0 d0 67 3d
       0.25122127 -0.38041052 0.3908302 0.056595683
0002e0 0a 64 2d 3e 7b c0 c4 3e 09 e2 ba 3e 80 f0 51 3c
       0.16932693 0.384281 0.36500576 0.012813687
0002f0 00 c4 1b 3b 12 f1 3f 3e f8 03 65 3d 6e 97 a1 be
       0.0023767948 0.18744305 0.055911988 -0.31560844
000300 f9 85 a8 3e 3b 45 d9 3e 0a 74 58 3e 79 54 bc 3e
       0.32914713 0.4243563 0.21138015 0.36783198
000310 53 82 8c 3e a3 a1 9d 3e ee 55 80 be 8e 4c 9a be
       0.2744318 0.30787382 -0.2506556 -0.30136532
000320 89 1c da 3e c7 53 84 3e ee a9 37 3e 58 3a 2d be
       0.42599896 0.25845167 0.17935917 -0.16916788
000330 d9 02 86 3e 64 64 cc 3d 75 45 88 be 35 fe 52 be
       0.26174048 0.099800855 -0.26615492 -0.20604785
000340 e7 5c b6 3e e0 da fe 3c 6b 48 89 3e 5d 09 ac 3e
       0.35617754 0.031110227 0.26813063 0.33600894
000350 c5 45 b4 3e 46 bd 0a 3e fb f7 b5 3e 8a 83 2d be
       0.3520948 0.13548765 0.35540757 -0.1694471
000360 1f 64 b8 be 65 da 95 3e fa 5a 26 3e f3 85 ae 3e
       -0.36013886 0.29268184 0.16245642 0.3408657
000370 0f a3 d6 be 80 52 bf 3b 80 90 52 3c e2 13 25 3e
       -0.4192128 0.005838692 0.012851834 0.16120866
000380 98 3f d1 bd 35 7c c3 3e fc 99 c0 be 8e 11 27 be
       -0.10217208 0.381807 -0.3761748 -0.1631529
000390 80 9b da bd 45 5f bd 3e 06 cf 2e 3e b8 25 84 be
       -0.106741905 0.36986747 0.1707116 -0.25810027
0003a0 76 09 74 be 10 20 8d 3c d4 99 9f bd e0 15 7c bd
       -0.23831734 0.017227203 -0.07793012 -0.0615443
0003b0 24 01 15 be 38 91 8a bd e8 65 75 bd 40 57 c9 bb
       -0.14551216 -0.067659795 -0.05991164 -0.006144434
0003c0 de 56 1d 3e f6 5f 19 3e f7 43 b7 be 90 18 b7 bd
       0.15365168 0.14978012 -0.3579404 -0.08940232
0003d0 4f 47 d9 3e 32 db 73 3e 84 ea 95 bd e8 e2 fd bd
       0.42437217 0.23814085 -0.07320121 -0.123967946
0003e0 66 b2 8b be ea 39 22 3e 61 fa b1 3e c1 81 9e be
       -0.27284545 0.15842405 0.34761336 -0.3095837
0003f0 db d0 d4 3e 66 f5 6b 3e 60 ec f0 3c e0 60 7d 3d
       0.41565594 0.23042831 0.029409587 0.061859965

maxpooling.full.bias f4 [16]
000000 26 25 3d be 48 87 66 be 32 c3 48 be 30 c9 87 3c
       -0.18471202 -0.22512543 -0.19605711 0.016575426
000010 78 a3 0b bd 60 0a 16 be f8 b9 50 bd 28 46 22 3d
       -0.034091443 -0.14652395 -0.050958604 0.039617687
000020 88 23 26 be 32 c5 48 3e cc f6 32 be e6 33 39 3e
       -0.16224492 0.19606474 -0.17476958 0.18086204
000030 90 2b 60 bd 38 1d dd bd 6a 2a 68 be 40 d1 83 bd
       -0.054729044 -0.10796589 -0.2267243 -0.06436396

mean.full.weight f4 [16, 16]
000000 12 30 05 be 68 37 3c be 6c 5b b5 3d 33 7e a5 3e
       -0.13006619 -0.18380511 0.08855328 0.32322845
000010 d2 04 83 be 0e fb bc be aa 81 28 3e a4 49 0e be
       -0.25589615 -0.3691029 0.16455713 -0.13895279
000020 5c f7 99 be 4c fc af 3d 48 80 c1 be 64 0a de 3d
       -0.30071533 0.08593044 -0.37793183 0.108418256
000030 cc 2e bd 3d 14 83 98 3d 2f f0 a7 3e de 78 3f 3e
       0.092374414 0.07446876 0.32800433 0.18698451
000040 ae 1d 0d 3e cf be d0 3e 0d e4 91 3e 32 77 30 3e
       0.13780853 0.40770575 0.284943 0.1723297
000050 6a 3f 1a be 65 c5 63 be eb 5a 42 be 60 e4 38 bc
       -0.15063253 -0.22243269 -0.18979995 -0.011284918
000060 18 05 81 be 08 48 f0 bd 74 d9 f0 3d 80 65 dc bb
       -0.251992 -0.11732489 0.11760226 -0.006725967
000070 80 c7 f8 3b ec 87 d2 bd 3a b3 ce be 3b 8b b3 3e
       0.0075921416 -0.10279831 -0.40371114 0.35067162
000080 52 13 8f be 97 fc c5 be 78 46 d5 bd a6 b5 77 3e
       -0.27944428 -0.38669273 -0.104138315 0.24190387
000090 10 b3 92 bd c5 91 49 be 1a 13 af be 5a 4c 74 3e
       -0.0716306 -0.19684513 -0.3419426 0.23857251
0000a0 89 db c5 3e a0 4a 54 3d c1 cf 80 3e 5f c1 d3 3e
       0.38644055 0.05182898 0.25158504 0.41358468
0000b0 18 1c 16 bd 75 72 c4 3e 17 b8 84 3e 6c c9 8c 3d
       -0.036647886 0.38368574 0.259217 0.06874356
0000c0 6e 0a ae be 78 06 2d be 30 5f 81 bd 2f 74 92 3e
       -0.33992332 -0.16896999 -0.06316984 0.28604266
0000d0 20 40 3d 3d f7 09 b0 3e c0 1b 72 3d 4c 19 1f be
       0.046203732 0.34382603 0.059108496 -0.15536994
0000e0 02 17 48 3e b3 b0 d1 be 96 2a 0b 3e cd 1d 90 3e
       0.19540027 -0.40955123 0.13590464 0.28147736
0000f0 17 6f a2 3e 08 1e 75 3d 54 03 c0 3d 1d 3c 87 3e
       0.3172538 0.059843093 0.09375635 0.2641305
000100 5b 55 8f 3e 70 62 c6 3c 66 2d b5 be b1 c4 b6 be
       0.2799481 0.02421686 -0.353862 -0.3569694
000110 87 04 a4 3e b6 70 4b 3e 94 b3 28 be 97 ae c3 3e
       0.32034704 0.19867215 -0.16474754 0.3821914
000120 4a 1b 47 3e 5d ef 9b 3e 14 e0 fa 3d 23 15 9a be
       0.19444004 0.30456057 0.12249771 -0.3009425
000130 e9 8a 60 be e7 43 8e 3e 18 a6 fb bd 44 82 d5 be
       -0.2192799 0.2778618 -0.12287539 -0.41700947
000140 ea 6e 00 3e ac c5 b7 be c2 4d 2f be 00 11 4f 3c
       0.1254231 -0.35893 -0.17119506 0.01263833
000150 cd 65 d0 3e 8c a0 f8 3d cb 29 63 be cc fb c6 3d
       0.40702668 0.12139997 -0.22183912 0.09715995
000160 84 10 90 3d 25 c1 83 3e e1 3b 57 be 0d 8b 97 3e
       0.070344 0.25733295 -0.21018936 0.29598275
000170 f8 7a b0 be 0a 27 9f be 46 2f 2d be e8 81 a9 be
       -0.34468818 -0.31084472 -0.16912565 -0.33106923
000180 5f 44 82 3e 80 db 67 bd 09 85 a6 3e 2c 8e f0 3d
       0.25442788 -0.056605816 0.32523373 0.11745867
000190 d8 99 e5 bd 46 26 78 3e 34 1b ca bd e1 c2 9a 3e
       -0.11210984 0.2423335 -0.0986847 0.30226806
0001a0 80 f4 13 3b d8 4d 65 bd 14 09 a7 3d 9a 2f 4f be
       0.0022576153 -0.05598244 0.081560284 -0.20233002
0001b0 e0 f1 0c bd b2 37 77 3e 20 a6 04 bc a1 1a 8a 3e
       -0.034410357 0.2414234 -0.008096248 0.2697344
0001c0 c6 ce 2a 3e 2d c5 8d be 00 ea 9e 3c a5 d9 cd be
       0.1668044 -0.27689496 0.01939869 -0.40205112
0001d0 c2 63 9c be 3c 11 de 3d a2 f5 5d 3e 9e 00 af be
       -0.3054486 0.10843131 0.21675733 -0.34180158
0001e0 ac ef d4 bd 8b 14 c3 3e 6c da da 3d 94 19 cd bd
       -0.10397276 0.3810161 0.10686192 -0.10014644
0001f0 58 ef 72 bd 30 3d e1 bd 18 40 25 3d 03 d4 54 be
       -0.059310287 -0.10997999 0.040344328 -0.20784001
000200 e8 0f 66 bd 24 58 b5 3d 29 bf d4 be 8e c6 43 be
       -0.056167513 0.08854702 -0.41552094 -0.19118711
000210 a0 13 8c 3c 30 ac 17 3d 7d 1e ce 3e 5d 48 90 3e
       0.017099202 0.037029445 0.40257636 0.2818021
000220 bf 30 cb be e5 7b d1 3e cb 77 96 3e 6c a3 d2 3d
       -0.39685628 0.40914837 0.2938827 0.102850765
000230 63 4b a5 3e 00 6c 23 bb 00 f2 17 bc cf 1a d3 3e
       0.32284078 -0.00249362 -0.009274006 0.4123139
000240 df 7a 5d be 1a f7 1f 3e 6e 91 39 3e 5d c6 bb be
       -0.21628903 0.15621606 0.18121883 -0.36674777
000250 29 bd a6 be ac a0 fb 3d 8d 68 83 3e 73 5c 7e be
       -0.32566193 0.12286505 0.25665703 -0.24839954
000260 7d cf c1 be 33 11 dd 3e a1 f9 80 3e 09 4e d7 3e
       -0.37853613 0.43177184 0.25190452 0.42051724
000270 2a 9c 06 be c9 d8 9f 3e 2b a4 a1 be 1a ea 47 3e
       -0.1314551 0.3122008 -0.31570563 0.19522896
000280 84 ba 22 be 3a 45 b6 be e0 3e 5e bc 0a 23 a4 be
       -0.15891463 -0.3559969 -0.013564795 -0.32057983
000290 a4 d9 bb be f0 3a 7b bd d1 bb 87 3e 78 45 7f bd
       -0.36689484 -0.061335504 0.2651048 -0.06232211
0002a0 15 e6 c1 3e 92 94 ba be 39 2f 9b be 02 45 d1 be
       0.3787085 -0.36441475 -0.30309466 -0.4087296
0002b0 e0 2c e4 bc 96 3a 26 3e b5 47 ae 3e a8 2c ca be
       -0.02785343 0.16233286 0.34039083 -0.39487195
0002c0 ab 1e d2 3e 3e 65 6e be a5 ca d5 3e e0 db 95 bd
       0.41039023 -0.23280808 0.41756168 -0.073173285
0002d0 86 fd 18 be f0 26 b4 be 48 ce 41 bd 78 99 4e bd
       -0.14940462 -0.35185957 -0.047315866 -0.050439328
0002e0 af 51 a7 be 2d 53 8a be 79 62 c5 3e 50 75 37 3d
       -0.32679507 -0.27016583 0.3855169 0.044789612
0002f0 2c 16 b9 bd 19 08 b1 3e 87 b3 b4 3e 75 ea b2 3e
       -0.09037432 0.3457649 0.35293218 0.34944502
000300 f3 7f ae 3e 88 37 61 3d 6c c4 f3 3d e6 ad 98 be
       0.34081993 0.0549846 0.11902699 -0.29820174
000310 00 92 41 3c ac 81 ca 3d 88 49 54 3d 58 00 08 bd
       0.011814594 0.09888014 0.051827937 -0.033203453
000320 33 30 91 3e 8b 3a 83 3e ef dc b1 3e da 96 5c 3e
       0.28357086 0.25630602 0.3473887 0.2154192
000330 00 9e f1 bc 80 85 4c bc 4d e8 da 3e d4 76 c8 bd
       -0.029494286 -0.012483001 0.42755356 -0.0978829
000340 80 1e 1a bd 8c f7 b5 3d c9 e9 80 3e 92 a7 13 be
       -0.037626743 0.088851064 0.25178364 -0.14419392
000350 03 0c 3f be f4 c4 8a 3d bb 08 d2 be 78 62 cb bd
       -0.18656926 0.06775847 -0.41022286 -0.09930891
000360 74 ca d4 3d 64 38 5d be 46 c1 0e 3e 40 ee 94 bd
       0.10390177 -0.21603543 0.13940915 -0.07272005
000370 9c 32 9d be 55 1f ac be c4 14 95 bd b6 c4 27 3e
       -0.30702674 -0.33617654 -0.07279351 0.16383633
000380 de 9b 10 3e 06 08 73 be 3a 2f 41 3e a2 10 22 3e
       0.14121959 -0.2373353 0.18865672 0.15826657
000390 a2 42 6c 3e 1e ee 5e 3e 0f 26 81 3e 0e 1b 67 3e
       0.23072293 0.21770522 0.2522435 0.22568914
0003a0 37 a8 bb be a0 46 b0 bc 42 29 7f 3e 2d 80 d0 3e
       -0.36651775 -0.021518052 0.24918082 0.4072279
0003b0 99 c0 9c 3e da cb 8b be 90 f5 5a 3d 6f 76 d4 3e
       0.3061569 -0.27303964 0.053456843 0.41496608
0003c0 58 85 02 be 1c 3d df 3d c0 9e 69 bd 6f fb c0 3e
       -0.12746179 0.109003276 -0.05703616 0.3769183
0003d0 11 1a b5 3e 27 c2 c6 be d3 87 b4 be 0d 75 da 3e
       0.3537145 -0.3882 -0.35259876 0.42667428
0003e0 d8 55 75 bd d4 61 d6 3d 51 83 87 3e d3 54 c4 be
       -0.05989632 0.10467878 0.26467374 -0.38345966
0003f0 2b 57 8d 3e bf 84 87 be a1 15 9f be 7a 28 83 be
       0.27605566 -0.26468465 -0.3107119 -0.2561682
