best_model/acc/citeseer-b-h_dropout=0_wd=0_b=256_lr=0.01_walk=3_best_model.pt (torch_old, 725205 bytes, 15 tensors)

embedding.full.weight f4 [16, 3703]
00000000: 52d1 c43c a35c 063d 0c26 8f3c 730d 223d
00000010: 7c62 9d3c 081e a1bb 6359 133d 6313 093d
00000020: 78c6 2f3c bc21 573c e284 25bc 8f4c 9cbc
00000030: 309b fbbb 18ba 1abd a0f4 3c3b cec9 ad3c
00000040: 400c b43a eeb5 c03c c37f 123d 40a7 da3a
00000050: 8abe ad3c 9c70 6dbc 98fe 433c fa5b c93c
00000060: 9018 a1bb 8c7a 35bc 227c 36bc f318 a0bc
00000070: 00c8 e838 c09f e3bc 9dc8 b3bc 684e 9b3c
00000080: 9ea2 43bc ccea f3bc 8f35 013d 7ae7 f03c
00000090: c869 7dbc 637c 143d a7d8 0e3d c0aa b8bc
000000a0: 52e5 96bc 108e bd3b a9a4 213d 1b11 c5bc
000000b0: d2c2 863c 3cf3 1b3c e5d2 0e3d 6859 8bbb
000000c0: 9f94 12bd 60b6 96bc 5c5d 803c 5879 c63b
000000d0: 089d 0bbd f9de 233d f0fb 723c 1ae4 2fbc
000000e0: 60c9 9a3b 8e71 e93c 7559 243d 0df5 133d
000000f0: 88b4 a83b bec1 883c 50ea 83bb 4006 dc3b
00000100: f821 c0bb 0ee1 cfbc 4b10 11bd 0092 4eb9
00000110: 346c 723c 9011 b53c d01c 2f3c c1f5 023d
00000120: 0c21 1ebc 0812 023c d2e3 873c adcc 04bd
00000130: 04ec 8cbc ba5d cebc 39fd 0ebd 7c74 993c
00000140: 54b2 7d3c c074 613a 9040 acbb a3a6 abbc
00000150: 4a5b d23c 6d1a c3bc f4c2 02bc 507c 133b
00000160: f022 bf3b 5a6a b9bc c606 9a3c e981 043d
00000170: 5077 383c a86b fc3b a5ef 193d 2eaf c63c
00000180: bede d2bc aaea ea3c d35e 203d 5afb 16bc
00000190: 0bab 183d e8cb 263c 90c0 38bb b2ea d6bc
000001a0: 9089 63bb 93a6 1b3d 81a6 84bc dee2 f03c
000001b0: 4174 063d 00ce 3fbc 089f 173c 10f6 77bc
000001c0: 56ab a9bc 27db 143d d26e d43c 4e3c 85bc
000001d0: 80e6 573a e050 87ba 5093 023b 5a9b c53c
000001e0: f026 6b3b 203e 7fbc aa61 9b3c da7a e43c
000001f0: c6ef 99bc ba3b 8cbc d020 adbb 97ba 033d
00000200: ffa9 80bc aacd bcbc eef4 f23c 960c a53c
00000210: 909c e2bc a62d 913c 1a7f 67bc 12a2 0dbd
00000220: 30d0 053c 3ddc 163d 5a90 ed3c 3829 d2bc
00000230: 2ff4 1e3d 610b b4bc 9cdf 3ebc a89d aa3b
00000240: 247a 613c 6a0d e5bc 504a 8ebb b61f fa3c
00000250: 5c1d 6a3c ebbc 0c3d ac5f 5e3c 2883 f1bc
00000260: 76ee c93c 008d 00ba e88f 59bc cc5d b23c
00000270: 5ce4 26bc f060 883c dc59 08bc 388f 0b3c
00000280: 0624 20bd 2181 1e3d 0c8d 04bc f284 c83c
00000290: c84f f5bb 2e26 e13c 2024 5ebb 92bf cc3c
000002a0: a666 7abc dba5 173d 3b75 013d 2895 86bb
000002b0: da86 dfbc e888 343c 5e61 bc3c 3603 91bc
000002c0: 95c5 d8bc 45ca 0cbd f03d b73b 7849 74bc
000002d0: 5073 373b c011 f8bc 58b7 fbbc 7bb6 17bd
000002e0: 02af 9fbc 90f5 553c b259 0cbd 1a52 9b3c
000002f0: 5466 84bc d8fc 833b 6c5f a53c b4cc 15bd
00000300: c031 3b3a f705 183d a25c 16bd 00db 4dbc
00000310: 9414 633c 4079 3ebc 6f79 0f3d 4b02 c0bc
00000320: 163a 49bc 89cc 1abd 64c1 52bc bd1d 103d
00000330: 48dd 1b3c 9c74 9e3c c0f0 dabb 6e44 4abc
00000340: a0a9 77bc 786f 06bd 39a7 21bd 4455 b9bc
00000350: f350 0c3d a891 5c3c dc15 483c 3a40 98bc
00000360: e65f 04bd e8bf 0c3c 5015 983b d4fa 123c
00000370: f8cf 113c 20cd a0ba b251 ba3c bf28 a5bc
00000380: d5ad d6bc 6e37 2bbc dccd 76bc b657 c7bc
00000390: 8351 f7bc da7d c83c 5ee6 a33c 328e 8f3c
000003a0: 87e8 0f3d 3085 de3b 400a 2fbb 543b 703c
000003b0: a4e9 153c f0f4 50bb a150 1f3d b8a7 9a3c
000003c0: 59dd b9bc 0902 c2bc b3a1 8fbc 6e3f 09bd
000003d0: cc4d 243c fec8 f03c 1224 2bbc 30c1 8dbb
000003e0: 804d 87b9 0231 ea3c 2eac a4bc 5485 9b3c
000003f0: 3204 65bc d39d 90bc 4068 bfba 60bd 47bc
0.024025593 0.03280319 0.017474197 0.039563607 0.019212 -0.00491691 0.035973918 0.033465754
0.010728471 0.0131306015 -0.0101024825 -0.019079475 -0.007678412 -0.03777513 0.0028832331 0.021214392
0.0013736561 0.02352425 0.035766374 0.0016681924 0.02120902 -0.01449218 0.011962555 0.02457999
-0.004916258 -0.011076581 -0.011137994 -0.019543147 0.00011099875 -0.027786136 -0.021946246 0.018958285
-0.011940626 -0.029775046 0.031545218 0.029407252 -0.015467115 0.036251437 0.034874585 -0.022542357
-0.018419895 0.0057847574 0.039463673 -0.024056008 0.01645032 0.009518441 0.034869093 -0.0042526014
-0.035786267 -0.01839751 0.015669517 0.006056946 -0.034085304 0.040007565 0.014830574 -0.010735536
0.004723713 0.02849653 0.040124375 0.03612237 0.005148474 0.016693946 -0.004025735 0.0067146122
-0.0058634244 -0.02537587 -0.03541593 -0.0001970008 0.014796305 0.022103101 0.010688022 0.03197265
-0.009651434 0.007938869 0.016588125 -0.032421757 -0.017202385 -0.025191177 -0.03490946 0.018732302
0.015484411 0.0008600466 -0.00525672 -0.020953482 0.025678296 -0.023816312 -0.007981051 0.0022504516
0.0058330223 -0.02263372 0.018802058 0.032350454 0.011258915 0.0077032633 0.03758206 0.024253454
-0.025740977 0.02867635 0.03915293 -0.0092152 0.037272494 0.010180451 -0.0028190948 -0.026234958
-0.0034719445 0.038000654 -0.016192676 0.029405054 0.032825712 -0.011706829 0.009254225 -0.015134349
-0.020711582 0.036341812 0.02593175 -0.016264107 0.00082359463 -0.0010323785 0.001992423 0.024121929
0.0035881363 -0.015578777 0.018967468 0.027890611 -0.01879109 -0.017118324 -0.0052834526 0.032160368
-0.01570606 -0.023047287 0.029657807 0.020147603 -0.027662545 0.017721962 -0.0141294245 -0.03457839
0.008167312 0.03683113 0.028999496 -0.02565442 0.03880709 -0.021978082 -0.011649992 0.0052067824
0.013762031 -0.027960498 -0.004342355 0.0305327 0.014289226 0.034359854 0.013572615 -0.029481485
0.02464984 -0.0004903823 -0.013278939 0.021773241 -0.010186281 0.016647786 -0.008322205 0.008518033
-0.039096855 0.038697366 -0.008090269 0.024477456 -0.0074863173 0.027484026 -0.0033896044 0.024993692
-0.015283262 0.037023406 0.03160594 -0.0041071363 -0.027285982 0.011018969 0.022995647 -0.017701726
-0.026461402 -0.034372587 0.0055921003 -0.014910094 0.0027992316 -0.030281901 -0.030727074 -0.03703926
-0.01949263 0.013059035 -0.034265228 0.018960048 -0.016162075 0.004027944 0.020187102 -0.036572173
0.0007140897 0.037115064 -0.036709435 -0.012564421 0.013859887 -0.011625588 0.035027917 -0.023438593
-0.012281915 -0.037792716 -0.012863491 0.03518461 0.009513207 0.019342713 -0.0066815317 -0.0123454165
-0.015116125 -0.03282115 -0.039466117 -0.022623666 0.034256887 0.0134624615 0.012212243 -0.018585313
-0.03231802 0.008590676 0.0046412125 0.008970935 0.008899681 -0.0012268163 0.022744033 -0.02016103
-0.026205936 -0.010450227 -0.015063729 -0.024333816 -0.030190235 0.024474073 0.020007309 0.017523859
0.035133865 0.0067907795 -0.002670899 0.014662582 0.009149943 -0.0031884275 0.038895253 0.018878803
-0.022688555 -0.023682611 -0.017533159 -0.033507757 0.010028314 0.029392716 -0.010445612 -0.0043260083
-0.00025806949 0.028587822 -0.020101633 0.018984474 -0.013978051 -0.017653381 -0.0014603212 -0.012191147

embedding.full.bias f4 [16]
00000000: 4cb0 c63b 9027 8fbb 347e 80bc 024c 34bc
00000010: 744f 40bb 44a2 29bc 12ad 443c d800 5dbb
00000020: 12a1 3a3c 8026 4bb9 9d0d 853c 5851 c33b
00000030: 3a9b 1f3c 6ccf 64bb 56d3 333c a09e 023c
0.0060634967 -0.00436873 -0.015685178 -0.01100445 -0.0029344233 -0.010353629 0.012004154 -0.0033722427
0.011390941 -0.00019373931 0.016241843 0.0059606247 0.009741599 -0.0034913672 0.010975679 0.007972389

aggregator.full.weight f4 [16, 7406]
00000000: 9b42 bdbe f868 2ebf c921 1b3e 9eb5 45bf
00000010: a48e 81bf f7d7 7bbf 29d9 51bf 46fa 91be
00000020: c8f4 363f c2ba 023f 50e4 943d edb0 343f
00000030: 65a8 f53e 1ad0 16be 6b96 c23e ea5b 503f
00000040: 4e16 ddbd bd82 ce3e c36e 603e efc1 f7bd
00000050: 7346 8abf 9fb1 f1be 8adf 0b3f dc46 683e
00000060: 00cf e43e 951b 6f3f a750 083e d1ea 26be
00000070: 54ee 31bf 8885 743c 8ee2 1ebf cdfe 23bf
00000080: c1cc 863e 0cf8 efbe aa91 27be a7a8 66bf
00000090: 02c0 5abf b6b3 e2bd 9943 4e3d 6466 9abe
000000a0: 2551 623e ba3e 9c3e df28 37bf 36d9 2fbe
000000b0: 79ef 5bbe de58 f0be 9c0d 6dbc 139b 28bf
000000c0: 7ca4 f53e 9c0d 3fbf 7fb7 933d f91d 5abe
000000d0: e140 843e 69d1 b03e ea04 f4be 4644 e3be
000000e0: 0e34 023f c296 b4bf 26a5 eabe 48c7 043f
000000f0: 1a22 b8be c887 603d 52c0 203f 2b27 823f
00000100: c7d3 3bbf 30e1 8cbf b612 69bf 3eef 13bf
00000110: 5720 89bf 6a43 913d bf2c 413f 54d1 98be
00000120: 44da 45be f8dc 82bf 734e 32bf e14c f7be
00000130: 9423 64bf 1992 2fbf 3614 083f 38cf 543e
00000140: ea3b 093e 4f8e 05bf f70e ae3d 1298 7d3e
00000150: 7814 0dbf d39a 2cbf 6c60 6dbf fade 8cbe
00000160: c9eb 85bf 6674 563e 882e db3e b80e b3bd
00000170: 1f15 ce3e 44a8 053f 9be4 bebe 0f94 1cbf
00000180: 8195 5f3f 67d2 d53e ca43 69bf e7eb 4d3f
00000190: ccc1 8c3d 60b6 813f b276 03bf 5c87 833c
000001a0: 8655 cc3d e7ee 47be 1d84 673f 37e3 6ebe
000001b0: 9b65 1e3f b557 6f3e 93d2 423d 8143 89be
000001c0: bf1e 673f 9f88 0e3f fc8d fbba 187f 413f
000001d0: 6a27 fa3e 0756 48be 5af8 9abc 9971 64bd
000001e0: 0515 36be 847e a03e 3bd3 11bf 48e6 53bd
000001f0: c10f 983e fdc9 0c3f 1a12 1f3f 6c35 8f3d
00000200: c249 0d3f 424f 7dbf 7390 bcbe 2a4e e5bd
00000210: 4979 e9bd 11a4 d1bc 03df 8cbf 8e21 183f
00000220: 7e92 5d3e 67ef 3d3e a640 c5be d8e6 85bf
00000230: e3e2 8abf 3fce 2c3f 5253 f3bd b624 1c3c
00000240: 8292 e73e ade9 1f3e 828e 0fbe 26f7 133f
00000250: 8757 abbe c1cd 3cbd e794 49bf 2b01 fd3e
00000260: 290c 313d 40eb ba3d 1eed 83bf 6744 5dbf
00000270: b990 04bd ba7a ba3e 7b10 353d 44be 8abf
00000280: ca00 5bbf 7291 b13e ba43 bb3e a8a2 f2be
00000290: 8fef 2b3f af8d 4fbe c97c b4be f073 353f
000002a0: c8e5 953d e6ba b2be ecee 08bf eb26 55bf
000002b0: e332 be3d e14a f0be 1da4 493f 2d38 13bf
000002c0: 6ca1 9f3e 0866 b7be d114 a6bc dadf 0c3e
000002d0: e7fa 4bbe 8a64 653e 0be4 bebe e619 9fbd
000002e0: 261f 9b3f fc3e bdbe 8d5a a4bd a0d6 933e
000002f0: eee5 0abf a6a8 46be 97ae f23e 0126 2ebf
00000300: df19 14bf 0ca7 afbd 68c7 0b3d ca5e ffbd
00000310: 5df1 a43e 5131 08be e2ff c7be da1b 4fbf
00000320: a4bd 0dbf 2a00 02bf 6d41 8ebc 9336 2bbf
00000330: 554c 86bf 4a40 acbe 36f2 e63e 5b2e 6dbe
00000340: f136 373f ff1e 1fbf 8d20 4cbe 641e 863e
00000350: 9308 87bf 0d7f cc3d c4cd 03bf 7e58 55be
00000360: 7d93 943c 145e c1be 4262 cd3e a6b4 90bc
00000370: 24ee f13e 5b1e 4bbe dfa2 e83e 81c1 913e
00000380: 3aad 93be 666c 923e 19a2 c4bd 5ee1 0fbf
00000390: c327 8abe 4760 7fbe c53c 85be 8042 d23e
000003a0: 2457 67bf b04b 25bf e869 863d 0c03 0bbe
000003b0: b8ec 683e 9097 983e 0972 24bf 6624 20bc
000003c0: b0ad 053f a8f1 953d bbbc 33bd 826c 2a3e
000003d0: 117a fbbe e761 a93e 6baf bebe 1eb4 83bf
000003e0: c071 25bf 20ca 083f 85a0 b6bf e8d5 12bf
000003f0: b91e a7bd 9975 ba3d 1ff2 003e aabf 543f
-0.36964878 -0.6812892 0.15149607 -0.7723025 -1.0121655 -0.9837641 -0.81971985 -0.28511256
0.71467257 0.5106622 0.0727011 0.7058247 0.47980037 -0.14727822 0.38005385 0.8139025
-0.1079527 0.4033412 0.21917252 -0.12097537 -1.0802749 -0.47205827 0.5463797 0.2268328
0.44689178 0.9340146 0.13312016 -0.16300513 -0.69504285 0.014924414 -0.62064445 -0.6406067
0.2632809 -0.46868932 -0.1636416 -0.90101093 -0.8544923 -0.110694334 0.050357435 -0.30156243
0.22101267 0.30516607 -0.7154674 -0.17172703 -0.2147807 -0.469428 -0.014468577 -0.65861624
0.47977054 -0.7463014 0.072127335 -0.21300496 0.2583075 0.34534767 -0.4766 -0.44388026
0.5086068 -1.4108508 -0.45829123 0.5186658 -0.35963517 0.05481699 0.6279346 1.0168203
-0.7337002 -1.1006222 -0.91044176 -0.5778693 -1.0712994 0.07092936 0.754589 -0.29847205
-0.19321543 -1.0223684 -0.69650954 -0.4830084 -0.8911679 -0.685823 0.5315584 0.20782173
0.13401762 -0.5217027 0.08498948 0.24765041 -0.5510936 -0.67423743 -0.92725253 -0.27513868
-1.0462581 0.2094284 0.42808938 -0.08743042 0.4025049 0.5220988 -0.37283787 -0.6116342
0.873375 0.41762087 -0.9111906 0.80438083 0.06872901 1.0133781 -0.5135299 0.016055755
0.0997725 -0.19524728 0.90435964 -0.23328863 0.6187379 0.23373301 0.0475641 -0.26809314
0.9028129 0.5567722 -0.0019192095 0.75584555 0.48858196 -0.19564067 -0.018917251 -0.055772398
-0.17781456 0.31346524 -0.5696294 -0.051733285 0.2969952 0.5499571 0.62136996 0.06992611
0.5519067 -0.9894906 -0.36828956 -0.11196549 -0.114000864 -0.025590928 -1.1005558 0.594262
0.21637914 0.18548356 -0.38525885 -1.0461073 -1.085049 0.67502207 -0.118811265 0.009530237
0.45228964 0.15616484 -0.14019206 0.57798994 -0.33465216 -0.04609466 -0.7874283 0.49414954
0.043224487 0.091269016 -1.0306737 -0.864325 -0.03236458 0.36421758 0.04420517 -1.0839314
-0.8554808 0.34681278 0.3657511 -0.47389722 0.6716241 -0.20268892 -0.35251454 0.7088003
0.07319218 -0.34908217 -0.53489566 -0.8326251 0.092870496 -0.46932128 0.7876604 -0.5750759
0.31177843 -0.3582003 -0.020273598 0.13757268 -0.1991993 0.22401634 -0.37283358 -0.077686116
1.2118881 -0.36962116 -0.08025084 0.28874683 -0.54257095 -0.19400272 0.47398826 -0.6802674
-0.57851976 -0.085767835 0.034125715 -0.124692515 0.32215396 -0.13300063 -0.3906241 -0.80901873
-0.55367494 -0.507815 -0.017365182 -0.6688015 -1.0492045 -0.336428 0.45106667 -0.23162214
0.7156821 -0.6215667 -0.19934292 0.2619506 -1.0549492 0.099851705 -0.5148585 -0.20834538
0.018136734 -0.37767088 0.40114027 -0.017664265 0.47252 -0.19835798 0.4543676 0.28467944
-0.288431 0.28598326 -0.0960123 -0.5620326 -0.2698346 -0.2493907 -0.26022926 0.4106636
-0.9036734 -0.64568615 0.06563169 -0.13575381 0.22746551 0.29803133 -0.64236504 -0.009774303
0.5221815 0.07321483 -0.04388116 0.16642955 -0.49116567 0.33082506 -0.37243208 -1.0289342
-0.64626694 0.5343342 -1.4267737 -0.57357645 -0.08160157 0.09104461 0.12592362 0.83104956

aggregator.full.bias f4 [16]
00000000: 65b0 a9bd 12cc c4bd 93e8 ecbd 7476 e5bd
00000010: 3071 8ebd ac0d 81bd e127 1bbd 6636 46be
00000020: d6d9 08be f81d 5ebe 0179 afbb 4cce 15bd
00000030: b11b 08be 340c 13be 1bce 1bbe 05b9 94bd
-0.08285598 -0.09609236 -0.115677975 -0.11204234 -0.069551826 -0.06301436 -0.03787983 -0.19356689
-0.13364348 -0.2169112 -0.005355001 -0.036573693 -0.13291813 -0.14360124 -0.15215342 -0.07261852

step.full.weight f4 [1, 32]
00000000: 53ef 113e 9b9b 32be b729 2d3e 4a00 67bd
00000010: f839 55bd 682e 4fbd cf22 2f3e d002 05bd
00000020: 9a5f bf3d db78 01be aaf1 b3bd 003c 0cb9
00000030: fc93 6cbd 0761 b3bd b621 c13d dab5 e03d
00000040: 6d0f 333e 63df 24be e359 04be 1204 c5bd
00000050: 994f 323e 9dae 053e 1f1e 253e 70d3 20bc
00000060: 60f8 13bd f551 a2bd 30c1 0fbc 50a2 8fbc
00000070: 6fe5 263e 1f76 17be f08b 4c3d ee76 a83d
0.14251451 -0.17442171 0.16910444 -0.05639676 -0.052057236 -0.050581366 0.17103122 -0.032473385
0.093444064 -0.12643759 -0.08786328 -0.00013373792 -0.057758316 -0.08758741 0.09430258 0.109721854
0.17486353 -0.1610084 -0.12924914 -0.09619917 0.17413177 0.13054891 0.16124772 -0.009816036
-0.03612554 -0.07925788 -0.008774087 -0.017533451 0.1629846 -0.14791153 0.049938142 0.08225809

lstm.lstm.weight_ih_l0 f4 [64, 16]
00000000: 6f73 3fbd e621 363e 73db 9f3e 8760 ff3d
00000010: b1a7 3d3e 2917 0a3e 2f33 a8bb 5d05 863e
00000020: 10dc c93e 6afe 14bd c2e5 eabd dd0f 4f3d
00000030: 020d 023e 24d0 eb3e 214d a33e d19d 8f3c
00000040: b3ca c4be c175 a53e 0654 26bd 602b febd
00000050: fcbc 013e 8bcb d53e ff3e c6bd 816d 9cbe
00000060: 2f9c 70bd a67e bfbb 29b9 d3be e81f aabe
00000070: ea7f 98be eb61 0cbd 662d e03c 9217 c33d
00000080: 83cb 793e 27c8 4ebc 4361 283e 1a48 893e
00000090: 4615 cfbd 7e3e 91bd 5d05 2f3e 36ef ce3e
000000a0: 45bc 38be 78db 203e 8f61 f13e 7e9a 0f3e
000000b0: a9b2 24bd 35a7 0c3c e376 a03d caed cdbd
000000c0: 0968 d33e 6752 273d c826 193e 469d 293e
000000d0: 618b ff3e 0fe5 4abe 4a18 513e ae75 5d3e
000000e0: fc0a 913d 237f 9a3e d2f9 973e eaa8 463e
000000f0: 0fc7 b83e 7830 33be ad0a 1e3d 5fa1 2a3e
00000100: b8c5 ce3d a561 d03d 55c6 403e ab08 81be
00000110: 2d58 b7bd c039 c13d 050b 3dbe e15a 36be
00000120: 9af2 01be e1b4 41bc bea1 fbba d093 963e
00000130: b15b 65be 266e 8f3e 14ab 0e3c 0fb7 2e3e
00000140: f6ba fa3e f862 193f 0391 ab3d 67c9 713e
00000150: 5017 be3e 6d75 143f d7d4 de3e ebf6 2d3f
00000160: 7a24 d83e 7481 333f 731d 5b3e e502 823e
00000170: d9c8 a43e decc 013f e22a 213f 03d1 873e
00000180: 94fb 45be 8744 c7be 0f85 8d3e f6c6 debe
00000190: 7a37 a7bb d29b 8a3d 7880 d43c 066a a6be
000001a0: 5f24 10be a1c2 15be 5b85 8f3c 2c52 343e
000001b0: 7fcd bf3d 1684 77be 1fec ddbc fedd 81bd
000001c0: a877 d13e 21dd 0e3f faf7 613e 069a ec3e
000001d0: 470c e63e 643e e43e 0637 e33e 7195 a43e
000001e0: 4e83 6c3e 8c76 a73e 3789 3f3f 2520 8d3e
000001f0: 44a7 a93e 33e0 db3e d4d2 a13e 0620 533e
00000200: c8ae 523e 763c 54be 070f 7f3c fd84 babe
00000210: 8fb2 b83e 3793 783e 301a 6dbe 22f3 5d3e
00000220: 413d 1fbe 009f e83d ef3e 0b3f 188b 423e
00000230: b127 863e eebe 81be 89fd cdbc e73e e33c
00000240: a6f5 aa3e 1975 963e 8329 153e 2504 ac3e
00000250: 5e6a b13e a6bb e93e 5628 f83e f496 a73e
00000260: fcde 3d3e 3a1e 1d3f a57a 3d3f 0713 5e3e
00000270: ab44 d13e 4ba1 033f b120 f93e bf05 f83e
00000280: 73d2 073f 7034 c53e 72c2 f73e e0fa 1e3f
00000290: 6ca6 163f 98a7 cd3e 52bc 293f 3bbb 013f
000002a0: 7f65 623e 9a0d 193f 1487 3d3e 7c07 ea3e
000002b0: 5d23 043f 55cf d93e 9e88 d13e c0bd 573e
000002c0: 8652 d03c 0a07 a2bd 3320 e5bd b8e0 bbbd
000002d0: 1665 2fbb 84ec eebd 7bac 333d b10f 9f3d
000002e0: 4609 b63e 9855 7abe b728 d8be fff4 f63d
000002f0: 3046 dbbe 822a 4a3e 8d7e 5b3e a582 873e
00000300: c929 8bbc 4127 dfbe 8779 b73e f87e a3be
00000310: 1825 babe 30c7 04be f28f b1be d6fb 97be
00000320: 0d26 7f3e 745d e1be 1b5d a2be 2dd5 073e
00000330: 4da4 11be b64a 513e 4ae7 483d 4494 f43c
00000340: c342 81be 6c01 ad3e 9ce4 173e e8d0 eebd
00000350: 9867 3d3d 8b50 e43d 8aa1 9a3e 0bbe 66be
00000360: 5fa3 203d 0549 153e e9e8 49be 42c3 9cbc
00000370: cc4a 47be 0e81 433e 9d6d 1cbd 70cb 98bc
00000380: 6dc8 5c3c 37c1 aa3d 5a58 7f3e 0a5f 883e
00000390: 38a0 d4be 9e5a 9ebe e4bd f63c 0178 50be
000003a0: ef0f 883e a133 93be b132 edbe 0921 5b3e
000003b0: 5a4f 97be fcca 5b3e 8f39 d53d 3e96 9cbe
000003c0: 8f94 b53e bb79 cebc 9780 56bd 976a 253d
000003d0: 261a e43e e306 5fbe cbdf ea3e d639 683c
000003e0: 4c26 74be a8d4 353e 411b bf3e 310f 5e3e
000003f0: 0c04 e43e 1cdf 51be cd15 c33e 61d4 f5bd
-0.046740945 0.17786369 0.31222114 0.12469583 0.18521 0.13485397 -0.0051330547 0.26175967
0.39425707 -0.03637544 -0.11469604 0.050552238 0.12700275 0.46057236 0.31894782 0.017531307
-0.38435897 0.32316402 -0.040607475 -0.12410617 0.12669748 0.41756853 -0.09679984 -0.30552295
-0.0587427 -0.005843955 -0.41352203 -0.33227468 -0.2978509 -0.03427307 0.027365398 0.0952598
0.2439404 -0.012620962 0.16443352 0.26812822 -0.101114795 -0.070919976 0.1709189 0.40416878
-0.18040569 0.1570872 0.47144744 0.14023778 -0.040209446 0.008584787 0.07835176 -0.1005512
0.4129031 0.04085007 0.149562 0.16563901 0.49911025 -0.19813941 0.20419422 0.21626922
0.07082173 0.30175123 0.29682785 0.19400373 0.3608937 -0.17498958 0.0385844 0.1666312
0.100963056 0.10174874 0.18825658 -0.25201926 -0.08952365 0.09434843 -0.18461235 -0.17808105
-0.12690201 -0.01182291 -0.0019197983 0.29409647 -0.22398259 0.28013724 0.00870778 0.17062019
0.48970765 0.5991664 0.08377268 0.23611985 0.3712716 0.5799168 0.4352176 0.6795489
0.4221533 0.70119405 0.21397953 0.25392833 0.32184485 0.5070323 0.6295606 0.2652665
-0.1933425 -0.3891947 0.27640578 -0.4351117 -0.005103049 0.067680016 0.025940165 -0.32502764
-0.14076374 -0.14625026 0.017519644 0.17609471 0.09365367 -0.2417148 -0.02709013 -0.0634117
0.40911603 0.55806166 0.22067252 0.4621126 0.44931242 0.4457885 0.44377917 0.32145265
0.23096964 0.32707632 0.7481875 0.27563587 0.33135426 0.42944488 0.31606162 0.20617685
0.20574486 -0.20726189 0.015567548 -0.36429587 0.3607373 0.24274908 -0.23154521 0.21674779
-0.1555071 0.11358452 0.54392904 0.18998373 0.26202157 -0.2534098 -0.025145309 0.027739955
0.3339054 0.29386213 0.14566617 0.33596912 0.34651464 0.45650977 0.48468274 0.32732356
0.18542093 0.6137425 0.74015266 0.21686946 0.40872702 0.5141799 0.48657754 0.48441884
0.53055495 0.3851657 0.48390538 0.62101555 0.5884769 0.40166926 0.6630298 0.50676316
0.2210903 0.5978638 0.1850856 0.45708835 0.5161646 0.42540994 0.40924543 0.21068478
0.025429975 -0.07911499 -0.11187782 -0.09173721 -0.0026763133 -0.116662055 0.043865662 0.07766665
0.3555395 -0.24446714 -0.42218563 0.12058448 -0.42826986 0.19742778 0.21434994 0.2646686
-0.016987698 -0.43584636 0.35834906 -0.31932807 -0.36356425 -0.12966609 -0.34680134 -0.29684323
0.24916859 -0.44016612 -0.3171166 0.13264914 -0.14222832 0.20438656 0.0490487 0.029855855
-0.25246248 0.33790147 0.14833301 -0.116609395 0.046241373 0.11148175 0.3020137 -0.22533433
0.039218303 0.14578636 -0.19717754 -0.019136075 -0.19462126 0.19092199 -0.038190473 -0.018651694
0.01347552 0.08337634 0.24936047 0.2663501 -0.41528487 -0.3092851 0.030119844 -0.20358278
0.26574656 -0.28750327 -0.46327737 0.2139932 -0.29552728 0.21464151 0.10411369 -0.30583376
0.35464904 -0.02520453 -0.052368727 0.040384855 0.445512 -0.21779971 0.45873865 0.014173945
-0.23842734 0.17756903 0.3732548 0.21685483 0.44534338 -0.20495266 0.3810257 -0.12003399

lstm.lstm.weight_hh_l0 f4 [64, 16]
00000000: 1834 9cbd 0b91 f93d c683 a1be 7f04 04bd
00000010: f529 7abe 57ea 033e 27b5 453e 85e0 12bf
00000020: b64c 87be 4622 743f d922 07be ace1 9ebe
00000030: f4ef b0bd 1ec6 3fbe 3413 33bd fb8f b6be
00000040: c8f2 803f 8436 aabd 6660 c53e baed 323f
00000050: b279 f93d 8ed7 263e 0067 20be 0fa9 1ebf
00000060: 56a9 e3bd ab4d b6bc 62eb 1ebf 402e 47bf
00000070: 0728 963c be4d 80be d024 8abe 2809 7a3e
00000080: 3c54 6fbf 1221 7c3d c7cb 50be 8b29 37bf
00000090: 740f 7dbe d0ee 56be 5119 723e fc23 a03f
000000a0: 7ff2 07bf e1fe b7be d6c0 073f a6a4 ab3e
000000b0: 3c33 7b3d 5abb 4bbe e4f5 803e 02cf cebe
000000c0: 4203 e13e 92e3 873e 17fd fbbd adea 313e
000000d0: b6c6 abbd 798e de3d 122b 9abe 2c96 273e
000000e0: 7eea e1bd 2588 073e 905b ad3d 99a7 9ebe
000000f0: 75bf e8be fdbf d3be 747e afbe 93cb 7fbe
00000100: 317e 29bc 659b 213d b558 4d3e 8106 32be
00000110: 8248 4ebe a84f 8b3c f54a c1be 62a7 703e
00000120: 47ca 533e c220 a0be ff01 43bf 3f64 7ebe
00000130: 8622 c73d 8288 40bd 2e8d ab3d 4ce7 91bd
00000140: d34d c23d 3143 2e3f 0fbe 04bf 2162 06bf
00000150: f72a 92be 35d0 7abe a4d1 f5be c430 913e
00000160: e707 cebe b267 9c3e 2947 4cbd 5850 b7be
00000170: ecec 8fbe 06ee a4be 517b cfbe fcb5 0bbf
00000180: 4c9c 51be fa60 34be 3e19 403e 7be5 c73e
00000190: a991 8a3d fa04 6c3f 09e3 20be 2610 8fbe
000001a0: 0bb6 2ebe 62b5 1a3e cbc4 80bf 79f0 d53d
000001b0: 8551 06bf 9984 d83d 4d7d 633d fb73 4ebb
000001c0: 942c 383e 8ae1 553e bfda bdbe a653 50be
000001d0: 0338 17bf f05c a5be 3555 ecbe 5c96 ee3d
000001e0: e912 21bf 02c4 b1be bbad d53e ef7f b1be
000001f0: e3fe ffbe 1334 f1be 6876 fcbd b2c4 d1be
00000200: 8b73 553b ccca f5bd bdf8 94be 6855 993c
00000210: 0a07 153c 4a12 143e 01be 88be abe6 da3e
00000220: d105 abbe bdc8 103e 0ea1 9c3e 9df4 97be
00000230: 49c5 41bc a8b0 cdbd 39da d1be 9515 02bf
00000240: 9619 ef3a ac05 433f 85e9 25be 8a6b 26bf
00000250: 4a3e f0be e57c 5dbe a5f1 b9bc 4853 1e3f
00000260: 04d2 adbe 1813 1fbd af72 e63e 79b5 92be
00000270: 0daa d3be 7410 3abf eacb 7dbe f0d3 92be
00000280: d850 c939 209f 8cbd daf2 cbbc d880 14be
00000290: 235c c7be 0fdb a6be a872 c0be aeb7 053f
000002a0: a4e0 66be ba12 8ebb 00ef 683e 8f76 e9be
000002b0: 823c 15bf 8356 aa3d d326 2fbe 47bb d2be
000002c0: 3721 013c 5612 46be f5b5 ec3e e766 7ebd
000002d0: 1222 9abd 68cd 933e 740f a3bd 3304 53bf
000002e0: 309b 723d 520f 673e 6a02 edbe 7766 29be
000002f0: d616 533c 776e 5e3e 5c42 66be a152 773e
00000300: ed74 903e 4cc7 273e a125 333e 7344 b03e
00000310: f3fe debd 10c5 c63d 838c b9bb 9b49 5ebf
00000320: 5258 ef3d 0b32 8a3e 8723 33bf af36 d4bd
00000330: a5d9 43bd 4d99 65be 0571 74be 34df d13e
00000340: 5b10 9e3e c8bc 893e 65ed d9be 6bd5 0d3c
00000350: a4d9 03bd 519d 21be 2c95 98be d979 5bbd
00000360: f80a 7cbe 2121 d53e 6b2e 9a3b 3bcd c3be
00000370: 2a0a 0dbf 41ad c4be a911 e1be 2177 d03d
00000380: b83a 4c3e c2fb 75be 686f 84be 474f f3bd
00000390: 4f32 ca3d 1e5e b2bc 14d6 0b3e c172 80bf
000003a0: 7dcd fbbd c256 783f ce6d 063e 1a4e 1abe
000003b0: 9500 71be da4c 113e 7b01 b0bd 0070 a23e
000003c0: 9289 253e 512c 2d3c ee29 28be 1819 d1bd
000003d0: 0900 a6be 4c7d 2d3f 86b6 81bd 4c13 043f
000003e0: 1ff2 be3c 64cf 17bd 04fc a53c 1b5d c6bd
000003f0: a3b1 6abd e07d f13e 0030 20be 69ad 94be
-0.076271236 0.12185868 -0.31545848 -0.03223085 -0.24430068 0.12882362 0.19307385 -0.5737384
-0.26425713 0.953648 -0.13196887 -0.3103155 -0.086395174 -0.1872792 -0.043719485 -0.35656723
1.0074091 -0.08311179 0.3855011 0.6989399 0.12181415 0.16293165 -0.15664291 -0.6197671
-0.11116283 -0.022253832 -0.62077916 -0.77804947 0.018329633 -0.25059313 -0.2698121 0.24417555
-0.93487906 0.061554976 -0.20390235 -0.71547765 -0.24712926 -0.20989537 0.2364247 1.2510982
-0.53104395 -0.35936645 0.5302862 0.33524054 0.061328158 -0.19895688 0.251876 -0.4039231
0.43947798 0.2654081 -0.123041324 0.17374678 -0.083875105 0.10867018 -0.30110985 0.1636588
-0.11031054 0.13235529 0.0846473 -0.30987242 -0.4545857 -0.41357413 -0.34276164 -0.24980001
-0.010345028 0.039454836 0.2005337 -0.17385294 -0.20144847 0.017005756 -0.377525 0.23501351
0.20682631 -0.31274992 -0.7617492 -0.24842928 0.09723382 -0.047005184 0.08376537 -0.071241945
0.094875 0.68071276 -0.51852506 -0.5249348 -0.28548405 -0.24493487 -0.48011506 0.28357518
-0.40240404 0.30547863 -0.04987255 -0.35803485 -0.28110445 -0.32212847 -0.4052377 -0.5457456
-0.20469779 -0.17615119 0.18759629 0.39042267 0.06766064 0.92195094 -0.15711607 -0.27942008
-0.17061631 0.15108255 -1.0060056 0.10446257 -0.5246814 0.10572166 0.055539418 -0.0031502235
0.17985755 0.20886818 -0.37080953 -0.2034441 -0.5906984 -0.32297468 -0.46158758 0.116497725
-0.6291948 -0.34719855 0.41734108 -0.34667918 -0.4999915 -0.47110042 -0.12327272 -0.4097038
0.003257009 -0.12001571 -0.29096022 0.018717483 0.0090959165 0.14460102 -0.2670746 0.4275411
-0.33402875 0.14139076 0.30591625 -0.29678813 -0.011826822 -0.1004346 -0.40986803 -0.5081418
0.0018241878 0.7618053 -0.16202362 -0.6500784 -0.46922523 -0.21629675 -0.022698233 0.6184583
-0.33949292 -0.03883657 0.45009372 -0.28654078 -0.41340676 -0.72681355 -0.24784818 -0.2867732
0.0003839794 -0.06866288 -0.024896074 -0.14502275 -0.38937482 -0.32589003 -0.37587476 0.522334
-0.22546631 -0.0043357285 0.22747421 -0.45598266 -0.5829545 0.08317282 -0.17104654 -0.41158506
0.007881454 -0.19342932 0.46232572 -0.062109854 -0.0752603 0.2886765 -0.07961932 -0.8242828
0.05923003 0.22564438 -0.46290904 -0.16542993 0.0128838625 0.21721826 -0.22486252 0.24152614
0.28214207 0.1638462 0.17494823 0.34427223 -0.108884715 0.097055554 -0.0056625023 -0.86831063
0.11686768 0.26991305 -0.69976085 -0.103619926 -0.047814984 -0.22421761 -0.23871239 0.40990603
0.30871853 0.2690184 -0.4256393 0.00865684 -0.03218998 -0.15782668 -0.2980131 -0.053583
-0.24613559 0.41626838 0.0047052405 -0.38242516 -0.55093634 -0.38413432 -0.43958786 0.10178972
0.19944274 -0.24021819 -0.25866246 -0.11880355 0.09872877 -0.021773394 0.13655883 -1.003502
-0.12295053 0.9700738 0.13127825 -0.15068856 -0.23535378 0.14189473 -0.085940324 0.31726074
0.1616576 0.010569648 -0.16422245 -0.102098644 -0.32421902 0.6776931 -0.06333642 0.51591945
0.023308812 -0.037063017 0.020261772 -0.09685727 -0.057298314 0.47166348 -0.1564331 -0.2903855

lstm.lstm.bias_ih_l0 f4 [64]
00000000: d865 763d f50b 82bd 87b1 063e 1f9b 2e3e
00000010: c0bf 823e f53a 1b3f 05eb 3c3e b657 cc3e
00000020: b654 d2bd 046c a83e 3068 1a3f d67d d43d
00000030: 64a4 a63c 0c82 3a3d 5e59 c8bd 470f 00bd
00000040: 2473 b83d ae41 083e 2a3a 783e eb17 5a3e
00000050: f6e2 ac3c 0a8e 173f d859 23be abfd 9e3e
00000060: 27fc ee3d b333 a83e 2942 003f cec4 c83d
00000070: dfca 8b3d aef8 fe3e f5fd 1c3c 4781 7c3e
00000080: 2030 483e ec0c a23d e062 11be 577b 4d3e
00000090: 3ab3 84be c2c2 943e db15 18be ab44 88bd
000000a0: 54b7 25bd 4545 5ebd c20d 07bb 11fa 8d3e
000000b0: 08d7 37be 2692 833e 9607 ac3c 3c8e 9d3b
000000c0: 3d5c fe3e f396 25be b70a d33e 75f6 973e
000000d0: 7122 24be d769 313e 2e02 cf3d 1ab9 c33e
000000e0: d4ce 0e3e 89e5 0e3f f374 363f 6f3e 743e
000000f0: bbe7 9e3c 2696 4c3e 3a3d 4d3d 21a1 283e
0.06015572 -0.06349937 0.13153659 0.17051362 0.2553692 0.60636836 0.18449028 0.39910668
-0.102700636 0.3289491 0.6031523 0.10375564 0.02034206 0.04553418 -0.097826704 -0.03126457
0.09006336 0.13306305 0.24240938 0.21298186 0.021104317 0.5920111 -0.15952241 0.31052908
0.11669188 0.32851943 0.5010095 0.098031625 0.06825804 0.49799103 0.009582032 0.2465869
0.19549608 0.07912621 -0.14197874 0.20066582 -0.2591799 0.29054838 -0.14852087 -0.066537224
-0.04045804 -0.05426528 -0.0020607566 0.27729848 -0.17953122 0.2569744 0.020999711 0.0048082154
0.49679747 -0.16170864 0.41219112 0.2968022 -0.16028763 0.17325531 0.101078376 0.3822716
0.13946086 0.5581899 0.712722 0.23851942 0.019397607 0.19979152 0.05010722 0.16467716

lstm.lstm.bias_hh_l0 f4 [64]
00000000: 984d 423c 3fde 11be 4a72 ba3d 15de 09bd
00000010: fa58 a3bd 91ef 7b3e c571 58be a045 2e3f
00000020: dd7b 18be e44c 343f 8c87 dd3e 6c1f 3fbe
00000030: 90bd b33c 5524 333e 14a8 06be 7583 723e
00000040: 49b7 bc3e 4481 5e3c f9dc 57be ef49 693e
00000050: 1de1 2d3e 0054 193f 7a57 fd3d 9174 253f
00000060: 3b82 f83d aac2 8c3e a4bd 893e ef1f 96bd
00000070: 6cdc 0b3e 2998 be3d 3d8a 7cbd 7059 4c3e
00000080: 1720 963d 9a69 1ebd c772 01be 4373 a43d
00000090: 427f 8dbe 56ec 5dbd 247b 4a3e 7617 ee3d
000000a0: 38ca 69bd 4031 5e3e 5b15 5dbd 450c d33c
000000b0: 9bcc d4bd 210d 443e cd64 aebe cd55 62be
000000c0: bfbd d53e 63c5 013e 2673 ad3e a024 14bd
000000d0: 4085 12be 6d25 fd3e 4ab6 56be 9ed4 c93e
000000e0: ec9a 513d 2332 b93e 7509 c43e 3cdd 0ebc
000000f0: b509 f9bd 832c 1a3e e8f9 abbc 5799 0e3d
0.01185932 -0.14244936 0.0910383 -0.03365906 -0.07975955 0.24603106 -0.2113715 0.6807499
-0.14891 0.70429826 0.43267477 -0.1866433 0.021940976 0.17494328 -0.13150054 0.2368296
0.36858585 0.013580624 -0.21080388 0.2278211 0.16980405 0.598938 0.123702005 0.6463099
0.121342145 0.27492267 0.26902497 -0.073303096 0.13658303 0.09306366 -0.06165527 0.19955993
0.073303394 -0.03867493 -0.1264144 0.08029797 -0.27636153 -0.054180466 0.19773537 0.116255686
-0.057077616 0.21698475 -0.053975444 0.025762687 -0.10390588 0.19145633 -0.3406128 -0.22103043
0.41746327 0.12672953 0.33876914 -0.03616774 -0.14308643 0.49442616 -0.20967975 0.39420027
0.051173136 0.36171064 0.38288465 -0.008719739 -0.121600546 0.15056042 -0.020993188 0.034814205

downstream.full.weight f4 [6, 16]
00000000: 75fd 8e3e 4686 b7be a4fd 50bb 3436 a43d
00000010: 935b dfbd b5a2 0f3f 175a 033f ad99 07bf
00000020: 069b 2e3f 0ce9 1f3f 60e7 893e 461b 08be
00000030: cd1b 1b3e 950c bf3e c196 fdbe 8d23 be3e
00000040: 2130 4f3e ec5a 0ebf c78d 87be 6fbc c53e
00000050: 9f0e 04bf 0cc7 bbbd 85b4 32bf 296a 06bf
00000060: 71e5 0a3e 588a bebe bc0a 9bbf afb5 1abf
00000070: be0f 90be 668e 2e3f d0bc 11bf da71 503f
00000080: 188e 03be 8f15 1c3f d265 753f 447a b1be
00000090: f4f5 bfbe 42ad 35bf 54b7 50bd 5ce2 2b3f
000000a0: 57a3 58bf 3d55 aebf f300 70be bbbc a23e
000000b0: 13b3 653e 0156 20bf f76d 153f 4848 4a3e
000000c0: c02c e1be 7b5d 9cbc 454f 8fbf 868d 64bf
000000d0: 7878 ddbe c13c a2be f6b6 263f 2603 573f
000000e0: 2da0 47bd 45a0 083f c523 993f 8971 a83e
000000f0: 8404 6e3f 5644 1cbf ea78 0cbd 748d 53bf
00000100: b5a4 2a3f 8125 1a3f d296 92bd b472 c33e
00000110: 772b 3fbe dd1d e9be 5775 693e 3d5f 8cbf
00000120: cdc6 4f3e 4bd4 ab3e 945d 053f c088 cdbe
00000130: 9052 e8be 41c0 6abf 2726 c8be f261 f03e
00000140: a24d 56bf a24a a5be 230f 653e fe12 78be
00000150: 2c20 d1be beb0 233f 37eb 9ebe 58f0 2f3f
00000160: 24c1 67be 3f7d 013f 7ed8 5dbf 1b5a 053f
00000170: ad56 283e ccbd c23e 90e3 043f 725f 53bf
0.27927747 -0.3584463 -0.0031889463 0.08018151 -0.10906138 0.56107646 0.5130934 -0.52968866
0.68205297 0.62464976 0.26934338 -0.13291654 0.15147324 0.37314287 -0.4952908 0.37136498
0.20233203 -0.55607486 -0.26475355 0.38620326 -0.5158481 -0.091688246 -0.698067 -0.5250574
0.13564087 -0.37214923 -1.2112651 -0.6043348 -0.2813701 0.6818603 -0.5692873 0.81423724
-0.12847173 0.60970396 0.9585849 -0.34663594 -0.37492335 -0.70967495 -0.050956085 0.6714227
-0.84624237 -1.3619763 -0.23437862 0.31784615 0.22431593 -0.6263123 0.5837092 0.19754136
-0.43979454 -0.019087544 -1.1196066 -0.8927845 -0.43255973 -0.31686977 0.65122926 0.8398918
-0.04873674 0.5336955 1.1964041 0.3289912 0.9297564 -0.6104177 -0.034295 -0.82637715
0.66657573 0.60213476 -0.07157673 0.3817345 -0.18668924 -0.45530596 0.22798668 -1.0966564
0.2029068 0.33560404 0.52095914 -0.40143394 -0.4537549 -0.91699606 -0.39091608 0.46949726
-0.8371221 -0.32283503 0.22369055 -0.24225995 -0.40844858 0.6394156 -0.3103883 0.6872611
-0.22632271 0.50581735 -0.86658466 0.52090615 0.16439314 0.3803543 0.5190973 -0.82567513

downstream.full.bias f4 [6]
00000000: 061d 7f3e d96b 693d f10a 553e 9f72 11be
00000010: f3b5 c4bd 5be1 02be
0.24913415 0.056987617 0.20804955 -0.1420388 -0.096050166 -0.12781279

maxpooling.full.weight f4 [16, 16]
00000000: 6504 a73e 482b 233d 6d1c a83e c637 013e
00000010: b014 f6bd 94d3 44be 8853 393d f5af b73e
00000020: c675 1a3e 5264 10be 049b 8abd c911 b73e
00000030: f063 0fbd 46f3 003e 8f16 c13e e08d 9bbe
00000040: 2a5d 423e b03d 54bd f830 bfbe 07d5 dc3e
00000050: e143 62be 07d2 c43e 2ef6 73be c561 963e
00000060: 1d94 b03e cc4a 8abd e088 7b3d 45c0 bdbe
00000070: d098 30bd 86ef 4c3e 86f1 123e 8287 a9be
00000080: 94f5 95bd 1845 88be a0a1 9bbe c009 b3be
00000090: 379c ad3e 3021 a5be 58c9 94be 3267 143e
000000a0: 3c23 d8bd 12c7 5bbe d5bc 8a3e 89d5 903e
000000b0: 790c 943e 3a3a 82be a841 95be 2ede 94be
000000c0: 139b aa3e c0d4 98bb 318b a33e 17a1 bbbe
000000d0: 296a c63e d82f 723d b6df 12be da43 323e
000000e0: 100d 843d 9ccf b63d 87cf b53e f655 083e
000000f0: 3856 2fbd b287 153e 79e7 a03e b2a8 d4be
00000100: a818 433d 6030 71bc 2ce4 9cbd 8454 78be
00000110: 2e53 1b3e cef7 063e d54b bc3e 1b33 3fbe
00000120: 084a 60bd 6081 76bc c26c 3ebe febb 793e
00000130: a1ea c63e 806b 9abe 7a68 493e 6293 543e
00000140: 075d 8d3e c96b 833e c790 b93e 2b29 7cbe
00000150: 400c 673c 40a4 c0be 1a1a 28be 4785 db3e
00000160: 00e2 60ba ec94 99be e845 1a3d e64a 5fbe
00000170: a512 873e 93c3 813e 00b7 a4bd 0477 fcbd
00000180: c200 553e 13ea da3e 1b84 a93e b72a b93e
00000190: 4b81 d5be 0076 153a 2df8 d63e 2ff9 92be
000001a0: eca8 f23d 4a9f 0e3e 242f 9bbe 0019 c4bc
000001b0: 5170 6fbe e119 923e 8dc8 ba3e ace7 23be
000001c0: 9a3d 5bbe a0ba c0be 982b bcbe e7f7 9a3e
000001d0: 2e9c adbe 90b7 8a3c 0ce7 9d3d 0c91 afbe
000001e0: def9 093e 8ebd 8fbe f9bf 6ebe 2c30 a73d
000001f0: 7230 a5be 52cf 313e 2fa2 b93e 756e acbe
00000200: 5882 cdbe bd07 903e 7659 6cbe aa30 673e
00000210: 78a5 473d 802a 74bc 9b09 aa3e c60e cfbe
00000220: 70d1 14bd 5c1d c53d 0045 d23b 900d 8dbe
00000230: 02ae b9be b27a 4a3e 98a9 48be 008c ddba
00000240: faac aabe 11ff bd3e ea98 5c3e c478 943d
00000250: 9c29 35be 3971 a13e f64c 4ebe 18c8 073d
00000260: 5066 94bd 0491 d6bd 7375 dd3e 46f8 0dbe
00000270: 86cf 213e 0512 82be 7543 b53e a7be b73e
00000280: be05 9fbe b368 d03e a674 133e 5a30 bebe
00000290: 18c5 39bd e4fd b13d 6195 a9be 56e2 96be
000002a0: 78c6 16be 43f6 c83e 9803 b1bd 02bf 5c3e
000002b0: 9471 f53d 7649 433e 6cf1 2fbe b743 4dbe
000002c0: bcd0 09be d46b 92bd b0e6 b7be 5159 aa3e
000002d0: 13a0 803e 2bc5 c2be e51a c83e e0d0 673d
000002e0: 0a64 2d3e 7bc0 c43e 09e2 ba3e 80f0 513c
000002f0: 00c4 1b3b 12f1 3f3e f803 653d 6e97 a1be
00000300: f985 a83e 3b45 d93e 0a74 583e 7954 bc3e
00000310: 5382 8c3e a3a1 9d3e ee55 80be 8e4c 9abe
00000320: 891c da3e c753 843e eea9 373e 583a 2dbe
00000330: d902 863e 6464 cc3d 7545 88be 35fe 52be
00000340: e75c b63e e0da fe3c 6b48 893e 5d09 ac3e
00000350: c545 b43e 46bd 0a3e fbf7 b53e 8a83 2dbe
00000360: 1f64 b8be 65da 953e fa5a 263e f385 ae3e
00000370: 0fa3 d6be 8052 bf3b 8090 523c e213 253e
00000380: 983f d1bd 357c c33e fc99 c0be 8e11 27be
00000390: 809b dabd 455f bd3e 06cf 2e3e b825 84be
000003a0: 7609 74be 1020 8d3c d499 9fbd e015 7cbd
000003b0: 2401 15be 3891 8abd e865 75bd 4057 c9bb
000003c0: de56 1d3e f65f 193e f743 b7be 9018 b7bd
000003d0: 4f47 d93e 32db 733e 84ea 95bd e8e2 fdbd
000003e0: 66b2 8bbe ea39 223e 61fa b13e c181 9ebe
000003f0: dbd0 d43e 66f5 6b3e 60ec f03c e060 7d3d
0.3262054 0.039836198 0.32834187 0.12618932 -0.120156646 -0.19221336 0.045245677 0.35876432
0.1508399 -0.14100769 -0.06767848 0.35755756 -0.035007417 0.12592801 0.37712523 -0.3038168
0.18980852 -0.051816642 -0.37342048 0.43131277 -0.22096206 0.38441488 -0.23824379 0.29371467
0.34488 -0.067525476 0.06140983 -0.37060753 -0.043114483 0.20013246 0.14349946 -0.33111197
-0.07322231 -0.26615214 -0.30396748 -0.34968376 0.33908245 -0.32251883 -0.29059863 0.14492491
-0.105535954 -0.21462658 0.27097192 0.28287914 0.28915766 -0.25435048 -0.29151654 -0.2907576
0.33321437 -0.0046640337 0.31942132 -0.3664634 0.3875287 0.05912766 -0.14343151 0.17408696
0.06447804 0.08926317 0.35509893 0.13314041 -0.042806834 0.14602545 0.314266 -0.41534954
0.047630936 -0.014721006 -0.07660708 -0.2425099 0.1516845 0.13180467 0.36776605 -0.18671839
-0.0547581 -0.015045494 -0.18596175 0.2438812 0.38850883 -0.3016014 0.19668761 0.20759347
0.27610037 0.2566817 0.3624327 -0.2462508 0.014102042 -0.37625313 -0.16416207 0.4287512
-0.00085785985 -0.2999643 0.037664324 -0.21805915 0.26381412 0.25344524 -0.08042717 -0.12327388
0.2080107 0.4275671 0.331086 0.361654 -0.41700205 0.00057014823 0.41986218 -0.28705737
0.118486255 0.13927951 -0.30309403 -0.023937702 -0.23382689 0.2853537 0.36481133 -0.16006345
-0.21410218 -0.37642384 -0.3675201 0.3026726 -0.33908218 0.016933233 0.07710084 -0.3429035
0.13474223 -0.28074306 -0.2331542 0.08163485 -0.32263523 0.17364243 0.3625655 -0.33678022
-0.40138507 0.28130904 -0.23081002 0.22577158 0.048741788 -0.014902711 0.33210453 -0.4044096
-0.036332548 0.096247405 0.006416917 -0.2754941 -0.3626557 0.19773367 -0.19595945 -0.0016902685
-0.33335096 0.37108663 0.21542707 0.07249597 -0.17691654 0.31531695 -0.20146546 0.03314981
-0.07246077 -0.10476878 0.4325367 -0.1386424 0.1580182 -0.25404373 0.35403028 0.35887644
-0.31059068 0.4070488 0.14399967 -0.37146264 -0.04535398 0.08691004 -0.3312178 -0.29469556
-0.14724147 0.39250383 -0.086432636 0.21557239 0.11984554 0.19070992 -0.17181939 -0.20045362
-0.13458532 -0.07149473 -0.35918188 0.33271268 0.25122127 -0.38041052 0.3908302 0.056595683
0.16932693 0.384281 0.36500576 0.012813687 0.0023767948 0.18744305 0.055911988 -0.31560844
0.32914713 0.4243563 0.21138015 0.36783198 0.2744318 0.30787382 -0.2506556 -0.30136532
0.42599896 0.25845167 0.17935917 -0.16916788 0.26174048 0.099800855 -0.26615492 -0.20604785
0.35617754 0.031110227 0.26813063 0.33600894 0.3520948 0.13548765 0.35540757 -0.1694471
-0.36013886 0.29268184 0.16245642 0.3408657 -0.4192128 0.005838692 0.012851834 0.16120866
-0.10217208 0.381807 -0.3761748 -0.1631529 -0.106741905 0.36986747 0.1707116 -0.25810027
-0.23831734 0.017227203 -0.07793012 -0.0615443 -0.14551216 -0.067659795 -0.05991164 -0.006144434
0.15365168 0.14978012 -0.3579404 -0.08940232 0.42437217 0.23814085 -0.07320121 -0.123967946
-0.27284545 0.15842405 0.34761336 -0.3095837 0.41565594 0.23042831 0.029409587 0.061859965

maxpooling.full.bias f4 [16]
00000000: 2625 3dbe 4887 66be 32c3 48be 30c9 873c
00000010: 78a3 0bbd 600a 16be f8b9 50bd 2846 223d
00000020: 8823 26be 32c5 483e ccf6 32be e633 393e
00000030: 902b 60bd 381d ddbd 6a2a 68be 40d1 83bd
-0.18471202 -0.22512543 -0.19605711 0.016575426 -0.034091443 -0.14652395 -0.050958604 0.039617687
-0.16224492 0.19606474 -0.17476958 0.18086204 -0.054729044 -0.10796589 -0.2267243 -0.06436396

mean.full.weight f4 [16, 16]
00000000: 1230 05be 6837 3cbe 6c5b b53d 337e a53e
00000010: d204 83be 0efb bcbe aa81 283e a449 0ebe
00000020: 5cf7 99be 4cfc af3d 4880 c1be 640a de3d
00000030: cc2e bd3d 1483 983d 2ff0 a73e de78 3f3e
00000040: ae1d 0d3e cfbe d03e 0de4 913e 3277 303e
00000050: 6a3f 1abe 65c5 63be eb5a 42be 60e4 38bc
00000060: 1805 81be 0848 f0bd 74d9 f03d 8065 dcbb
00000070: 80c7 f83b ec87 d2bd 3ab3 cebe 3b8b b33e
00000080: 5213 8fbe 97fc c5be 7846 d5bd a6b5 773e
00000090: 10b3 92bd c591 49be 1a13 afbe 5a4c 743e
000000a0: 89db c53e a04a 543d c1cf 803e 5fc1 d33e
000000b0: 181c 16bd 7572 c43e 17b8 843e 6cc9 8c3d
000000c0: 6e0a aebe 7806 2dbe 305f 81bd 2f74 923e
000000d0: 2040 3d3d f709 b03e c01b 723d 4c19 1fbe
000000e0: 0217 483e b3b0 d1be 962a 0b3e cd1d 903e
000000f0: 176f a23e 081e 753d 5403 c03d 1d3c 873e
00000100: 5b55 8f3e 7062 c63c 662d b5be b1c4 b6be
00000110: 8704 a43e b670 4b3e 94b3 28be 97ae c33e
00000120: 4a1b 473e 5def 9b3e 14e0 fa3d 2315 9abe
00000130: e98a 60be e743 8e3e 18a6 fbbd 4482 d5be
00000140: ea6e 003e acc5 b7be c24d 2fbe 0011 4f3c
00000150: cd65 d03e 8ca0 f83d cb29 63be ccfb c63d
00000160: 8410 903d 25c1 833e e13b 57be 0d8b 973e
00000170: f87a b0be 0a27 9fbe 462f 2dbe e881 a9be
00000180: 5f44 823e 80db 67bd 0985 a63e 2c8e f03d
00000190: d899 e5bd 4626 783e 341b cabd e1c2 9a3e
000001a0: 80f4 133b d84d 65bd 1409 a73d 9a2f 4fbe
000001b0: e0f1 0cbd b237 773e 20a6 04bc a11a 8a3e
000001c0: c6ce 2a3e 2dc5 8dbe 00ea 9e3c a5d9 cdbe
000001d0: c263 9cbe 3c11 de3d a2f5 5d3e 9e00 afbe
000001e0: acef d4bd 8b14 c33e 6cda da3d 9419 cdbd
000001f0: 58ef 72bd 303d e1bd 1840 253d 03d4 54be
00000200: e80f 66bd 2458 b53d 29bf d4be 8ec6 43be
00000210: a013 8c3c 30ac 173d 7d1e ce3e 5d48 903e
00000220: bf30 cbbe e57b d13e cb77 963e 6ca3 d23d
00000230: 634b a53e 006c 23bb 00f2 17bc cf1a d33e
00000240: df7a 5dbe 1af7 1f3e 6e91 393e 5dc6 bbbe
00000250: 29bd a6be aca0 fb3d 8d68 833e 735c 7ebe
00000260: 7dcf c1be 3311 dd3e a1f9 803e 094e d73e
00000270: 2a9c 06be c9d8 9f3e 2ba4 a1be 1aea 473e
00000280: 84ba 22be 3a45 b6be e03e 5ebc 0a23 a4be
00000290: a4d9 bbbe f03a 7bbd d1bb 873e 7845 7fbd
000002a0: 15e6 c13e 9294 babe 392f 9bbe 0245 d1be
000002b0: e02c e4bc 963a 263e b547 ae3e a82c cabe
000002c0: ab1e d23e 3e65 6ebe a5ca d53e e0db 95bd
000002d0: 86fd 18be f026 b4be 48ce 41bd 7899 4ebd
000002e0: af51 a7be 2d53 8abe 7962 c53e 5075 373d
000002f0: 2c16 b9bd 1908 b13e 87b3 b43e 75ea b23e
00000300: f37f ae3e 8837 613d 6cc4 f33d e6ad 98be
00000310: 0092 413c ac81 ca3d 8849 543d 5800 08bd
00000320: 3330 913e 8b3a 833e efdc b13e da96 5c3e
00000330: 009e f1bc 8085 4cbc 4de8 da3e d476 c8bd
00000340: 801e 1abd 8cf7 b53d c9e9 803e 92a7 13be
00000350: 030c 3fbe f4c4 8a3d bb08 d2be 7862 cbbd
00000360: 74ca d43d 6438 5dbe 46c1 0e3e 40ee 94bd
00000370: 9c32 9dbe 551f acbe c414 95bd b6c4 273e
00000380: de9b 103e 0608 73be 3a2f 413e a210 223e
00000390: a242 6c3e 1eee 5e3e 0f26 813e 0e1b 673e
000003a0: 37a8 bbbe a046 b0bc 4229 7f3e 2d80 d03e
000003b0: 99c0 9c3e dacb 8bbe 90f5 5a3d 6f76 d43e
000003c0: 5885 02be 1c3d df3d c09e 69bd 6ffb c03e
000003d0: 111a b53e 27c2 c6be d387 b4be 0d75 da3e
000003e0: d855 75bd d461 d63d 5183 873e d354 c4be
000003f0: 2b57 8d3e bf84 87be a115 9fbe 7a28 83be
-0.13006619 -0.18380511 0.08855328 0.32322845 -0.25589615 -0.3691029 0.16455713 -0.13895279
-0.30071533 0.08593044 -0.37793183 0.108418256 0.092374414 0.07446876 0.32800433 0.18698451
0.13780853 0.40770575 0.284943 0.1723297 -0.15063253 -0.22243269 -0.18979995 -0.011284918
-0.251992 -0.11732489 0.11760226 -0.006725967 0.0075921416 -0.10279831 -0.40371114 0.35067162
-0.27944428 -0.38669273 -0.104138315 0.24190387 -0.0716306 -0.19684513 -0.3419426 0.23857251
0.38644055 0.05182898 0.25158504 0.41358468 -0.036647886 0.38368574 0.259217 0.06874356
-0.33992332 -0.16896999 -0.06316984 0.28604266 0.046203732 0.34382603 0.059108496 -0.15536994
0.19540027 -0.40955123 0.13590464 0.28147736 0.3172538 0.059843093 0.09375635 0.2641305
0.2799481 0.02421686 -0.353862 -0.3569694 0.32034704 0.19867215 -0.16474754 0.3821914
0.19444004 0.30456057 0.12249771 -0.3009425 -0.2192799 0.2778618 -0.12287539 -0.41700947
0.1254231 -0.35893 -0.17119506 0.01263833 0.40702668 0.12139997 -0.22183912 0.09715995
0.070344 0.25733295 -0.21018936 0.29598275 -0.34468818 -0.31084472 -0.16912565 -0.33106923
0.25442788 -0.056605816 0.32523373 0.11745867 -0.11210984 0.2423335 -0.0986847 0.30226806
0.0022576153 -0.05598244 0.081560284 -0.20233002 -0.034410357 0.2414234 -0.008096248 0.2697344
0.1668044 -0.27689496 0.01939869 -0.40205112 -0.3054486 0.10843131 0.21675733 -0.34180158
-0.10397276 0.3810161 0.10686192 -0.10014644 -0.059310287 -0.10997999 0.040344328 -0.20784001
-0.056167513 0.08854702 -0.41552094 -0.19118711 0.017099202 0.037029445 0.40257636 0.2818021
-0.39685628 0.40914837 0.2938827 0.102850765 0.32284078 -0.00249362 -0.009274006 0.4123139
-0.21628903 0.15621606 0.18121883 -0.36674777 -0.32566193 0.12286505 0.25665703 -0.24839954
-0.37853613 0.43177184 0.25190452 0.42051724 -0.1314551 0.3122008 -0.31570563 0.19522896
-0.15891463 -0.3559969 -0.013564795 -0.32057983 -0.36689484 -0.061335504 0.2651048 -0.06232211
0.3787085 -0.36441475 -0.30309466 -0.4087296 -0.02785343 0.16233286 0.34039083 -0.39487195
0.41039023 -0.23280808 0.41756168 -0.073173285 -0.14940462 -0.35185957 -0.047315866 -0.050439328
-0.32679507 -0.27016583 0.3855169 0.044789612 -0.09037432 0.3457649 0.35293218 0.34944502
0.34081993 0.0549846 0.11902699 -0.29820174 0.011814594 0.09888014 0.051827937 -0.033203453
0.28357086 0.25630602 0.3473887 0.2154192 -0.029494286 -0.012483001 0.42755356 -0.0978829
-0.037626743 0.088851064 0.25178364 -0.14419392 -0.18656926 0.06775847 -0.41022286 -0.09930891
0.10390177 -0.21603543 0.13940915 -0.07272005 -0.30702674 -0.33617654 -0.07279351 0.16383633
0.14121959 -0.2373353 0.18865672 0.15826657 0.23072293 0.21770522 0.2522435 0.22568914
-0.36651775 -0.021518052 0.24918082 0.4072279 0.3061569 -0.27303964 0.053456843 0.41496608
-0.12746179 0.109003276 -0.05703616 0.3769183 0.3537145 -0.3882 -0.35259876 0.42667428
-0.05989632 0.10467878 0.26467374 -0.38345966 0.27605566 -0.26468465 -0.3107119 -0.2561682

mean.full.bias f4 [16]
00000000: a03f f43c a010 9ebd bc82 e8bd 6c7f 04be
00000010: c616 023e 306d 75bd bc2b 6b3e 9c93 25be
00000020: 3c9e abbd 8ae7 723e 0427 cdbd d07f 3f3e
00000030: 722e 64be d844 fdbd 0c4a 9ebd c066 5cbd
0.029815495 -0.07718015 -0.113530606 -0.12939233 0.12704 -0.059918582 0.22965902 -0.1616959
-0.0837979 0.23721138 -0.10017207 0.187011 -0.22283342 -0.123666465 -0.07728967 -0.053808928
