best_model/acc/citeseer-b-h_dropout=0_wd=0_b=256_lr=0.01_walk=7_best_model.pt (torch_old, 725205 bytes, 15 tensors)

embedding.full.weight f4 [16, 3703]
0	0x3cc4d152	0.024025593
1	0x3d065ca3	0.03280319
2	0x3c8f260c	0.017474197
3	0x3d220d73	0.039563607
4	0x3c9d627c	0.019212
5	0xbba11e08	-0.00491691
6	0x3d135963	0.035973918
7	0x3d091363	0.033465754
8	0x3c2fc678	0.010728471
9	0x3c5721bc	0.0131306015
10	0xbc2584e2	-0.0101024825
11	0xbc9c4c8f	-0.019079475
12	0xbbfb9b30	-0.007678412
13	0xbd1aba18	-0.03777513
14	0x3b3cf4a0	0.0028832331
15	0x3cadc9ce	0.021214392
16	0x3ab40c40	0.0013736561
17	0x3cc0b5ee	0.02352425
18	0x3d127fc3	0.035766374
19	0x3adaa740	0.0016681924
20	0x3cadbe8a	0.02120902
21	0xbc6d709c	-0.01449218
22	0x3c43fe98	0.011962555
23	0x3cc95bfa	0.02457999
24	0xbba11890	-0.004916258
25	0xbc357a8c	-0.011076581
26	0xbc367c22	-0.011137994
27	0xbca018f3	-0.019543147
28	0x38e8c800	0.00011099875
29	0xbce39fc0	-0.027786136
30	0xbcb3c89d	-0.021946246
31	0x3c9b4e68	0.018958285
32	0xbc43a29e	-0.011940626
33	0xbcf3eacc	-0.029775046
34	0x3d01358f	0.031545218
35	0x3cf0e77a	0.029407252
36	0xbc7d69c8	-0.015467115
37	0x3d147c63	0.036251437
38	0x3d0ed8a7	0.034874585
39	0xbcb8aac0	-0.022542357
40	0xbc96e552	-0.018419895
41	0x3bbd8e10	0.0057847574
42	0x3d21a4a9	0.039463673
43	0xbcc5111b	-0.024056008
44	0x3c86c2d2	0.01645032
45	0x3c1bf33c	0.009518441
46	0x3d0ed2e5	0.034869093
47	0xbb8b5968	-0.0042526014
48	0xbd12949f	-0.035786267
49	0xbc96b660	-0.01839751
50	0x3c805d5c	0.015669517
51	0x3bc67958	0.006056946
52	0xbd0b9d08	-0.034085304
53	0x3d23def9	0.040007565
54	0x3c72fbf0	0.014830574
55	0xbc2fe41a	-0.010735536
56	0x3b9ac960	0.004723713
57	0x3ce9718e	0.02849653
58	0x3d245975	0.040124375
59	0x3d13f50d	0.03612237
60	0x3ba8b488	0.005148474
61	0x3c88c1be	0.016693946
62	0xbb83ea50	-0.004025735
63	0x3bdc0640	0.0067146122
64	0xbbc021f8	-0.0058634244
65	0xbccfe10e	-0.02537587
66	0xbd11104b	-0.03541593
67	0xb94e9200	-0.0001970008
68	0x3c726c34	0.014796305
69	0x3cb51190	0.022103101
70	0x3c2f1cd0	0.010688022
71	0x3d02f5c1	0.03197265
72	0xbc1e210c	-0.009651434
73	0x3c021208	0.007938869
74	0x3c87e3d2	0.016588125
75	0xbd04ccad	-0.032421757
76	0xbc8cec04	-0.017202385
77	0xbcce5dba	-0.025191177
78	0xbd0efd39	-0.03490946
79	0x3c99747c	0.018732302
80	0x3c7db254	0.015484411
81	0x3a6174c0	0.0008600466
82	0xbbac4090	-0.00525672
83	0xbcaba6a3	-0.020953482
84	0x3cd25b4a	0.025678296
85	0xbcc31a6d	-0.023816312
86	0xbc02c2f4	-0.007981051
87	0x3b137c50	0.0022504516
88	0x3bbf22f0	0.0058330223
89	0xbcb96a5a	-0.02263372
90	0x3c9a06c6	0.018802058
91	0x3d0481e9	0.032350454
92	0x3c387750	0.011258915
93	0x3bfc6ba8	0.0077032633
94	0x3d19efa5	0.03758206
95	0x3cc6af2e	0.024253454
96	0xbcd2debe	-0.025740977
97	0x3ceaeaaa	0.02867635
98	0x3d205ed3	0.03915293
99	0xbc16fb5a	-0.0092152
100	0x3d18ab0b	0.037272494
101	0x3c26cbe8	0.010180451
102	0xbb38c090	-0.0028190948
103	0xbcd6eab2	-0.026234958
104	0xbb638990	-0.0034719445
105	0x3d1ba693	0.038000654
106	0xbc84a681	-0.016192676
107	0x3cf0e2de	0.029405054
108	0x3d067441	0.032825712
109	0xbc3fce00	-0.011706829
110	0x3c179f08	0.009254225
111	0xbc77f610	-0.015134349
112	0xbca9ab56	-0.020711582
113	0x3d14db27	0.036341812
114	0x3cd46ed2	0.02593175
115	0xbc853c4e	-0.016264107
116	0x3a57e680	0.00082359463
117	0xba8750e0	-0.0010323785
118	0x3b029350	0.001992423
119	0x3cc59b5a	0.024121929
120	0x3b6b26f0	0.0035881363
121	0xbc7f3e20	-0.015578777
122	0x3c9b61aa	0.018967468
123	0x3ce47ada	0.027890611
124	0xbc99efc6	-0.01879109
125	0xbc8c3bba	-0.017118324
126	0xbbad20d0	-0.0052834526
127	0x3d03ba97	0.032160368
128	0xbc80a9ff	-0.01570606
129	0xbcbccdaa	-0.023047287
130	0x3cf2f4ee	0.029657807
131	0x3ca50c96	0.020147603
132	0xbce29c90	-0.027662545
133	0x3c912da6	0.017721962
134	0xbc677f1a	-0.0141294245
135	0xbd0da212	-0.03457839
136	0x3c05d030	0.008167312
137	0x3d16dc3d	0.03683113
138	0x3ced905a	0.028999496
139	0xbcd22938	-0.02565442
140	0x3d1ef42f	0.03880709
141	0xbcb40b61	-0.021978082
142	0xbc3edf9c	-0.011649992
143	0x3baa9da8	0.0052067824
144	0x3c617a24	0.013762031
145	0xbce50d6a	-0.027960498
146	0xbb8e4a50	-0.004342355
147	0x3cfa1fb6	0.0305327
148	0x3c6a1d5c	0.014289226
149	0x3d0cbceb	0.034359854
150	0x3c5e5fac	0.013572615
151	0xbcf18328	-0.029481485
152	0x3cc9ee76	0.02464984
153	0xba008d00	-0.0004903823
154	0xbc598fe8	-0.013278939
155	0x3cb25dcc	0.021773241
156	0xbc26e45c	-0.010186281
157	0x3c8860f0	0.016647786
158	0xbc0859dc	-0.008322205
159	0x3c0b8f38	0.008518033
160	0xbd202406	-0.039096855
161	0x3d1e8121	0.038697366
162	0xbc048d0c	-0.008090269
163	0x3cc884f2	0.024477456
164	0xbbf54fc8	-0.0074863173
165	0x3ce1262e	0.027484026
166	0xbb5e2420	-0.0033896044
167	0x3cccbf92	0.024993692
168	0xbc7a66a6	-0.015283262
169	0x3d17a5db	0.037023406
170	0x3d01753b	0.03160594
171	0xbb869528	-0.0041071363
172	0xbcdf86da	-0.027285982
173	0x3c3488e8	0.011018969
174	0x3cbc615e	0.022995647
175	0xbc910336	-0.017701726
176	0xbcd8c595	-0.026461402
177	0xbd0cca45	-0.034372587
178	0x3bb73df0	0.0055921003
179	0xbc744978	-0.014910094
180	0x3b377350	0.0027992316
181	0xbcf811c0	-0.030281901
182	0xbcfbb758	-0.030727074
183	0xbd17b67b	-0.03703926
184	0xbc9faf02	-0.01949263
185	0x3c55f590	0.013059035
186	0xbd0c59b2	-0.034265228
187	0x3c9b521a	0.018960048
188	0xbc846654	-0.016162075
189	0x3b83fcd8	0.004027944
190	0x3ca55f6c	0.020187102
191	0xbd15ccb4	-0.036572173
192	0x3a3b31c0	0.0007140897
193	0x3d1805f7	0.037115064
194	0xbd165ca2	-0.036709435
195	0xbc4ddb00	-0.012564421
196	0x3c631494	0.013859887
197	0xbc3e7940	-0.011625588
198	0x3d0f796f	0.035027917
199	0xbcc0024b	-0.023438593
200	0xbc493a16	-0.012281915
201	0xbd1acc89	-0.037792716
202	0xbc52c164	-0.012863491
203	0x3d101dbd	0.03518461
204	0x3c1bdd48	0.009513207
205	0x3c9e749c	0.019342713
206	0xbbdaf0c0	-0.0066815317
207	0xbc4a446e	-0.0123454165
208	0xbc77a9a0	-0.015116125
209	0xbd066f78	-0.03282115
210	0xbd21a739	-0.039466117
211	0xbcb95544	-0.022623666
212	0x3d0c50f3	0.034256887
213	0x3c5c91a8	0.0134624615
214	0x3c4815dc	0.012212243
215	0xbc98403a	-0.018585313
216	0xbd045fe6	-0.03231802
217	0x3c0cbfe8	0.008590676
218	0x3b981550	0.0046412125
219	0x3c12fad4	0.008970935
220	0x3c11cff8	0.008899681
221	0xbaa0cd20	-0.0012268163
222	0x3cba51b2	0.022744033
223	0xbca528bf	-0.02016103
224	0xbcd6add5	-0.026205936
225	0xbc2b376e	-0.010450227
226	0xbc76cddc	-0.015063729
227	0xbcc757b6	-0.024333816
228	0xbcf75183	-0.030190235
229	0x3cc87dda	0.024474073
230	0x3ca3e65e	0.020007309
231	0x3c8f8e32	0.017523859
232	0x3d0fe887	0.035133865
233	0x3bde8530	0.0067907795
234	0xbb2f0a40	-0.002670899
235	0x3c703b54	0.014662582
236	0x3c15e9a4	0.009149943
237	0xbb50f4f0	-0.0031884275
238	0x3d1f50a1	0.038895253
239	0x3c9aa7b8	0.018878803
240	0xbcb9dd59	-0.022688555
241	0xbcc20209	-0.023682611
242	0xbc8fa1b3	-0.017533159
243	0xbd093f6e	-0.033507757
244	0x3c244dcc	0.010028314
245	0x3cf0c8fe	0.029392716
246	0xbc2b2412	-0.010445612
247	0xbb8dc130	-0.0043260083
248	0xb9874d80	-0.00025806949
249	0x3cea3102	0.028587822
250	0xbca4ac2e	-0.020101633
251	0x3c9b8554	0.018984474
252	0xbc650432	-0.013978051
253	0xbc909dd3	-0.017653381
254	0xbabf6840	-0.0014603212
255	0xbc47bd60	-0.012191147

embedding.full.bias f4 [16]
0	0x3bc6b04c	0.0060634967
1	0xbb8f2790	-0.00436873
2	0xbc807e34	-0.015685178
3	0xbc344c02	-0.01100445
4	0xbb404f74	-0.0029344233
5	0xbc29a244	-0.010353629
6	0x3c44ad12	0.012004154
7	0xbb5d00d8	-0.0033722427
8	0x3c3aa112	0.011390941
9	0xb94b2680	-0.00019373931
10	0x3c850d9d	0.016241843
11	0x3bc35158	0.0059606247
12	0x3c1f9b3a	0.009741599
13	0xbb64cf6c	-0.0034913672
14	0x3c33d356	0.010975679
15	0x3c029ea0	0.007972389

aggregator.full.weight f4 [16, 7406]
0	0xbe4a20d6	-0.19739088
1	0xbf526980	-0.8219223
2	0x3e0e7c40	0.13914585
3	0xbf820270	-1.0156994
4	0xbf987969	-1.1912051
5	0xbf5c88a6	-0.8614601
6	0xbf8c96cf	-1.0983523
7	0xbe6f942a	-0.23396364
8	0x3f2e3c2f	0.6806058
9	0x3f46f3db	0.77715844
10	0x3f3870a7	0.72046894
11	0x3f401f5f	0.7504787
12	0x3eb56318	0.35427165
13	0x3e0b600b	0.13610856
14	0x3e83f8b3	0.2577568
15	0x3ecc7e6f	0.3994021
16	0xbea0ed78	-0.31431174
17	0x3da380c0	0.079835415
18	0x3e32a722	0.17446569
19	0xbea08beb	-0.3135675
20	0xbef2946e	-0.47378868
21	0xbeb0be76	-0.3452031
22	0x3e824ef0	0.2545085
23	0x3e0648bf	0.13113688
24	0x3e844ff7	0.25842258
25	0x3f600d7e	0.8752059
26	0x3c315d35	0.010825445
27	0xbee3c673	-0.44487342
28	0xbecb48f7	-0.39704105
29	0x3dd079b1	0.10179461
30	0xbf4c3ba6	-0.79778516
31	0xbeefeaca	-0.46858817
32	0x3edfe443	0.43728837
33	0xbea8d870	-0.3297763
34	0x3ecd8a04	0.4014436
35	0xbf02c3f6	-0.5108026
36	0xbf34d45c	-0.70636535
37	0xbdbbdf41	-0.09173442
38	0xbc523e6e	-0.012832267
39	0xbe083a7d	-0.13303562
40	0x3f5bbd5a	0.858358
41	0xbec7a308	-0.3899157
42	0xbf38fab4	-0.7225754
43	0x3f179359	0.5920921
44	0xbebdb106	-0.3704912
45	0xbe1fdd32	-0.15611723
46	0xbeac45ea	-0.3364709
47	0x3d16875a	0.036750175
48	0x3e2767fa	0.16348258
49	0xbd6e0f3d	-0.05812
50	0x3f5da282	0.8657609
51	0x3e07ba4f	0.13254665
52	0xbeb0af9d	-0.34508982
53	0x3e87c29b	0.2651566
54	0xbeb5350c	-0.35392034
55	0x3eba6b4c	0.36409986
56	0x3e00c0b5	0.12573512
57	0xbf9484f7	-1.1603078
58	0xbe8482fd	-0.25881186
59	0x3ec078ef	0.37592265
60	0xbc468988	-0.012117751
61	0x3ebd0a7b	0.36922058
62	0x3f2661a8	0.6499276
63	0x3f7c9712	0.98668015
64	0xbf306b25	-0.6891349
65	0xbf90b3b8	-1.1304846
66	0xbf80e618	-1.0070219
67	0xbf6258f2	-0.8841697
68	0xbf83f124	-1.0307965
69	0x3e657a43	0.2240992
70	0x3ea6ee18	0.32603526
71	0xbe788dac	-0.24272794
72	0xbb9ae911	-0.0047274907
73	0xbf8409f0	-1.0315533
74	0x3d834187	0.06408983
75	0xbe40983f	-0.18808077
76	0xbf4ce7f3	-0.80041426
77	0xbe8ac5ed	-0.2710413
78	0x3f2569aa	0.64614356
79	0x3e76da46	0.24106702
80	0x3f29f45c	0.6638849
81	0x3ef662e7	0.48122332
82	0x3e8b9f39	0.27269915
83	0x3faa43f7	1.3301991
84	0xbf138990	-0.5763178
85	0x3d74d293	0.05977113
86	0xbf8b87a4	-1.0900769
87	0xbe766a19	-0.2406391
88	0xbfc6abd1	-1.5521184
89	0x3e1142b2	0.14185598
90	0x3f373322	0.715624
91	0x3e2f61e2	0.17127183
92	0x3fa8dd65	1.3192564
93	0x3e9289ab	0.28620657
94	0xbe145e46	-0.14489087
95	0xbf4f458f	-0.80965513
96	0x3f3b2810	0.73108006
97	0x3f7be67f	0.98398584
98	0xbf25f854	-0.64832044
99	0x3f4a70e1	0.7907849
100	0x3dadaada	0.08479853
101	0x3f88b5fc	1.0680537
102	0xbe64674c	-0.2230503
103	0x3f0edbe2	0.55804265
104	0x3e28ccb7	0.16484343
105	0xbf5c91fe	-0.86160266
106	0x3f170735	0.5899537
107	0xbedd8939	-0.43268755
108	0x3ed879df	0.4228048
109	0xbe7f92a4	-0.24958283
110	0xbd0f07c2	-0.034919508
111	0xbd578b54	-0.052623108
112	0x3fb14c09	1.3851329
113	0x3e170961	0.14749672
114	0x3eab9e23	0.33519086
115	0x3efa80fd	0.48926535
116	0x3eda8342	0.42678267
117	0xbe6b208a	-0.22961631
118	0xbe413dd5	-0.18871243
119	0xbe2872c2	-0.16450027
120	0xbf130df9	-0.57443196
121	0x3d220d39	0.03956339
122	0xbeb83943	-0.35981187
123	0xbea2fddb	-0.318343
124	0x3eb3d036	0.3511979
125	0x3f861b07	1.0476998
126	0x3f24df16	0.644029
127	0x3de138f9	0.10997195
128	0x3e6b637d	0.2298717
129	0xbf522756	-0.8209127
130	0xbebe6c25	-0.37191883
131	0x3df946b1	0.121716864
132	0xbce1f2e2	-0.027581636
133	0x3de96dac	0.113978714
134	0xbf551081	-0.8322831
135	0x3e973e9c	0.29539955
136	0x3eafc8e6	0.3433296
137	0xbd9327e0	-0.0718534
138	0x3e3d7327	0.18500958
139	0xbfd9ce43	-1.7016071
140	0xbf67054a	-0.90242445
141	0x3f72a635	0.9478486
142	0xbe6a3135	-0.22870333
143	0xbf124e89	-0.57151085
144	0x3efcbbc4	0.49362004
145	0x3f5a9e4b	0.85397786
146	0x3ddc22e2	0.10748841
147	0x39bfbf47	0.00036572872
148	0xbca415be	-0.020029899
149	0x3eaf2562	0.34208208
150	0xbf563957	-0.83681244
151	0x3dd250d3	0.10269322
152	0xbdd63f72	-0.1046132
153	0x3ecf7aa5	0.40523258
154	0xbfb44fa5	-1.4086806
155	0xbe7027be	-0.2345266
156	0xbedb2c4b	-0.4280723
157	0xbf0fe554	-0.562093
158	0xbad90207	-0.001655639
159	0xbf92a454	-1.1456399
160	0xbfbba6c4	-1.4660268
161	0xbd36f4b7	-0.044666972
162	0x3e94de56	0.2907588
163	0xbe2537b6	-0.16134533
164	0x3f1547ff	0.5831298
165	0xbd2dcc72	-0.042431302
166	0xbea03441	-0.31289867
167	0x3ed319c2	0.4123059
168	0xbd2ab1ce	-0.041673474
169	0xbf0e93fb	-0.5569455
170	0xbfa0da40	-1.2566605
171	0xbe28a036	-0.16467366
172	0x3f913d52	1.1346838
173	0xbf021dea	-0.50826895
174	0x3ec5da47	0.38643095
175	0xbf332a50	-0.6998644
176	0x3ee1f8e5	0.44135204
177	0xbec1fe62	-0.3788939
178	0xbe5e05af	-0.21681856
179	0x3ce364ab	0.027757963
180	0xbf359a72	-0.7093879
181	0x3e678ba9	0.2261187
182	0xbded5fb7	-0.11590522
183	0xbdd3c3a5	-0.103400506
184	0x3fb60b8a	1.4222271
185	0xbf80db45	-1.0066916
186	0x3ef8c666	0.48588866
187	0xbcdbc92c	-0.026829325
188	0x3e9347d0	0.28765726
189	0xbebac3d3	-0.36477527
190	0x3e604d44	0.21904474
191	0xbf514ee5	-0.8176101
192	0xbdba0cc0	-0.09084463
193	0xbf168cf6	-0.5880884
194	0xbf090d31	-0.53535753
195	0x3effff27	0.49999353
196	0x3e04ed58	0.12981164
197	0xbcab3321	-0.020898404
198	0xbefb877d	-0.49126807
199	0xbf4d506e	-0.8020085
200	0xbf7deb5c	-0.99187255
201	0xbf08a8b3	-0.53382415
202	0xbe442976	-0.19156441
203	0xbf1cdb81	-0.61272436
204	0xbedb9655	-0.42888132
205	0xbe168a64	-0.1470123
206	0x3d7a7890	0.061150134
207	0x3d32d0b2	0.04365606
208	0x3e0b4028	0.13598692
209	0xbeacb4ef	-0.3373179
210	0xbe570923	-0.20999579
211	0x3d9e5f40	0.07733011
212	0xbe714c44	-0.2356425
213	0x3e92b8a2	0.2865649
214	0xbf0cab88	-0.54949236
215	0xbe07fbb4	-0.13279611
216	0x3f159304	0.58427453
217	0xbe1d3168	-0.15350878
218	0x3e820ec2	0.25401884
219	0xbeb26cec	-0.34848726
220	0xbdfa2bef	-0.12215411
221	0xbd12db1d	-0.035853494
222	0x3f2ef068	0.6833558
223	0x3d6bb07d	0.05754136
224	0x3dec3494	0.11533466
225	0x3f0e9527	0.5569634
226	0xbeca41a9	-0.3950322
227	0xbf48e547	-0.7847485
228	0xbe8a5306	-0.27016467
229	0x3f022ada	0.50846636
230	0xbf12d5ac	-0.5735729
231	0x3f6cc9ab	0.9249522
232	0xbf910b62	-1.1331599
233	0xbf3089ec	-0.6896045
234	0xbe68f20b	-0.22748582
235	0xbece543e	-0.40298647
236	0xbe297c08	-0.1655122
237	0x3f61df76	0.882316
238	0x3e8c3781	0.27386096
239	0x3f27e550	0.6558428
240	0x3eb3e13f	0.35132787
241	0xbe65c346	-0.22437772
242	0xbedce357	-0.43142197
243	0x3ead4723	0.33843336
244	0xbe0a4e89	-0.13506521
245	0x3f21e81f	0.63244814
246	0xbe075c00	-0.13218689
247	0xbf30960d	-0.6897896
248	0xbf0f99c4	-0.56094
249	0x3f875800	1.057373
250	0xbfafed1d	-1.3744236
251	0xbe96ee87	-0.29478857
252	0xbe9531bc	-0.29139507
253	0xbe35ec8f	-0.17766021
254	0x3d62d5c8	0.05537966
255	0x3f229ec2	0.63523495

aggregator.full.bias f4 [16]
0	0xbdbf8828	-0.093521416
1	0xbdfe9f4a	-0.12432726
2	0xbe17fb3f	-0.14841937
3	0xbe287e35	-0.16454394
4	0xbdd2849c	-0.102791995
5	0xbdbe0962	-0.092791334
6	0xbd8931c6	-0.06698947
7	0xbe65a73e	-0.22427079
8	0xbe3a426a	-0.18189397
9	0xbe8508b4	-0.25983202
10	0xbd20e941	-0.03928495
11	0xbd6e8cad	-0.058239628
12	0xbe268051	-0.16259886
13	0xbe4f705f	-0.2025771
14	0xbe531328	-0.20612776
15	0xbdd0b8c2	-0.1019149

step.full.weight f4 [1, 32]
0	0x3e11ef53	0.14251451
1	0xbe329b9b	-0.17442171
2	0x3e2d29b7	0.16910444
3	0xbd67004a	-0.05639676
4	0xbd5539f8	-0.052057236
5	0xbd4f2e68	-0.050581366
6	0x3e2f22cf	0.17103122
7	0xbd0502d0	-0.032473385
8	0x3dbf5f9a	0.093444064
9	0xbe0178db	-0.12643759
10	0xbdb3f1aa	-0.08786328
11	0xb90c3c00	-0.00013373792
12	0xbd6c93fc	-0.057758316
13	0xbdb36107	-0.08758741
14	0x3dc121b6	0.09430258
15	0x3de0b5da	0.109721854
16	0x3e330f6d	0.17486353
17	0xbe24df63	-0.1610084
18	0xbe0459e3	-0.12924914
19	0xbdc50412	-0.09619917
20	0x3e324f99	0.17413177
21	0x3e05ae9d	0.13054891
22	0x3e251e1f	0.16124772
23	0xbc20d370	-0.009816036
24	0xbd13f860	-0.03612554
25	0xbda251f5	-0.07925788
26	0xbc0fc130	-0.008774087
27	0xbc8fa250	-0.017533451
28	0x3e26e56f	0.1629846
29	0xbe17761f	-0.14791153
30	0x3d4c8bf0	0.049938142
31	0x3da876ee	0.08225809

lstm.lstm.weight_ih_l0 f4 [64, 16]
0	0xbe7a43d6	-0.2443994
1	0xbd31592e	-0.04329794
2	0x3e348a57	0.17630897
3	0xbcc57756	-0.024104755
4	0x3d0b5aec	0.034022257
5	0xbd471c8d	-0.048611213
6	0xbe4670ac	-0.19378918
7	0x3e164d5f	0.14677952
8	0x3e781813	0.24227934
9	0xbe844069	-0.2583039
10	0xbe8ef13f	-0.2791843
11	0xbd9aae17	-0.07552736
12	0xbce3705e	-0.027763542
13	0x3ea28fd4	0.31750357
14	0x3e4e9a98	0.2017616
15	0xbdccc7e1	-0.099990614
16	0xbea45fb0	-0.32104254
17	0x3ea1df0a	0.31615478
18	0xbbb22b8e	-0.005437321
19	0xbbbf9499	-0.0058465716
20	0x3e67df20	0.22643709
21	0x3eabcff1	0.33557084
22	0xbd32ca17	-0.04364976
23	0xbe3ee856	-0.18643317
24	0xbd3fdebf	-0.046843287
25	0xbd19db30	-0.03756255
26	0xbebc4317	-0.36769935
27	0xbe8cc94c	-0.27497327
28	0xbe54dcbc	-0.20787328
29	0xbc21c9a7	-0.009874738
30	0x3d709689	0.05873731
31	0x3e05114e	0.12994882
32	0x3d250d8e	0.04029613
33	0xbe3f95a7	-0.18709432
34	0x3cfd4fea	0.030921895
35	0x3cab36f5	0.020900229
36	0xbe890ba7	-0.26766703
37	0xbe1fbca3	-0.15599303
38	0xbcdfcb3d	-0.027318591
39	0x3e3ab2e5	0.18232305
40	0xbeb81daa	-0.35960132
41	0xbcb08d6d	-0.021551812
42	0x3e958ad9	0.29207495
43	0xbd1c7dcf	-0.038205918
44	0xbe5dd8b8	-0.21664703
45	0xbe3e717e	-0.18597981
46	0xbe3e5e65	-0.18590696
47	0xbe64c799	-0.22341765
48	0x3e866d2f	0.26255175
49	0xbda0d3d5	-0.07852904
50	0xbd174ef7	-0.03694054
51	0x3d669c1b	0.056301218
52	0x3e9ecb9d	0.3101472
53	0xbeb6c0cf	-0.35693976
54	0x3d91e7ee	0.07124315
55	0x3d665655	0.056234676
56	0xbd12f4d3	-0.035878014
57	0x3e2ec1d0	0.17066121
58	0x3db37646	0.08762793
59	0xbca8aad9	-0.020589279
60	0x3e2faa99	0.17154922
61	0xbeaefd26	-0.34177512
62	0xbe1cdc98	-0.15318525
63	0xbd0d1f90	-0.03445393
64	0x3d2cc8f8	0.042183846
65	0x3bfa552e	0.0076395487
66	0x3dc0793c	0.093981236
67	0xbe9e4c25	-0.3091747
68	0xbe3ac967	-0.18240891
69	0xbd13239d	-0.035922635
70	0xbe852c1d	-0.26010218
71	0xbe7e4b84	-0.24833494
72	0xbe799830	-0.24374461
73	0xbdb06cf3	-0.086145304
74	0xbda62d3f	-0.08114099
75	0x3e65074a	0.22366062
76	0xbe9f2861	-0.31085494
77	0x3e423f01	0.18969347
78	0xbc8034f6	-0.015650254
79	0x3c8a15e0	0.016856134
80	0x3e84b859	0.25921896
81	0x3eced29d	0.4039506
82	0xbe062053	-0.13098268
83	0x3d99d6da	0.07511683
84	0x3e147e47	0.14501296
85	0x3eba0125	0.36328998
86	0x3e742a75	0.23844321
87	0x3efa8373	0.48928413
88	0x3e822fd2	0.2542711
89	0x3efaa1c6	0.48951548
90	0xbd5f4de1	-0.05451763
91	0x3ca7cdda	0.0204839
92	0x3db61771	0.0889119
93	0x3ea539e5	0.32270733
94	0x3ed3f320	0.41396427
95	0x3d9bba7d	0.07603929
96	0xbe839ca8	-0.25705457
97	0xbf057fe4	-0.5214827
98	0x3e878ccb	0.26474604
99	0xbee88ad2	-0.45418411
100	0xbcaed9c4	-0.021344073
101	0xbd719ebb	-0.058989268
102	0xbd3b5665	-0.04573669
103	0xbee26483	-0.4421731
104	0xbe814786	-0.2524988
105	0xbe8c2a3f	-0.2737598
106	0x3c9e63a0	0.019334614
107	0x3e128aeb	0.14310805
108	0x3db14250	0.08655226
109	0xbeac769d	-0.33684245
110	0xbd842c18	-0.06453723
111	0xbe2b1d26	-0.16710338
112	0x3db6f384	0.08933166
113	0x3e6b4baf	0.2297809
114	0xbe0b96d1	-0.1363175
115	0x3d51163c	0.051046595
116	0x3da1c3f9	0.07898707
117	0x3e39b2d6	0.18134627
118	0x3dec74a3	0.11545684
119	0xbce524d6	-0.027971666
120	0xbdccd348	-0.10001236
121	0xbc070756	-0.008241495
122	0x3edd1d34	0.43186343
123	0xbd9ac721	-0.07557512
124	0xbc9b4026	-0.018951487
125	0x3da95860	0.08268809
126	0xbd54cefe	-0.051955216
127	0xbddafe36	-0.10693018
128	0x3dad8eb9	0.08474488
129	0xbe852164	-0.26002038
130	0xbd4e91ca	-0.050432004
131	0xbed1c9f6	-0.40974396
132	0x3e88b2bf	0.26698872
133	0x3e1ee76d	0.1551797
134	0xbe948dc7	-0.29014418
135	0x3dc79818	0.097458065
136	0xbe11b6d1	-0.14229895
137	0x3ce9ddf6	0.028548222
138	0x3ee48710	0.44634295
139	0x3db66526	0.08906011
140	0x3e1d40ff	0.15356825
141	0xbe8dc559	-0.27689627
142	0xbdb38035	-0.08764688
143	0xbd3ae0f8	-0.045624703
144	0x3d688e3e	0.056776278
145	0x3cd4f3cb	0.025995156
146	0xbe231bf4	-0.15928632
147	0xbdd68420	-0.104744196
148	0xbcdea8d6	-0.027180117
149	0x3e826cdf	0.25473687
150	0x3e1bb939	0.15207376
151	0xbc1fe4d9	-0.009759151
152	0xbd8b6886	-0.06807046
153	0x3ed19e36	0.40941018
154	0x3ef15bae	0.4714026
155	0xbd097a08	-0.033563644
156	0x3da5662e	0.0807613
157	0x3e4c95a6	0.19978961
158	0x3e1cfb74	0.15330297
159	0x3e5d3cdf	0.21605252
160	0x3ebb29cd	0.3655533
161	0x3cb2feea	0.021850068
162	0x3e889a1f	0.26680085
163	0x3eb31414	0.34976256
164	0x3ea3964d	0.31950608
165	0x3db5c6fd	0.08875845
166	0x3ec3b02e	0.38220352
167	0x3e762e11	0.2404101
168	0xbdcaf63c	-0.09910247
169	0x3e94b75b	0.2904614
170	0x3c1c334e	0.009533716
171	0x3e906b40	0.28206825
172	0x3e9fc77e	0.31206888
173	0x3dd66a39	0.10469479
174	0x3e5246e9	0.20534863
175	0xbdb5ebe1	-0.08882881
176	0xbd0f4d45	-0.0349858
177	0xbe1acaa3	-0.15116362
178	0xbe534f8e	-0.20635816
179	0xbe0f9d27	-0.14024793
180	0xbd40eb4e	-0.047099404
181	0xbe55bd42	-0.20872977
182	0xbbec1632	-0.0072047943
183	0x3d8701a8	0.06592113
184	0x3e6f1b83	0.23350339
185	0xbea1e7ea	-0.3162225
186	0xbeff2315	-0.49831453
187	0x3cfb3d35	0.030668834
188	0xbef7950b	-0.48355898
189	0x3e06cb66	0.13163528
190	0x3e234e97	0.15947948
191	0x3e3672fc	0.178173
192	0xbbf2d4b4	-0.00741061
193	0xbef03b1e	-0.46920103
194	0x3ea6c6fb	0.32573685
195	0xbeadb7dc	-0.33929336
196	0xbeb201c3	-0.3476697
197	0xbe3c9a01	-0.18418123
198	0xbeb49dbd	-0.35276595
199	0xbe8da84a	-0.27667457
200	0x3e36443f	0.17799471
201	0xbee5c0cf	-0.44873664
202	0xbe91e346	-0.28493708
203	0x3df4700a	0.11935432
204	0xbe002dff	-0.12517546
205	0x3e2b551b	0.16731684
206	0x3d6d0f6a	0.057876028
207	0xbcbec223	-0.023285931
208	0xbeb48b95	-0.35262743
209	0x3e157a68	0.14597476
210	0x3d1ecd5d	0.03877007
211	0xbeae1e10	-0.3400731
212	0xbd5b769c	-0.05357991
213	0xbc58fd7a	-0.013244027
214	0x3e113e4e	0.14183924
215	0xbeb59f2a	-0.35472995
216	0xbdda4bc0	-0.106589794
217	0xbc9068bd	-0.017628068
218	0xbe7f0d9c	-0.24907535
219	0xbdebdec6	-0.115171
220	0xbe872100	-0.26392365
221	0xbb42121f	-0.0029612852
222	0xbe7f471f	-0.24929474
223	0xbd9b084e	-0.07569943
224	0xbdba7c1c	-0.09105703
225	0x3cd51b5a	0.026014019
226	0x3e036f21	0.12835361
227	0x3e4d6dc9	0.20061411
228	0xbef6e537	-0.48221752
229	0xbecb4b81	-0.39706042
230	0xbd359266	-0.04432907
231	0xbe77c2b9	-0.24195375
232	0x3e10d835	0.14144976
233	0xbeb7b11e	-0.35877317
234	0xbf199fef	-0.60009664
235	0x3d9e65f5	0.077342905
236	0xbec8eaf0	-0.39241743
237	0x3e196c0b	0.14982621
238	0x3cd2ba03	0.025723463
239	0xbed2bda8	-0.4116032
240	0x3e172361	0.1475959
241	0xbe3e9cf4	-0.1861456
242	0xbe87d71f	-0.26531312
243	0xbe0715c7	-0.13191901
244	0x3e86498c	0.26227987
245	0xbec4d107	-0.38440725
246	0x3e963e74	0.29344523
247	0xbe18b551	-0.14912917
248	0xbed5e100	-0.41773224
249	0x3c3aec7f	0.011408924
250	0x3e13d7a1	0.14437725
251	0xbce16c4e	-0.027517464
252	0x3e77571f	0.24154328
253	0xbecaf1f8	-0.39637733
254	0x3e245e34	0.1605156
255	0xbea7781a	-0.32708818

lstm.lstm.weight_hh_l0 f4 [64, 16]
0	0xbe70f16c	-0.23529595
1	0x3d971a0a	0.073780134
2	0xbe10f1cf	-0.14154743
3	0xba8d256a	-0.0010768597
4	0xbe8e083b	-0.27740654
5	0x3e9d40ac	0.30713403
6	0xbe9ecbec	-0.31014955
7	0xbe8300c3	-0.2558652
8	0xbe7ed687	-0.24886523
9	0x3f857854	1.0427346
10	0xbeaef4e3	-0.3417121
11	0xbe595e73	-0.21227436
12	0xbe21e7d7	-0.15811096
13	0x3e2e82b3	0.17042045
14	0xbc2b2995	-0.010446926
15	0xbf01c548	-0.5069165
16	0x3f3c58b8	0.73572874
17	0xbe968200	-0.29396057
18	0x3ed6dfcf	0.41967627
19	0x3eb1b681	0.34709552
20	0x3d291323	0.041278016
21	0x3ec16478	0.37771964
22	0xbd93ca7e	-0.07216357
23	0xbf341a48	-0.703526
24	0xbdb10ab4	-0.086446196
25	0x3f11329b	0.5671784
26	0xbe773eea	-0.24145094
27	0xbef55f45	-0.47924247
28	0xbd9fb9bf	-0.077991
29	0xbe825454	-0.25454962
30	0xbee72aa2	-0.45149714
31	0x3e31e117	0.17371021
32	0xbf2a42fc	-0.6650846
33	0xbe1f2592	-0.15541676
34	0xbe14307d	-0.14471622
35	0xbf01fbde	-0.50774944
36	0xbda6bd2f	-0.08141553
37	0xbea74197	-0.3266723
38	0x3ea1ec72	0.31625706
39	0x3f27d52a	0.6555964
40	0xbec212a2	-0.3790484
41	0xbe7407a8	-0.23831046
42	0x3f1e5e74	0.61862874
43	0x3e7a4230	0.24439311
44	0x3e177246	0.14789686
45	0xbd0a0ec2	-0.03370548
46	0x3e41a99e	0.1891236
47	0xbe31407b	-0.17309754
48	0x3f2d832e	0.6777829
49	0xbd8e1772	-0.069380656
50	0xbe2919f1	-0.16513802
51	0x3dfb8f53	0.12283196
52	0x3e38ca70	0.18045974
53	0xbd501eba	-0.050810553
54	0xbcf7e5b2	-0.030260894
55	0x3d95e225	0.07318524
56	0x3e0d1a37	0.13779531
57	0x3e5518d0	0.20810246
58	0x3ee72fe7	0.45153734
59	0xbf06d4ac	-0.5266826
60	0xbdc91383	-0.09818175
61	0x3d409c8a	0.047024287
62	0xbf3b67e3	-0.73205394
63	0xbd2e7e8a	-0.042601146
64	0x3f009cae	0.50239074
65	0xbdcd2171	-0.10016144
66	0x3e4a7008	0.19769299
67	0xbd7d0fb9	-0.061782572
68	0xbdcbb91d	-0.09947417
69	0xbd5e6cf4	-0.054303125
70	0xbeacd5b4	-0.33756793
71	0x3d7657be	0.06014227
72	0x3eedfa92	0.46480232
73	0x3c05b108	0.008159883
74	0xbe6722ac	-0.2257182
75	0xbf033ec7	-0.51267666
76	0x3e31079d	0.1728806
77	0x3e4a7fd6	0.19775328
78	0xbe950f8c	-0.29113424
79	0x3dbce00b	0.0922242
80	0xbc18f48a	-0.009335646
81	0x3e82e6cc	0.2556671
82	0xbea6d5d2	-0.32585007
83	0xbeca7992	-0.39545876
84	0xbe20ebe1	-0.1571498
85	0x3d537682	0.05162669
86	0xbeb1b82e	-0.3471083
87	0x3d926613	0.07148375
88	0xbe8d244a	-0.2756675
89	0x3e5aac8e	0.21354887
90	0x3e5d1ce3	0.2159305
91	0xbd9f1dd0	-0.07769358
92	0xbe3018a3	-0.17196898
93	0xbe9cb4aa	-0.30606586
94	0xbe5aa3e3	-0.2135158
95	0xbeb72fc6	-0.35778636
96	0xbe8ffe2d	-0.28123608
97	0xbe899488	-0.26871133
98	0x3e165e56	0.14684424
99	0x3ef86e36	0.48521584
100	0x3e49e3a0	0.19715738
101	0x3f576b4f	0.84148115
102	0xbe5bc4f5	-0.21461852
103	0xbc17d11f	-0.009266167
104	0xbc892b3e	-0.016744252
105	0x3e936d27	0.28794214
106	0xbf2ead12	-0.68232834
107	0x3d163675	0.036673028
108	0xbebfeece	-0.3748688
109	0x3eb01c2f	0.34396502
110	0xba17af6c	-0.0005786333
111	0xbe1a2951	-0.15054823
112	0xbca4cc9a	-0.020117093
113	0xbebf2025	-0.37329212
114	0xbe2af607	-0.16695414
115	0xbda11101	-0.07864571
116	0xbf04371d	-0.51646596
117	0xbea59ca6	-0.32346076
118	0xbf208ead	-0.62717706
119	0xbde30215	-0.110843815
120	0xbf107208	-0.56424
121	0xbf0be5d8	-0.5464759
122	0x3dd967a3	0.1061547
123	0xbe9cb741	-0.30608562
124	0xbec30b73	-0.38094673
125	0xbe2dd8b3	-0.16977195
126	0xbd824974	-0.06361666
127	0xbe8bd343	-0.27309617
128	0xbe05c80e	-0.13064596
129	0xbd8e1aa8	-0.06938678
130	0xbdfde7b8	-0.123977125
131	0x3c61cae6	0.013781285
132	0x3dc81df4	0.09771338
133	0xbe22600f	-0.15856956
134	0xbe4388c6	-0.19095144
135	0x3ed1ad7c	0.4095267
136	0xbe99d064	-0.30041802
137	0x3c6e2e9a	0.014537478
138	0x3eb2e720	0.3494196
139	0x3ca71941	0.020397784
140	0x3da746ea	0.08167823
141	0xbe3227e0	-0.17398024
142	0xbd9528dd	-0.07283185
143	0xbee43950	-0.44574976
144	0x3e8d92e2	0.27651125
145	0x3efca5d0	0.49345255
146	0x3d8490f3	0.06472959
147	0xbe8fedfa	-0.2811125
148	0xbeb0c351	-0.34524015
149	0xbd8e7112	-0.0695516
150	0xbddaf8ce	-0.10691987
151	0x3e16e8ab	0.14737193
152	0xbdbf6e3e	-0.09347199
153	0xbce4b076	-0.027916174
154	0xbdbc4af4	-0.09193984
155	0xbe8ff94f	-0.28119895
156	0xbeab672a	-0.33477145
157	0xbed5042e	-0.4160475
158	0xbe28bfe0	-0.16479445
159	0x3d5d5e6a	0.05404512
160	0x3cbcd960	0.023052871
161	0xbf1128d8	-0.5670295
162	0xbc391786	-0.011297112
163	0xbdde325a	-0.108494475
164	0xbeb48d2f	-0.35263965
165	0x3d9de7b4	0.077102095
166	0xbef881a9	-0.48536423
167	0x3e945c23	0.28976545
168	0xbdce50b1	-0.100739844
169	0xbd4b6611	-0.049657885
170	0x3dd7bbcb	0.105338655
171	0xbee9ebdb	-0.45687756
172	0xbedeccac	-0.43515527
173	0x3f519c9e	0.81879604
174	0xbe024ed2	-0.1272538
175	0xbea8070a	-0.3281787
176	0x3e89344a	0.26797706
177	0xbd94d197	-0.072665386
178	0x3e9c25e9	0.30497673
179	0x3e4c6bdb	0.19963019
180	0xbc2a890b	-0.01040865
181	0x3d8ab403	0.06772616
182	0xbdd9b666	-0.10630493
183	0xbf839774	-1.0280595
184	0x3ec726ba	0.38896734
185	0x3eebfdb0	0.46091986
186	0xbdf6f6cf	-0.12058794
187	0xbeaff58f	-0.34367034
188	0x3da1a9d7	0.078937225
189	0x3e342f6d	0.17596216
190	0xbee142a5	-0.43996158
191	0x3ed03ede	0.40672964
192	0x3e2f9bc7	0.17149268
193	0x3e002403	0.12513737
194	0x3e2cdd40	0.16881275
195	0x3e9c4125	0.3051845
196	0xbe016088	-0.1263448
197	0x3deda2bf	0.11603307
198	0x3cccf2b6	0.025018077
199	0xbed909a8	-0.4239018
200	0x3dc883f8	0.09790796
201	0x3ec45a1a	0.38349992
202	0xbf0c8de4	-0.5490401
203	0xbdfbc733	-0.122938536
204	0xbb1d58f7	-0.0024009326
205	0xbc986c3e	-0.018606301
206	0xbe5e4e5b	-0.21709578
207	0x3e777cdf	0.24168728
208	0x3e394166	0.18091354
209	0xbbb884e4	-0.005631076
210	0xbe2d4d42	-0.16924003
211	0xbd6afc00	-0.057369232
212	0x3e3148d2	0.17312935
213	0xbe55c86c	-0.20877236
214	0xbe71c6f8	-0.23611057
215	0x3db3dcbf	0.08782338
216	0xbe513850	-0.20431638
217	0x3e35151f	0.17683838
218	0xbe71bdd1	-0.23607565
219	0xbe6b0e27	-0.22954617
220	0xbe9a4db8	-0.3013742
221	0xbdd84fd4	-0.10562101
222	0xbea14131	-0.3149505
223	0x3cf9782b	0.030452808
224	0x3e53f311	0.20698191
225	0xbec35625	-0.3815166
226	0xbe1655d6	-0.14681181
227	0xbd62b627	-0.055349495
228	0x3e4d01ea	0.20020261
229	0x3cc80296	0.024415296
230	0x3e1d1bfd	0.15342708
231	0xbf6e51d4	-0.9309361
232	0xbd9637fc	-0.07334897
233	0x3f2f8d2f	0.68574804
234	0xbd36033f	-0.04443669
235	0xbdee6a9f	-0.1164143
236	0xbde992fa	-0.11404987
237	0x3db53144	0.08847287
238	0xbbf4de15	-0.0074727633
239	0x3ed8dce1	0.42356017
240	0xbd9b86bf	-0.0759406
241	0xbe0f3805	-0.13986214
242	0xbe2290cc	-0.15875548
243	0xbe0a1b3b	-0.1348695
244	0xbe518aad	-0.20463057
245	0x3f38f6c0	0.7225151
246	0xbe415169	-0.18878712
247	0x3f080510	0.53132725
248	0x3d3fa914	0.046792105
249	0x3e15033c	0.14552015
250	0x3e0cad85	0.13738067
251	0xbd3b70c7	-0.04576185
252	0x3dc53d84	0.09630874
253	0x3f1ebe70	0.62009335
254	0xbe4d334b	-0.20039098
255	0xbeb881d2	-0.36036545

lstm.lstm.bias_ih_l0 f4 [64]
0	0xbdd34e03	-0.10317614
1	0xbd063afa	-0.03277109
2	0xbcd2d441	-0.025735976
3	0xbaf1ce13	-0.0018448256
4	0x3e32537f	0.17414664
5	0x3ec2cc6c	0.38046587
6	0x3e09dee9	0.1346394
7	0x3d149a26	0.03627982
8	0xbe47f45d	-0.19526811
9	0x3cf0e012	0.02940372
10	0x3eb4d376	0.35317582
11	0x3cbf32a7	0.023339583
12	0xb9cbf8f8	-0.00038904673
13	0xbda481c8	-0.08032566
14	0xbe4d1d73	-0.20030765
15	0xbe685974	-0.22690374
16	0xbe0060cc	-0.12536925
17	0x3df8a78a	0.121413305
18	0x3e9784d1	0.29593518
19	0x3e4ded64	0.20110089
20	0xbd615a59	-0.055017803
21	0x3edf1e4d	0.43577805
22	0xbe4147dc	-0.18875068
23	0x3de64012	0.11242689
24	0x3ddbb9d1	0.10728801
25	0x3e96e8af	0.29474398
26	0x3ed322be	0.41237444
27	0x3cf6897b	0.030094853
28	0x3dc2c6d2	0.09510578
29	0x3e92ff2d	0.2871031
30	0xbdf4c3ed	-0.119514324
31	0x3e278b09	0.16361631
32	0x3e46c3ea	0.19410673
33	0x3d878c6a	0.06618579
34	0xbe1e14fb	-0.15437691
35	0x3e2dbbf4	0.1696623
36	0xbe2ecfcf	-0.1707146
37	0x3e9543ee	0.2915339
38	0xbe3b5d24	-0.18297249
39	0xbd763d63	-0.060117137
40	0xbd5847cf	-0.052802857
41	0xbd4faa5a	-0.05069957
42	0x3c001957	0.0078185415
43	0x3e942d79	0.28940943
44	0xbe4cbd03	-0.19993977
45	0x3e7711d7	0.24127899
46	0x3dbd3165	0.09237937
47	0x3b560355	0.0032655795
48	0x3ec0563b	0.3756579
49	0xbe303ef0	-0.17211509
50	0x3eb0649c	0.3445176
51	0x3e1c3866	0.1525589
52	0xbe387f77	-0.18017374
53	0x3e0da27d	0.13831516
54	0x3dd44ca8	0.103661835
55	0x3e5ba004	0.2144776
56	0x3c08c219	0.008347058
57	0x3ec7a8a2	0.38995844
58	0x3f2602c2	0.6484796
59	0x3e248aa6	0.16068515
60	0xbc4f7dba	-0.012664253
61	0x3e356d96	0.17717585
62	0xbd133b82	-0.035945423
63	0x3d50c8fe	0.05097293

lstm.lstm.bias_hh_l0 f4 [64]
0	0xbe1b1ba2	-0.1514726
1	0xbde4cdf6	-0.111720964
2	0xbd87a5d0	-0.06623423
3	0xbe52f646	-0.20601758
4	0xbe24d881	-0.16098215
5	0x3ca4e517	0.02012877
6	0xbe85beeb	-0.2612222
7	0x3ea2c6ca	0.3179229
8	0xbe7745e6	-0.24147758
9	0x3ecf3bc6	0.4047529
10	0x3e3b1551	0.1826985
11	0xbe88bc07	-0.26705953
12	0x3a9e9529	0.0012098897
13	0x3d490bad	0.0490834
14	0xbe6f98d6	-0.23398146
15	0x3d28b73a	0.041190363
16	0x3e1cd41f	0.15315293
17	0x3afd1559	0.001930873
18	0xbe210da1	-0.15727855
19	0x3e5d1f68	0.21594012
20	0x3dbfdc4b	0.093681894
21	0x3ee2aa37	0.4427049
22	0x3dc17b7a	0.094473794
23	0x3ee57b79	0.44820765
24	0x3de53fe5	0.111938275
25	0x3e76ef4e	0.24114725
26	0x3e38b821	0.1803899
27	0xbe10a12d	-0.14123984
28	0x3e275a5a	0.1634306
29	0xbdf14db7	-0.11782401
30	0xbe435461	-0.19075157
31	0x3deec663	0.11658933
32	0x3d9347a3	0.07191398
33	0xbd536a85	-0.051615257
34	0xbe0e24e3	-0.13881259
35	0x3d49e914	0.049294546
36	0xbe4067d6	-0.1878961
37	0xbd59e352	-0.053195305
38	0x3e2733d7	0.16328369
39	0x3dfb3d74	0.12267581
40	0xbd8e2d59	-0.06942243
41	0x3e61d7fb	0.22055046
42	0xbd349e1d	-0.0440961
43	0x3d1b213c	0.03787349
44	0xbdfe9899	-0.124314494
45	0x3e33fab4	0.17576104
46	0xbe89d8f1	-0.26923326
47	0xbe63ea32	-0.22257307
48	0x3e97b7bf	0.29632375
49	0x3dee3aea	0.11632331
50	0x3e8acd07	0.27109548
51	0xbe38bdaa	-0.18041101
52	0xbe26e243	-0.1629725
53	0x3eeb41cc	0.45948637
54	0xbe54110e	-0.20709631
55	0x3e67d708	0.22640622
56	0xbda3b7f1	-0.079940684
57	0x3e461f6a	0.19347921
58	0x3ea32516	0.31864232
59	0xbdb14347	-0.0865541
60	0xbe1d59b1	-0.15366246
61	0x3e0303fd	0.1279449
62	0xbddb3ad5	-0.10704581
63	0xbda190fd	-0.078889824

downstream.full.weight f4 [6, 16]
0	0x3ec2813c	0.37989223
1	0xbf041109	-0.51588494
2	0xbe88d2f8	-0.26723456
3	0xbe7365cd	-0.23769303
4	0x3c859db6	0.016310554
5	0x3f416d2a	0.75557196
6	0x3f2c49f5	0.6730035
7	0xbf0fee97	-0.56223434
8	0x3f422643	0.7583963
9	0x3f390f37	0.7228884
10	0x3f1b4361	0.6064969
11	0x3e4849b6	0.19559368
12	0x3e1c00c5	0.15234669
13	0x3e9c7478	0.3055761
14	0xbefef72a	-0.49797946
15	0x3f28218f	0.65676206
16	0x3e7bf99a	0.24606934
17	0xbf9a8388	-1.207139
18	0xbead359c	-0.33829963
19	0x3f23360e	0.63754356
20	0xbf1f5237	-0.62234825
21	0x3c974e45	0.018469939
22	0xbf686f04	-0.90794396
23	0xbf093dcf	-0.5360994
24	0x3ed30fcb	0.41222987
25	0xbf0b7e05	-0.54489166
26	0xbfa395ef	-1.2780131
27	0xbf58cc8d	-0.8468712
28	0xbe610537	-0.21974646
29	0x3f65d0fc	0.8977201
30	0xbf2e03f7	-0.679748
31	0x3f847672	1.0348647
32	0xbd4c2aaf	-0.049845394
33	0x3eea5ccd	0.45773926
34	0x3f8681e5	1.0508391
35	0xbe9f5f6b	-0.31127486
36	0xbee2655c	-0.44217956
37	0xbf439c23	-0.7641012
38	0xbcd34785	-0.02579094
39	0x3f2bb283	0.6706926
40	0xbf61b077	-0.8815989
41	0xbfd0b3fe	-1.6304929
42	0xbeb86c11	-0.36019948
43	0x3ea9d341	0.33168986
44	0x3d582892	0.052773066
45	0xbf4b1ec3	-0.79343814
46	0x3f3f227e	0.74662006
47	0x3e8e1ad4	0.27754843
48	0xbf072343	-0.5278818
49	0xbe6c2c2e	-0.23063728
50	0xbfac4b86	-1.3460548
51	0xbf871f11	-1.0556356
52	0xbedfde90	-0.4372449
53	0xbf159a1b	-0.5843827
54	0x3f6ccebe	0.92502964
55	0x3f4a1f15	0.7895368
56	0xbe9be9b0	-0.30451727
57	0x3e3968aa	0.18106332
58	0x3fc51ef2	1.5400069
59	0x3eb8006d	0.35937825
60	0x3f896bce	1.0736024
61	0xbf378ed3	-0.7170231
62	0x3ebc4a91	0.3677564
63	0xbf6fd9fb	-0.93691987
64	0x3f24dd09	0.6439977
65	0x3f9f95e1	1.2467614
66	0x3e04ffd7	0.1298822
67	0x3ee2f1dd	0.44325152
68	0xbe3d9ffc	-0.1851806
69	0xbf3df41a	-0.74200594
70	0x3ecfa235	0.40553442
71	0xbf7feca0	-0.99970436
72	0x3f2d36e4	0.6766188
73	0x3ef69f8f	0.4816861
74	0x3eb8397a	0.3598135
75	0xbf06892a	-0.52553046
76	0xbef19c07	-0.47189352
77	0xbf8325b4	-1.0245881
78	0xbed2c2e8	-0.41164327
79	0x3eb40aa8	0.3516438
80	0xbfa0589d	-1.2527043
81	0x3ebb937e	0.36635965
82	0x3f2d2242	0.676304
83	0x3dbe6454	0.0929648
84	0xbeb7e483	-0.35916528
85	0x3f5bb8aa	0.8582865
86	0xbf2934c4	-0.6609614
87	0x3f22f80b	0.63659734
88	0xbe0ae0c7	-0.13562308
89	0x3f5bae1c	0.85812545
90	0xbf6b9d58	-0.9203696
91	0x3efbf342	0.49209028
92	0x3e5d4cfd	0.216114
93	0x3f293272	0.660926
94	0x3f6221d1	0.8833285
95	0xbf5f91fb	-0.87332124

downstream.full.bias f4 [6]
0	0x3eb8255c	0.35966003
1	0xbd59723b	-0.053087454
2	0x3e9a4e91	0.30138066
3	0xbdb32db5	-0.08748952
4	0xbe12fe79	-0.14354886
5	0xbe6c773f	-0.23092364

maxpooling.full.weight f4 [16, 16]
0	0x3ea70465	0.3262054
1	0x3d232b48	0.039836198
2	0x3ea81c6d	0.32834187
3	0x3e0137c6	0.12618932
4	0xbdf614b0	-0.120156646
5	0xbe44d394	-0.19221336
6	0x3d395388	0.045245677
7	0x3eb7aff5	0.35876432
8	0x3e1a75c6	0.1508399
9	0xbe106452	-0.14100769
10	0xbd8a9b04	-0.06767848
11	0x3eb711c9	0.35755756
12	0xbd0f63f0	-0.035007417
13	0x3e00f346	0.12592801
14	0x3ec1168f	0.37712523
15	0xbe9b8de0	-0.3038168
16	0x3e425d2a	0.18980852
17	0xbd543db0	-0.051816642
18	0xbebf30f8	-0.37342048
19	0x3edcd507	0.43131277
20	0xbe6243e1	-0.22096206
21	0x3ec4d207	0.38441488
22	0xbe73f62e	-0.23824379
23	0x3e9661c5	0.29371467
24	0x3eb0941d	0.34488
25	0xbd8a4acc	-0.067525476
26	0x3d7b88e0	0.06140983
27	0xbebdc045	-0.37060753
28	0xbd3098d0	-0.043114483
29	0x3e4cef86	0.20013246
30	0x3e12f186	0.14349946
31	0xbea98782	-0.33111197
32	0xbd95f594	-0.07322231
33	0xbe884518	-0.26615214
34	0xbe9ba1a0	-0.30396748
35	0xbeb309c0	-0.34968376
36	0x3ead9c37	0.33908245
37	0xbea52130	-0.32251883
38	0xbe94c958	-0.29059863
39	0x3e146732	0.14492491
40	0xbdd8233c	-0.105535954
41	0xbe5bc712	-0.21462658
42	0x3e8abcd5	0.27097192
43	0x3e90d589	0.28287914
44	0x3e940c79	0.28915766
45	0xbe823a3a	-0.25435048
46	0xbe9541a8	-0.29151654
47	0xbe94de2e	-0.2907576
48	0x3eaa9b13	0.33321437
49	0xbb98d4c0	-0.0046640337
50	0x3ea38b31	0.31942132
51	0xbebba117	-0.3664634
52	0x3ec66a29	0.3875287
53	0x3d722fd8	0.05912766
54	0xbe12dfb6	-0.14343151
55	0x3e3243da	0.17408696
56	0x3d840d10	0.06447804
57	0x3db6cf9c	0.08926317
58	0x3eb5cf87	0.35509893
59	0x3e0855f6	0.13314041
60	0xbd2f5638	-0.042806834
61	0x3e1587b2	0.14602545
62	0x3ea0e779	0.314266
63	0xbed4a8b2	-0.41534954
64	0x3d4318a8	0.047630936
65	0xbc713060	-0.014721006
66	0xbd9ce42c	-0.07660708
67	0xbe785484	-0.2425099
68	0x3e1b532e	0.1516845
69	0x3e06f7ce	0.13180467
70	0x3ebc4bd5	0.36776605
71	0xbe3f331b	-0.18671839
72	0xbd604a08	-0.0547581
73	0xbc768160	-0.015045494
74	0xbe3e6cc2	-0.18596175
75	0x3e79bbfe	0.2438812
76	0x3ec6eaa1	0.38850883
77	0xbe9a6b80	-0.3016014
78	0x3e49687a	0.19668761
79	0x3e549362	0.20759347
80	0x3e8d5d07	0.27610037
81	0x3e836bc9	0.2566817
82	0x3eb990c7	0.3624327
83	0xbe7c292b	-0.2462508
84	0x3c670c40	0.014102042
85	0xbec0a440	-0.37625313
86	0xbe281a1a	-0.16416207
87	0x3edb8547	0.4287512
88	0xba60e200	-0.00085785985
89	0xbe9994ec	-0.2999643
90	0x3d1a45e8	0.037664324
91	0xbe5f4ae6	-0.21805915
92	0x3e8712a5	0.26381412
93	0x3e81c393	0.25344524
94	0xbda4b700	-0.08042717
95	0xbdfc7704	-0.12327388
96	0x3e5500c2	0.2080107
97	0x3edaea13	0.4275671
98	0x3ea9841b	0.331086
99	0x3eb92ab7	0.361654
100	0xbed5814b	-0.41700205
101	0x3a157600	0.00057014823
102	0x3ed6f82d	0.41986218
103	0xbe92f92f	-0.28705737
104	0x3df2a8ec	0.118486255
105	0x3e0e9f4a	0.13927951
106	0xbe9b2f24	-0.30309403
107	0xbcc41900	-0.023937702
108	0xbe6f7051	-0.23382689
109	0x3e9219e1	0.2853537
110	0x3ebac88d	0.36481133
111	0xbe23e7ac	-0.16006345
112	0xbe5b3d9a	-0.21410218
113	0xbec0baa0	-0.37642384
114	0xbebc2b98	-0.3675201
115	0x3e9af7e7	0.3026726
116	0xbead9c2e	-0.33908218
117	0x3c8ab790	0.016933233
118	0x3d9de70c	0.07710084
119	0xbeaf910c	-0.3429035
120	0x3e09f9de	0.13474223
121	0xbe8fbd8e	-0.28074306
122	0xbe6ebff9	-0.2331542
123	0x3da7302c	0.08163485
124	0xbea53072	-0.32263523
125	0x3e31cf52	0.17364243
126	0x3eb9a22f	0.3625655
127	0xbeac6e75	-0.33678022
128	0xbecd8258	-0.40138507
129	0x3e9007bd	0.28130904
130	0xbe6c5976	-0.23081002
131	0x3e6730aa	0.22577158
132	0x3d47a578	0.048741788
133	0xbc742a80	-0.014902711
134	0x3eaa099b	0.33210453
135	0xbecf0ec6	-0.4044096
136	0xbd14d170	-0.036332548
137	0x3dc51d5c	0.096247405
138	0x3bd24500	0.006416917
139	0xbe8d0d90	-0.2754941
140	0xbeb9ae02	-0.3626557
141	0x3e4a7ab2	0.19773367
142	0xbe48a998	-0.19595945
143	0xbadd8c00	-0.0016902685
144	0xbeaaacfa	-0.33335096
145	0x3ebdff11	0.37108663
146	0x3e5c98ea	0.21542707
147	0x3d9478c4	0.07249597
148	0xbe35299c	-0.17691654
149	0x3ea17139	0.31531695
150	0xbe4e4cf6	-0.20146546
151	0x3d07c818	0.03314981
152	0xbd946650	-0.07246077
153	0xbdd69104	-0.10476878
154	0x3edd7573	0.4325367
155	0xbe0df846	-0.1386424
156	0x3e21cf86	0.1580182
157	0xbe821205	-0.25404373
158	0x3eb54375	0.35403028
159	0x3eb7bea7	0.35887644
160	0xbe9f05be	-0.31059068
161	0x3ed068b3	0.4070488
162	0x3e1374a6	0.14399967
163	0xbebe305a	-0.37146264
164	0xbd39c518	-0.04535398
165	0x3db1fde4	0.08691004
166	0xbea99561	-0.3312178
167	0xbe96e256	-0.29469556
168	0xbe16c678	-0.14724147
169	0x3ec8f643	0.39250383
170	0xbdb10398	-0.086432636
171	0x3e5cbf02	0.21557239
172	0x3df57194	0.11984554
173	0x3e434976	0.19070992
174	0xbe2ff16c	-0.17181939
175	0xbe4d43b7	-0.20045362
176	0xbe09d0bc	-0.13458532
177	0xbd926bd4	-0.07149473
178	0xbeb7e6b0	-0.35918188
179	0x3eaa5951	0.33271268
180	0x3e80a013	0.25122127
181	0xbec2c52b	-0.38041052
182	0x3ec81ae5	0.3908302
183	0x3d67d0e0	0.056595683
184	0x3e2d640a	0.16932693
185	0x3ec4c07b	0.384281
186	0x3ebae209	0.36500576
187	0x3c51f080	0.012813687
188	0x3b1bc400	0.0023767948
189	0x3e3ff112	0.18744305
190	0x3d6503f8	0.055911988
191	0xbea1976e	-0.31560844
192	0x3ea885f9	0.32914713
193	0x3ed9453b	0.4243563
194	0x3e58740a	0.21138015
195	0x3ebc5479	0.36783198
196	0x3e8c8253	0.2744318
197	0x3e9da1a3	0.30787382
198	0xbe8055ee	-0.2506556
199	0xbe9a4c8e	-0.30136532
200	0x3eda1c89	0.42599896
201	0x3e8453c7	0.25845167
202	0x3e37a9ee	0.17935917
203	0xbe2d3a58	-0.16916788
204	0x3e8602d9	0.26174048
205	0x3dcc6464	0.099800855
206	0xbe884575	-0.26615492
207	0xbe52fe35	-0.20604785
208	0x3eb65ce7	0.35617754
209	0x3cfedae0	0.031110227
210	0x3e89486b	0.26813063
211	0x3eac095d	0.33600894
212	0x3eb445c5	0.3520948
213	0x3e0abd46	0.13548765
214	0x3eb5f7fb	0.35540757
215	0xbe2d838a	-0.1694471
216	0xbeb8641f	-0.36013886
217	0x3e95da65	0.29268184
218	0x3e265afa	0.16245642
219	0x3eae85f3	0.3408657
220	0xbed6a30f	-0.4192128
221	0x3bbf5280	0.005838692
222	0x3c529080	0.012851834
223	0x3e2513e2	0.16120866
224	0xbdd13f98	-0.10217208
225	0x3ec37c35	0.381807
226	0xbec099fc	-0.3761748
227	0xbe27118e	-0.1631529
228	0xbdda9b80	-0.106741905
229	0x3ebd5f45	0.36986747
230	0x3e2ecf06	0.1707116
231	0xbe8425b8	-0.25810027
232	0xbe740976	-0.23831734
233	0x3c8d2010	0.017227203
234	0xbd9f99d4	-0.07793012
235	0xbd7c15e0	-0.0615443
236	0xbe150124	-0.14551216
237	0xbd8a9138	-0.067659795
238	0xbd7565e8	-0.05991164
239	0xbbc95740	-0.006144434
240	0x3e1d56de	0.15365168
241	0x3e195ff6	0.14978012
242	0xbeb743f7	-0.3579404
243	0xbdb71890	-0.08940232
244	0x3ed9474f	0.42437217
245	0x3e73db32	0.23814085
246	0xbd95ea84	-0.07320121
247	0xbdfde2e8	-0.123967946
248	0xbe8bb266	-0.27284545
249	0x3e2239ea	0.15842405
250	0x3eb1fa61	0.34761336
251	0xbe9e81c1	-0.3095837
252	0x3ed4d0db	0.41565594
253	0x3e6bf566	0.23042831
254	0x3cf0ec60	0.029409587
255	0x3d7d60e0	0.061859965

maxpooling.full.bias f4 [16]
0	0xbe3d2526	-0.18471202
1	0xbe668748	-0.22512543
2	0xbe48c332	-0.19605711
3	0x3c87c930	0.016575426
4	0xbd0ba378	-0.034091443
5	0xbe160a60	-0.14652395
6	0xbd50b9f8	-0.050958604
7	0x3d224628	0.039617687
8	0xbe262388	-0.16224492
9	0x3e48c532	0.19606474
10	0xbe32f6cc	-0.17476958
11	0x3e3933e6	0.18086204
12	0xbd602b90	-0.054729044
13	0xbddd1d38	-0.10796589
14	0xbe682a6a	-0.2267243
15	0xbd83d140	-0.06436396

mean.full.weight f4 [16, 16]
0	0xbe053012	-0.13006619
1	0xbe3c3768	-0.18380511
2	0x3db55b6c	0.08855328
3	0x3ea57e33	0.32322845
4	0xbe8304d2	-0.25589615
5	0xbebcfb0e	-0.3691029
6	0x3e2881aa	0.16455713
7	0xbe0e49a4	-0.13895279
8	0xbe99f75c	-0.30071533
9	0x3daffc4c	0.08593044
10	0xbec18048	-0.37793183
11	0x3dde0a64	0.108418256
12	0x3dbd2ecc	0.092374414
13	0x3d988314	0.07446876
14	0x3ea7f02f	0.32800433
15	0x3e3f78de	0.18698451
16	0x3e0d1dae	0.13780853
17	0x3ed0becf	0.40770575
18	0x3e91e40d	0.284943
19	0x3e307732	0.1723297
20	0xbe1a3f6a	-0.15063253
21	0xbe63c565	-0.22243269
22	0xbe425aeb	-0.18979995
23	0xbc38e460	-0.011284918
24	0xbe810518	-0.251992
25	0xbdf04808	-0.11732489
26	0x3df0d974	0.11760226
27	0xbbdc6580	-0.006725967
28	0x3bf8c780	0.0075921416
29	0xbdd287ec	-0.10279831
30	0xbeceb33a	-0.40371114
31	0x3eb38b3b	0.35067162
32	0xbe8f1352	-0.27944428
33	0xbec5fc97	-0.38669273
34	0xbdd54678	-0.104138315
35	0x3e77b5a6	0.24190387
36	0xbd92b310	-0.0716306
37	0xbe4991c5	-0.19684513
38	0xbeaf131a	-0.3419426
39	0x3e744c5a	0.23857251
40	0x3ec5db89	0.38644055
41	0x3d544aa0	0.05182898
42	0x3e80cfc1	0.25158504
43	0x3ed3c15f	0.41358468
44	0xbd161c18	-0.036647886
45	0x3ec47275	0.38368574
46	0x3e84b817	0.259217
47	0x3d8cc96c	0.06874356
48	0xbeae0a6e	-0.33992332
49	0xbe2d0678	-0.16896999
50	0xbd815f30	-0.06316984
51	0x3e92742f	0.28604266
52	0x3d3d4020	0.046203732
53	0x3eb009f7	0.34382603
54	0x3d721bc0	0.059108496
55	0xbe1f194c	-0.15536994
56	0x3e481702	0.19540027
57	0xbed1b0b3	-0.40955123
58	0x3e0b2a96	0.13590464
59	0x3e901dcd	0.28147736
60	0x3ea26f17	0.3172538
61	0x3d751e08	0.059843093
62	0x3dc00354	0.09375635
63	0x3e873c1d	0.2641305
64	0x3e8f555b	0.2799481
65	0x3cc66270	0.02421686
66	0xbeb52d66	-0.353862
67	0xbeb6c4b1	-0.3569694
68	0x3ea40487	0.32034704
69	0x3e4b70b6	0.19867215
70	0xbe28b394	-0.16474754
71	0x3ec3ae97	0.3821914
72	0x3e471b4a	0.19444004
73	0x3e9bef5d	0.30456057
74	0x3dfae014	0.12249771
75	0xbe9a1523	-0.3009425
76	0xbe608ae9	-0.2192799
77	0x3e8e43e7	0.2778618
78	0xbdfba618	-0.12287539
79	0xbed58244	-0.41700947
80	0x3e006eea	0.1254231
81	0xbeb7c5ac	-0.35893
82	0xbe2f4dc2	-0.17119506
83	0x3c4f1100	0.01263833
84	0x3ed065cd	0.40702668
85	0x3df8a08c	0.12139997
86	0xbe6329cb	-0.22183912
87	0x3dc6fbcc	0.09715995
88	0x3d901084	0.070344
89	0x3e83c125	0.25733295
90	0xbe573be1	-0.21018936
91	0x3e978b0d	0.29598275
92	0xbeb07af8	-0.34468818
93	0xbe9f270a	-0.31084472
94	0xbe2d2f46	-0.16912565
95	0xbea981e8	-0.33106923
96	0x3e82445f	0.25442788
97	0xbd67db80	-0.056605816
98	0x3ea68509	0.32523373
99	0x3df08e2c	0.11745867
100	0xbde599d8	-0.11210984
101	0x3e782646	0.2423335
102	0xbdca1b34	-0.0986847
103	0x3e9ac2e1	0.30226806
104	0x3b13f480	0.0022576153
105	0xbd654dd8	-0.05598244
106	0x3da70914	0.081560284
107	0xbe4f2f9a	-0.20233002
108	0xbd0cf1e0	-0.034410357
109	0x3e7737b2	0.2414234
110	0xbc04a620	-0.008096248
111	0x3e8a1aa1	0.2697344
112	0x3e2acec6	0.1668044
113	0xbe8dc52d	-0.27689496
114	0x3c9eea00	0.01939869
115	0xbecdd9a5	-0.40205112
116	0xbe9c63c2	-0.3054486
117	0x3dde113c	0.10843131
118	0x3e5df5a2	0.21675733
119	0xbeaf009e	-0.34180158
120	0xbdd4efac	-0.10397276
121	0x3ec3148b	0.3810161
122	0x3ddada6c	0.10686192
123	0xbdcd1994	-0.10014644
124	0xbd72ef58	-0.059310287
125	0xbde13d30	-0.10997999
126	0x3d254018	0.040344328
127	0xbe54d403	-0.20784001
128	0xbd660fe8	-0.056167513
129	0x3db55824	0.08854702
130	0xbed4bf29	-0.41552094
131	0xbe43c68e	-0.19118711
132	0x3c8c13a0	0.017099202
133	0x3d17ac30	0.037029445
134	0x3ece1e7d	0.40257636
135	0x3e90485d	0.2818021
136	0xbecb30bf	-0.39685628
137	0x3ed17be5	0.40914837
138	0x3e9677cb	0.2938827
139	0x3dd2a36c	0.102850765
140	0x3ea54b63	0.32284078
141	0xbb236c00	-0.00249362
142	0xbc17f200	-0.009274006
143	0x3ed31acf	0.4123139
144	0xbe5d7adf	-0.21628903
145	0x3e1ff71a	0.15621606
146	0x3e39916e	0.18121883
147	0xbebbc65d	-0.36674777
148	0xbea6bd29	-0.32566193
149	0x3dfba0ac	0.12286505
150	0x3e83688d	0.25665703
151	0xbe7e5c73	-0.24839954
152	0xbec1cf7d	-0.37853613
153	0x3edd1133	0.43177184
154	0x3e80f9a1	0.25190452
155	0x3ed74e09	0.42051724
156	0xbe069c2a	-0.1314551
157	0x3e9fd8c9	0.3122008
158	0xbea1a42b	-0.31570563
159	0x3e47ea1a	0.19522896
160	0xbe22ba84	-0.15891463
161	0xbeb6453a	-0.3559969
162	0xbc5e3ee0	-0.013564795
163	0xbea4230a	-0.32057983
164	0xbebbd9a4	-0.36689484
165	0xbd7b3af0	-0.061335504
166	0x3e87bbd1	0.2651048
167	0xbd7f4578	-0.06232211
168	0x3ec1e615	0.3787085
169	0xbeba9492	-0.36441475
170	0xbe9b2f39	-0.30309466
171	0xbed14502	-0.4087296
172	0xbce42ce0	-0.02785343
173	0x3e263a96	0.16233286
174	0x3eae47b5	0.34039083
175	0xbeca2ca8	-0.39487195
176	0x3ed21eab	0.41039023
177	0xbe6e653e	-0.23280808
178	0x3ed5caa5	0.41756168
179	0xbd95dbe0	-0.073173285
180	0xbe18fd86	-0.14940462
181	0xbeb426f0	-0.35185957
182	0xbd41ce48	-0.047315866
183	0xbd4e9978	-0.050439328
184	0xbea751af	-0.32679507
185	0xbe8a532d	-0.27016583
186	0x3ec56279	0.3855169
187	0x3d377550	0.044789612
188	0xbdb9162c	-0.09037432
189	0x3eb10819	0.3457649
190	0x3eb4b387	0.35293218
191	0x3eb2ea75	0.34944502
192	0x3eae7ff3	0.34081993
193	0x3d613788	0.0549846
194	0x3df3c46c	0.11902699
195	0xbe98ade6	-0.29820174
196	0x3c419200	0.011814594
197	0x3dca81ac	0.09888014
198	0x3d544988	0.051827937
199	0xbd080058	-0.033203453
200	0x3e913033	0.28357086
201	0x3e833a8b	0.25630602
202	0x3eb1dcef	0.3473887
203	0x3e5c96da	0.2154192
204	0xbcf19e00	-0.029494286
205	0xbc4c8580	-0.012483001
206	0x3edae84d	0.42755356
207	0xbdc876d4	-0.0978829
208	0xbd1a1e80	-0.037626743
209	0x3db5f78c	0.088851064
210	0x3e80e9c9	0.25178364
211	0xbe13a792	-0.14419392
212	0xbe3f0c03	-0.18656926
213	0x3d8ac4f4	0.06775847
214	0xbed208bb	-0.41022286
215	0xbdcb6278	-0.09930891
216	0x3dd4ca74	0.10390177
217	0xbe5d3864	-0.21603543
218	0x3e0ec146	0.13940915
219	0xbd94ee40	-0.07272005
220	0xbe9d329c	-0.30702674
221	0xbeac1f55	-0.33617654
222	0xbd9514c4	-0.07279351
223	0x3e27c4b6	0.16383633
224	0x3e109bde	0.14121959
225	0xbe730806	-0.2373353
226	0x3e412f3a	0.18865672
227	0x3e2210a2	0.15826657
228	0x3e6c42a2	0.23072293
229	0x3e5eee1e	0.21770522
230	0x3e81260f	0.2522435
231	0x3e671b0e	0.22568914
232	0xbebba837	-0.36651775
233	0xbcb046a0	-0.021518052
234	0x3e7f2942	0.24918082
235	0x3ed0802d	0.4072279
236	0x3e9cc099	0.3061569
237	0xbe8bcbda	-0.27303964
238	0x3d5af590	0.053456843
239	0x3ed4766f	0.41496608
240	0xbe028558	-0.12746179
241	0x3ddf3d1c	0.109003276
242	0xbd699ec0	-0.05703616
243	0x3ec0fb6f	0.3769183
244	0x3eb51a11	0.3537145
245	0xbec6c227	-0.3882
246	0xbeb487d3	-0.35259876
247	0x3eda750d	0.42667428
248	0xbd7555d8	-0.05989632
249	0x3dd661d4	0.10467878
250	0x3e878351	0.26467374
251	0xbec454d3	-0.38345966
252	0x3e8d572b	0.27605566
253	0xbe8784bf	-0.26468465
254	0xbe9f15a1	-0.3107119
255	0xbe83287a	-0.2561682

mean.full.bias f4 [16]
0	0x3cf43fa0	0.029815495
1	0xbd9e10a0	-0.07718015
2	0xbde882bc	-0.113530606
3	0xbe047f6c	-0.12939233
4	0x3e0216c6	0.12704
5	0xbd756d30	-0.059918582
6	0x3e6b2bbc	0.22965902
7	0xbe25939c	-0.1616959
8	0xbdab9e3c	-0.0837979
9	0x3e72e78a	0.23721138
10	0xbdcd2704	-0.10017207
11	0x3e3f7fd0	0.187011
12	0xbe642e72	-0.22283342
13	0xbdfd44d8	-0.123666465
14	0xbd9e4a0c	-0.07728967
15	0xbd5c66c0	-0.053808928
