best_model/acc/citee_dropout=0_wd=0_b=256_lr=0.01_walk=7_best_model.pt (torch_old, 488424 bytes, 12 tensors)

aggregator.full.weight f4 [16, 7406]
000000 07 73 2c 3f f9 29 79 be 53 96 03 be ae cf 29 3f
       0.6736302 -0.24332418 -0.12850313 0.6633252
000010 2b 1f 39 3f 77 bb 3a 3f 0d 96 26 3f 02 01 52 be
       0.72313184 0.729423 0.6507271 -0.20508197
000020 d3 d1 48 3e 2f eb 58 3f 35 81 2c 3e f5 51 22 3f
       0.19611292 0.8473386 0.16846164 0.63406307
000030 35 0f d9 3e 58 e4 86 3e 40 4d 5f bf 19 2e 15 be
       0.42394415 0.26346087 -0.8722725 -0.14568366
000040 6f b7 cc 3e e8 0e 04 3e 22 6d f1 3d 04 f0 bf 3e
       0.399837 0.12896311 0.117883936 0.37487805
000050 4f b8 80 3f 60 12 ec 3d bb 38 ab be 6f 04 64 3d
       1.0056247 0.11526942 -0.3344172 0.05566829
000060 38 96 45 3f 34 b6 df 3e cf f3 d1 3e 94 1e 22 bf
       0.7718234 0.43693697 0.41006324 -0.6332791
000070 95 69 d7 be 63 a7 14 3f ae 1b 81 bd c5 94 9a 3e
       -0.4207274 0.5806791 -0.063041076 0.30191627
000080 29 f1 67 3e 37 a2 61 bd 40 34 0f 3f 86 f1 16 be
       0.22650589 -0.05508634 0.559391 -0.14740571
000090 78 bd 45 3f 13 8c e2 3e 38 ac c9 3e 82 4a f2 3e
       0.7724223 0.44247493 0.39389205 0.4732247
0000a0 f0 e3 0d bf 15 d1 9e 3d 1e 03 db bd 0a 09 89 be
       -0.5542593 0.07754723 -0.10693954 -0.2676471
0000b0 a9 40 07 3e 8c aa cd 3e bf 2d cb 3d 30 a0 a7 3e
       0.1320826 0.4016918 0.09920835 0.327394
0000c0 00 51 a2 be a4 ef 20 bf 48 60 fb bd 8d 09 b1 3d
       -0.31702423 -0.6286566 -0.122742236 0.086444
0000d0 2d 8d a5 be 56 6a 23 bd 6f 54 1d 3f 09 a4 82 3d
       -0.3233427 -0.03989633 0.6145696 0.063789435
0000e0 26 cc 96 be 90 17 6d bd ce 1c 35 bf 8b 62 45 bf
       -0.29452628 -0.0578838 -0.7074708 -0.7710349
0000f0 3f ae d5 3e e0 e3 9c 3e 53 fd c3 3e bf a8 9c be
       0.41734502 0.30642605 0.3827921 -0.30597493
000100 0a 2b cd 3e 43 73 2c 3f 64 89 e4 3d 35 fd 0a 3f
       0.400719 0.67363375 0.11159018 0.54292613
000110 78 d9 2d 3f 68 00 06 3f d3 f8 9a 3e 39 ff e2 3e
       0.67909956 0.5234437 0.30267963 0.44335344
000120 15 81 6e bf 18 9a cd be a1 f2 0e 3c 44 29 48 3f
       -0.93165714 -0.40156627 0.008724839 0.78187966
000130 0e ec 0a bf 6b 5a 41 be c2 51 17 be 1d a9 d7 be
       -0.5426644 -0.18882148 -0.14777282 -0.4212121
000140 af e0 5a 3d 3a c0 07 3f 5a 8b ee bc de be 8d bd
       0.05343693 0.5302769 -0.029119182 -0.06921171
000150 cc 4d 59 3e 07 a9 e3 bc 1a d7 ab 3e 00 4b 10 3e
       0.21221083 -0.02779056 0.33562547 0.1409111
000160 ba 7c a6 3e 64 88 2e 3f 38 3a 98 be ac 62 14 bf
       0.32517034 0.68176866 -0.29731917 -0.5796306
000170 e1 4a ad 3e 10 49 c9 be a0 35 ad 3c 73 31 54 bf
       0.3384619 -0.39313555 0.021143734 -0.82887954
000180 ef d7 43 3e 34 dd 03 3f c6 8f 4b 3e 18 77 ce 3e
       0.19125341 0.51509404 0.19879064 0.40325236
000190 b1 3c c6 be 90 e4 b9 3e a0 b8 fb bd 03 7d e6 3d
       -0.3871818 0.36307192 -0.12291074 0.11254313
0001a0 9d 76 66 be 41 a6 0e bf d0 36 e6 bd a0 fc 08 bf
       -0.22506185 -0.55722433 -0.112409234 -0.53510475
0001b0 dc 8c 4a be 27 84 21 3f cb 64 4d be e2 5e 58 3e
       -0.19780296 0.63092273 -0.2005798 0.21129945
0001c0 d7 ee 0a be ca 08 c7 3c 94 79 30 bf 47 28 8a 3e
       -0.13567673 0.024296183 -0.68935513 0.26983854
0001d0 7f e2 a9 3e b5 bf f7 be f2 82 70 be a6 e0 9a be
       0.33180615 -0.48388448 -0.23487452 -0.30249518
0001e0 81 89 5d 3e 44 cc 28 3f 9c e8 bd 3c 74 6a 45 3f
       0.21634485 0.65936685 0.023182206 0.7711556
0001f0 58 e6 06 3f 71 ea f7 bd 0f f1 12 3e 9a 47 a0 3d
       0.52695227 -0.12105263 0.14349769 0.07826157
000200 bc 2f 7b bd 8c 0a b3 bf 70 12 0e 3f 3a 0e 9d 3d
       -0.06132482 -1.3987594 0.55496883 0.07668729
000210 48 36 ae be c7 33 35 3e cc b6 43 3f 3d 38 54 3e
       -0.34025788 0.17695533 0.764508 0.20724578
000220 54 d7 3a bc a9 f7 65 be cb 4d d5 be 97 61 37 be
       -0.011403877 -0.22457756 -0.41660914 -0.17908321
000230 05 7b 5d 3e 79 75 2b be e2 df 2b bd 5a b5 09 3c
       0.2162896 -0.16744031 -0.04196156 0.008405054
000240 66 75 9a 3e f5 ee ab 3d eb 7c 42 bd 44 77 30 3e
       0.30167693 0.08395187 -0.047482412 0.17232996
000250 c2 35 aa 3e d9 f0 e9 3e f8 c3 d1 3e 28 a4 74 3e
       0.3324414 0.45691565 0.40969825 0.23890746
000260 ee ce 09 3f 57 d9 f1 3d ca 8c 2a 3d 0c 05 18 be
       0.53831375 0.118090324 0.041638173 -0.14845675
000270 3b f3 1b be f9 93 e5 bb 3f 57 22 3f 20 c9 60 3f
       -0.15229504 -0.007006165 0.63414377 0.8780689
000280 18 a8 35 3f 65 34 5f 3e b5 07 fd be 8b a9 c9 be
       0.70959616 0.2179733 -0.49419942 -0.39387164
000290 e1 be 5d 3f 05 d2 c4 bc 88 d3 a0 3e 51 fb 2e bf
       0.86619383 -0.024025926 0.31411386 -0.6835223
0002a0 c5 b2 6a 3e 4a ca 03 3e 57 54 a5 be fe 0b be be
       0.22919758 0.12870136 -0.3229091 -0.37118524
0002b0 8f 2e 9f 3e 90 0e d7 3e 2f 85 f5 be 37 08 3a bf
       0.3109021 0.42003298 -0.47953174 -0.72668785
0002c0 1f 79 ec 3e 0c 17 07 3f c7 b2 77 3d 2d 46 5f 3f
       0.46186158 0.5276954 0.06047323 0.87216455
0002d0 2d 37 f8 3e 67 b6 82 3e 0e 4b 06 3e d5 36 36 bf
       0.48479596 0.25529787 0.13114569 -0.7117742
0002e0 f0 9b f4 3e ad 98 76 3f fb 2e d8 3e 38 3c 9b 3e
       0.4777522 0.96326715 0.42223343 0.3031938
0002f0 5c ff 8f bf 61 f2 e7 3e ce 70 18 3f 4b d1 d8 3e
       -1.1249804 0.45302108 0.59547126 0.42347178
000300 00 67 cc be b9 b6 46 bd 0c 48 bf 3d d1 85 5c 3f
       -0.39922333 -0.0485141 0.09339914 0.8614169
000310 65 f4 19 be 47 28 ef 3d 5e fb 02 bf 9f dc 01 3f
       -0.15034635 0.11677604 -0.51164806 0.50727266
000320 7a e5 6f 3e c6 d2 2d 3f 0d ea 0c 3f 2e d7 45 bf
       0.23427382 0.6789974 0.55044633 -0.77281463
000330 26 b2 5d be b7 d8 0c bf 25 46 98 3e 91 02 bb 3e
       -0.2164999 -0.5501818 0.29741016 0.36525396
000340 26 d2 90 be 34 0f 23 3f f6 60 3e be a3 87 bf 3d
       -0.2828533 0.63695073 -0.18591675 0.093520425
000350 70 c3 3f bb df 4d 06 3f f1 45 4e 3f be b8 51 3f
       -0.0029260777 0.5246257 0.8057547 0.8192252
000360 d9 2f 82 be cb ba 71 3e d0 1b 30 bf 4e bf ec 3e
       -0.2542713 0.23606412 -0.6879244 0.46239704
000370 b0 10 30 be 69 27 80 3e 57 45 3a 3e 41 99 0e be
       -0.17193866 0.25030068 0.18190514 -0.13925649
000380 4d 20 20 bf 39 aa 14 3f bb 87 0d 3f 7d 65 0b 3f
       -0.6254929 0.5807224 0.55285233 0.54451734
000390 d7 f4 dc be 10 d0 07 3e 69 54 24 3f ac d9 78 3e
       -0.43155548 0.13262963 0.641913 0.24301785
0003a0 01 24 51 3f 78 c4 a0 3e 46 1a aa be f9 60 37 3f
       0.8169556 0.31399894 -0.3322317 0.71632344
0003b0 0d 93 64 bf d9 8d 98 3e 7a 84 0a 3f a8 4f 36 3e
       -0.8928688 0.2979572 0.54108393 0.17803824
0003c0 d4 7c fb bd 84 16 40 3a 97 f0 48 be b7 9b 12 bd
       -0.122796685 0.0007327574 -0.19623028 -0.035793032
0003d0 81 2c de bc ae 20 f1 bc 10 0e 33 be 99 0c b9 3e
       -0.02712083 -0.029434528 -0.17485833 0.36142424
0003e0 a7 ca cf 3e 64 00 94 3d 7c 27 77 3f 76 56 89 be
       0.405843 0.07226637 0.96544623 -0.26823777
0003f0 8d 02 82 be 9b 91 3d bf 03 75 6c be da c1 fc bd
       -0.2539257 -0.740503 -0.23091511 -0.12341662

aggregator.full.bias f4 [16]
000000 0b 10 15 3e 28 b0 aa 3d d7 fb 2f 3e 95 4e 92 3e
       0.14556901 0.083343804 0.17185913 0.28575578
000010 f4 2e 14 3e 69 92 4f 3e 00 a8 02 3e ee 07 86 bd
       0.14471036 0.20270695 0.127594 -0.06544481
000020 f1 ea 89 3e fe 45 93 3e 7b d3 84 3e 7d d1 5a 3e
       0.2693706 0.28764337 0.25942597 0.21368976
000030 34 31 5a 3e db 35 54 3e 93 be 94 3e e0 8b 5a 3e
       0.21307832 0.20723669 0.29051647 0.2134242

lstm.lstm.weight_ih_l0 f4 [64, 16]
000000 78 03 17 3f 21 39 d8 3e 2e 36 22 3d 70 f7 74 3e
       0.5898967 0.42231086 0.03960245 0.23922515
000010 e2 fe eb 3e 2b 03 00 3f ac 6f a8 3e e3 3c 13 bf
       0.46092898 0.50004834 0.328977 -0.5751478
000020 22 ac c0 3e bf 53 2b 3f 66 b6 b2 3e 31 c0 e7 3d
       0.37631327 0.6692466 0.34904784 0.113159545
000030 36 4b 1e 3f e7 03 04 3f d5 1e 8d 3e df f7 50 3d
       0.6183351 0.51568455 0.27562585 0.05101764
000040 02 28 f6 3e 81 4d 04 3f 4a 41 83 3e 84 06 19 3f
       0.480774 0.5168076 0.2563575 0.5977557
000050 8b 2c c8 3e 9b cf 9f 3e 0d ad c2 3e 51 58 b0 bd
       0.39096484 0.31213078 0.38022652 -0.08610595
000060 15 f3 dd 3e 31 ec 41 3e a4 0c 2e 3f 15 8c bc 3e
       0.4334952 0.18937756 0.6798804 0.36825624
000070 ce a4 19 3e e6 35 e8 3e 14 fa 1c 3f 87 a3 dd 3e
       0.15004274 0.4535362 0.6131909 0.43288824
000080 35 6b b9 3e 81 6d dc 3d b2 02 de be a8 ff 88 3e
       0.36214605 0.10763074 -0.4336143 0.2675755
000090 b1 70 68 be 3c 8a e9 3e e8 d9 03 bd 9b bc 0f be
       -0.22699238 0.45613277 -0.032190233 -0.14036791
0000a0 04 c9 37 be ab 93 0b 3f b2 49 98 3e 3f cf a3 3e
       -0.17947775 0.545222 0.29743725 0.31994054
0000b0 4d f6 86 bf 85 2b 9c bd cc 5e b3 3e cf 3b 34 bf
       -1.0543915 -0.07625488 0.35033262 -0.7040376
0000c0 2c 32 0b 3f 19 3f d9 3e 33 d4 07 bf 56 25 10 be
       0.5437343 0.42430952 -0.53058165 -0.14076743
0000d0 ce 9a de 3d bd 8d 23 3f dc 3c 0d 3e ef 63 95 be
       0.108693704 0.6388815 0.13792747 -0.29177806
0000e0 08 07 29 3f f4 e1 44 3f c7 91 08 3f fc f4 8f 3d
       0.66026354 0.7690728 0.5334744 0.07029149
0000f0 89 03 b6 3e a0 fc 9f 3e e3 e9 15 3e a6 e1 e6 3d
       0.35549572 0.31247425 0.14640002 0.11273508
000100 2e 67 41 3e 94 1c 44 be 8f 0d ea 3e 5a 2f 36 bf
       0.18887016 -0.19151527 0.4571347 -0.71166
000110 c5 4d e8 3d b5 4e 0d be 7f e2 d9 3e 39 d2 ad 3d
       0.11342958 -0.13799556 0.42555615 0.084873624
000120 0c 97 16 3e 73 99 16 bf e3 2b a0 3e 5e 35 cd be
       0.14706057 -0.58827895 0.31283483 -0.40079778
000130 c3 c4 c9 3e 2c 82 1b 3f c1 bf 88 be 83 96 fc bf
       0.3940793 0.607455 -0.26708797 -1.9733433
000140 10 e6 32 3f c0 0b f5 3e b9 9f 7c 3e ae fa 36 3f
       0.698823 0.47860527 0.24670304 0.71476257
000150 98 95 07 3f 5e ca 45 3f 01 8f ee 3e f7 b7 22 bf
       0.52962637 0.7726191 0.46593478 -0.6356196
000160 96 61 c6 3e 06 e2 ad 3e af 13 dd 3e b8 4a eb 3e
       0.38746327 0.33961505 0.4317908 0.45955443
000170 51 96 4a 3f a1 d2 d7 3e 6e 53 3f 3f 98 b6 0a 3e
       0.79135615 0.42152885 0.7473668 0.13546216
000180 93 2c 5f 3e c5 57 bb 3e 1a 6a 18 bf 5d 15 38 bf
       0.21794347 0.365904 -0.595369 -0.719076
000190 63 75 0b bf 30 24 d0 3e 87 1f 20 bf 7f 24 cb be
       -0.5447599 0.4065261 -0.62548107 -0.39676282
0001a0 8e 61 bc 3e c4 43 bd 3e ca fa 02 3f 75 63 b9 be
       0.36793178 0.36965764 0.51163924 -0.36208692
0001b0 d0 52 b2 3d e3 3f 63 3e c6 1b 7d 3e 2c a2 c3 be
       0.087072015 0.2219234 0.24717626 -0.38209665
0001c0 ae 23 bc 3e b0 a5 f0 3e 04 02 22 bf 5f 4a 1e bf
       0.3674597 0.4700141 -0.63284326 -0.6183223
0001d0 5b 8c f8 be b0 6b 60 3e 04 f1 ea be 5d cd 9a be
       -0.48544583 0.2191608 -0.45887005 -0.30234805
0001e0 c7 cb d9 3e b9 c6 09 3e a8 12 e3 3e c9 92 6a be
       0.42538282 0.13454713 0.4435017 -0.22907557
0001f0 80 ea ef be 2e d0 58 3e 61 54 6c 3e 0d 9d 9a be
       -0.46858597 0.21173164 0.23079063 -0.30197945
000200 7d 8f 15 bf 52 8d 89 be d3 29 1c 3f 1d 6a ea 3e
       -0.5842207 -0.2686563 0.6100132 0.45784083
000210 05 67 a7 3e 2e 6e f4 bc 5f a8 02 3e 81 49 1b 3e
       0.32695785 -0.029837694 0.12759541 0.15164758
000220 82 bd 35 bf b6 b0 bf bc f1 07 b0 be 49 dd 13 3f
       -0.7099229 -0.023399692 -0.3438106 0.5775953
000230 2e 0f 3d bf e4 2e 43 bf 03 6e d0 be 86 4f 9d be
       -0.7385129 -0.76243424 -0.40708932 -0.30724734
000240 5a 87 00 3f 27 50 b0 3e 24 ba 86 be 39 cc 01 bf
       0.5020653 0.3443615 -0.2631389 -0.50702244
000250 a1 81 38 bf 4d 57 86 3e 8d 8d 04 bf 3a 94 d6 be
       -0.720728 0.2623848 -0.5177849 -0.41909963
000260 38 63 94 3e f9 d8 0f 3f ba 26 35 3e 2c 11 8e be
       0.28981948 0.5619045 0.17690554 -0.27747476
000270 42 ef 29 bf 1d b9 65 be 38 28 fc 3e 09 aa 00 bf
       -0.66380703 -0.22433896 0.49249434 -0.50259453
000280 69 30 7a 3e b6 bd 57 3d 4f 07 12 be d1 0d 97 bd
       0.2443253 0.052671157 -0.142606 -0.07375682
000290 bf 62 55 be 6d cd a5 3e e3 6a d1 be 4a d1 26 be
       -0.2083845 0.3238329 -0.4090186 -0.16290775
0002a0 1f 27 fe ba 61 05 e5 3e d4 06 99 3c 86 84 2b bf
       -0.0019390321 0.44730666 0.018680014 -0.6699909
0002b0 8c d2 79 3f ba f1 10 3f 14 57 dc bc a4 83 8e 3f
       0.97586894 0.56618845 -0.02689699 1.1133924
0002c0 68 0e a7 be fd 0a 19 bf e6 41 1e 3f 1a 8c 75 3e
       -0.3262818 -0.5978239 0.61819303 0.23979226
0002d0 9e 68 12 3f f5 b3 85 be 0e 72 2c 3e 87 0f 98 3e
       0.57190883 -0.2611386 0.16840383 0.29699346
0002e0 28 ee 61 bf fe f6 b0 be de 79 d9 be 81 37 d1 3e
       -0.8825402 -0.3456344 -0.4247579 0.4086266
0002f0 fa bf 0a be 7e bc 7e be 82 73 fa be e7 7f 91 3d
       -0.13549796 -0.24876592 -0.4891625 0.071044736
000300 b1 1f 14 3e 25 5a 0e 3f 56 69 80 bd 95 7b 2b bf
       0.14465214 0.556063 -0.06270091 -0.66985446
000310 49 28 1f bf 27 16 d2 3e 4c 3b ab be d9 c4 3b bd
       -0.62170845 0.41032526 -0.33443677 -0.045842025
000320 fb e8 9b 3e 9f cf 0a 3f 40 3c f5 3e 15 8c 8e be
       0.30451187 0.54223055 0.4789753 -0.2784125
000330 ae ff 86 bd bf a9 c6 3e 82 81 b7 3d 2d 6e 3c bf
       -0.06591736 0.3880138 0.089602485 -0.73605615
000340 97 11 db 3e 23 f9 88 3e d2 a7 fc be da 89 e3 be
       0.42786857 0.26752576 -0.49346787 -0.4444111
000350 b9 32 ae be 3f 85 15 3f dc c9 0b bf 74 54 82 be
       -0.34023073 0.5840644 -0.5460489 -0.25455058
000360 0f 21 ac 3e 33 0a 9d 3e 86 e4 7a 3e 83 04 98 be
       0.33618972 0.30671844 0.24501237 -0.29690942
000370 d3 03 0a be 05 a2 87 bc da c0 03 3f 65 2b 7d be
       -0.13478021 -0.01655675 0.51466143 -0.24723585
000380 c4 68 38 3d 4d 71 93 3d 6e f3 61 be 0f e4 e9 be
       0.045021787 0.07199345 -0.22065517 -0.45681807
000390 94 d6 c6 be d8 66 19 bc e6 ec 06 bf 66 64 87 be
       -0.38835585 -0.009362899 -0.5270523 -0.26443785
0003a0 a6 3f 7e bd ed d8 c3 3e 5e cd b2 3e cc c6 0b bf
       -0.06207242 0.3825144 0.34922308 -0.54600215
0003b0 57 f9 19 bf 15 66 c1 3e ae 7f c6 3e 5c 75 74 bf
       -0.6014609 0.37773195 0.38769287 -0.95491576
0003c0 d5 08 c6 3c 3d e2 9f 3e 6c 46 6b be 12 de 97 be
       0.024174133 0.31227294 -0.22976083 -0.29661614
0003d0 cb 14 0d bf 28 9c d1 3e 7b 0d c4 be 4d 5e e2 bd
       -0.5510985 0.4093945 -0.38291535 -0.11053143
0003e0 fc 6f 0a 3d 03 e3 59 3e 42 e2 0f bc 8e 6c 22 bf
       0.033798203 0.21278004 -0.008781971 -0.6344689
0003f0 37 07 94 be 7d 2a ba 3e d2 97 bb 3e c9 21 1d bf
       -0.28911754 0.3636054 0.36639267 -0.6137968

lstm.lstm.weight_hh_l0 f4 [64, 16]
000000 8b d7 ab 3e 30 5a aa 3e 9a f0 48 bd d6 20 35 bc
       0.33562884 0.33271933 -0.04905758 -0.011055192
000010 67 36 4b 3d a8 52 f1 bc 7b f5 54 be 10 5e 9d 3b
       0.04961243 -0.029458359 -0.20796768 0.004802473
000020 23 97 11 bf b7 b0 a1 3e b3 c0 27 3e 28 00 e2 be
       -0.5687124 0.31580135 0.16382103 -0.44140744
000030 6d 37 14 bd d1 10 c5 be c7 21 d7 3d 0e 47 99 bb
       -0.03618567 -0.38489392 0.105044894 -0.00467766
000040 17 1f b3 3b cc 2b f6 3d ff 08 36 bd 74 44 c1 3e
       0.0054663527 0.12020072 -0.044442173 0.37747538
000050 52 eb 9f 3c b9 09 a7 3d b0 69 3f be 51 67 85 be
       0.01952139 0.08156151 -0.1869266 -0.26055387
000060 3a 1d 96 bd 40 fd 08 bb f6 68 b1 be 42 5d 4f be
       -0.07329793 -0.0020902902 -0.3465039 -0.20250419
000070 20 0d 80 be 2b ce 23 bd c1 ad fe bc de 28 70 3d
       -0.25010014 -0.03999154 -0.031088712 0.058632724
000080 72 06 96 bd aa 97 75 3d ac 51 ca 3e 2f 61 8e 3e
       -0.07325448 0.05995909 0.39515436 0.2780852
000090 56 1b 0d be be c9 80 be 59 d6 99 be 1d 13 a8 be
       -0.13779959 -0.25153917 -0.30046347 -0.32827082
0000a0 f5 75 19 3d a7 22 9f be 37 24 6b 3e 28 50 1b be
       0.03746601 -0.31081125 0.22963034 -0.15167296
0000b0 68 a5 a5 be 27 81 59 be 5a 5c 20 be 52 e7 ba be
       -0.32352757 -0.21240674 -0.1566023 -0.36504608
0000c0 40 92 44 be 46 37 33 be 34 8d ba 3c 0e 8b c1 3e
       -0.19196415 -0.17501554 0.022772409 0.37801403
0000d0 c7 d4 bd 3e 0e 70 ac bd f6 9e 23 bf 34 df ba bd
       0.370764 -0.0841981 -0.6391443 -0.09124604
0000e0 a1 9b 8a be f1 8d 1d be 64 67 33 bd 8d 74 b8 be
       -0.2707186 -0.15386178 -0.043799773 -0.3602642
0000f0 e5 33 d0 bd bc 61 ba be 57 99 a6 be 23 a0 4d bd
       -0.10166148 -0.3640269 -0.32538864 -0.050201546
000100 f9 89 93 be 59 fa 10 3e c6 62 bf bd 04 95 eb bb
       -0.28816202 0.14158 -0.093450114 -0.007189395
000110 4f 60 12 3f 23 2c ad 3c d1 54 06 3f 47 a9 96 bc
       0.57178205 0.02113921 0.5247317 -0.018391265
000120 e2 73 4e be e7 e2 e6 3e 1b a5 cc 3e 0f 20 03 bf
       -0.20161393 0.45094988 0.39969715 -0.5122079
000130 8f c4 9d bd a0 85 db 3e 67 b9 c6 3d 4c 69 e3 3d
       -0.07703506 0.42875385 0.097033314 0.11104068
000140 df 4f 90 3b d6 57 ad 3d 3d 54 da 39 bb 5d 13 be
       0.0044040526 0.08464019 0.00041642963 -0.14391224
000150 11 41 1f 3d 27 21 64 3d 04 69 ad be ce 74 e0 be
       0.03888041 0.05569568 -0.33869183 -0.43839115
000160 17 7e e7 be 8c b8 b3 3c 27 c0 70 be dc 86 35 bf
       -0.45213386 0.021938585 -0.235108 -0.70908904
000170 7c c0 87 3c 0a 85 9f 3b 72 6c 81 be 59 a5 ba be
       0.016571276 0.0048681544 -0.2527805 -0.36454275
000180 47 53 b4 bd 6c 32 f1 bc fa cd a2 3d 2d 84 01 bd
       -0.088049464 -0.029442988 0.07949443 -0.031620193
000190 a8 8a cd 3e 02 a2 92 be 6c d4 65 be 53 a3 8f be
       0.4014485 -0.28639227 -0.22444314 -0.28054294
0001a0 00 26 91 3e 3f 6e a6 be 43 85 d3 37 8d e9 6a 3e
       0.28349304 -0.32505986 2.5215215e-05 0.22940655
0001b0 d6 48 d7 be 00 22 99 bd 30 cf 83 bd eb a2 87 3d
       -0.42047757 -0.07477188 -0.06436002 0.06622871
0001c0 47 d0 01 be 5b b8 31 be 9a 3f 95 3e 75 1d f8 3d
       -0.12677108 -0.17355482 0.29150087 0.121149935
0001d0 4d 3b d5 3d 34 3e 6d be 07 76 e7 be 66 f8 09 be
       0.10411701 -0.2316826 -0.45207235 -0.13473663
0001e0 b3 4c 97 be ee e7 d5 3b 9d 7e 93 3e 0a 30 be 3e
       -0.29550704 0.0065278923 0.28807536 0.37146026
0001f0 41 e2 ad be 1b 73 4a be 89 9e 0d 3d b4 ae b0 be
       -0.3396168 -0.19770472 0.03457502 -0.34508288
000200 11 4a c3 bd d2 28 d7 3e 4e 15 e5 3d 1b 4b 4d bf
       -0.095356114 0.4202333 0.11185704 -0.80192727
000210 56 20 49 bf 65 f8 ae 3e 91 b5 9e 3e c0 2c 99 3e
       -0.78564966 0.34173885 0.309979 0.29916954
000220 e7 40 1e bf f6 9f 4a 3e 4e 18 07 3e fd cf ab be
       -0.61817783 0.19787583 0.13192865 -0.3355712
000230 16 09 0f 3f 05 0c 1e 3f 0c 07 93 3e 7d 1d c4 3e
       0.5587324 0.6173709 0.28716314 0.38303748
000240 b7 05 3d be de 3d 11 bf 50 cc aa 3d 71 bf 87 3e
       -0.18459211 -0.56735027 0.08339751 0.26513246
000250 6a 57 45 be a8 97 7d be d0 e3 e0 be 0f 2f a9 be
       -0.19271627 -0.24764884 -0.43923807 -0.33043715
000260 f5 79 5d 3d 0f 4c 12 bf 2a c4 74 bd ab 2a e9 3e
       0.054071385 -0.57147306 -0.05975739 0.45540366
000270 75 50 06 3d 49 90 45 be 3b a0 8f be 4a 2a 71 bc
       0.032791574 -0.19293322 -0.28051934 -0.014719555
000280 d0 71 04 bf f5 32 b9 be 36 d4 d8 3e cd 7f 2b 3f
       -0.51736164 -0.3617169 0.42349404 0.66991884
000290 4e 4a 88 3e 14 ba c4 be 40 84 46 bf d7 56 a3 be
       0.2661919 -0.38423216 -0.7754555 -0.3190219
0002a0 6b f3 cb 3e 4c ec 4d bf a0 65 22 bf 01 86 22 3e
       0.3983415 -0.80438685 -0.6343632 0.15871431
0002b0 33 a7 90 be e9 6b 62 bf 97 29 c3 be 7d 51 d0 be
       -0.28252563 -0.8844591 -0.38117668 -0.4068717
0002c0 65 a0 70 be 0d 9e ef 3e 62 e8 27 3f 0a 62 5b bd
       -0.23498686 0.4680027 0.65588963 -0.053560294
0002d0 7c cd e1 be a5 71 51 3e e2 0f 9c 3e 0c f3 0f 3e
       -0.44102085 0.20453508 0.30480868 0.14057559
0002e0 91 d6 b4 be a3 1c c1 3d 36 3b 8b be b7 8a ed be
       -0.3531995 0.0942929 -0.27193612 -0.46394894
0002f0 80 ac b3 3e 66 e7 05 3e 49 a7 b2 bd 29 18 75 bd
       0.35092545 0.13076553 -0.08723313 -0.059837494
000300 6f a5 47 be ec 84 b3 3c de 53 7d be 7d d6 12 3e
       -0.19496702 0.021913968 -0.24739024 0.14339633
000310 7c 1c 06 3f 65 a4 57 be fb dd 80 be fb 95 8c be
       0.52387214 -0.21058805 -0.25169358 -0.27458176
000320 2c 15 5f be 27 4d b7 bd b7 6f 94 3e fe f7 e7 3e
       -0.2178542 -0.089502625 0.28991482 0.4530639
000330 56 a4 9c bd f3 95 c0 bd 90 f2 cc be 82 db 4d 3d
       -0.07648532 -0.094036005 -0.4002881 0.050258167
000340 0f 9d af be 4a ae 83 be d3 ee 2d 3e e9 ed a0 3e
       -0.34299514 -0.2571891 0.16985635 0.3143151
000350 aa 4d 66 3e 9d 2f 2e be 1b 5a 0f bf 42 eb cd bc
       0.22490564 -0.1701035 -0.55996865 -0.025136594
000360 72 88 1e 3e 5c 2f b7 be d7 97 fd 3d e3 59 e1 3e
       0.15481737 -0.3577832 0.12382477 0.4401389
000370 4f 34 10 be 66 83 0e bf a4 dc 36 be 1a 25 74 be
       -0.14082454 -0.5566925 -0.17857605 -0.23842278
000380 97 28 23 bd fc 6b ab be 46 78 e6 bc 95 bc 90 3e
       -0.03983363 -0.33480823 -0.028133523 0.28268877
000390 6f c3 c1 3e 6b af 97 be f5 16 18 bf 8d ca a4 bd
       0.37844416 -0.2962602 -0.5941003 -0.08046446
0003a0 6c 36 5f be 13 e7 b5 be 25 d9 7a 3e db dc 36 3e
       -0.21798104 -0.35527858 0.24496897 0.17857687
0003b0 3b 83 61 be 46 71 a7 be 79 59 9b bd 67 38 9f be
       -0.22022717 -0.32703608 -0.07585425 -0.3109772
0003c0 88 ba 1b 3d 14 99 6f bd 0a 0a 08 be fd c3 4a 3e
       0.038019687 -0.058495596 -0.1328508 0.19801326
0003d0 4d 55 23 bd 62 61 b3 be 3a 85 c5 be 72 39 cc be
       -0.03987627 -0.35035235 -0.38578206 -0.39887577
0003e0 8b 97 68 3d 11 04 54 be 65 e2 f7 3e 50 12 f9 3e
       0.056785148 -0.20704676 0.48414913 0.48646784
0003f0 2e ea 26 be ee 2f 0e bc ca d5 c3 be a6 93 2f 3d
       -0.1630027 -0.0086784195 -0.38249046 0.042865418

lstm.lstm.bias_ih_l0 f4 [64]
000000 6c 45 8f 3e 7f 6b 70 3e 39 64 89 3e 99 26 cd 3d
       0.27982652 0.23478507 0.26834276 0.100171275
000010 54 92 12 3e 52 96 08 3f ff a8 0f 3e 3f 94 22 3e
       0.14313632 0.5335437 0.1402931 0.15876864
000020 f3 48 19 3e 11 b6 88 3e 0d 1b c2 bd c4 ec 9c be
       0.14969234 0.26701406 -0.09477816 -0.30649388
000030 e5 6e e5 bb 7f 50 13 3e ca 92 e0 3c 34 2f e3 3d
       -0.007001745 0.14386176 0.027413744 0.11092988
000040 35 17 27 3f 78 fe 05 3f d0 0c cb 3d 77 89 5b 3e
       0.65269786 0.52341413 0.09914553 0.21439157
000050 ee 03 b9 3e 03 6d 03 3f e8 6a c2 3c 2a a8 9d 3e
       0.3613581 0.51338214 0.023732617 0.30792361
000060 fc 3b 99 3e a3 03 e5 bd 69 65 c5 be 9a 11 9b 3c
       0.29928577 -0.11182334 -0.38553932 0.018929292
000070 f7 82 b9 3e 19 26 b1 3d 1f 4c 0f bd 5f 83 af 3e
       0.3623273 0.08649845 -0.034984704 0.34279916
000080 5e 03 37 be f9 08 b1 bc 9a 7f 74 3e a1 1c 85 3e
       -0.17872378 -0.021610724 0.23876801 0.25998405
000090 4b 9f 6a 3e c4 45 07 be b7 cc 67 be 34 ac d7 be
       0.22912328 -0.13210207 -0.22636686 -0.42123568
0000a0 09 b0 a1 3d b8 58 4f bd 66 9c aa bd 2a 73 20 be
       0.07894904 -0.05062172 -0.08330612 -0.15668932
0000b0 e2 68 af be 5e 79 40 be b6 dc 89 be b6 13 86 be
       -0.34259707 -0.18796298 -0.26926202 -0.26186913
0000c0 c6 d0 d5 3e ab 59 b9 3e 0a 86 1f 3f 75 4a b7 3e
       0.41760844 0.36201224 0.623139 0.35798994
0000d0 1b fa 49 3e 0e 91 30 3f b9 e3 46 3e b3 60 b4 3e
       0.19724314 0.68971336 0.19422807 0.35230026
0000e0 f1 90 6a 3e 32 c7 43 3e d5 79 fc bc e9 57 f3 bd
       0.22906853 0.19118956 -0.030819813 -0.11882002
0000f0 31 29 31 bd 91 21 8f 3e f7 19 18 bd ed 08 88 3e
       -0.043252174 0.27955297 -0.037134137 0.2656931

lstm.lstm.bias_hh_l0 f4 [64]
000000 2a 69 a7 3e 9b 60 04 3f 2c 56 1e 3e 8b 4a 3c 3e
       0.3269742 0.5170991 0.1546256 0.18387811
000010 ad f7 59 3e 73 bd 25 3f 8a ed 4b 3e ef 3b a9 3e
       0.21285887 0.647422 0.19914833 0.33053538
000020 4f 30 38 3e 24 7e a7 3d 35 d0 0f be 3f 0f 6a be
       0.17987178 0.08178356 -0.14044268 -0.22857378
000030 f5 be e1 bd 82 56 9d bd b6 49 8f 3e 9f d9 4d 3e
       -0.1102275 -0.07682516 0.27985924 0.20102547
000040 e2 5c e3 3e 64 e4 35 3f d7 80 1c 3e 9f 17 03 3f
       0.444068 0.7105162 0.15283523 0.5120792
000050 3d dd b0 3e b3 11 f9 3e 27 bf 44 3e c6 e1 ad 3e
       0.3454379 0.48646316 0.19213544 0.33961314
000060 59 ea f0 3c 1e 31 f9 bb fb 37 b5 be a3 a1 0f be
       0.02940862 -0.007604732 -0.35394272 -0.14026503
000070 b8 c3 75 3e cc 85 9d 3e 1e fd 2b 3c 96 22 d5 bd
       0.24000442 0.3076614 0.01049736 -0.10406987
000080 a4 ea cb be 7b 11 67 bd ef 8f 0d 3d 5e 77 da 3e
       -0.39827454 -0.056413155 0.034561094 0.42669195
000090 20 ff 2b 3e fb 51 7f be 9a f3 ad 3c 73 e0 a7 be
       0.16796541 -0.24933617 0.021234322 -0.3278843
0000a0 b5 99 11 bd 2d 98 c2 bd 68 bb 24 bd 06 25 24 3e
       -0.035546977 -0.095016815 -0.040217787 0.16029748
0000b0 6f 15 8f be 41 df 54 be 2c 03 d7 bd 67 2e 55 be
       -0.2794604 -0.2078829 -0.10498652 -0.20818482
0000c0 d7 91 f9 3e 09 c7 f7 3e d4 d6 df 3e 1f 54 e5 3e
       0.4874408 0.4839404 0.43718588 0.44790742
0000d0 e6 52 e3 bd a1 6b 54 3f 4a 59 a0 3d 72 6e 63 3e
       -0.11099796 0.8297673 0.078295305 0.222101
0000e0 31 ca 64 3d 8d 2e 5e 3e 4f 29 1e be 20 e7 db bd
       0.055856887 0.21697445 -0.15445445 -0.10737443
0000f0 dd 4b 95 3d af 7e 24 be 33 5e a0 3b cc 0f 96 3e
       0.072898604 -0.16063951 0.004894042 0.29308927

downstream.full.weight f4 [6, 16]
000000 98 37 d6 3e 00 fa dc bc 46 16 d4 be 36 59 fa 3e
       0.4183929 -0.026974678 -0.41423243 0.48896188
000010 63 68 03 bf 00 bb 47 bb 50 13 9c 3e 30 9a 04 bd
       -0.51331156 -0.003047645 0.30483484 -0.032373607
000020 a0 f8 e3 3c 94 3e 4d 3e 4a ba bc 3e 2e e6 ed 3e
       0.027828515 0.20043403 0.36860877 0.46464676
000030 c8 2d c8 be 56 d9 f2 3e fe 7a 3a be 42 79 e7 be
       -0.39097428 0.4743144 -0.1821098 -0.452097
000040 e8 86 a6 3d c3 f0 03 3f f4 e0 7d be 90 6e 67 be
       0.081312 0.5153925 -0.24792844 -0.2260077
000050 c0 e8 e2 bc 73 41 d5 be 84 65 3c be 5c 85 9b be
       -0.027698874 -0.41651496 -0.183981 -0.30375183
000060 e0 db 3a 3d 88 76 19 3e 68 3c 98 3d 2e 97 c4 3e
       0.045619845 0.14986622 0.074333966 0.3839659
000070 90 57 99 bd b0 e9 59 be 50 1d 3c 3e d3 10 d4 be
       -0.07487404 -0.21280551 0.18370557 -0.41419086
000080 a0 ac 80 3c 3a a7 b4 be 6c 9f 09 3e 98 19 73 3e
       0.015707314 -0.35283834 0.13439721 0.23740232
000090 10 c1 48 3d 82 4b a5 3e d0 91 ea 3e 90 e6 ae 3e
       0.049012244 0.3228417 0.4581437 0.3416028
0000a0 0f a2 e8 be e8 cc cb bd 6e 63 b5 3e cc c0 ef bd
       -0.4543614 -0.09951192 0.3542742 -0.11706695
0000b0 bc a4 a3 3e f8 07 47 bd 93 34 93 be 2c b2 96 3e
       0.3196162 -0.048591584 -0.28751048 0.2943281
0000c0 e8 95 58 3e 6e 29 fc 3e be 0c 88 be 58 f2 fa 3d
       0.21150935 0.49250358 -0.26572222 0.12253255
0000d0 60 2f de bc 4d 74 ad be c2 82 51 be ae 9b ee 3e
       -0.0271222 -0.33877793 -0.20460036 0.4660315
0000e0 cc d5 e3 3e 04 f3 e5 bd d7 c2 aa be 94 b3 a0 be
       0.44499052 -0.11227992 -0.33351776 -0.31387007
0000f0 4c 81 f0 3e fc 44 01 bf d2 69 ab 3e 42 da ae be
       0.46973646 -0.50495887 0.33479172 -0.34150892
000100 c8 67 4b be 9a 1b da 3e b8 c7 b4 be ec e8 36 3e
       -0.19863808 0.42599183 -0.35308623 0.1786229
000110 68 a1 39 3e 80 06 6a be 80 aa 5b 3d f0 c1 37 3e
       0.18127978 -0.22854042 0.0536294 0.17945075
000120 b0 47 d8 3d d8 90 d8 bd 00 7b 08 3e 9c 67 56 be
       0.10560548 -0.10574502 0.13328171 -0.20937961
000130 b8 5a ac be 6a 7f 92 3e 79 d2 a6 be bc b4 c4 3e
       -0.33662963 0.28612834 -0.32582453 0.3841914
000140 2a 6e 96 3e 14 01 bf be e0 5b 9a 3e 30 4b 3b 3e
       0.29380924 -0.3730551 0.3014822 0.182904
000150 f5 10 fb be bb 99 d1 be e7 27 90 be 70 0a 8c be
       -0.49036375 -0.409376 -0.28155443 -0.27351713
000160 e0 a6 96 3c a6 87 54 be d6 da 2a be 95 73 02 3f
       0.01839012 -0.20754871 -0.16685042 0.50957614
000170 98 0f b2 be 38 4f 6a be 88 2e 85 be d4 6f 49 be
       -0.34777522 -0.22881782 -0.26012063 -0.19671565

downstream.full.bias f4 [6]
000000 a8 45 dc 3d 22 6b 05 3e 6e cb 3a 3e 24 72 cb 3d
       0.107554734 0.13029149 0.18241665 0.0993388
000010 08 08 06 3d c8 09 00 bd
       0.032722503 -0.031259328

maxpooling.full.weight f4 [16, 16]
000000 5f 80 a4 3e ac ea 58 be 73 58 b9 be 23 33 cd be
       0.3212919 -0.2118327 -0.36200294 -0.40078077
000010 58 88 76 3d 5f 5e be 3e 78 8c 85 3d 80 93 0b bc
       0.06018862 0.37181374 0.06520933 -0.008519053
000020 da 71 92 be e0 78 cd 3c 5f 24 4a be 4a 5c 70 3e
       -0.28602487 0.025082052 -0.19740437 0.23472705
000030 7a 7a 84 be af b9 db be f6 93 d4 be 16 bb 3f 3e
       -0.25874692 -0.42915103 -0.41519135 0.18723711
000040 70 b6 d1 be 50 5d 59 bd a5 71 d1 3e 70 db 51 bd
       -0.409595 -0.053067505 0.40907016 -0.051234663
000050 3e 18 61 3e 73 9a 81 3e 8a a6 3c 3e 8b e0 94 3e
       0.21981904 0.25313148 0.18422905 0.29077563
000060 d5 90 c0 be 0e 24 72 be eb 48 cf 3e a0 10 d5 be
       -0.37610498 -0.23646566 0.4048532 -0.41614246
000070 1c 19 0e be f0 ab 3a 3d 00 6c 24 3a 02 8b 7a 3e
       -0.13876766 0.04557413 0.0006272197 0.2446709
000080 88 f6 cf be 38 1d 50 3d 12 05 cc be 4f 40 c5 be
       -0.40617776 0.050809115 -0.39847618 -0.38525626
000090 0d 45 59 be 94 c1 fa 3d 7b 2f 9f be c0 c6 21 3d
       -0.21217747 0.12243953 -0.31090912 0.039496183
0000a0 18 b0 0f bd 96 d1 7d be 98 ee f7 bd 88 d9 78 bd
       -0.035080045 -0.24786982 -0.12106055 -0.06075433
0000b0 18 b6 34 3d 6d 8a ac 3e e6 4a 30 3e ac 7d a3 3d
       0.04411897 0.3369936 0.17216071 0.079829544
0000c0 26 84 13 3e 98 f0 07 bd eb 18 da 3e ec ab a6 3d
       0.1440588 -0.033188432 0.42597136 0.0813826
0000d0 38 a0 7c bd 8d e6 81 3e 33 27 a8 be 28 e7 d2 be
       -0.061676234 0.2537121 -0.32842407 -0.41191983
0000e0 46 64 28 3e af 36 d7 3e 6a 2c 66 3e 97 2a b0 3e
       0.16444501 0.42033908 0.2247788 0.34407493
0000f0 99 f1 83 3e d7 cf c0 3e 74 62 d8 3d e7 99 ce 3e
       0.25770262 0.3765857 0.105656534 0.40351793
000100 f0 ee 34 3d c0 e2 88 3d e1 83 c9 3e a0 53 f6 3c
       0.04417318 0.06683874 0.39358428 0.030069172
000110 49 66 a4 3e 25 db bf 3e 52 55 25 3e a9 be c7 3e
       0.32109287 0.37471882 0.16145828 0.3901265
000120 fa b5 7d 3e 75 04 cb 3e 05 28 65 be a0 f6 b5 bc
       0.2477645 0.39651838 -0.22378547 -0.022212327
000130 06 fe cd be 2e 91 1b 3e 30 a5 ee bd 06 13 0e 3e
       -0.40232867 0.151921 -0.11652601 0.13874444
000140 ea d0 86 be 1b f3 a1 be 0c b4 af 3d da cf cc be
       -0.26331264 -0.31630787 0.08579263 -0.40002328
000150 ea 35 13 3e 58 ae 0c be 23 77 95 3e 24 d5 d4 bd
       0.14376035 -0.13738382 0.29192457 -0.10392216
000160 eb e3 88 3e c0 ba d4 bb 50 e0 6e be 12 c1 12 3e
       0.26736388 -0.006491989 -0.23327756 0.14331463
000170 52 87 5a be 39 2a a9 be 98 12 82 be d4 86 ba be
       -0.21340683 -0.33040026 -0.2540481 -0.3643099
000180 53 c8 da 3e 45 fc 91 3e 8a 1f 37 3e 81 b3 db 3e
       0.4273096 0.2851278 0.17883125 0.42910388
000190 42 cf 31 3e 80 7f f0 3c 34 5a c1 be 02 0b a8 be
       0.17364219 0.029357672 -0.37764132 -0.32820898
0001a0 ff 82 c4 3e ba 04 c8 be b3 13 a5 be 5f 93 83 3e
       0.38381192 -0.39066106 -0.32241592 0.25698373
0001b0 6c a6 ed 3d ce 6b 6b be 91 e9 78 be 6c a6 d9 bd
       0.11604008 -0.22990343 -0.24307849 -0.106274456
0001c0 6a 2f 85 be a9 f1 9d 3e 44 ae d6 3d 4f 78 64 be
       -0.26012737 0.30848435 0.10482457 -0.22311519
0001d0 d4 25 db bd 77 6a d6 3e 99 a8 49 be 54 22 0e be
       -0.107005745 0.418781 -0.19693221 -0.13880283
0001e0 98 49 dc bd d6 00 13 3e 17 44 dc be 0b 72 b9 3e
       -0.107562244 0.14355788 -0.43020698 0.3621982
0001f0 d7 85 cd 3e 00 29 c2 3a 92 a2 8a be 51 d4 c9 3e
       0.40141174 0.0014813244 -0.27077156 0.39419797
000200 fc 26 b3 3d 80 e2 21 bc 0b 87 b4 3e ce 80 5d 3e
       0.0874767 -0.009880662 0.3525928 0.21631166
000210 26 6f 29 be e8 56 99 bd 78 9c 97 be 99 54 bb 3e
       -0.16546306 -0.07487279 -0.29611564 0.3658798
000220 20 f1 2a bd 45 59 c4 3e 9a 87 5d 3e 98 38 23 3d
       -0.04173386 0.38349357 0.21633759 0.039848894
000230 e0 15 a2 3c 20 9b 43 bc c7 af 64 be 80 66 a8 bc
       0.019785821 -0.01193884 -0.22332679 -0.020556688
000240 da 1c b4 be 04 6b 41 be 05 83 8d be 6b 14 d6 3e
       -0.35178262 -0.1888848 -0.27639022 0.41812453
000250 70 0e 9e 3c 58 c1 f7 bd 4b 3e c3 3e c7 48 d4 be
       0.019293994 -0.12097424 0.38133463 -0.41461775
000260 fe a0 39 be 97 be d4 be df 25 ac 3e e4 03 0a be
       -0.1812782 -0.4155166 0.33622643 -0.13478047
000270 86 22 6f be e4 5e 96 be 4a c0 00 3e 48 8f 1d bd
       -0.23353013 -0.2936927 0.12573352 -0.03846672
000280 03 68 bf 3e 40 60 bf 3b 46 54 3e 3e cb f5 94 3e
       0.37384042 0.0058403313 0.18586835 0.29093775
000290 ff 85 d0 be 89 80 b6 3e a5 ec b5 3e 13 17 ba be
       -0.4072723 0.3564494 0.35532108 -0.3634573
0002a0 1e bc b4 be b2 77 10 be 83 b1 43 be 44 d1 37 be
       -0.35299772 -0.1410816 -0.19110684 -0.17950922
0002b0 2c c6 e9 3d 40 f9 dc bb e6 8a 23 be 2b 47 da 3e
       0.114147514 -0.00674358 -0.15970954 0.42632422
0002c0 a2 45 a2 be d3 79 86 3e 40 4b f4 bb 5e 05 79 3e
       -0.3169375 0.2626482 -0.0074552596 0.24318454
0002d0 90 dc 6d bd 00 3b 8b bc 01 0b 4d be d1 9a da 3e
       -0.058071673 -0.016995907 -0.20023729 0.4269624
0002e0 e0 c1 d5 bc 2e fc 34 be 34 7e 18 be 1c ed bb 3d
       -0.026093423 -0.17674324 -0.14891893 0.091760844
0002f0 c8 56 38 be ad fc d1 3e 9b de af 3e fe b3 b8 be
       -0.18001854 0.4101309 0.34349522 -0.36074823
000300 a2 fe 83 be f3 b7 d6 be e0 96 7d 3d 19 0c 9d 3e
       -0.25780207 -0.41937217 0.061911464 0.30673292
000310 06 44 d7 be bd 51 a9 3e 2c 28 cc bd 74 80 be 3d
       -0.42044085 0.33070174 -0.099686 0.09301844
000320 65 12 b2 3e bc 56 87 be 54 c9 ac be a0 da 81 bd
       0.3477966 -0.2643336 -0.3374735 -0.063405275
000330 07 31 c9 3e 63 2f 84 be 86 ff b5 be dc c3 c3 3d
       0.39295217 -0.25817403 -0.3554651 0.095588416
000340 1a 8a 1d be 1c 8d af 3d 00 10 23 3b a0 06 f3 3c
       -0.15384713 0.08571836 0.0024881363 0.029666245
000350 8c f1 72 be 89 e0 83 3e 70 c3 5e bd 13 6a 95 3e
       -0.23724955 0.25757244 -0.054385602 0.2918249
000360 c0 d9 b5 be 00 7f 65 bb 40 bd ae bd 15 84 86 3e
       -0.35517693 -0.0035018325 -0.0853219 0.26272646
000370 10 36 d7 bc 8e 2d c6 be 81 2b 80 be e4 2b e2 3d
       -0.026270896 -0.3870663 -0.2503319 0.11043528
000380 78 8c 36 3d 5b 4d b9 3e 5e d5 4e 3e 43 bd bc 3e
       0.044567555 0.3619183 0.2019858 0.36863145
000390 45 7e ba 3e 7e f2 71 3e ce f3 3f 3e 26 83 9f be
       0.3642446 0.2362766 0.18745348 -0.31154746
0003a0 d2 84 35 3e 83 82 cf be 92 90 11 be 80 57 37 bd
       0.17726448 -0.4052926 -0.14215305 -0.04476118
0003b0 ac 8e fa 3d 83 30 a2 3e d6 86 56 be 54 11 88 bd
       0.12234244 0.31677637 -0.20949873 -0.0664393
0003c0 c7 dc 89 3e df 34 c1 3e 00 a8 ce 39 b0 0e 9a bc
       0.26926252 0.3773565 0.00039416552 -0.018805832
0003d0 e9 dc 5b be 05 ef 91 3e f4 a0 ae 3d 60 a1 2e 3c
       -0.2147099 0.2850267 0.08526793 0.010658592
0003e0 eb 71 9d be ca 48 3e 3e 16 9c 58 3e 4a 1b 10 be
       -0.30750975 0.18582454 0.21153292 -0.1407291
0003f0 26 db 7a 3e 6a 0f 31 3e c4 e8 b0 be 89 11 a4 be
       0.24497661 0.17291036 -0.34552586 -0.32044628

maxpooling.full.bias f4 [16]
000000 08 08 cc bd 68 25 25 3e bc a7 38 3e b8 c9 b6 3d
       -0.09962469 0.1612755 0.18032736 0.089251935
000010 e0 8c df 3c ca 67 51 be be 40 32 3e f0 a4 b9 bd
       0.027288854 -0.20449749 0.1740751 -0.090646625
000020 ec 42 36 3e 98 e5 75 3e ca 43 2b 3e ca 26 09 be
       0.17798966 0.24013364 0.16725078 -0.13393703
000030 20 42 c9 3d 8a 8a 7f 3e ac 80 31 3e ac ec 64 be
       0.098270655 0.24955192 0.1733424 -0.22355908

mean.full.weight f4 [16, 32]
000000 a0 1f bc 3c d3 0b 3d be 10 4e 60 3d 80 04 4d bc
       0.022964299 -0.18461542 0.054761946 -0.01251328
000010 cf 35 85 be e3 9f 1f be 95 ef 45 be d0 f4 77 bd
       -0.26017615 -0.15588336 -0.19329675 -0.060536206
000020 98 24 1d 3d 5a 15 5b 3e 58 43 0b 3d 84 c1 aa bd
       0.038364977 0.21394864 0.03399977 -0.083376914
000030 2c f8 4c be cd 9a 86 3e 68 43 8d bd b7 cf 9c be
       -0.20016545 0.2628998 -0.06897622 -0.30627224
000040 f5 7e 8b be 3f 62 96 3e 6a 72 8f be d0 64 05 3e
       -0.27245298 0.2937183 -0.28016979 0.13026738
000050 a8 54 90 bd c2 9e 27 3e c6 20 32 3e a4 8d eb 3d
       -0.07047397 0.16369155 0.17395315 0.11501625
000060 d8 8a 2a bd 3b c0 12 be c8 47 03 be 8d 3a 93 3e
       -0.041636318 -0.14331143 -0.12820351 0.28755608
000070 d3 6a 9b 3e 98 aa c2 3d 9c fd ec 3d 8c 02 8a be
       0.30354938 0.095051944 0.1157181 -0.26955068
000080 43 c3 81 be 00 bf 0a be 44 3e 87 be 2d c6 33 be
       -0.25344285 -0.13549423 -0.26414692 -0.17556067
000090 88 6f 1c 3d bc b0 c0 3d c1 34 59 be 59 22 18 be
       0.038192302 0.094087094 -0.2121153 -0.14856853
0000a0 40 c3 3b 3d 6a dc 21 3e c6 98 a1 be 44 c8 9b 3d
       0.0458405 0.15806738 -0.3156187 0.07606557
0000b0 d5 b8 9b 3e 30 70 80 be 0e 75 81 be 65 f8 90 be
       0.30414453 -0.25085592 -0.25284618 -0.2831451
0000c0 51 6c 9e 3e db 26 8a 3e 8c 78 b5 3d 4e 6b 2e be
       0.30942014 0.2698277 0.08860883 -0.17033121
0000d0 29 5e 60 be 10 38 fc bc 30 12 8f 3c f5 65 04 be
       -0.21910919 -0.030788451 0.017464727 -0.12929519
0000e0 0c ad c9 bd 80 ac 29 3c 66 ed 8a be 5a 71 1a 3e
       -0.09847459 0.010356069 -0.27134246 0.15082303
0000f0 6c 2f a7 bd 30 63 e6 3c 73 1a 88 be 1c b0 49 be
       -0.08163342 0.028123468 -0.2658268 -0.19696087
000100 e7 b1 92 3e fd d3 9f be e6 09 55 3e 60 69 8b 3c
       0.28651354 -0.31216422 0.20804557 0.01701802
000110 64 98 9b bd db 8f 9f 3e bc 0b c2 3d 22 f0 1a 3e
       -0.075974256 0.3116444 0.094748944 0.15130666
000120 02 ca 50 3e 51 da a6 be 9c 99 a2 bd e9 04 b3 be
       0.2038956 -0.32588437 -0.07939455 -0.34964684
000130 f9 ed 8f 3e 2c 2d 4f be 87 b4 95 3e 79 d8 a4 3e
       0.28111246 -0.20232075 0.29239294 0.32196406
000140 3e e5 6e be 68 4b ed 3d 14 45 8b bd 16 4a 7f 3e
       -0.23329636 0.11586648 -0.06800285 0.24930605
000150 b1 ac 06 be c0 83 50 3d c2 96 4f 3e 99 a9 a4 3e
       -0.13151814 0.050906897 0.20272353 0.32160643
000160 5a f3 37 3e 7f c9 b1 be 37 8c 8d 3e e0 be cd bc
       0.17963925 -0.34724042 0.27646038 -0.02511543
000170 47 83 6e be 7c f3 97 bd aa d3 57 be 7f 8b ad be
       -0.23292266 -0.07419488 -0.21076837 -0.3389549
000180 62 4f af be cb 01 9f be 43 7e 1a be 73 65 83 3e
       -0.34240252 -0.31056055 -0.15087228 0.25663337
000190 00 ce 2b 3d 81 76 8d 3e 77 06 af 3e 44 20 88 be
       0.041944504 0.27629474 0.3418462 -0.26587117
0001a0 60 88 6e bc 60 d3 7f 3c 2b 4f 8d 3e de a3 70 3e
       -0.0145588815 0.015614361 0.27599463 0.2350001
0001b0 a7 52 09 be 62 27 18 3e c6 5e a2 be c5 40 3f be
       -0.13410436 0.14858773 -0.3171293 -0.18677051
0001c0 65 a3 46 be 00 7c 09 3b 08 5b 51 3d be c4 a9 be
       -0.19398268 0.002097845 0.051112205 -0.33157915
0001d0 9c 9b bd 3d f3 63 ad 3e a0 c6 23 3c 63 13 8e 3e
       0.09258196 0.33865318 0.009996086 0.27749166
0001e0 a8 9a b8 3d 20 a9 28 3c ba 8b 6e be 08 ce 93 3d
       0.09013873 0.010294229 -0.23295489 0.07217032
0001f0 c5 7d 1d be dd 49 b0 be 85 a5 97 3e 86 32 dd bd
       -0.15380009 -0.34431353 0.2961847 -0.10800652
000200 11 37 0f be b8 ec 1b bd b5 c6 80 3e fe a5 1e be
       -0.1398585 -0.03806755 0.251516 -0.15493008
000210 94 6e 9c be c0 70 cf 3c 9f 7c 97 3e ae 7c e1 bd
       -0.30553114 0.025322318 0.29587266 -0.11010109
000220 88 f9 18 3d 5d ef 91 3e 10 34 a8 bd fe 5e b0 be
       0.037347347 0.28502932 -0.08213055 -0.34447473
000230 66 19 7b 3e d6 69 a3 be 05 1b 66 be d5 aa a6 be
       0.24521407 -0.31916684 -0.22471245 -0.3255221
000240 db 9d 8f be ce e6 51 3e f9 09 3a be 42 20 86 be
       -0.28050122 0.20498201 -0.18167867 -0.26196486
000250 1a ee 2b 3e dc cc 80 be c0 e0 b8 bb 98 c7 9d 3d
       0.16790047 -0.25156295 -0.0056420267 0.07704085
000260 d6 f9 4d be c5 01 81 be a0 d2 d5 bc 8c ac 9d bd
       -0.20114836 -0.25196663 -0.02610141 -0.07698926
000270 76 4f 5b be 00 86 1b bd c4 4f bf 3d 44 a3 c7 3d
       -0.2141703 -0.03796959 0.09341386 0.09747937
000280 80 c5 17 bb 06 de 6c 3e 70 40 78 be 70 02 ef bd
       -0.002315849 0.2313157 -0.24243331 -0.11670387
000290 98 f5 62 be 70 34 3f be b0 83 76 3d 92 85 7b 3e
       -0.22163999 -0.18672347 0.06018418 0.24562672
0002a0 bd 0c 1a be d5 0e 95 3e fd 92 a6 3e e0 7a 8e bc
       -0.15043922 0.29112878 0.32534018 -0.017392576
0002b0 ea 5a 1c 3e a0 c6 12 3c 41 6b a6 3e 68 24 ab bd
       0.15269056 0.008958489 0.32503703 -0.08356553
0002c0 82 86 69 3e d2 d0 5d 3e 07 22 b4 3e e0 cc 90 be
       0.22805217 0.2166169 0.3518221 -0.28281307
0002d0 51 a4 67 be a2 2a 33 3e 23 2f 36 be 49 b0 a4 be
       -0.22621275 0.17496732 -0.17791419 -0.32165745
0002e0 32 2d 24 3e e8 f1 13 3e 57 c7 7c be 82 3f a7 be
       0.16032866 0.14447749 -0.24685417 -0.3266564
0002f0 77 31 93 3e 9f 80 82 3e 59 f5 0e be 40 ca 7d bd
       0.28748676 0.25488755 -0.1396078 -0.06196046
000300 0f 22 b0 3e 45 2c 8b 3e fe ac 6a 3e 33 27 ad be
       0.34400985 0.27182212 0.22917554 -0.3381897
000310 75 f9 a5 3e 90 06 ca bc 56 65 77 3e f6 2d 73 3e
       0.32416883 -0.024661332 0.2415975 0.23748001
000320 07 a5 8f 3e 60 ea 23 3d f8 f1 a9 be 4c 45 97 3d
       0.28055593 0.04001844 -0.3319242 0.07386264
000330 b8 39 c6 bd d4 7e b1 bd 08 b2 31 bd 1c 3e f8 3d
       -0.09678978 -0.08666769 -0.043382674 0.121212214
000340 8e a9 33 3e 24 05 28 be b1 69 4e be d2 de 5d 3e
       0.17545149 -0.16408211 -0.20157506 0.2166703
000350 a0 59 7e bc 4c 18 91 bd 98 f9 47 bd 58 0d a8 3d
       -0.015524298 -0.070847124 -0.048822016 0.0820567
000360 06 3f 51 3e 16 8c 3e 3e 9a 6a 49 be 7e ae ac be
       0.20434198 0.18608126 -0.19669572 -0.33726877
000370 3c 44 e4 3d 09 5c 76 be ba bc 4a 3e 07 ed 19 be
       0.11145827 -0.24058546 0.19798556 -0.15031825
000380 a2 7b 59 3e 38 fc 2a be 4e 62 27 3e 38 92 9f 3d
       0.21238568 -0.16697776 0.16346094 0.07791561
000390 04 53 bf bd bc b0 a6 be b6 97 79 3e 80 d5 b4 bb
       -0.09342006 -0.32556713 0.2437428 -0.0055186152
0003a0 80 c6 87 bd 46 2f 0f 3e c2 7c a0 be ec 09 d2 bd
       -0.06629658 0.13982877 -0.31345183 -0.10255799
0003b0 f3 49 9d 3e 38 b5 73 3d aa 0e 32 3e 20 ef 53 bc
       0.3072048 0.059498996 0.17388406 -0.01293543
0003c0 d6 5f 80 be 42 99 b3 be d8 fd 9c be c8 a9 82 3d
       -0.25073117 -0.35077864 -0.30662417 0.063800395
0003d0 63 1a 5c be 70 d7 e1 3d 80 dd 7d bb 08 39 0a 3d
       -0.2149444 0.110274196 -0.003873676 0.033745795
0003e0 78 1e ba bd ef f3 2a be 1c 2c 93 be e5 ec aa 3e
       -0.09087843 -0.16694616 -0.2874459 0.3338386
0003f0 e8 97 79 bd c6 95 58 3e 3c 94 82 be ce fa f7 bd
       -0.060935885 0.21150884 -0.2550372 -0.12108384

mean.full.bias f4 [16]
000000 98 1a 00 3d f9 73 01 be 88 67 bc bd e4 0c 1d 3d
       0.03127536 -0.12641896 -0.091994345 0.03834237
000010 4f 9c 08 3e 58 31 bb 3c 90 86 5e 3c 70 84 3a 3c
       0.13340877 0.022850677 0.013581887 0.011384115
000020 e0 91 04 3d ce cb a6 3d e1 78 c6 bd 80 7b b6 bb
       0.03236568 0.081443414 -0.096910246 -0.0055689216
000030 08 bb 9a bc 2f 91 2b 3e 91 8c 16 be 60 5b bc 3b
       -0.018888012 0.16754602 -0.1470206 0.0057481974
