best_model/acc/cora_dropout=0_wd=0.0005_b=256_lr=0.01_walk=3_best_model.pt (torch_old, 98064 bytes, 12 tensors)

aggregator.full.weight f4 [16, 1433]
000000 64 7c 49 bd 81 56 ea bd 8d 86 b7 ba a1 0c 17 3f
       -0.049190894 -0.114422806 -0.0014001891 0.59003645
000010 77 ab e5 be d2 9a 92 bc 04 06 7c bc 19 21 c9 bc
       -0.4485738 -0.01789609 -0.015382294 -0.024551915
000020 22 e9 34 bd 2e 4f d1 bc 61 df 81 bc 3a 91 d0 bc
       -0.044167645 -0.025550451 -0.015853586 -0.025459874
000030 50 0b 81 bd aa 0e 52 bd ec a1 4c bc 10 5b 84 3d
       -0.06300986 -0.051283516 -0.012489777 0.06462681
000040 68 e8 b3 bd 3b bd 24 bd 38 11 98 bd d7 2a c8 bf
       -0.08784562 -0.040219527 -0.07425159 -1.5638074
000050 ab 73 42 bc ec 26 a6 3d 0c 2c 47 bc ba 54 a3 3d
       -0.011868398 0.081128925 -0.012156498 0.07975145
000060 33 49 f4 3c d7 d5 3b 3e 8f e7 7f bd a0 b6 c9 bc
       0.02982006 0.18343292 -0.06247669 -0.024623215
000070 8b 60 76 bc fa 22 2d 3e f9 00 1e bd 30 29 71 3b
       -0.015037666 0.16907874 -0.038575146 0.0036798231
000080 9a 14 20 bd 5b 22 63 bb ed 9d 4f bd 82 cd 6c bc
       -0.039082147 -0.0034657929 -0.05068772 -0.014453294
000090 58 56 82 bc 62 22 08 3d 72 81 e8 bd 79 60 33 3d
       -0.015910313 0.033235915 -0.11352815 0.043793175
0000a0 71 1a 17 be 3f f4 f4 3d 53 3b 2c bd c8 c9 ac bc
       -0.1475618 0.11960649 -0.042048763 -0.02109231
0000b0 6c 98 13 be f4 d6 6b 3d 4a 9e 86 3c a8 09 eb 3d
       -0.14413613 0.057578042 0.0164329 0.11476451
0000c0 86 15 f7 bd 4a fa 47 3e 1a b2 83 bb b7 ac 8d be
       -0.12064652 0.19529071 -0.004019034 -0.27670833
0000d0 0a 99 40 3f 13 86 da bc 8a 0c a9 bc 42 aa 0a bc
       0.7523352 -0.02667526 -0.020635862 -0.008463444
0000e0 81 18 b8 3e fd 89 f2 3c f6 d1 c9 bd 57 5b 0a bd
       0.35956195 0.029606814 -0.098545 -0.033778515
0000f0 d5 35 26 3d 59 55 8a bc 53 7b 11 bc 75 16 54 3e
       0.040578682 -0.0168864 -0.0088795 0.20711692
000100 be 61 e1 3d 60 74 89 bc 2c 4c 7e bc 10 bf c0 bd
       0.11004971 -0.016779125 -0.0155210905 -0.09411442
000110 42 d5 14 bc 1c 4f c9 3c c2 1b 23 3e b6 ef c2 3d
       -0.009084048 0.024573855 0.15928558 0.095183775
000120 67 9c 30 bd 59 82 45 bd 9d 86 1c bb 00 ee 50 bd
       -0.043117907 -0.048220012 -0.0023883947 -0.051008224
000130 e9 2f 12 bd ce 95 ab bd 1c fc f0 bd a4 66 c7 3c
       -0.035690222 -0.08378182 -0.11766836 0.024340935
000140 e2 e7 9b bb 9a f3 1f 3e be e4 e0 bd 1e fb d6 bb
       -0.004757867 0.1562027 -0.10981129 -0.006560697
000150 a6 f8 8d bc 50 e2 2d be 87 9b 98 3d 20 4c 86 bc
       -0.017330479 -0.16980863 0.074515395 -0.016393721
000160 c0 58 9d bd ce 59 f1 3d 86 87 ed bc f5 8f b1 3d
       -0.07682943 0.11784707 -0.028995287 0.08670036
000170 6d c3 04 bd fa 7a 88 bb 17 1f 35 3d 9d 37 3f bd
       -0.032412935 -0.0041650506 0.044219103 -0.046683896
000180 2f fe c1 3d 8d 39 a4 ba be af 85 3e 52 12 7e be
       0.0947231 -0.0012529359 0.26110643 -0.24811676
000190 53 ad d8 bc 7b a4 9b bc 61 39 fd bc e3 a2 9a bd
       -0.026449835 -0.018999329 -0.03091115 -0.075505994
0001a0 83 ca 28 3e 59 c3 00 bd 7f 0e 8c bc a2 b5 5a bd
       0.16483502 -0.031436298 -0.017096756 -0.053395875
0001b0 c4 3f 28 bd dc 77 49 3d bb 5d de 3c 8b b5 cf bc
       -0.041076437 0.049186572 0.027144304 -0.025355121
0001c0 af 13 b6 3a 62 dd 79 bb f9 5c e2 bc 44 f2 4f bd
       0.0013891364 -0.003812634 -0.027632223 -0.050768152
0001d0 b8 35 55 3c 6c f0 ed 3b 22 5e 8b bc 41 90 4d bc
       0.013013296 0.0072613265 -0.01701266 -0.0125466
0001e0 d9 1b ce bb d2 15 ab bc 4f 24 88 3d f1 ac 64 bd
       -0.006289941 -0.020884428 0.0664755 -0.055828992
0001f0 3a ce b1 bc c3 7b a3 3d e4 58 90 3d 61 dc a1 3d
       -0.021704782 0.0798259 0.070482045 0.07903362
000200 7b c0 1f 3d 32 88 44 3c b0 88 48 be 03 0e 47 bc
       0.039001923 0.011995362 -0.19583392 -0.012149337
000210 4f b2 ac 3d 8e 08 9f 3e 2b 58 c1 bc a0 cb 73 3d
       0.08432447 0.31061214 -0.023601612 0.059520364
000220 57 44 96 bd 24 06 4d 3d 37 ed 9a bc f6 24 35 bc
       -0.073372535 0.050054684 -0.018911941 -0.011056175
000230 b6 cc 03 be 3d 7b c7 bc f4 58 71 3b 89 12 be bc
       -0.1287106 -0.024350757 0.0036826702 -0.023202198
000240 12 71 03 bd 82 1e c2 bc 4a f3 a1 be ac 8e 83 3c
       -0.032090254 -0.023696188 -0.31630927 0.016059242
000250 20 1c 0b bd af a9 ea bd 4a 21 ca bc ae 7b ab 3d
       -0.03396237 -0.11458146 -0.024674077 0.083731994
000260 0a 32 df 3c 4a 5a 82 bc 1f 21 ea bc 12 7f 9c 3d
       0.02724554 -0.015912194 -0.028580246 0.07641424
000270 a6 8a 18 bc 97 ec 0e be 86 e3 81 bc bb d8 38 bc
       -0.0093104 -0.1395744 -0.015855562 -0.011282141
000280 c3 66 3b bd 22 dc ac 3d 6d d2 09 3e a5 03 2c bd
       -0.045752298 0.084404245 0.13459177 -0.041995663
000290 b5 45 ed bc b7 a7 14 3e 6e 84 91 bc e2 5d b6 bc
       -0.028963903 0.14517103 -0.017763343 -0.022261564
0002a0 89 1c 10 be 03 07 02 bd 29 6a 3c bc 89 73 6f bd
       -0.14073385 -0.03174497 -0.01149992 -0.058459792
0002b0 3e 5a cb bd 4c 2c 4c 3d a9 0f 17 bd 16 26 ec bb
       -0.09929322 0.049846932 -0.03688017 -0.0072066886
0002c0 fd 25 93 bd ba 66 9a bc 04 2e 34 bd 08 82 82 3e
       -0.0718498 -0.018847812 -0.043989196 0.2548983
0002d0 6a 57 bf 3b b0 ab 57 bc 83 ef 1b bd a4 fd 97 bc
       0.005839278 -0.013163492 -0.038070213 -0.018553562
0002e0 41 47 5e 3d 41 41 a9 bc ed 5a c5 3c 33 6b 66 3b
       0.05426717 -0.020660998 0.024091208 0.003515911
0002f0 c8 1c 31 bd 34 21 ac 3d 65 a1 43 bc 6f 2d 62 be
       -0.04324034 0.084047705 -0.011940335 -0.22087644
000300 7a d9 0f be 9f 2c 0d 3c cb 63 ca 3c a5 e0 cd 3d
       -0.14047804 0.0086165955 0.024705788 0.10052613
000310 3e 78 3e bd 8c aa 0b 3e ed 5f b6 bc 40 2e 2d bc
       -0.04650139 0.13639277 -0.022262538 -0.010570109
000320 5d fa d0 bc 78 32 c5 bc d5 ba fb 3d a5 9a 7c bd
       -0.025510008 -0.024071917 0.12291495 -0.061670918
000330 ac cc 87 bd 9f 87 b3 3f 94 ab fb bb d1 db 74 bd
       -0.06630835 1.4025763 -0.007680366 -0.059779946
000340 b9 aa 91 bd 96 50 cd bc dd 5c 80 bc e9 68 3f 3f
       -0.07112641 -0.02506284 -0.01566928 0.74769455
000350 1f d7 1d 3a 2e 38 8d bb 40 9d 95 3d bb dd 66 3d
       0.000602113 -0.0043096757 0.07305384 0.056363802
000360 8f bb c8 bc 1f ca 13 3e 1f 63 f4 bc 6d b4 83 3a
       -0.024503497 0.14432572 -0.02983242 0.0010048278
000370 56 24 9f 3b bd 8f 5f 3b b7 8f be 3b 1b c2 e2 bc
       0.0048566265 0.0034112774 0.005815472 -0.027680447
000380 98 21 3e bd db 69 b1 3c 9e 32 80 3c 3e 91 a0 bc
       -0.046418756 0.021656921 0.015649136 -0.019600507
000390 8f c7 a4 3c ec 9c 1f 3d 11 cb a7 bc c2 65 c8 3d
       0.020114688 0.03896801 -0.020482572 0.09785034
0003a0 f3 73 d6 bc 9e 35 a6 3d a0 ca 50 bc d1 94 44 3d
       -0.026178336 0.081156954 -0.012743622 0.047993485
0003b0 7c 61 3c 3b 80 4e d7 3e 2e 31 34 be 38 e9 19 3c
       0.0028744629 0.42052078 -0.17596886 0.009393983
0003c0 76 58 c5 bc 3c 87 a9 3a b6 88 da bc 62 e2 8a bc
       -0.024090033 0.001293398 -0.026676517 -0.01695365
0003d0 05 47 a9 bd 25 01 00 3e 49 78 2e bb d7 f0 25 3d
       -0.08265499 0.12500437 -0.0026621989 0.040512886
0003e0 6d 22 11 bd 4a 1c 02 3c e6 9e b2 3d 85 9e ff 3c
       -0.03543322 0.007941315 0.08721714 0.031203518
0003f0 70 2a c3 bc 45 68 b3 3b f2 9b ae bb 44 23 d5 3d
       -0.023823947 0.0054750764 -0.0053286487 0.10407117

aggregator.full.bias f4 [16]
000000 42 cc 02 40 64 48 bc 3f 40 7b 0a 40 09 ad 1d 40
       2.043717 1.4709592 2.1637726 2.4636862
000010 57 3b 11 40 73 12 fb 3f c1 bd a4 3f b4 8c 48 be
       2.2692468 1.9615005 1.2870408 -0.19584924
000020 35 44 a5 be da 05 a2 be 56 53 45 be ae 85 a2 be
       -0.322786 -0.3164509 -0.19270071 -0.31742615
000030 63 39 a2 be 0c f9 a3 be f7 12 4f be 62 26 ab be
       -0.31684408 -0.32025945 -0.20222078 -0.3342772

lstm.lstm.weight_ih_l0 f4 [28, 16]
000000 74 28 25 be 22 0e 67 3e d9 4d 28 be cf 47 b9 3e
       -0.16128713 0.22563985 -0.16435947 0.36187598
000010 10 b1 a6 3c 70 27 4d 3d 30 60 77 3d fc b1 ad be
       0.020348102 0.05008644 0.060394466 -0.33924854
000020 b0 b0 ee bc 56 a2 6b 3e 68 09 75 bd 88 87 1d 3d
       -0.029136986 0.23011145 -0.059823424 0.03845933
000030 7d 77 8e 3e 57 47 a7 3e 33 4c b3 be 1a 66 52 3e
       0.27825537 0.32671615 -0.35019073 0.20546761
000040 20 37 bb 3d a8 12 c2 3d 51 ad 08 be 61 53 5c be
       0.09141374 0.09476215 -0.13347365 -0.21516182
000050 8b 5c 73 be bc 64 8b bd 50 55 31 3d ed 6a 3b be
       -0.23765771 -0.06806323 0.04329425 -0.18302508
000060 9e 07 4c 3e 79 1b bc 3e 9a 7c 02 3e 5e 8a 74 3e
       0.1992478 0.3673971 0.12742844 0.23880908
000070 61 52 89 3e c8 6f 0e be ff f2 b1 3e 56 e7 88 be
       0.26820663 -0.13909829 0.34755704 -0.26738995
000080 7e a4 90 be 78 b0 0e bd e1 b1 35 be 48 ec 95 3d
       -0.28250498 -0.034836262 -0.17743637 0.07320458
000090 85 67 83 3e 9b 89 a5 3e 43 77 80 3e a4 eb a0 3d
       0.25664917 0.32331547 0.2509099 0.07857445
0000a0 db 43 8f 3e f0 9c d4 3d 30 35 61 be 40 41 7a 3d
       0.27981457 0.10381496 -0.21992946 0.061097383
0000b0 20 76 d1 3d 81 1b a5 3e 60 de 90 bc 24 07 97 be
       0.10227609 0.32247546 -0.017684162 -0.29497635
0000c0 c0 26 eb 3b 85 23 5f be 20 27 81 bd 34 b1 33 be
       0.00717625 -0.21790893 -0.063062906 -0.17548066
0000d0 38 df 47 bd 92 ee 22 3e 28 99 0d bd 27 6f 07 be
       -0.048796862 0.1591132 -0.03456989 -0.13225995
0000e0 7b 43 73 be 1a 7a 18 be 08 0b 6d bd 9c 98 d2 bd
       -0.2375621 -0.14890328 -0.05787185 -0.10283014
0000f0 00 8b b7 3c de 5f 52 3e d0 28 b1 3d 20 a4 be 3d
       0.022405148 0.20544383 0.086503625 0.09308648
000100 39 c5 b9 3e f3 b2 13 be 1b c2 a1 3e 07 cf ac be
       0.3628328 -0.14423732 0.31593403 -0.337517
000110 00 96 4f 3a 74 04 98 bd cd 6f b4 3e 02 64 11 3e
       0.0007918775 -0.07422724 0.35241547 0.14198306
000120 cb fb a4 3e a7 72 b0 be 2a 84 81 be a0 0e 59 bd
       0.32223353 -0.34462473 -0.25296146 -0.052992463
000130 00 ed d3 ba ae 11 2b 3e c9 a9 0d be 3b 31 b2 3e
       -0.0016168654 0.16705963 -0.13834299 0.34803185
000140 c0 09 09 bc d1 02 ad be c0 31 50 bd 22 f6 46 3e
       -0.008364141 -0.3379121 -0.050828695 0.1942983
000150 4a 27 3d 3e de b2 75 3e 15 2a bc 3e 6b 1e b4 be
       0.18472019 0.23994014 0.36750856 -0.35179457
000160 0d 43 11 be d2 58 50 3e 28 fb 26 bd 89 12 86 3e
       -0.14185734 0.20346382 -0.040766865 0.26186016
000170 21 eb 8f 3e 3a c9 46 3e d2 d6 63 3e 7f f6 9d be
       0.28109077 0.194127 0.22249916 -0.30852124
000180 5d 64 78 be 51 57 b1 3e e8 0f a6 bd 92 d2 52 3e
       -0.24257036 0.3463693 -0.081085026 0.20588139
000190 ea cd 07 3e 13 eb 83 3e fb bf ad be f0 18 69 3d
       0.13262144 0.25765285 -0.33935532 0.056908548
0001a0 bc 6a 9d 3d 98 2f 9e be 99 f0 5f be e0 7b 19 bd
       0.076863736 -0.30895686 -0.21869124 -0.037471652
0001b0 72 f2 49 3e 60 96 96 3d c8 ec b4 bd 13 6f 34 be
       0.19721392 0.073529005 -0.08834225 -0.17620496
0001c0 fc 56 91 3d de e1 a8 be 91 5c ab 3e e5 a9 84 3e
       0.07096669 -0.32984823 0.3346906 0.2591087
0001d0 8d 54 b6 3e 47 68 9e 3e f8 8f e9 3d 93 b4 6c be
       0.35611382 0.30938932 0.11404413 -0.23115759
0001e0 6a a3 74 3e cd c5 bb 3e da 66 0a 3e 18 7a 36 3d
       0.23890463 0.36674348 0.13515797 0.04455003
0001f0 68 e6 d1 bd b6 e1 03 be 00 51 2a bd e5 0f a4 be
       -0.10249025 -0.1287907 -0.041581154 -0.32043377
000200 b4 6f d0 3d 94 90 b8 be 28 1c 04 bd 32 e8 86 be
       0.10177556 -0.36047804 -0.032253414 -0.26349026
000210 11 54 b8 be d1 fd 5a be 16 79 0f 3e e0 61 ac bc
       -0.36001638 -0.21385886 0.14011034 -0.021042764
000220 86 36 7d be 66 79 11 3e 90 9f db 3c a0 b2 b0 3d
       -0.2472783 0.14206466 0.026809484 0.0862782
000230 f2 b8 3c 3e 80 f8 65 be 09 be 89 be 7b 36 ac 3e
       0.18429926 -0.22458076 -0.26902798 0.33635315
000240 19 85 99 3e c8 7c a1 3d e9 00 a9 3e e0 95 e3 3c
       0.29984358 0.07885128 0.33008507 0.027781427
000250 82 cd 08 3e d6 99 69 3e 70 64 e6 3c 78 78 0b 3d
       0.13359645 0.2281259 0.028124064 0.034050435
000260 60 a3 46 bc 3e 0b 6e 3e 60 19 eb 3c 98 62 e6 3d
       -0.012123913 0.23246476 0.028698623 0.11249274
000270 4a 70 23 be cd cd a2 3e 5b 3c 8c 3e 2e 66 4d be
       -0.15960804 0.3179764 0.27389798 -0.2005851
000280 ee 74 5b 3e c0 73 95 3b 96 1c 1a 3e 80 02 5d 3c
       0.21431324 0.0045609176 0.15049967 0.013489366
000290 fa 28 aa be 21 39 86 be f4 b0 84 be 4a 67 1d be
       -0.33234388 -0.2621546 -0.25916255 -0.15371433
0002a0 d5 b0 af be ef 40 a7 3e 40 5a 3c 3d f2 fc a8 be
       -0.343146 0.32666728 0.045984507 -0.33005482
0002b0 54 8c 96 3d 9e 43 93 be 58 74 84 3d 4e 74 74 3e
       0.07350984 -0.28762525 0.06467503 0.23872492
0002c0 f3 b2 c0 3e be 58 09 3e a4 3a 8a be 30 7e 9f 3c
       0.37636527 0.13412759 -0.26997864 0.01946935
0002d0 a2 ab 72 3e b6 0e 67 3e 72 61 08 3e b0 3a cf bd
       0.23698285 0.22564206 0.13318422 -0.101186156
0002e0 9a 76 3d 3e 80 36 51 3c 68 d0 8f 3d e0 21 56 3d
       0.18502274 0.0127693415 0.07022172 0.0522784
0002f0 10 75 2d bd eb 16 9e 3e fd fb 8a 3e d8 42 70 be
       -0.042347968 0.3087686 0.27145377 -0.23462999
000300 cb cd 98 3e 17 ab b4 3e 98 46 b1 be 05 34 85 3e
       0.29844508 0.3528678 -0.3462417 0.2601625
000310 88 88 cf bd 49 2b 1b be 38 bd 14 3d da 2c 3b 3e
       -0.10133463 -0.1515323 0.036313266 0.18278828
000320 f9 72 b1 3e 38 4d 48 3d d0 d2 14 bd 94 f5 a4 be
       0.3465803 0.048901767 -0.03633386 -0.3221861
000330 f4 60 a0 be 53 78 79 be 78 f0 a6 3d 44 dd 65 be
       -0.3132397 -0.24362306 0.081513345 -0.22447687
000340 90 b2 7e 3d 52 62 05 3e 57 ef ba 3e 58 db 59 bd
       0.06218201 0.13025787 0.36510727 -0.053187698
000350 00 3c f2 bd 10 51 5b be 1a f1 51 3e 77 9c 40 be
       -0.1182785 -0.21417642 0.20502129 -0.18809687
000360 44 be f2 bd 5b c6 99 3e d8 48 45 3d 9f 37 8d be
       -0.118526965 0.30034146 0.048165172 -0.27581498
000370 00 f7 87 bd a2 73 9b be a7 83 87 be a0 1a 18 3c
       -0.066389084 -0.30361658 -0.2646763 0.009283692
000380 f4 eb b9 be 3c fe e4 bd d8 29 c6 bd 3a b7 9f be
       -0.3631283 -0.11181304 -0.0967595 -0.31194478
000390 72 e0 a0 be 93 ae b6 3e 4c 34 94 be 47 92 9c 3e
       -0.31421238 0.35680065 -0.2894615 0.3058035
0003a0 95 7c b8 3e 83 90 9e 3e 0f d2 90 3e 11 23 80 3e
       0.3603255 0.3096963 0.28285262 0.25026754
0003b0 2a fa a9 be 29 ff 9e be a8 99 f0 bd 3b 28 aa 3e
       -0.33198673 -0.31054047 -0.117480576 0.33233818
0003c0 00 86 13 3c 13 fa 9f be a7 56 88 3e 4f d4 81 3e
       0.009004116 -0.3124548 0.2662861 0.2535729
0003d0 35 66 a3 3e ab bf a2 3e 34 89 9f be 22 88 70 3e
       0.31913915 0.31786856 -0.31159365 0.2348943
0003e0 f0 0b 8b 3c 65 e3 4c be 14 30 8a bd c0 3c 6e 3c
       0.016973466 -0.20008619 -0.067474514 0.014540851
0003f0 d5 56 06 be 70 bb 97 be a6 a3 02 3e 2b 1b 83 be
       -0.13119061 -0.2963519 0.1275774 -0.25606665

lstm.lstm.weight_hh_l0 f4 [28, 7]
000000 f4 fa c8 3d 31 f8 3b be 11 da bb 3e bb d4 1e be
       0.098134905 -0.18356396 0.3668981 -0.15510838
000010 57 a9 40 be 8f c3 ba be 1a e0 0c 3e 01 49 97 be
       -0.18814598 -0.36477324 0.13757363 -0.29547885
000020 60 5e 7e 3d d8 20 94 be 99 95 a3 3e 93 a8 ac 3e
       0.06210172 -0.28931308 0.3195007 0.33722362
000030 db e0 6f be e6 b2 00 3e ad 66 9b 3e 71 b3 8e be
       -0.2342562 0.12568244 0.30351773 -0.27871278
000040 a0 9e 34 3c 01 88 ab 3e 9c ef b7 bd c2 4e 56 3e
       0.011024147 0.335022 -0.08981249 0.20928481
000050 78 9b 04 be da 10 89 be 87 a5 9f be d9 79 96 be
       -0.12949932 -0.2677067 -0.31180975 -0.29389837
000060 8d 36 bd be 6e 26 63 3e 7e 51 01 3e 62 e5 6f 3e
       -0.3695568 0.22182629 0.12628743 0.23427346
000070 bc 3d 83 3d b9 03 8c be 4f 68 8c be 1c 53 be be
       0.06408259 -0.2734659 -0.2742333 -0.37172782
000080 40 5e d8 3c b8 ca f9 3d 00 ec 0a 3a 87 a8 94 3e
       0.02641213 0.12196869 0.0005299449 0.29034826
000090 a3 c8 98 be 83 2a 89 3e 2c 2b 9c 3d d3 fb bc be
       -0.29840574 0.26790246 0.07625422 -0.36910877
0000a0 d4 58 c6 bd 6f 3c 84 3e db d5 b0 be bd 51 ab 3e
       -0.09684911 0.25827357 -0.3453816 0.334608
0000b0 d3 c7 24 be 58 25 26 3d 70 5e 37 bd 67 f0 ba 3e
       -0.16091852 0.040562958 -0.044767797 0.36511537
0000c0 4c bb a8 3d da be 3c 3e d8 41 a7 3d dd da bc be
       0.08238849 0.18432179 0.081668556 -0.3688573
0000d0 8c fb b6 be 9e a0 72 3e 87 bf 80 3e 5f bc b4 3e
       -0.3573879 0.23694083 0.25146124 0.35299966
0000e0 32 2b 25 3e 2a b1 62 3e e2 c7 6e 3e c8 dd 7a bd
       0.16129759 0.22137895 0.23318437 -0.061246663
0000f0 5e 30 25 3e 68 cd cb 3d a7 80 5e be b9 1e bf 3e
       0.16131732 0.099512875 -0.21728764 0.37328127
000100 95 2f b9 be f6 63 19 3e 44 8b f0 3d 94 92 fc bd
       -0.36169115 0.14979538 0.11745313 -0.12332645
000110 70 82 2d 3d a3 e7 ae be 4e c0 61 3e 40 04 c5 3b
       0.042360723 -0.341611 0.22046015 0.0060124695
000120 40 38 9e 3d 61 a8 89 3e 48 f5 31 3d 3e e1 6e 3e
       0.077255726 0.26886275 0.04344681 0.2332811
000130 c0 f8 61 3c 37 e8 83 3e 02 89 7e 3e 70 63 86 3c
       0.013792217 0.25763103 0.24856952 0.016404837
000140 00 03 0e 3d fd b3 99 3e 80 e1 99 be 92 6b 76 be
       0.03467083 0.30020133 -0.30054855 -0.24064472
000150 2c 0c 8b bd 1e 7a 39 be 15 96 96 3e 8d e1 36 be
       -0.06789431 -0.1811299 0.29411379 -0.17859478
000160 d3 e2 a5 3e 96 c9 9d be af d0 96 3e 70 67 bc 3d
       0.32399616 -0.3081786 0.29456088 0.09199417
000170 54 91 93 be 40 ca 80 bb 96 13 26 3e ec b0 95 be
       -0.28821814 -0.00393036 0.16218409 -0.29236543
000180 54 71 a7 bd 3c 20 47 be 62 a7 18 3e b2 91 14 3e
       -0.081759125 -0.1944589 0.14907601 0.14508703
000190 fb 8d 14 be 00 2e 19 bc 48 2b a9 bd 70 e4 e3 bc
       -0.14507286 -0.009349346 -0.08260208 -0.027818888
0001a0 5b f7 77 be 78 eb 5f 3d e0 53 7a bc e8 ad 5b bd
       -0.24215452 0.05466792 -0.015278786 -0.053632647
0001b0 9e 22 6e 3e 13 35 c1 3e 16 8a 55 3e fd 1c bd 3e
       0.23255393 0.37735805 0.20853457 0.3693618
0001c0 70 c6 a9 3d 19 7b ac 3e d0 63 df bd ea c0 98 be
       0.08289802 0.33687666 -0.109077096 -0.29834682
0001d0 a0 45 8c 3d 2d 7b 9b 3e 86 f7 87 be bd d6 15 be
       0.068492174 0.30367413 -0.26556033 -0.14632697
0001e0 a5 37 a5 3e bd 0b 0e be 2f 70 c1 be e9 5f 4a be
       0.32269016 -0.13871665 -0.37780902 -0.1976315
0001f0 96 18 05 be d6 ec b7 be 5c a7 ad 3d 7c fa e8 3d
       -0.1299766 -0.3592288 0.08479187 0.11375901
000200 28 e9 b6 be 94 86 b3 be 02 49 55 be 48 83 8b be
       -0.3572476 -0.35063612 -0.20828632 -0.27248597
000210 be 79 1c 3e b1 51 bc 3e ea d6 55 3e a2 97 1c be
       0.15280816 0.36781076 0.20882764 -0.15292218
000220 6a 7e 13 3e b4 7f 9a be 0c 77 ff bd 00 20 be 38
       0.14403692 -0.30175555 -0.12473878 9.0658665e-05
000230 90 0a b9 bc 35 9f 8a 3e ba 1f 6f 3e 80 fa a7 3b
       -0.022588044 0.2707459 0.23351946 0.0051262975
000240 99 ac 28 be ec 32 98 bd 16 f7 82 be 20 48 64 bd
       -0.16472091 -0.074315876 -0.25579137 -0.055732846
000250 8e 88 75 3e 95 90 ad be d6 1f 3d 3e b2 56 3e be
       0.23977873 -0.3389937 0.18469176 -0.18587759
000260 09 75 bf 3e 1d 24 82 3e 89 dc bf 3e 90 36 ac be
       0.37393978 0.25418177 0.37472942 -0.33635378
000270 f2 09 91 be 47 44 8f 3e ae ce 39 3e a0 73 c2 bd
       -0.283279 0.2798178 0.18145248 -0.0949471
000280 00 11 1f bc 26 5f 93 be 76 e6 4f 3e 5d a3 89 3e
       -0.009708643 -0.2878353 0.20302758 0.2688245
000290 9b ab 1c be 60 31 5d bc 5b 19 8b 3e b1 4c bf 3e
       -0.15299837 -0.013500541 0.27167782 0.37363198
0002a0 6c 51 a8 be e0 e1 1e bd 30 0d 8d bc 83 f7 9f 3e
       -0.3287462 -0.03878963 -0.017218202 0.31243524
0002b0 d7 9f 0d be 86 37 17 3e 1f 55 84 3e 62 31 9b be
       -0.13830505 0.14767274 0.25846192 -0.30311114
0002c0 c3 99 8c 3e e4 6f 9b 3d d9 79 b4 3e a7 b2 b9 be
       0.2746106 0.07589701 0.35249212 -0.36269113
0002d0 00 de 14 3c d0 e1 a2 be 80 c3 5e 3c 61 27 3f be
       0.009086132 -0.31812906 0.0135964155 -0.18667366
0002e0 df 9e a9 3e 65 f6 a4 3e 8e a9 77 be 3c 5f 82 3d
       0.33129022 0.32219234 -0.24185774 0.06365821
0002f0 e2 eb 7a 3e 8d 4f 82 be fd 1d 4a be 94 a9 de bd
       0.24504045 -0.25451317 -0.19738002 -0.10872188
000300 02 e7 24 3e 48 88 45 be ec a9 91 be ee ba 1c 3e
       0.16103747 -0.19290268 -0.28449953 0.15305683

lstm.lstm.bias_ih_l0 f4 [28]
000000 dd b7 19 be c0 c1 35 3d 0a 4e 1e 3e 9c 84 ee bd
       -0.15011545 0.044374228 0.15459457 -0.11646387
000010 ee 39 58 3e 68 e4 21 3d d7 d4 87 3e f1 a8 b4 be
       0.21115848 0.039524466 0.2652957 -0.35285142
000020 d1 d6 ac be 6a c1 03 3e 40 cd 8f bb 31 b9 b9 3e
       -0.33757642 0.1286675 -0.0043884814 0.36274102
000030 be 5c 3e 3e 56 4b 1d 3e 08 88 56 bd f7 9b a2 3e
       0.18590066 0.1536077 -0.052375823 0.31759617
000040 40 32 02 bc e6 a2 19 3e 34 c4 7f be d7 67 bb 3e
       -0.007946551 0.15003547 -0.2497719 0.3660266
000050 65 d3 a7 3e e1 70 0b be c2 e2 28 3e ae f9 30 3e
       0.3277847 -0.13617279 0.16492751 0.17282745
000060 79 59 ab 3e 67 92 54 be 2e fb 02 3e bf 96 21 be
       0.334667 -0.20758973 0.1279113 -0.15780161

lstm.lstm.bias_hh_l0 f4 [28]
000000 a1 b5 88 3e 51 08 c0 3e 03 cc 9a 3e d4 77 a1 3d
       0.26701072 0.37506345 0.30233774 0.078841835
000010 96 da 1c 3e 21 32 79 be fa d4 54 3e 00 c1 2b bc
       0.15317759 -0.24335529 0.20784369 -0.0104830265
000020 a0 1c 45 3d c4 e4 9b 3d ac 4e c2 3d 71 17 bd 3e
       0.048123002 0.07611993 0.09487662 0.36931947
000030 71 b9 9b 3e 9e cb 79 3e 91 69 86 3e d0 77 99 3c
       0.30414918 0.2439408 0.26252416 0.018733889
000040 5a cb 5e 3e f8 a6 a0 3d 76 1e 32 3e a0 72 d0 3c
       0.2175726 0.07844347 0.17394432 0.025445282
000050 87 77 26 be ff 8c ad be fe 27 c0 be e0 ce b0 3d
       -0.16256534 -0.33896634 -0.37530512 0.08633208
000060 e9 4e 8e 3e e6 7d b7 be 43 f2 b2 3e 1c 73 e6 3d
       0.2779458 -0.3583824 0.34950456 0.11252424

downstream.full.weight f4 [7, 16]
000000 e0 7e 97 3e ae 7d 48 be d4 d7 0c be 66 09 be be
       0.29588985 -0.19579193 -0.13754207 -0.37116545
000010 f4 e3 c0 3e ec e6 b0 be d9 83 f5 be 50 03 49 3e
       0.37673914 -0.3455118 -0.47952154 0.1963017
000020 00 e6 f0 bd 6b b8 cf be 40 37 c6 bd 6a bb fb 3e
       -0.11762619 -0.40570387 -0.09678507 0.49166423
000030 40 bd 2e 3d 8a b3 d4 be 88 30 18 3e 1e d7 c4 3e
       0.04266095 -0.41543227 0.14862263 0.3844537
000040 8f 4a fe be a8 30 dc 3d 4c b0 a0 be e0 2a 39 3e
       -0.4966626 0.10751468 -0.31384504 0.18082762
000050 e6 2b ba 3e 80 55 9c 3b 40 67 8e bd e0 e0 89 3c
       0.36361617 0.0047709346 -0.06953287 0.016830862
000060 18 82 5b bd 8e e7 c9 3e f4 2f c1 3e cd ae ef be
       -0.053590864 0.39434475 0.37731898 -0.4681305
000070 80 6c c2 bb b6 7c 83 be 3c 46 0c be b4 cf e4 be
       -0.0059333444 -0.25681084 -0.13698667 -0.44689715
000080 08 90 b7 3e 74 87 92 bd bc ae 78 be ad 06 ec be
       0.35852075 -0.07154742 -0.24285406 -0.46098843
000090 4e 69 87 3e 14 54 68 3e f8 40 92 be ac 6e bc be
       0.2644753 0.22688323 -0.28565192 -0.36803186
0000a0 d6 0d ea 3e 46 d7 f1 3e 38 7b a5 3e 5e bd d2 be
       0.4571368 0.47234553 0.3232057 -0.411601
0000b0 c0 f0 a3 bd 60 86 ae 3c 64 0b 3c be d0 fc 9b 3d
       -0.08004904 0.02130431 -0.1836372 0.076165795
0000c0 9c d8 34 3e 50 3e d3 3d 00 10 2e 3b 98 e0 06 3e
       0.17660755 0.103146195 0.002655983 0.13171613
0000d0 f8 32 93 3d f0 e9 59 bd c2 3a ae be fa e5 58 be
       0.07187456 -0.053201616 -0.34029204 -0.21181479
0000e0 6e 17 66 be 2a f8 81 3e d8 d2 f4 3d e8 78 98 3e
       -0.22469875 0.25384647 0.11954278 0.29779744
0000f0 1a d2 db be 20 36 6c 3e 4c ca 11 3e c0 7b 99 be
       -0.42933732 0.23067522 0.14237326 -0.29977226
000100 56 35 ef 3e e0 90 15 3d 46 65 83 be 34 ed d0 3e
       0.4672038 0.036515117 -0.25663203 0.40805972
000110 4c ae 8f 3e 4a 26 db be dc c5 b4 3e 62 43 91 3e
       0.28062665 -0.4280265 0.35307205 0.28371722
000120 72 6a 30 be 14 92 61 3e 58 4a 34 3e 00 2c b0 3a
       -0.17228106 0.2202838 0.17606485 0.0013440847
000130 8e 10 86 3e aa 60 06 be 74 ab df 3e b2 93 02 bf
       0.26184505 -0.13122812 0.43685496 -0.51006615
000140 6c f3 3a 3e 68 bf 62 be 00 dc f0 3e 20 2e 65 bd
       0.1825692 -0.22143328 0.47042847 -0.05595219
000150 28 f3 1a 3e cb 1d 01 bf ee 13 9e 3e a8 4d 0f bd
       0.15131819 -0.50436085 0.3087458 -0.03498617
000160 4c ad 90 bd a0 fd 63 be 98 b9 5f bd 48 d7 d5 bd
       -0.07064304 -0.22264719 -0.054620355 -0.10441452
000170 ba c4 80 3e 00 81 3d bb 72 8d ff 3e 08 51 58 bd
       0.2515009 -0.0028916001 0.49912602 -0.052811652
000180 28 e3 d1 bd 2e cd af 3e ea 4b 11 be e0 ab 8e bc
       -0.10248405 0.34336227 -0.14189115 -0.01741594
000190 49 69 b2 be 8e 7d a3 be fc 12 bc be e8 69 f0 be
       -0.3484595 -0.31931728 -0.36733234 -0.469558
0001a0 fc 34 9e 3e 98 2a 5c bd 68 0b 59 be c8 be f6 be
       0.308998 -0.053751558 -0.21195757 -0.4819243
0001b0 fd b8 f5 be 90 ab 93 bc ec 95 bf 3e cc 74 0c 3e
       -0.47992697 -0.018026143 0.3741907 0.1371643

downstream.full.bias f4 [7]
000000 a6 bf 66 3e 84 f7 4b 3e 4e 8d 3f 3e 28 f7 21 3d
       0.22534046 0.19918638 0.18706247 0.039542347
000010 ac e7 ac 3d e8 b7 ca 3d 1c 8a 3e 3e
       0.084426254 0.098983586 0.18607372

maxpooling.full.weight f4 [7, 16]
000000 3f ee a8 be 3a 40 b0 be 26 f4 b8 be da ca 8c 3e
       -0.32994267 -0.34424 -0.3612377 0.27498513
000010 ca 71 47 be a8 a6 34 3e b8 c2 74 be d6 95 a5 3e
       -0.19477001 0.176417 -0.23902404 0.32340878
000020 20 ff 5c bd 42 20 ac be a3 80 a2 be 90 c1 cf 3e
       -0.053954244 -0.3361836 -0.31738767 0.40577364
000030 b8 0e 9d 3d ba f9 f3 3e f8 72 a7 be f5 0a e5 be
       0.07668823 0.47651464 -0.32704902 -0.44734922
000040 ac 50 3e be b4 da 98 bd 80 a0 72 bc 58 e3 69 3e
       -0.18585461 -0.07463589 -0.014808774 0.22840631
000050 b4 be 11 be e6 a5 fe 3e c6 f7 ad be 22 c7 10 be
       -0.14232904 0.49735945 -0.339781 -0.14138463
000060 72 e3 30 be a2 52 9b be 9c 57 64 be c0 9e 1a 3e
       -0.17274264 -0.3033648 -0.22299045 0.15099621
000070 1c a2 8f be db 2a cc be 22 02 c2 be 9c e3 d2 3e
       -0.28053367 -0.39876446 -0.37892252 0.41189277
000080 b0 ba ae bc 5a d4 d2 3e d0 2f c5 be ba 64 e9 3e
       -0.021329254 0.41177636 -0.3851304 0.4558466
000090 7c 75 86 3e 80 01 12 3c 90 37 13 3d d8 5d 70 bd
       0.26261508 0.00891149 0.03594166 -0.058683246
0000a0 dc 7a f4 bd fa 4a 95 3e 28 a7 ad 3e 6e b2 ad be
       -0.11937496 0.29158765 0.33916593 -0.33925194
0000b0 20 5a f3 3e f8 aa 4f 3e 78 d0 2e be 80 c2 dc 3d
       0.47529697 0.20280063 -0.17071712 0.107792854
0000c0 88 c4 f2 3d 9c 4c f8 be 90 00 b9 3e 36 ca e2 be
       0.118538916 -0.48495948 0.36133242 -0.442949
0000d0 88 b2 8d 3e d6 94 82 be ba e1 ea 3e 98 fc 34 bd
       0.2767527 -0.25504178 0.4587534 -0.044186205
0000e0 00 54 7c 3e 62 26 db 3e a8 c2 64 3e d6 c8 92 3e
       0.24641418 0.4280272 0.2233988 0.2866885
0000f0 50 57 2a be 50 29 fa be 8e dd 50 be d2 cd a4 3e
       -0.1663487 -0.48859644 -0.20397016 0.32188278
000100 dc c3 d2 bd e2 5e fc be 00 6c 08 bd 88 1e 8b 3e
       -0.102912635 -0.4929114 -0.03330612 0.2717173
000110 58 10 d3 bd b4 c4 bb be 80 2d 40 3e 5a d5 bb 3e
       -0.10305852 -0.3667351 0.18767357 0.36686212
000120 be 3f a6 be 20 93 1b bd d0 84 a4 3d 93 2d 85 be
       -0.32470506 -0.037982106 0.080331445 -0.26011333
000130 89 d9 b8 be a2 6b 08 be 5c b6 3e 3e 40 08 e6 3d
       -0.36103466 -0.13322309 0.18624252 0.11232042
000140 58 43 96 3e 04 2f 87 3e a4 6b 99 bd c5 25 00 3f
       0.29348254 0.26403058 -0.07491234 0.5005763
000150 70 d2 8c 3e 34 a0 e4 3e 7e f3 e8 be 16 9c b1 3e
       0.275043 0.44653475 -0.4549827 0.34689397
000160 bd 3f be be ae 7d c4 3e ba 02 ea 3e 66 de 9f be
       -0.37158003 0.38377136 0.45705205 -0.31224364
000170 1c f6 61 be 68 df 43 3e 77 3c b5 be c5 3e 99 be
       -0.2206654 0.19128191 -0.35397694 -0.29930702
000180 7e 64 ca be 16 99 a6 be e4 95 a0 be 40 dc 47 3c
       -0.39529794 -0.3253867 -0.31364357 0.012198508
000190 80 e5 3b 3c 14 f1 56 3e 58 6d 90 3d 40 9e 2a 3d
       0.011468291 0.20990402 0.07052106 0.041654825
0001a0 e5 e2 ca be ee 4d 52 be 30 09 3f bd 48 7a 7a be
       -0.39626232 -0.2053754 -0.04663962 -0.24460709
0001b0 fa 0b 09 be 40 d4 0a be 8a d8 e9 3e 9c ba 44 3e
       -0.13383475 -0.1355753 0.4567302 0.19211811

maxpooling.full.bias f4 [7]
000000 00 17 43 bc 0c 62 22 be a0 62 67 be 50 fc 4f 3e
       -0.011907339 -0.15857714 -0.22596216 0.20311093
000010 2e 14 39 be 4c c2 f9 bd ca 8d 3d be
       -0.18074104 -0.12195262 -0.1851112

mean.full.weight f4 [7, 16]
000000 de 42 5b be 66 7e c1 3e 08 24 76 3e a4 55 40 3e
       -0.21412227 0.37791747 0.24037182 0.1878267
000010 ad 83 f9 be 84 d8 71 3e d2 6e 07 be 01 11 fb be
       -0.48733273 0.2361775 -0.13225868 -0.4903641
000020 88 48 da bd 77 8e 88 be d6 bb 96 3e 1e d7 9c be
       -0.106583655 -0.26671192 0.29440182 -0.3063287
000030 ce af 19 be a8 fc cd 3d e0 4e 8f bd 40 d8 9e bd
       -0.1500847 0.10057956 -0.06997466 -0.0775609
000040 00 48 3e 3b c4 cc af 3e d8 dd 03 bd 80 05 e1 3e
       0.0029034615 0.3433591 -0.03219399 0.4394951
000050 0a ac 8c 3e f0 92 40 3e 66 fa 2d be 2e 10 d0 3e
       0.27475005 0.18806052 -0.1699005 0.40637344
000060 22 1b 48 be e6 7b 97 3e c0 cd 8c be 86 d7 d5 be
       -0.195416 0.29586715 -0.27500725 -0.41765994
000070 78 e2 a1 3d 86 fd 91 3e b8 8f 92 3e 38 dd 69 be
       0.079045236 0.28513736 0.28625274 -0.22838295
000080 00 e9 b9 3d f6 b9 cc be e4 00 dc 3e 44 b1 11 be
       0.09077644 -0.39985627 0.4296943 -0.14227778
000090 26 4d f7 be 7a 60 19 be a2 bd 0f be d0 08 b8 be
       -0.48301047 -0.14978209 -0.14037183 -0.35944223
0000a0 c0 c6 6d 3e 00 f0 04 3b 00 aa b0 be a8 d1 f8 be
       0.23220348 0.0020284653 -0.345047 -0.48597455
0000b0 0e 31 39 be c6 18 d5 3e 48 84 95 bd 24 56 f5 be
       -0.18085119 0.41620463 -0.07300621 -0.47917283
0000c0 3a 1b bc 3e 32 80 38 be 8c 6b d5 be ca f0 a2 be
       0.36739522 -0.18017653 -0.41683614 -0.31824332
0000d0 a6 d3 c4 be c0 75 59 bd d0 b8 e9 3e 94 ca de bd
       -0.38442725 -0.05309081 0.45648813 -0.108784825
0000e0 74 5c c9 be d8 f1 82 3e b0 97 44 3e 00 15 3f 3d
       -0.3932835 0.25575137 0.19198489 0.046650887
0000f0 8c cc 56 be 30 94 0d bd e0 a4 e4 3e 6e 8e a7 be
       -0.20976466 -0.03456515 0.4465704 -0.32725853
000100 72 ac c4 be 0c e7 fa bd e1 1c 96 be f6 bf ff 3e
       -0.38412815 -0.122511 -0.29318908 0.49951142
000110 a0 4e 30 3d 38 3b e6 3d 0f 97 01 3f c8 79 5d 3e
       0.043043733 0.11241764 0.5062112 0.21628487
000120 14 65 e7 bd 58 39 cf be 21 ed 01 3f 7c 25 8d bd
       -0.11298576 -0.40473437 0.50752455 -0.06891915
000130 aa 98 85 be 30 7e d3 bc 28 ee 0d be 62 3e 74 be
       -0.26093036 -0.025817007 -0.1386038 -0.23851922
000140 98 47 17 3e 55 5a ba be 46 3d 94 be 3f a4 02 3f
       0.14773405 -0.36397043 -0.28952998 0.5103187
000150 2e bf cd 3e 32 b3 2b be 86 e7 fa 3e ca f9 f5 be
       0.4018492 -0.16767576 0.49004763 -0.48042136
000160 e0 ae 2e 3e 40 81 ed 3c a6 89 a8 3e ae 57 87 be
       0.17058897 0.028992295 0.32917517 -0.26434082
000170 ac ef a8 be 3c 9c d4 bd d2 0b d9 3e 70 df 61 3d
       -0.32995355 -0.10381362 0.4239183 0.055144727
000180 37 0a d9 be 88 f8 81 3e f8 24 72 3e f4 b8 32 3e
       -0.42390606 0.25384927 0.23646915 0.17453367
000190 b4 56 c4 be e0 aa 4a 3d 5e b6 68 be 00 26 48 3b
       -0.383474 0.049479365 -0.22725818 0.0030540228
0001a0 00 fd b6 3c c0 0e b3 3e 10 6c 50 3e 12 06 fe 3e
       0.022337437 0.3497219 0.20353723 0.49614006
0001b0 f6 df c5 3e e9 15 01 bf a0 73 87 be 88 04 ec be
       0.3864743 -0.5042406 -0.26455402 -0.46097207

mean.full.bias f4 [7]
000000 5a 1d 66 be 2a 17 22 3e f8 cb b1 3d 20 21 95 bd
       -0.22472134 0.15829149 0.08681482 -0.07281709
000010 bc 89 6f be 70 9f c7 bd a4 fa 66 be
       -0.23392385 -0.09747207 -0.2255655
