best_model/acc/cora_dropout=0_wd=0_b=256_lr=0.01_walk=6_best_model.pt (torch_old, 185335 bytes, 4 tensors)

aggregator.full.weight f4 [16, 2866]
000000 39 91 8e 3e 05 62 0b bf f1 a6 22 3e e5 bf d6 3e
       0.2784517 -0.5444644 0.15883996 0.4194328
000010 af 9d 30 3e 19 6e 01 3f 40 8d 31 3f f0 cc a5 be
       0.17247652 0.5055862 0.69356155 -0.32382917
000020 62 60 f0 3e 31 55 c4 be df e9 3f bd 55 03 c8 bd
       0.46948534 -0.38346246 -0.046853896 -0.097662605
000030 e7 8d 7e be ce 5e d2 be a2 53 b2 be 26 1f 91 3e
       -0.24858819 -0.41087955 -0.34829432 0.28344077
000040 41 9e c1 3e 84 2f d1 3e 9e 26 03 3f f7 cf cf 3d
       0.3781605 0.40856564 0.512308 0.10147088
000050 ba a5 ee 3e 9a 79 b1 be 7f 00 5b 3d d3 65 cc 3e
       0.46610814 -0.34663087 0.05346727 0.39921436
000060 d0 34 59 be ce ce 2a 3f 0e bf cc bb fe 24 f1 3e
       -0.21211553 0.6672181 -0.0062483614 0.47098535
000070 03 e2 41 be dd 01 ac 3e 45 49 b1 be 05 cd 65 3e
       -0.18933873 0.33595172 -0.34626213 0.2244149
000080 5a fd 09 bf de 56 b9 3e 81 2b 03 bf e3 2e 58 bd
       -0.5390221 0.36199087 -0.51238257 -0.05277909
000090 0e d6 2b 3e 1b c4 d8 3e a1 9c 0b bf 99 25 38 be
       0.16780874 0.42337117 -0.5453587 -0.17983092
0000a0 18 3a 2d 3e 0a 2e a6 bd 1f 97 c2 be 6b f3 ae be
       0.16916692 -0.0811425 -0.3800592 -0.34170088
0000b0 99 21 e1 3e 4b bd 00 bf c3 a7 bd 3e 00 46 46 be
       0.43970945 -0.5028884 0.37042055 -0.1936264
0000c0 82 a3 90 be c2 89 1c 3f bc 9a 29 bf 68 d1 0d 3f
       -0.28249747 0.611477 -0.6625173 0.55397654
0000d0 41 aa 30 be e3 ed 9b 3e 0e 16 b5 be 4e 4f b7 3e
       -0.17252447 0.3045493 -0.3536839 0.35802692
0000e0 fa 75 0f 3f e2 d9 51 be a5 03 18 be c2 4c 22 be
       0.5603939 -0.20493272 -0.1484514 -0.15849593
0000f0 ca 20 80 3e a9 10 c0 3e bb 8e 28 3f da 7a 1e 3f
       0.25025016 0.3751271 0.6584279 0.61906207
000100 a1 c0 d7 bd 04 20 b4 be 74 ee 0c bf b5 c9 25 bf
       -0.10534788 -0.35180676 -0.5505135 -0.64760906
000110 c7 c7 b2 bd 2c 76 7c 3e a6 bb 8c be 4b 29 c6 be
       -0.08729511 0.24654454 -0.27486914 -0.3870338
000120 1d 76 92 be b1 25 93 bc 33 90 8e be 2a a2 a4 be
       -0.28605738 -0.017962309 -0.2784439 -0.3215497
000130 73 8f 91 be d7 3e 50 3e d9 09 a4 3e d2 4f 9e 3e
       -0.28429756 0.20336471 0.32038763 0.30920273
000140 e8 17 92 be 76 3a 9c be e5 03 38 be ec 6c d8 be
       -0.28533864 -0.30513352 -0.17970236 -0.422706
000150 39 09 4f be d6 c8 80 bd d9 1b cb be d9 d8 08 3e
       -0.20218362 -0.062883064 -0.39669684 0.13363971
000160 2d 47 bb 3e ea 38 08 3f df 78 8f 3e 90 70 21 3f
       0.3657774 0.53211844 0.28021905 0.6306238
000170 38 ce 24 3c 9c 11 9a bd 82 b1 3a 3d 81 17 e0 3e
       0.010058932 -0.0752289 0.04557944 0.43767932
000180 31 da cf 3e f3 db a1 3e ce db c7 3e b7 4d 4b 3e
       0.40596154 0.3161312 0.39034885 0.19853865
000190 0f 3a d2 3e f5 71 0b 3e 51 71 0c 3f 3d 5d 9d 3e
       0.4105992 0.1361769 0.5486041 0.30735198
0001a0 9f 8f 0c 3f 82 80 80 be 8c 91 d2 be 1e 6b 01 be
       0.5490665 -0.25098044 -0.41126668 -0.12638518
0001b0 78 a0 d0 be c1 23 5c 3e 45 37 5e 3e 69 73 4a be
       -0.40747428 0.21498014 0.21700771 -0.19770588
0001c0 3f d0 e8 bd a6 19 d2 be 45 58 c5 3e 4b 3c 0c 3e
       -0.11367845 -0.41035193 0.38543907 0.13694875
0001d0 4a a4 aa be de 67 34 be 24 78 24 3f 62 d5 e4 be
       -0.33328468 -0.17617747 0.6424582 -0.44694048
0001e0 c7 ed 7c be d8 b1 75 3d 2b 85 a5 3e 65 ad 84 3e
       -0.2470008 0.05998406 0.32328162 0.2591354
0001f0 17 f0 e9 be e5 3e f1 3e 67 5b ab 3e c9 e5 f2 3b
       -0.45690987 0.47118297 0.33468172 0.0074126464
000200 04 3e 86 3e 8d 12 13 3f f3 f5 6b 3d 1d 52 d8 3e
       0.2621919 0.5745018 0.057607602 0.42250147
000210 5c 13 27 be 79 19 10 3f 1f 52 d9 3e da 20 02 3f
       -0.16315979 0.5628887 0.42445466 0.5083138
000220 e0 e1 0d be 3c da 64 3c 08 ce 79 bd 5a cb b7 be
       -0.13855696 0.013968047 -0.060987502 -0.35897332
000230 23 7b 0a 3f 63 86 d6 3d 53 f8 a7 3e 86 35 c9 3c
       0.5409414 0.10474851 0.32806644 0.024561655
000240 7e 3b b6 3e 60 4a 89 3e 6e 72 76 be a0 e3 3a bf
       0.35592264 0.26814556 -0.24067089 -0.7300358
000250 d4 d0 a0 3e a6 5c 06 bf ca 99 2f 3c fd 15 bf 3e
       0.31409323 -0.5248512 0.0107178185 0.37321463
000260 6b fe 24 3e 71 a4 0c 3f be fb 76 3e c3 d5 32 3e
       0.16112678 0.5493842 0.2411947 0.17464356
000270 e4 06 31 3d de 42 3e be de 07 05 3f 88 d2 18 3f
       0.043219462 -0.18580195 0.5196513 0.59696245
000280 67 9e 0a 3e d6 72 9e 3e 3e 1b 36 3f 78 a3 74 3e
       0.13536988 0.30946988 0.7113532 0.23890483
000290 91 d4 a3 3e b0 6c 40 be c4 c5 a3 be a2 a1 c4 3e
       0.31998113 -0.18791461 -0.3198682 0.38404566
0002a0 99 19 fb be 43 66 b4 bd 67 95 02 3f bb f5 ca 3e
       -0.49042967 -0.088085674 0.5100922 0.39640602
0002b0 1d a1 a5 3e 41 12 93 be 47 0a 99 be 1c da 28 3f
       0.32349482 -0.28724864 -0.29890653 0.6595781
0002c0 91 b1 80 3e c1 ec 55 bd ba 5e 81 be 04 08 1f 3f
       0.25135472 -0.05222774 -0.25267583 0.62121606
0002d0 2e be f6 3e 9c 56 11 3f 4a a5 a9 be 81 da f0 bd
       0.4819197 0.5677278 -0.33133918 -0.11760426
0002e0 0c 4b 46 3d dd c3 c4 3e d6 53 77 3d 7e 92 bd be
       0.048411414 0.38430682 0.060382687 -0.37025827
0002f0 4e 51 b9 be 4e 95 e0 bc 15 8b 80 be 2e cb ab 3e
       -0.36194843 -0.027414944 -0.2510611 0.3355345
000300 43 5c b3 3e 67 a2 70 bd 83 5e e1 bd 7c ba 49 3f
       0.35031328 -0.05874863 -0.11004355 0.7880018
000310 36 b6 9b be b0 06 30 3f 72 bf 38 3f a1 d8 11 3f
       -0.30412453 0.68760204 0.7216712 0.56971174
000320 75 ea d9 be 50 bf c8 bd 46 70 cc 3d 93 d2 06 bd
       -0.4256169 -0.09802115 0.09982352 -0.032915663
000330 ff 63 d0 bd 06 3a f3 3e be 13 28 be 97 5a 10 bf
       -0.10175323 0.47505206 -0.16413781 -0.5638823
000340 87 c2 05 bf 65 2f bc be 7d aa f2 3e d9 ef 0e be
       -0.5224995 -0.3675491 0.47395697 -0.13958682
000350 84 7a 68 be 79 26 0e 3f 72 59 38 3f 92 d4 04 bd
       -0.22702986 0.55527455 0.7201148 -0.032429285
000360 06 6b 62 be bf 16 2a 3f c3 93 f1 bc ba c5 c1 3e
       -0.22111139 0.6644096 -0.029489404 0.37846166
000370 97 53 a0 3e 53 5c 99 be 1d 8e 97 3e fa 75 d4 bb
       0.31313774 -0.2995325 0.2960061 -0.0064837905
000380 2c 9c 41 be cd 0f 07 3f 56 70 80 3e 9a 89 a1 3e
       -0.18907231 0.52758485 0.25085706 0.31550294
000390 9b a8 ae be 52 ec 8f 3e c3 b7 1f bf f6 bf 2c 3d
       -0.3411301 0.28109986 -0.62389773 0.042175256
0003a0 1c 88 f7 3e 4a fc 6a 3e 03 23 7e bc 5d 2a a5 3e
       0.4834603 0.22947803 -0.015511277 0.32258883
0003b0 95 b0 f9 3e 0f 38 b3 3e 6c db ad 3d 1a 43 bb be
       0.48767534 0.35003707 0.08489117 -0.36574632
0003c0 0a 20 0a be a3 9f 9b 3e 8e cf 5e be 0b 9a 85 3d
       -0.13488784 0.3039523 -0.21758863 0.06523522
0003d0 a6 fb b7 3e be 33 75 3e 13 fc ad 3e 4a b7 39 3e
       0.3593418 0.2394552 0.3398138 0.18136325
0003e0 82 0a 39 bd 6b 44 b4 be 54 0a 15 3f ae a2 17 bf
       -0.045176037 -0.3520845 0.58218884 -0.59232605
0003f0 8e e7 0e be 9e 6f cc be 96 75 a1 be b6 06 8c 3e
       -0.13955519 -0.39928907 -0.31535023 0.2734887

aggregator.full.bias f4 [16]
000000 b4 7b 91 3e a6 7c 9c 3e f1 ea 80 3e 6f 23 dd 3e
       0.2841469 0.3056385 0.25179246 0.43191096
000010 b9 c7 c7 3e 83 73 25 3e d0 fa 85 3e 8e d1 a0 3e
       0.39019564 0.16157345 0.26167917 0.31409878
000020 3d d9 7a 3e d2 28 77 3e bd e9 a1 3e 7d 6b 94 3e
       0.24496932 0.24136665 0.3162364 0.28988257
000030 cd 71 c4 3e 3e ac 9b 3e af f7 43 3e 48 59 9b 3e
       0.38368073 0.30404848 0.19137453 0.30341554

mean.full.weight f4 [7, 32]
000000 86 29 33 3f 79 02 88 bf 7a cf 17 bf 89 76 5e bf
       0.69985235 -1.0625755 -0.5930096 -0.8689962
000010 c0 db 65 3f 5c 57 54 bf 34 e9 8d bf fc e1 44 be
       0.89788437 -0.829458 -1.1086793 -0.19226831
000020 bb 0d 86 3f 88 6c 30 3f 9b 0d 7c 3f dd 21 8f bf
       1.047294 0.68915606 0.9845826 -1.1182209
000030 c0 39 6c 3f 55 62 90 3f 57 95 8a bf f6 7b fd be
       0.9227562 1.1280009 -1.0826825 -0.49508637
000040 03 c7 ed 3e 59 14 ac be f6 f6 ed 3d 22 a7 40 bf
       0.46440896 -0.33609274 0.1161937 -0.75255024
000050 b5 df fe be bd 1d 1a be 56 89 4a bf af bf 0d 3d
       -0.4978005 -0.15050407 -0.7911581 0.03460663
000060 f0 45 31 3f c6 a4 3c 3e 8c 75 39 3f d0 93 87 be
       0.6924734 0.18422231 0.7244499 -0.2647996
000070 56 25 06 3f b7 91 80 3f 1c e5 5d be f8 47 56 bf
       0.5240072 1.0044469 -0.2166943 -0.83703566
000080 24 06 96 bf 90 80 81 bf d1 16 33 3e 75 34 bb 3d
       -1.1720624 -1.0117359 0.17489173 0.09140865
000090 14 8f 9a bf 26 df 6e be 6b 11 64 bf 2e 30 87 3f
       -1.2074914 -0.23327312 -0.8908908 1.0561578
0000a0 4f 5d c3 3c 8e ed d9 be 13 1a 0c 3f 72 76 ad 3e
       0.023848204 -0.42564052 0.54727286 0.3387943
0000b0 f2 3c 7d 3f 5c 08 1c bf c2 1e 90 3e 96 e1 97 bf
       0.9892112 -0.60950255 0.28148466 -1.1865718
0000c0 61 75 59 bf 0e 9c f2 3e 6d e3 e1 be 98 7c 14 3f
       -0.8494473 0.47384685 -0.44118825 0.58002615
0000d0 e3 20 15 bf 3c eb c2 be d6 1c 81 bd ad f8 2c 3f
       -0.58253306 -0.38070095 -0.06304328 0.6756695
0000e0 0a e8 d1 3e 76 12 07 bf ce a7 d3 3e f1 48 1e 3f
       0.40997344 -0.52762544 0.41338962 0.6183005
0000f0 1a da 18 3f 8e 39 fa 3c 07 4b 1e 3c d4 c1 84 bf
       0.59707797 0.030545022 0.009661443 -1.0371652
000100 ca cf 0e 3f 0f a7 4d 3f c8 8f d7 be 86 aa 84 3f
       0.5578581 0.80333036 -0.42101884 1.036454
000110 4e 3a 60 3f 21 c4 79 3f f5 34 3f 3f 25 29 e4 be
       0.87588966 0.97564894 0.7469018 -0.4456264
000120 c9 9c 6b bf 5c a3 3b bf af 91 69 bf 74 01 1b 3f
       -0.9203611 -0.7329614 -0.9123792 0.6054909
000130 43 f8 7c bf 74 b5 52 bf ac 60 87 bf db 4e 85 bf
       -0.9881632 -0.82308125 -1.0576377 -1.041469
000140 fc 0e 31 3f 35 0a 34 3f 3d 6d 65 bf ea b7 57 3f
       0.6916349 0.70328075 -0.8961981 0.84265006
000150 70 d9 c9 3e 0e 50 a0 3e 69 9e e3 bd 96 6d 5d bf
       0.39423704 0.31311077 -0.11114199 -0.8649534
000160 2a dc 52 bf 02 64 01 bf 97 1b 15 bf 96 83 5b 3e
       -0.82367194 -0.50543225 -0.58245224 0.21436915
000170 3b f8 8d be f9 5c de be 12 00 02 bf b2 d6 eb be
       -0.27728447 -0.43430308 -0.5078136 -0.46062237
000180 e0 55 77 be 54 33 0e 3f 68 12 49 bf bb 10 29 bf
       -0.24153852 0.5554707 -0.7854371 -0.66041154
000190 97 20 49 bf 3b 21 78 3f 5f a0 29 3f e0 77 3e bf
       -0.78565353 0.96925706 0.6626033 -0.74401665
0001a0 7d 98 59 3f 78 5d 30 3f 5e 89 eb be d2 cc 71 3f
       0.84998304 0.6889262 -0.4600324 0.94453156
0001b0 52 8d df be a4 8e a8 3d 9d 60 85 3f ec 97 50 3e
       -0.43662506 0.082303315 1.0420109 0.20370454
0001c0 bb ac fd be 15 da 3f 3e 77 36 9a 3e 49 29 56 bf
       -0.49545845 0.18735535 0.30119678 -0.83656746
0001d0 6f ff 1e 3d 8d 66 47 3f 79 76 f9 3e df 17 c4 be
       0.03881782 0.77890855 0.487232 -0.38299462
0001e0 4c 4a 1b 3f 04 55 1c 3f f6 25 0f 3f 42 76 3a 3f
       0.60660243 0.61067224 0.559173 0.728367
0001f0 78 e3 b8 bd bb a0 09 bf 3e 72 36 3f a9 e9 9b 3e
       -0.09027761 -0.5376088 0.7126807 0.30451706
000200 86 f5 a4 3d 78 c1 5d 3f f0 29 6d 3f 43 ae 82 3f
       0.080546424 0.86623335 0.92642117 1.020943
000210 c4 c5 36 bf bd 28 32 bf 67 d7 41 3e cd bd 1a bf
       -0.71395516 -0.6959341 0.18929826 -0.60445863
000220 61 44 62 bf 58 bb 85 3e 82 ab 62 3f d7 a7 84 bf
       -0.8838559 0.26119494 0.8854295 -1.0363721
000230 66 3f 75 bf 18 f1 59 3f ca 03 57 3f 5f f8 12 3f
       -0.95799863 0.85133505 0.83990157 0.57410234
000240 ac 8f f7 3e 78 cf 1a bf 11 b6 37 3f f5 0f a5 3e
       0.483518 -0.6047282 0.71762186 0.32238737
000250 7c fb 5f bf e4 a1 d7 be c9 b8 ed 3e 55 ff 33 be
       -0.8749311 -0.421157 0.46430042 -0.1757787
000260 b9 fa 2e bf 5c c3 e1 3e 2f cd 41 3f 02 21 72 bf
       -0.6835132 0.4409436 0.7570371 -0.94581616
000270 41 d6 24 bf e1 ab 67 3f 11 c4 a8 3e 90 a2 2c 3f
       -0.64389426 0.9049664 0.32962087 0.6743555
000280 9a ab 36 bf 9a 39 48 bf 55 a5 81 3f a5 c6 68 3f
       -0.71355593 -0.78212893 1.012858 0.9092811
000290 50 e6 56 3f bc 94 ee be e1 25 75 bf f3 3f af 3e
       0.8394518 -0.4659785 -0.95760924 0.34228477
0002a0 02 4a 81 3f 17 b8 91 bf 35 db 8e bf 3c af 3a 3f
       1.010071 -1.1384305 -1.1160647 0.72923636
0002b0 e7 02 59 bf a2 aa 8e bf 3c 0e e8 be 95 26 83 3f
       -0.84770054 -1.1145823 -0.4532336 1.0246149
0002c0 d7 d6 14 3e 4c 02 4b bf a2 69 4a 3e a4 34 8b 3e
       0.1453508 -0.7930038 0.19766858 0.271886
0002d0 c5 b6 c1 3d 5d 16 4f bf dd 19 6e bf 39 87 00 3f
       0.09458689 -0.808935 -0.93008214 0.50206333
0002e0 35 03 1a 3f 40 ee 76 bf 7b 84 40 bf 86 75 14 3f
       0.60161144 -0.9645729 -0.7520215 0.57991827
0002f0 77 c2 d4 3d 84 5e 7e be 48 86 40 bf d6 57 54 3f
       0.10388654 -0.24840742 -0.75204897 0.82946527
000300 97 eb 0e bf d5 00 04 3f 28 c5 4a bf df 1f 92 bf
       -0.5582823 0.5156377 -0.79207087 -1.1415976
000310 9b d4 56 3f 72 eb 56 bf 28 6a 10 3e 31 47 61 3f
       0.8391816 -0.8395301 0.14102995 0.87999254
000320 12 3b 0a be 1b 72 e9 3e 07 68 88 bf d9 af 7f bf
       -0.13499096 0.45594868 -1.0656747 -0.998777
000330 a9 25 4c 3f 1e 0f 03 3f f4 36 4a bd d7 dc 18 3f
       0.79744965 0.5119494 -0.049368814 0.59711975
000340 15 00 19 bf 2c 60 28 3f 16 20 53 bf 8a f0 85 bf
       -0.5976575 0.65771747 -0.82470834 -1.0464032
000350 ad b3 32 3f 81 44 41 bf bc 95 03 3e 8a ea 53 3f
       0.69805413 -0.75495154 0.12850088 0.82779753
000360 c1 8e 47 bf cf da 25 be 69 80 72 bf b7 87 16 bf
       -0.779522 -0.1619675 -0.9472719 -0.58800834
000370 69 72 dc 3e a5 6e a0 be 7b 3c 49 bf 16 f1 fa 3e
       0.43056038 -0.31334415 -0.7860791 0.4901206

mean.full.bias f4 [7]
000000 00 35 5a bd e3 a9 e0 3d 03 e8 b8 3e 3b ec a6 bc
       -0.0532732 0.10969903 0.3611451 -0.020376315
000010 37 4b 82 be 0c e5 82 3a 83 32 66 bd
       -0.2544801 0.0009986474 -0.056200515
