best_model/acc/cora-b-h_dropout=0_wd=0_b=256_lr=0.01_walk=7_best_model.pt (torch_old, 289431 bytes, 15 tensors)

embedding.full.weight f4 [16, 1433]
000000 d4 c9 5a bc dc b3 85 3c be 68 19 3d cf 0d 58 bd
       -0.013353784 0.016321115 0.037453406 -0.052747544
000010 c4 70 32 bd 96 fa 4e 3d 7e 5d bf bc 70 d3 11 bd
       -0.043564573 0.050531946 -0.02336001 -0.035602033
000020 fa 8c 23 bd c2 14 9b bc 81 81 28 bd 30 59 25 3c
       -0.039929368 -0.018930797 -0.04113913 0.010092065
000030 f4 14 52 3d 58 11 16 bc a0 9b 94 3b 0e 06 60 bd
       0.051289514 -0.0091594085 0.0045351535 -0.054693274
000040 2c 96 b6 bc 16 de 94 bc 00 a2 c4 39 41 32 6b bd
       -0.022288404 -0.018172305 0.00037504733 -0.057420973
000050 f4 dc 09 bc b8 6c fb bb 23 8e 14 bd ac 51 d2 3c
       -0.008414496 -0.0076728724 -0.036268365 0.02567371
000060 f2 9f 0e 3d 86 ab 7b 3d ca b5 28 3d f8 82 ed 3c
       0.034820504 0.061442874 0.041188993 0.028993115
000070 be 26 23 bd b0 56 6d bb ae 40 48 3d ca 92 92 bc
       -0.03983187 -0.0036215 0.04888981 -0.01789226
000080 96 fd 32 bd 1c 09 28 bd b0 06 ba 3b fe d0 44 3d
       -0.04369887 -0.041024312 0.0056770667 0.048050873
000090 e4 c5 ce bc be 21 63 3d cc 5a 42 3d b8 5f 34 bd
       -0.025240846 0.0554521 0.047449872 -0.044036597
0000a0 48 6c 72 3d c8 c9 2f 3c a4 0d e3 3c 5e 74 6c 3d
       0.059185296 0.010729261 0.027716465 0.057728164
0000b0 c3 70 23 bd b6 fd 25 bd a6 d2 5d bd 84 47 5d bd
       -0.03990246 -0.04052516 -0.054155968 -0.05402328
0000c0 a4 d8 5f bd cc 83 73 3d d0 30 61 bb c3 3b 58 bd
       -0.054649964 0.059451863 -0.003436137 -0.05279137
0000d0 5e ab 3a bd aa e1 77 3d dc b0 f1 bc 9d df 6e bd
       -0.045573585 0.060517944 -0.029503278 -0.058318723
0000e0 54 99 5b bd a8 78 2b bd 52 79 2b bd 6c 34 b0 3c
       -0.053613022 -0.041863114 -0.041863747 0.021509372
0000f0 f0 bd 4a 3c 40 fd a0 ba bc ba 20 3d 32 8d 1a 3d
       0.012374386 -0.0012282506 0.039240584 0.03773231
000100 d5 b6 81 3d d0 9f 18 3d 7c c2 e3 3c 06 9c 35 bd
       0.063337006 0.037261784 0.027802698 -0.04433825
000110 9c 8e 34 bd 20 79 36 3c c2 3d 90 bc e0 7f 08 bd
       -0.044081315 0.011137277 -0.017607573 -0.033325076
000120 4c 4a 72 bc 18 62 37 bc fe 5a 25 3d c0 10 88 3c
       -0.014788222 -0.011192821 0.04036998 0.01660955
000130 1c 14 4f 3d 1d 9b 83 3d 56 71 58 3d 8c a2 1e 3d
       0.050556287 0.0642607 0.05284246 0.038729236
000140 c8 6d 1d 3d 40 32 c7 3a 74 51 2c bd 64 25 04 bc
       0.038434774 0.0015197471 -0.042069867 -0.008065555
000150 e8 b6 2f bc 94 ee c5 bc ac 4b da 3c 83 c6 74 bd
       -0.010724761 -0.024161614 0.026647411 -0.059759628
000160 e1 9d 7b bd ba 98 1d 3d ec 79 25 3d 4b 64 83 bd
       -0.061429862 0.03847573 0.040399477 -0.06415614
000170 54 cb 8d 3c 6e a4 35 bd af 23 3b bd 6b 5a 1a bd
       0.017308868 -0.044346265 -0.045688327 -0.037683886
000180 5c fa 40 bd 80 b4 10 ba 2a 9c 4e 3d c0 8b e2 3a
       -0.04711376 -0.00055200607 0.0504419 0.001728408
000190 7a 08 ae bc 00 1a 0d 3b 54 ed 55 bc 00 11 3f 3b
       -0.021244276 0.002153039 -0.013057072 0.002915442
0001a0 db 63 70 bd 80 24 ad 3c 56 d3 55 3d cc cc 2d 3d
       -0.05868898 0.021135569 0.0522035 0.042431638
0001b0 40 5c fc 3a 77 f7 54 bd e8 6a 13 3c 84 b7 5b bd
       0.0019253567 -0.051993813 0.008997656 -0.05364181
0001c0 50 9d 5b 3d 00 30 9c 3c 05 93 64 bd 3e 44 1a 3d
       0.05361682 0.019065857 -0.05580427 0.037662737
0001d0 8c f9 ea 3c b8 ee cf bb bc d5 da 3c 32 81 53 bd
       0.028683446 -0.006345596 0.026713245 -0.051636882
0001e0 da 54 4d bd 40 ce a5 3b 52 6e 81 bc 98 42 4e bd
       -0.05012975 0.0050599873 -0.015799675 -0.050356477
0001f0 e4 ba af 3c f2 b5 cb bc 38 6c d2 bc 6c 4e ba 3c
       0.021451421 -0.024867032 -0.025686368 0.022742473
000200 50 df 64 3d 06 45 35 3d c4 61 a3 3c c4 22 da bc
       0.05587703 0.04425528 0.01994408 -0.026627906
000210 53 d1 49 bd 90 05 7a 3c 9e 08 08 3d 63 29 48 bd
       -0.049271893 0.015260115 0.033211343 -0.048867594
000220 b6 b8 ae bc b2 76 c6 bc 24 e0 65 bd 98 78 14 3d
       -0.021328311 -0.02422652 -0.05612196 0.03624782
000230 94 01 62 3d f8 42 44 3c f1 dc 40 bd 2c 2b 51 3d
       0.055177286 0.011978857 -0.047085706 0.051066563
000240 86 8e ac bc 9a dd 49 3d 9c fc 77 3d 2e 8d 78 3d
       -0.021064054 0.0492836 0.06054364 0.060681514
000250 3a ae 81 bd c0 81 ce ba dc f6 9b bc a8 c3 81 bd
       -0.06332059 -0.0015755221 -0.01903861 -0.063361466
000260 60 86 08 bb 2a 2c 32 3d 3e 7e 2a bd e3 4a 00 bd
       -0.0020832047 0.04349915 -0.0416243 -0.031321418
000270 04 0a 7f bd f6 3d 19 3d b0 df 48 3d 08 92 a4 bb
       -0.06226541 0.037412606 0.04904145 -0.005022291
000280 68 1b e6 bc a0 2b 7e bd fc 82 cb 3c d0 55 c2 3c
       -0.02808924 -0.062053323 0.024842732 0.02372256
000290 f0 4f f2 3b b0 81 fd 3b 70 f4 8a 3c 80 5e 64 3a
       0.007394783 0.007736407 0.01696226 0.00087115914
0002a0 22 db 72 3d cc 34 4d 3d 64 6c 02 3d b0 7b 35 3c
       0.059291013 0.05009918 0.03184165 0.011076853
0002b0 84 50 93 3c 04 05 1b bc 9e 46 0f 3d be 2e 74 3d
       0.017982729 -0.009461645 0.034979455 0.05961489
0002c0 00 d5 0e bb 4c 65 d1 3c 80 c1 c5 3b a4 60 29 bc
       -0.0021794438 0.025560997 0.00603503 -0.010337982
0002d0 0c 5f 02 bd f0 6f 96 3c a8 6d 5f 3c c2 0e d9 bc
       -0.031828925 0.018363923 0.013636984 -0.026496295
0002e0 5a 70 65 3d ac ae 3c 3d fa 81 06 3d 96 0b 1f bd
       0.05601535 0.046065018 0.0328388 -0.03882941
0002f0 4a 06 45 3d 40 55 82 bc 8e 64 5c 3d 7a b4 78 3d
       0.0481017 -0.015909791 0.053806834 0.06071899
000300 4a 2b 76 3d e4 1b 1d bd 98 d3 38 3c a6 c7 77 3d
       0.060099877 -0.038356677 0.011280917 0.060493134
000310 f0 4c 42 bb e7 d7 67 bd bf 93 5d bd b0 42 f1 3c
       -0.002964791 -0.056602385 -0.05409598 0.029450744
000320 00 17 18 3b d0 c6 57 bc 18 2e 64 3d c2 18 dc bc
       0.0023207068 -0.013169959 0.05570802 -0.026867274
000330 56 8f 2f bd 08 8d bf 3c 98 16 44 3c 08 7c f3 3c
       -0.042861305 0.023382679 0.011968277 0.029722229
000340 5a 7a 1c 3d 56 6a 82 bd d4 b4 81 3c 40 9e c5 bb
       0.03820262 -0.06367938 0.015833296 -0.0060308278
000350 5c 88 38 3d 60 91 4e 3c e8 26 1f bd 04 81 74 bd
       0.045051917 0.012607902 -0.038855463 -0.05969335
000360 00 00 d0 ba 70 b6 81 bc f4 c9 6d 3d 8c 4a 04 3d
       -0.0015869141 -0.015834063 0.058053926 0.032297656
000370 18 06 e9 3c 20 c6 52 3b 2c 1c 6d 3d e0 1f bb 3b
       0.028445289 0.0032161549 0.057888195 0.005710587
000380 bc 1f 21 3d 50 cb 8b 3b ac e1 e5 3c c0 a4 e7 bc
       0.039336905 0.00426618 0.02806171 -0.028276801
000390 28 7d c6 bb a4 82 6f bc a4 b6 9e 3c 24 d8 ba 3c
       -0.0060574003 -0.0146185495 0.0193742 0.022808142
0003a0 4c 1a 0e 3d 80 3d 2f 3c 66 aa fd bc c0 66 49 3b
       0.034693047 0.010695815 -0.030965041 0.003073141
0003b0 d0 30 ad bb 9a fd 78 3d d0 f8 94 3c 68 5a 12 bd
       -0.00528536 0.06078873 0.01818505 -0.03573075
0003c0 d9 66 52 bd da 6c df bc 12 8d 13 bd 98 fb 58 3d
       -0.051367614 -0.027273584 -0.036023207 0.052974313
0003d0 74 f8 0a 3d 70 35 af 3b 08 92 5f bd 06 2e 4b bd
       0.03392835 0.0053469464 -0.054582626 -0.04960444
0003e0 5c d1 20 bd da 1d 40 bd 43 95 1b bd 50 11 9b 3b
       -0.03926216 -0.04690347 -0.037984144 0.0047322884
0003f0 f7 7e 1f bd 00 16 a9 3b fa 51 36 3d 10 8b 72 3c
       -0.038939442 0.0051600933 0.044511773 0.014803663

embedding.full.bias f4 [16]
000000 d4 e8 2f bc ba 7b 8d bc 5c 55 bb 3c 30 73 e5 3b
       -0.010736663 -0.017270911 0.022867851 0.007002257
000010 32 d0 9c bc d8 01 59 3b 3e e8 5e bc 1c 95 2e bc
       -0.019142244 0.0033112671 -0.013605176 -0.010655668
000020 59 bd d6 bc 4c 2c fa bb d0 f5 89 3a a4 04 62 3c
       -0.026213335 -0.007634675 0.0010525528 0.013795052
000030 00 58 8a 39 58 95 77 3b 91 82 88 bc 12 53 a3 3c
       0.00026386976 0.0037778225 -0.016663821 0.019937072

aggregator.full.weight f4 [16, 2866]
000000 d7 4a 2c 3e 80 d5 23 3d b7 c4 90 bd e5 ee e2 bd
       0.16825424 0.03999853 -0.070687704 -0.11080722
000010 a5 d9 45 be f1 13 ba 3b 7c fd 40 bd 52 a4 8f bd
       -0.19321306 0.0056786467 -0.04711674 -0.070137635
000020 de 9a 3e bc 8c 4c 23 3d b9 1b 3c 3e d1 3b ff 3d
       -0.011633603 0.039867923 0.1836995 0.12462581
000030 61 19 a7 bd be bf c2 3d e8 97 68 be 46 15 6f 3d
       -0.081591375 0.09509228 -0.22714198 0.058369897
000040 24 f3 1a be fc c2 0b 3e 6f ee b2 3c 34 de 1a 3e
       -0.15131813 0.136486 0.02184221 0.15123826
000050 c1 f5 06 3d ad 0d 46 be 0d 49 6a 3e b7 6f 68 3d
       0.032949213 -0.19341154 0.22879429 0.056747165
000060 f4 49 ca 3e b3 64 6b bd 88 fb 15 be 15 c5 88 be
       0.39509547 -0.05746908 -0.14646733 -0.26712862
000070 6b 89 40 be 7b 6a 20 bd 33 35 93 bc c5 8c a9 bd
       -0.18802421 -0.039164048 -0.017969703 -0.08278803
000080 46 8b 9a 3d 5b bb af bd 61 84 8b bd 41 d8 5d bd
       0.075460956 -0.08580657 -0.06812359 -0.054161314
000090 08 80 8d be fc bf d5 bb 0b 52 2a 3e bc 7b 15 3e
       -0.27636743 -0.0065231305 0.1663286 0.14597982
0000a0 56 08 8d bd 72 90 2a be f7 a2 63 3e 30 08 9d be
       -0.068863556 -0.16656664 0.22230135 -0.3067031
0000b0 3c 48 c0 3c 7e c5 e7 bd 3c 9e c5 3d 10 73 47 be
       0.023471944 -0.113169655 0.096493214 -0.19477487
0000c0 49 fb 34 3d 13 1a 20 bd 26 f1 03 be 4d ae 02 be
       0.044184957 -0.039087366 -0.1288496 -0.12761803
0000d0 20 79 c5 3d 19 03 97 bc 8d 3b bd be 33 3d c6 3c
       0.096422434 -0.018434094 -0.36959496 0.024199104
0000e0 3a 7e f7 bd 3c 68 30 3e 6c 4e 8f 3c fd f0 9a bd
       -0.12084623 0.17227262 0.01749345 -0.07565496
0000f0 98 57 67 bd 18 df 92 bd 97 ad 85 3e 17 9f 57 3c
       -0.05648002 -0.07171458 0.26109 0.013160489
000100 f4 8d 27 3e c8 d0 3b 3d 59 0b 1b 3e af b8 b9 3c
       0.16362745 0.045853406 0.15141048 0.022671072
000110 5c 76 28 3e a1 27 08 be 11 a0 89 3d 23 8c 1d 3e
       0.164514 -0.13296367 0.06719983 0.15385489
000120 0f f1 a0 3e d7 fe 9c 3e 9d 34 c7 3c 2d 27 64 3e
       0.31433913 0.30663177 0.02431708 0.2228057
000130 a5 45 8f bc cb f2 bd 3b c5 a6 89 be 6c a7 7b be
       -0.017489264 0.0057967654 -0.26885048 -0.24575585
000140 23 69 5d 3d a4 32 5e bd dc bf 53 be c7 6e d1 3d
       0.054055344 -0.054247513 -0.20678657 0.10226207
000150 e5 a5 0d 3e d8 e1 6f 3e 75 ac a5 3c 9b 7b 85 bd
       0.13832815 0.23425996 0.020223835 -0.065177165
000160 63 f1 b5 3d 3c d1 21 3e 2f 85 68 be 8a 58 85 bd
       0.088839315 0.15802473 -0.22707056 -0.06511028
000170 ba e9 fb bd 38 0c d0 bd 37 47 4c bd 7a cc 97 bd
       -0.12300439 -0.101585805 -0.049872603 -0.07412048
000180 80 05 96 3d 20 01 29 3e f2 ce 07 3e 3d ab ae 3d
       0.07325268 0.16504335 0.13262537 0.08528755
000190 a8 96 7f 3e f3 1f 9f 3d b9 7d 2b be 2e cc b5 3d
       0.24959815 0.07769766 -0.16747178 0.08876835
0001a0 8f af c1 bd fd 9c 6b 3e 1d 6c 56 be 8a 0c 9c bd
       -0.09457313 0.23009105 -0.2093968 -0.07619579
0001b0 16 56 98 bd 43 ab 9c 3e 82 39 b8 3d 12 93 97 be
       -0.074382946 0.30599412 0.08995344 -0.29604393
0001c0 2c ea ab be 7a bd 81 3d 8f bf 06 3e c1 a6 05 be
       -0.33577096 0.06334968 0.13159011 -0.13051893
0001d0 9d e9 d2 3d 8c 73 aa 3e 1e 46 47 3d ba e2 50 be
       0.102984644 0.3329128 0.048650853 -0.2039899
0001e0 22 1d 63 3e 6a fe cb 3c 44 df 8a bd 8b e6 b8 be
       0.22179082 0.024901588 -0.06780866 -0.3611339
0001f0 8a 1a 1c 3e 53 4f 56 bc 1d 05 5b 3e e0 27 a7 bd
       0.15244499 -0.013080436 0.2138867 -0.081619024
000200 79 b6 2b 3e 83 48 44 be 47 de 22 3e 65 08 02 be
       0.16768827 -0.19168286 0.15905105 -0.12698515
000210 5c e2 cc 3b 21 8f 8d bd 4b 5c d0 be e1 f0 6a 3d
       0.00625257 -0.06912065 -0.40695414 0.057358626
000220 f2 86 9d bc 90 f2 85 3e 83 57 d1 bd 59 5d 52 bd
       -0.019229386 0.26161623 -0.1022177 -0.051358555
000230 77 f7 c4 bb 76 1b 44 be 06 58 9b 3d f1 5c 1c 3d
       -0.0060109454 -0.191511 0.075851485 0.038174573
000240 3a 0e b6 bd ae 68 85 be c0 7a 84 be 84 b3 a2 bd
       -0.08889432 -0.26056427 -0.258749 -0.07944396
000250 a5 95 9c bc f6 c8 26 be a9 c5 07 3e 48 0f 3a be
       -0.019114325 -0.16287598 0.13258995 -0.18169892
000260 48 25 0f be 5d 2e 46 be f0 b6 96 3e d0 16 c9 be
       -0.13979065 -0.19353624 0.29436445 -0.39275217
000270 67 cc 23 3c 3e 22 48 3e 0b eb 75 3d d6 fe 39 3d
       0.009997464 0.19544312 0.060038608 0.045409046
000280 13 c3 c2 3e b0 ba 78 3e ce 0d e8 3d 6d de 7a 3e
       0.38039455 0.24289966 0.11330758 0.24498911
000290 9b 3a e3 3d d9 d2 5d bc 23 4a fe bd 52 91 33 3e
       0.110951625 -0.0135390395 -0.12416484 0.17535904
0002a0 04 3d 3a be f2 63 36 3e 9b fc b6 3a 88 be 39 3d
       -0.18187338 0.17811564 0.001396078 0.04534772
0002b0 bb ea 1b 3e d2 02 c4 bd 66 02 37 3e af 0d 26 be
       0.15226261 -0.095708504 0.17872009 -0.16216157
0002c0 43 19 61 3e 89 b5 0e 3e dc 7e 96 bd d2 d0 39 bd
       0.21982293 0.13936438 -0.07348415 -0.045365162
0002d0 bb 89 3e bd a6 c3 64 3d 9f 4f ea 3d 57 39 1b be
       -0.04651807 0.055850647 0.11440968 -0.15158592
0002e0 d0 cd 51 3e 3e 87 8b 3d d4 d4 d5 bd 94 4f ec 3c
       0.20488667 0.06812905 -0.10440984 0.02884654
0002f0 c8 e2 2a be 18 12 2c 3e b8 40 03 3e 13 3c 2d 3e
       -0.16688073 0.16803777 0.12817657 0.16917448
000300 df 0c 12 be 60 c4 25 3e 39 85 8d 3e 40 a5 4d be
       -0.14262722 0.16188192 0.27640703 -0.20082569
000310 73 d0 0d be 67 f0 65 3d ab d6 68 3d af 53 0e 3e
       -0.13849048 0.05613747 0.05684535 0.1389911
000320 a5 b5 6c bd f2 d1 ee 3d ba b7 0d 3d 0b d5 67 3e
       -0.057790417 0.11661138 0.034599043 0.22639863
000330 02 76 04 be 34 4c d0 3d 97 a7 b7 be fa 30 ce 3d
       -0.12935641 0.101707846 -0.35870048 0.10067935
000340 8f d1 ed 3c 1b 4c 71 3d 14 1f 65 3e af bc 83 be
       0.02903059 0.05891047 0.22375137 -0.25729892
000350 d0 eb 95 be 9c e4 0c 3e 70 e0 66 bd 79 3b 48 3e
       -0.29281473 0.13759083 -0.056366384 0.19553937
000360 21 63 49 3e 0c b9 1a 3e 2c 9b 66 3e 71 ef b3 3d
       0.19666721 0.15109652 0.22520131 0.08785904
000370 55 bc 0a 3e d1 09 33 3d 0d ea d6 3d b5 9e 82 3d
       0.13548405 0.043710534 0.104938604 0.06377927
000380 ce 0d ae bd b1 37 4f bd 8e 27 fc bd f3 92 86 3e
       -0.08498727 -0.05059022 -0.12312232 0.26283988
000390 a4 a0 a0 3d 75 28 9f 3d ab 22 02 3e a9 47 ce bb
       0.0784314 0.077713884 0.12708537 -0.0062951637
0003a0 be 23 a8 bb 60 b1 38 3e 27 b5 2d be ca 18 f9 3c
       -0.005131214 0.18036413 -0.16963635 0.030407328
0003b0 dd 44 bc bc 50 3c fc bc 3d 59 a5 3e 30 f6 bd bd
       -0.022982055 -0.030790478 0.32294646 -0.09275472
0003c0 2b 8a d2 3d d5 04 70 3e c8 92 7e be 6f 2d 22 bd
       0.1028026 0.23439343 -0.2486068 -0.03959411
0003d0 33 3d fb 3d 6b e3 1b be 94 8d ae 3a e1 f1 4c 3e
       0.12267532 -0.15223472 0.001331734 0.20014144
0003e0 23 d0 fd bd 6c 34 87 be f3 71 50 be f7 39 00 3e
       -0.123932146 -0.26407182 -0.20355968 0.12522112
0003f0 8a cf ce bc 48 4b 31 3e d7 38 02 3d ea bd 2b be
       -0.025245447 0.17313874 0.031792488 -0.16771665

aggregator.full.bias f4 [16]
000000 c4 bc 92 3b 12 12 57 bc 16 9d 89 bc e6 0d ae 3c
       0.004478069 -0.013126867 -0.016798537 0.021246862
000010 5b 92 c8 ba ad ab 16 bd 46 a5 82 bc 83 fc 0f bc
       -0.0015302406 -0.036784817 -0.01594795 -0.008788231
000020 31 27 9d 3b 32 7e 94 3d 93 77 01 3d c1 e6 66 bd
       0.0047959317 0.07250632 0.031608175 -0.056372408
000030 63 7d 6b 3d a5 44 a0 3c 8a bd 59 3d 94 a8 39 ba
       0.057492625 0.019563982 0.053159274 -0.000708231

step.full.weight f4 [1, 32]
000000 3c de 0b 3d 8f 90 20 be b5 9e 1c 3e fc e6 d8 bd
       0.034147486 -0.15680145 0.15294917 -0.10590932
000010 41 0c 10 be 38 b4 32 3d 71 02 29 3e 3f 6b ab bd
       -0.14067174 0.0436289 0.16504838 -0.08370065
000020 cd 57 17 3e a4 0e 69 bd ca 6e c7 bd bb af a1 bd
       0.14779587 -0.056898728 -0.09737928 -0.07894846
000030 34 a2 23 3d 06 02 e0 3d 8a 69 21 be 20 11 62 bc
       0.03994961 0.10937886 -0.15762916 -0.013798028
000040 aa f3 84 3d 00 c0 f5 ba 02 22 f1 3d 1c 31 2c bd
       0.06491788 -0.0018749237 0.117740646 -0.04203902
000050 86 38 13 be dd 0a 13 3e 58 82 f0 3c 02 7c ae 3d
       -0.1437703 0.14359613 0.029359028 0.08519746
000060 ca 9d d7 3d 5d 2f 20 be 6f 7e 30 be 58 16 f1 bc
       0.10528143 -0.15643068 -0.1723573 -0.0294296
000070 e4 11 02 be 44 6c 0c bd d0 ec 02 be 2a d1 eb bd
       -0.12702137 -0.034282938 -0.1278565 -0.11514504

lstm.lstm.weight_ih_l0 f4 [64, 16]
000000 dc 5e 7f 3e b9 24 7a 3d 60 ee b1 3e 9c 98 8b 3c
       0.2493853 0.061070178 0.34752178 0.017040543
000010 71 6f 8e 3e 24 93 8e 3e 61 28 e8 3e a7 64 37 3d
       0.27819398 0.27846634 0.45343307 0.044773724
000020 6a f7 96 3e 45 91 55 3e 08 0d 9f 3d fd 43 97 3e
       0.29485637 0.20856197 0.077661574 0.29544058
000030 40 f7 4e 3e 5b f4 a6 3e 35 68 e0 3e 6c 33 a6 3e
       0.20211506 0.32608303 0.43829504 0.32461107
000040 00 c0 60 3e d9 11 a4 bd 37 33 a7 3d 16 3a 9a 3c
       0.21948242 -0.08011217 0.08164065 0.018826526
000050 af ba 03 be ef c1 bd 3e fc 8f 8d bd c0 31 03 3e
       -0.12864183 0.37062022 -0.069122285 0.12811947
000060 8f 5d b5 3e 2f ce 0d 3e 61 60 6e bd 63 e4 1b 3e
       0.35422942 0.13848184 -0.058197383 0.15223841
000070 c0 bb c0 3d 47 e5 34 3e fc f9 42 3d 52 e7 55 3d
       0.094108105 0.17665587 0.047601685 0.052222557
000080 26 16 dd 3e cb 8b ad 3e 27 d2 10 3e ba 81 60 3e
       0.4318096 0.33895716 0.14142667 0.21924487
000090 91 e3 01 bd 4b 6e 2f 3d 4e dd 5b 3e a9 b0 92 bd
       -0.031711165 0.042829793 0.2147114 -0.071626015
0000a0 c8 a2 26 3e 73 91 b7 3e 46 95 ae 3e 78 07 43 3e
       0.16273034 0.35853156 0.34098262 0.19045818
0000b0 eb 0d c6 3e 6d 5e 39 3d ab a6 d5 3d b0 c8 6d 3e
       0.38682494 0.045256067 0.1043218 0.23221087
0000c0 7d e9 ac 3e 00 86 b7 3e 44 31 1f bd 4a e5 d3 3d
       0.33771887 0.3584442 -0.038865343 0.10346468
0000d0 03 06 41 3e b6 2d 14 3c 53 38 68 3d 5d 7a b5 bd
       0.1884995 0.009044101 0.05669434 -0.088612296
0000e0 d2 16 1d 3e 35 3f a4 3e 70 23 7c 3e 31 e0 b1 3e
       0.15340737 0.32079473 0.24622893 0.34741357
0000f0 20 e1 bb 3e 92 44 d9 3e eb d9 da 3d 4d 0d 1d 3c
       0.36695194 0.42435127 0.10686096 0.009585691
000100 93 3b a3 3c 44 7a 11 3e 8c 07 1c be 56 4a 9f 3e
       0.019925868 0.14206797 -0.15237254 0.311114
000110 66 43 f1 3b 45 4b 2a bd dc 7e 08 bd c3 fc d2 3e
       0.007362771 -0.04157569 -0.033324108 0.41208467
000120 9c 2b 95 3d 61 1c 0e bd 48 4a 56 3c f4 c9 72 3e
       0.072837085 -0.034695033 0.0130792335 0.23709852
000130 a7 d3 06 be 93 6e 18 3e b6 2d a0 3d f9 c5 41 3e
       -0.13166676 0.1488593 0.07821219 0.18923177
000140 ef ef aa 3e e0 d8 70 3e b4 85 e1 3e 3f bc cd 3e
       0.3338618 0.23520231 0.4404732 0.40182683
000150 bd 63 ee 3e c9 a6 46 3d 00 19 ba 3e de 7e b7 3e
       0.4656047 0.048498902 0.36347198 0.3583898
000160 78 2d 0d bd e1 0f b8 3e 3e 90 da 3d 9d a8 e1 3e
       -0.03446719 0.35949615 0.10672043 0.44073954
000170 4f 75 c0 3e 2a d4 fd 3d b2 68 b6 3e ed d8 da 3e
       0.375895 0.12393983 0.3562675 0.42743626
000180 47 3c 31 3e e1 07 70 3e e0 3b a1 3e 35 60 af 3e
       0.1730815 0.23440506 0.31490993 0.34253088
000190 20 be 94 3e aa fe 2c 3d 94 2b 22 bd 57 9e 95 3d
       0.29051304 0.042235054 -0.03959234 0.073055916
0001a0 8c 18 85 3d 35 f6 5f 3e 08 cb 1f 3e 8e 48 96 3d
       0.064988226 0.21871264 0.15604794 0.073380575
0001b0 c5 e7 04 3e d9 20 1c 3e 89 7a 2f 3d 4d e6 5d 3d
       0.12979038 0.15246905 0.042841468 0.05417471
0001c0 74 75 02 be 60 7d 0d 3e 39 cc bb 3d 84 eb 5b 3e
       -0.12740117 0.13817358 0.09169812 0.21476561
0001d0 a8 06 a9 3d 2b 2c 48 bd b3 f8 4b 3e d0 cb fa 3d
       0.08253223 -0.048870247 0.1991909 0.122459054
0001e0 e1 7a d4 3e 5a 56 a6 3c 56 10 ad 3d 4b 46 c6 3d
       0.415 0.020304848 0.084503815 0.09681376
0001f0 6e e7 2c 3e 68 e1 b7 3e 0e c5 6d 3e 52 61 92 3e
       0.16885158 0.3591416 0.23219702 0.28589875
000200 cd e3 e3 bd f9 c0 b9 bc 94 e9 6b 3e 8e 9e 2f 3e
       -0.11127434 -0.022675024 0.23038322 0.17150328
000210 99 de 10 bd 2a 28 fb be 76 cb cd bd cd df 18 3f
       -0.035368536 -0.4905408 -0.10048573 0.5971649
000220 88 19 d5 be 45 c8 4e be 35 c6 35 3c c6 5b 08 3c
       -0.4162104 -0.20193584 0.0110946195 0.008322662
000230 98 85 03 3c f5 d9 60 be c3 ba 31 be 97 fa 75 3e
       0.008027457 -0.21958144 -0.173564 0.24021374
000240 55 60 e6 3e e0 8f ae bd c6 73 4c 3d a6 8e 8e 3e
       0.4499537 -0.08523536 0.049915098 0.27843207
000250 57 95 d9 bd 88 43 b3 3d 79 a9 b2 3e 88 ac a6 3e
       -0.106241874 0.08753115 0.34894922 0.32553506
000260 3a 43 aa 3e 7b a3 85 3e d1 58 97 3e 87 f6 af 3d
       0.33254415 0.26101288 0.2955995 0.08591943
000270 91 b9 5a 3e ea fd fb bc 1f ba f1 3e 39 98 25 bd
       0.2135985 -0.030760724 0.47212312 -0.040428374
000280 db 0d 2a 3d 6a ac 88 3e c7 6d e6 3d c2 dd cc 3d
       0.04151712 0.26694041 0.11251407 0.100032344
000290 73 b7 a1 3e d4 ac 87 bc 78 b6 9c 3d 71 54 ac 3e
       0.31585273 -0.016561903 0.07651991 0.33658174
0002a0 78 29 45 3e bf b5 92 3d d7 76 cb 3c 69 d1 23 3e
       0.192541 0.071635716 0.02483694 0.15997852
0002b0 8d 68 c8 3e 0c c2 02 3e 75 ad ee 3e 90 4a 5f bd
       0.39142266 0.12769336 0.46616712 -0.054514468
0002c0 57 88 d3 3e 7a 46 8e 3e 0e 6b 5c 3d e8 73 95 3e
       0.41314957 0.27788144 0.053813033 0.29189992
0002d0 43 44 63 3e 01 79 64 3e d5 37 6e 3e 03 c9 c8 3e
       0.22194009 0.22311784 0.23263486 0.3921586
0002e0 b4 ff f0 3d a1 aa 15 3e 1d bf 60 3e 0d 52 ed 3c
       0.117675215 0.14615871 0.21947904 0.028969789
0002f0 0a 18 32 bd 66 4b 2d 3e e9 a6 59 3e db 69 bc 3e
       -0.043479957 0.16923293 0.21255077 0.3679951
000300 c0 3b df 3d 47 90 36 3a 65 bc 5d 3d 69 4b a4 3e
       0.10900068 0.0006964248 0.054134745 0.32088783
000310 26 75 df 3d 3b 3f 54 be 57 e7 11 be 4b ee b8 3d
       0.10911016 -0.20727246 -0.14248405 0.09029826
000320 1f ad 13 3e 8c 3d ab 3d 73 7c 9b 3b fe 92 b1 3d
       0.14421509 0.083613485 0.00474506 0.08670615
000330 55 d7 40 3d 02 a8 3f be 37 97 21 3e 12 84 12 3d
       0.047080357 -0.18716434 0.1578034 0.035770483
000340 0e 6a a7 3d fb 90 32 be e3 ce 83 3e ff 37 8f bd
       0.08174525 -0.17438118 0.2574378 -0.06993102
000350 99 1c 91 3e 9e e6 a5 3e f0 57 f5 3e f6 62 c1 3e
       0.2834213 0.3240251 0.47918653 0.37770814
000360 36 2c e7 3d 76 a0 91 3e fd ab 44 3e 4d 1e 9e 3d
       0.112877294 0.28442734 0.19206233 0.07720623
000370 0e dd af bc 84 c9 ac 3e fd 0b 5d 3e ec 29 d3 3e
       -0.021467712 0.33747494 0.21586604 0.4124292
000380 a9 b8 d5 3e 01 52 bf bc c6 3d 77 bd 11 3f 2e bd
       0.41742447 -0.023354532 -0.060361646 -0.042540614
000390 b5 a0 f4 3d b8 ea 8e 3e 4a a8 48 3e 2a 3a c1 3d
       0.11944715 0.2791345 0.19595447 0.09434922
0003a0 e4 7d 87 bd 59 f9 64 3e 95 bc 13 bd b9 f2 74 3e
       -0.066158086 0.22360744 -0.036068518 0.23920716
0003b0 46 e0 9e 3e 57 d5 dd bd f2 4e ef 3e 54 e2 79 3e
       0.31030482 -0.10831707 0.46739918 0.24402744
0003c0 46 fa 78 3e 23 85 88 3c d7 a9 21 3d 57 ab 7d 3e
       0.24314222 0.016665047 0.039468613 0.24772392
0003d0 ad 74 4b 3e 44 62 dd bd f9 67 68 be 5e 12 af 3d
       0.19868727 -0.10809758 -0.22695912 0.08548425
0003e0 6d 1c 75 3c 17 d3 9d 3e 8c 60 89 3e 2b 0b 3a be
       0.0149603905 0.3082511 0.26831472 -0.18168323
0003f0 14 b5 c4 3e 71 2b bd 3e c5 3f 4a 3d e5 42 d9 3d
       0.38419402 0.36947206 0.04937722 0.10608462

lstm.lstm.weight_hh_l0 f4 [64, 16]
000000 ce 79 be bd 30 f5 56 3e 87 72 bc 3d 43 73 c4 bd
       -0.09300576 0.20991969 0.09201532 -0.09592297
000010 6c cb 0f be ad a4 18 bd 6c 9d ba be 78 d5 13 3e
       -0.14042443 -0.037266422 -0.36448228 0.144369
000020 3c 27 49 be 94 a0 ac be 9e d1 7e be 3b d5 89 3e
       -0.19643873 -0.3371626 -0.2488465 0.26920494
000030 21 dd d4 3e fa cb bb bd 5c cf 7f 3e 36 8e be 3e
       0.41574958 -0.09169765 0.24981445 0.37217873
000040 e4 69 b0 bc 06 41 a9 3e c8 87 2f 3e 0b 50 f5 be
       -0.021534868 0.3305742 0.1714164 -0.4791263
000050 72 91 57 be 5a 48 c3 3e 14 89 c8 bd ed 5d 04 bd
       -0.21051577 0.38141137 -0.097917706 -0.032316137
000060 ee 50 a1 be 76 e1 ee bd fe 7c a9 3d c7 21 94 3d
       -0.31507057 -0.11664097 0.082757935 0.07233005
000070 9b ff 33 3e 85 e7 01 3e 53 fa 17 3e 79 1b aa 3d
       0.17577974 0.12685974 0.14841585 0.08306021
000080 02 b1 e4 bd 7b 68 bf 3e c0 d3 4f 3d 36 bb ef bd
       -0.11166574 0.373844 0.05073905 -0.117056295
000090 1e 8d 76 3c 6a 6a 9f 3d b2 b8 a9 bd 8e 30 ba 3e
       0.015048293 0.07783969 -0.08287181 0.3636517
0000a0 b9 a2 e1 be 40 f7 1a be 12 cf 1a bd da 13 9b 3d
       -0.4406946 -0.15133381 -0.037795134 0.07572146
0000b0 98 85 94 3e 73 8c a2 3e 37 2b 98 bd 3b 36 5e 3e
       0.29008174 0.3174778 -0.074301176 0.21700375
0000c0 2f 25 52 be 7b 40 6c 3e 6e a7 e0 3d 16 89 34 be
       -0.20521997 0.23071472 0.10969435 -0.17630419
0000d0 6d 3e fc 3c 3d b9 a7 3c 1c 3f 77 be 3f 97 68 3e
       0.030791486 0.02047407 -0.24145168 0.22713946
0000e0 90 9c fb 3c e8 1a be be 9b d8 d6 be b7 4e a1 3e
       0.030714303 -0.37129903 -0.41962132 0.31505367
0000f0 a0 84 67 3d 52 7e 91 3e 55 ce a1 bd 42 ff 77 3d
       0.056522965 0.28416687 -0.07900683 0.060546167
000100 b3 5f de bd 44 c6 97 be d4 ef 7c be 5d 47 a1 be
       -0.10858097 -0.29643452 -0.24700862 -0.31499758
000110 df cf ac 3c 1d 5a 69 be a7 dd 9c 3e e4 59 01 bc
       0.021095214 -0.22788282 0.30637857 -0.007894967
000120 2f 09 db be 57 78 c7 be 01 43 7a be c2 ec 5d be
       -0.42780444 -0.38959 -0.24439622 -0.21672347
000130 e6 e8 b9 3d 8c 1e 3c 3e 4f fb c1 3e 58 53 28 be
       0.09077625 0.18371028 0.37887046 -0.16438043
000140 61 a2 28 3d 20 4b 28 3e 3e 0a 27 3e b1 61 96 be
       0.04117048 0.16434908 0.16312501 -0.29371408
000150 65 68 1d be 93 26 ae 3d 53 69 3e be cf d8 e4 3e
       -0.15371855 0.08503451 -0.18594866 0.44696662
000160 de 50 87 be 15 81 d9 bd c5 83 80 3d 4a d5 66 bd
       -0.26428884 -0.106203236 0.06275133 -0.056355752
000170 5c 83 ff 3d eb 93 08 39 95 1c a4 3d 3e f5 87 3e
       0.12476227 0.00013025074 0.08013264 0.26554292
000180 c3 a5 c0 be 02 59 24 3e dc b6 0f bf f2 4a 24 bf
       -0.37626466 0.16049579 -0.56138396 -0.6417686
000190 91 a2 d9 3d e4 3b 9f 3e 30 5a 74 be d0 a7 08 3e
       0.1062671 0.3110038 -0.23862529 0.13345265
0001a0 14 5c 76 bd 98 f9 76 3e d0 4f b6 3b 13 f4 0d bd
       -0.060146406 0.2411865 0.0055637136 -0.034656595
0001b0 c8 17 ec bd fc 14 37 3f 56 63 9d 3e 9d 18 75 3d
       -0.115279734 0.71516395 0.3073985 0.059837926
0001c0 3d a8 1e be 7e 84 36 3d ef 3b cf be f4 7d 15 bf
       -0.15493865 0.04455995 -0.40475413 -0.58395314
0001d0 15 ba 89 3e 86 da c6 3c 97 44 6c bd 08 2e 91 bd
       0.26899782 0.024274122 -0.0576826 -0.07088858
0001e0 82 b8 99 be d5 09 2f 3e 75 5e 90 3d 95 dd 86 3d
       -0.3002358 0.17093594 0.07049266 0.06585232
0001f0 2c 3c 0b 3e 1b 27 dd 3e 58 79 0c 3e be f7 ac 3e
       0.13597172 0.43193898 0.13718164 0.33782762
000200 2f f6 19 3f 5d d1 e8 3d a9 27 05 be 6c 9d 5e 3e
       0.6014127 0.11368058 -0.1300341 0.21739739
000210 32 10 15 be 2d 17 8c bd 34 01 ae be ed 10 92 be
       -0.1455696 -0.06840358 -0.33985293 -0.28528538
000220 18 13 b5 3d 80 52 0f be 84 41 9c be e3 78 8b be
       0.088415325 -0.13996315 -0.30518734 -0.27240667
000230 50 0d fa 3d b4 03 6a 3d c0 a0 d8 bd 55 0e e7 3d
       0.122095704 0.057132438 -0.10577536 0.112820305
000240 80 e6 79 3d de 8f 1d 3e bb ab 7a be 92 2f 2f be
       0.061010838 0.15386912 -0.24479572 -0.1710799
000250 5b 16 df bc e4 bd 8f be 9b fb 49 be f8 b4 e2 bd
       -0.02723234 -0.28074563 -0.19724886 -0.11069673
000260 0b 05 b9 be 39 8b ab bd 6b 45 a4 3b 43 c5 b9 3d
       -0.3613666 -0.08376164 0.005013158 0.09070828
000270 7d 35 20 bc d2 82 45 be 2f fd 22 3d 2a ed 97 3e
       -0.009778378 -0.19288185 0.039792236 0.2967313
000280 23 67 5a 3d 49 b8 82 3e fd 2e e6 bd a9 42 96 be
       0.053321015 0.25531223 -0.11239431 -0.29347733
000290 55 8b e0 be ce 03 35 3d e6 4a 5c 3d 48 b6 58 bd
       -0.43856302 0.04419308 0.053782366 -0.052908212
0002a0 28 3e 3e be c3 65 83 3b b8 f8 bf bd 37 c0 90 3e
       -0.18578398 0.0040099337 -0.09373611 0.28271648
0002b0 c8 19 af 3e af 55 db bd 60 bf f4 3d 64 65 51 3e
       0.34199357 -0.10709702 0.119505644 0.20448834
0002c0 06 a2 a2 be 3b 2c f4 3d 1c af ef bd 67 b5 ba bd
       -0.3176424 0.11922499 -0.11703321 -0.09116631
0002d0 40 38 dd be c5 a0 32 be 77 61 c5 bd 33 ad 86 3e
       -0.43206978 -0.17444141 -0.096377306 0.26304016
0002e0 2c 5c 5d be 6f ed c3 be c2 c0 75 bd 69 3d 4c 3e
       -0.21617192 -0.38267085 -0.05999828 0.19945301
0002f0 89 d5 11 bd 72 14 bd 3e e5 32 a3 3c ad e3 fd 3d
       -0.035604034 0.3692966 0.01992173 0.12396941
000300 b8 6d bf 3e b8 98 36 3e 8d b7 30 be c3 17 8e 3e
       0.37388396 0.17831695 -0.17257519 0.27752504
000310 74 f4 26 be 04 18 cf be d3 05 1e 3e 69 ee 31 be
       -0.16304189 -0.4044801 0.1543191 -0.17376103
000320 9c e7 06 be e8 37 0f be 94 76 3b be 12 42 b3 3e
       -0.1317429 -0.1398617 -0.18306953 0.35011345
000330 03 ab 82 3e ce 82 7a be a1 60 f4 3d 94 b0 a9 be
       0.25521097 -0.2446396 0.11932493 -0.3314253
000340 5e b2 5a bd 18 95 99 3d 71 ba 69 be e9 23 be be
       -0.05339276 0.074991405 -0.22825028 -0.37136772
000350 b8 3c 1c be 7a d6 df bd 6e b4 00 bd e9 cf c6 3d
       -0.15257537 -0.1092958 -0.03142207 0.097076245
000360 48 85 6f be c7 27 8d 3d 0d 7c e7 bc 78 f1 11 3e
       -0.23390687 0.068923526 -0.028257394 0.1425227
000370 78 7b 18 3e 05 dc 06 3e 1d b3 95 3e 29 21 6e 3e
       0.1489085 0.13169868 0.29238215 0.23254837
000380 e2 b8 3d bc 64 b4 ec 3c 03 15 b1 bd 11 cf 4f be
       -0.011579724 0.02889461 -0.08646586 -0.20293833
000390 cd 77 92 be 3a 83 88 3e 1a d0 52 3e 42 23 0c 3e
       -0.28607026 0.26662618 0.20587197 0.13685325
0003a0 e8 03 b7 be 85 0b 21 be 0a db c9 be bf a3 8f 3e
       -0.35745168 -0.1572705 -0.39424926 0.28054616
0003b0 ff 53 af 3c 93 e4 0d 3d a0 ea 4c 3e d5 10 73 3e
       0.021402357 0.034641813 0.20011377 0.2373689
0003c0 f1 f8 ac 3d 16 6a eb be 17 70 2c be 53 7a a9 bd
       0.08445919 -0.45979375 -0.16839634 -0.082752846
0003d0 69 10 ef bd a1 bb 5d 3e 34 06 49 3e 8b ad 0d 3e
       -0.11673052 0.21653606 0.19631273 0.13835733
0003e0 c3 6f bd be 76 84 4d be c8 0e 0c 3d 8d 6d 05 3d
       -0.3699933 -0.20070061 0.034193784 0.03257518
0003f0 8a 13 a5 3a ca 5e a0 3d 20 d8 9d bd ab d9 f3 bc
       0.0012594324 0.078305796 -0.07707238 -0.029766878

lstm.lstm.bias_ih_l0 f4 [64]
000000 59 a4 aa 3e 5e ac 04 bd 32 a9 c1 3e e9 53 2c 3e
       0.33328512 -0.032390945 0.37824398 0.16828884
000010 ca 78 34 3e 9c ce b4 3e 23 cf 5e bd b6 b2 c4 3e
       0.17624202 0.3531388 -0.05439676 0.38417596
000020 e9 7d de 3d 6f a2 a0 3d 75 0b 94 3d 34 4d 61 3c
       0.10863859 0.07843482 0.07228748 0.013751317
000030 80 be 04 3d 42 23 09 bc 13 e4 94 3e 0a 26 65 bc
       0.032408237 -0.0083702225 0.29080257 -0.01398612
000040 6a cd 57 bb 8d 84 d6 3e 66 c6 e1 3e 76 5f 50 3e
       -0.0032928833 0.41898003 0.44096678 0.20348915
000050 85 bc 4a 3d 45 8c 4e 3e 12 c8 83 3e 86 47 8b 3e
       0.049496192 0.20170696 0.2573858 0.27203006
000060 72 04 92 3e 84 f8 a0 3d e3 6f d6 3e 13 26 14 bc
       0.28519017 0.078599006 0.41882238 -0.009042281
000070 85 9b aa 3e 10 14 70 3e a8 6e a6 3c 8d c2 31 bd
       0.33321777 0.23445153 0.020316437 -0.04339843
000080 45 fe 25 3e 0e 5c 2b 3d e6 3e cd bd 95 2c b2 3b
       0.16210277 0.041835837 -0.100217625 0.0054374435
000090 f0 61 c6 3d 4a 38 2c be 0b b4 ec bc c6 a3 42 bd
       0.09686649 -0.16818348 -0.028894445 -0.047519468
0000a0 0e 4d 02 be b8 7f d6 bd 3f 90 bf bc 97 17 8b 3c
       -0.12724707 -0.10473579 -0.023384212 0.016979022
0000b0 d5 8e b6 3d 12 df f4 bd 83 de 8f be 66 55 8f 3e
       0.08913962 -0.1195661 -0.2809945 0.2799484
0000c0 2f 47 57 3e 3b 5e e7 3e f1 b1 f7 3e 84 bd d5 3e
       0.21023248 0.4518908 0.48377946 0.4174615
0000d0 c0 16 9e 3d 67 fc f3 3e 0d 88 86 3e 65 ba a3 3e
       0.07719183 0.47653505 0.26275674 0.31978145
0000e0 61 00 d2 3e 0b 08 96 3e 35 e8 a4 3e c1 e7 07 3f
       0.41015914 0.2930301 0.3220841 0.53088003
0000f0 5c aa 96 3e 35 8c 00 3e 8d 73 fb 3d 32 b2 93 3e
       0.2942685 0.12553485 0.12277899 0.2884689

lstm.lstm.bias_hh_l0 f4 [64]
000000 b1 d2 66 3e 18 45 8b 3e 86 16 98 3e 61 29 ee bb
       0.2254131 0.27201152 0.29704684 -0.0072681163
000010 60 ab 3e 3e f0 ec de 3d c8 68 46 3d 79 7d 32 bc
       0.18620062 0.10885036 0.04843977 -0.010894173
000020 be b2 96 bd c9 e1 a3 3e 7d 22 ae 3e 3c e5 97 3e
       -0.07358311 0.32008198 0.34010687 0.2966708
000030 1b 96 19 3d 98 a7 10 bd 9c 12 1b 3e e4 b4 5d 3e
       0.037496667 -0.03531608 0.15143818 0.21651036
000040 3d 8c 1c bd 58 06 8b 3e 83 67 db 3e ee 86 2b 3e
       -0.03821968 0.27153277 0.4285241 0.1675069
000050 ca 79 eb 3e b2 6f 75 3e da 48 d3 3d 3c ed 61 3b
       0.45991355 0.2396839 0.1031663 0.0034473678
000060 f6 49 15 3d 15 b1 4a 3d 46 f2 79 3e c1 23 b6 3e
       0.036447488 0.049485285 0.24408826 0.35574153
000070 ae c8 90 3e 1d 24 18 3e cc 2c 8e 3d ea d2 56 3e
       0.28278106 0.14857526 0.06942138 0.20978895
000080 2d 77 8a bd da ff 03 be 03 57 79 3e 43 64 28 3e
       -0.06761012 -0.12890568 0.24349599 0.16444497
000090 04 43 88 3d 5c 8e 3b 3d f1 ba 55 be 72 db 44 be
       0.06653407 0.04579006 -0.20872094 -0.19224337
0000a0 df 0b 06 bd 20 3d c0 bb ca 72 f8 bc ee 16 3e 3e
       -0.032726165 -0.0058666617 -0.030328173 0.18563434
0000b0 de 5b 83 3d 61 89 3d 3d bd e9 24 3e 78 d0 b8 3d
       0.06414007 0.046273593 0.16104789 0.09024137
0000c0 88 33 59 3d bb 4a fe 3e c0 e2 c3 3e 28 44 fc 3e
       0.05302766 0.4966639 0.38258934 0.4927075
0000d0 01 ef 93 3e 58 6b 27 3e 49 46 d3 3e 73 20 6d 3e
       0.28893283 0.16349542 0.4126456 0.2315691
0000e0 6c ac c1 3e 3f 48 2c 3e 82 08 7e 3e ee b7 af 3d
       0.3782686 0.16824435 0.24807933 0.08580004
0000f0 93 24 4e 3e 78 18 8b 3e 33 68 c8 3e 00 79 26 3e
       0.2013114 0.27167106 0.39141998 0.16257095

downstream.full.weight f4 [7, 16]
000000 f4 2b 24 bf 3a 76 5e be a4 16 79 be 7a b9 0a be
       -0.6412957 -0.21724787 -0.24325043 -0.13547316
000010 20 d6 24 be 31 71 34 bf 94 db 43 3f 48 a5 eb 3e
       -0.16097307 -0.70485216 0.76506925 0.46024537
000020 59 9c b5 3e 75 8b c1 be 74 92 b5 be ba 43 38 3f
       0.35470846 -0.3780171 -0.35463297 0.7197834
000030 57 62 22 bf 1f fe 1f 3f a7 df 25 3f 6a 36 5d bf
       -0.63431305 0.62497133 0.6479439 -0.86411154
000040 88 f4 05 3f d2 27 38 3e 01 e8 f2 3e 3c 63 72 3f
       0.5232625 0.1798394 0.4744263 0.9468267
000050 7f 05 79 3c 1b 19 9d 3f ad b9 a3 3e e6 d3 c3 bd
       0.015199064 1.2273287 0.31977597 -0.09561901
000060 06 15 5a 3f f3 c7 e5 be 72 27 97 3f b6 40 42 3f
       0.8518833 -0.44879112 1.1808913 0.7587999
000070 14 87 13 3f 18 28 07 bf 3c fe de be a1 ff c9 bc
       0.5762799 -0.52795553 -0.4355334 -0.024658026
000080 a2 6f 39 3f e9 51 a5 3e a4 27 d6 3e e9 08 8e 3f
       0.72435963 0.32289055 0.41827118 1.1096469
000090 44 24 c8 be 50 85 5e bf 62 73 1d 3f 9f 47 b0 be
       -0.39090168 -0.8692217 0.61504185 -0.34429643
0000a0 fa d1 1f bf 10 83 cc be 88 68 81 bf 57 bf 6b bd
       -0.62429774 -0.39943743 -1.0110025 -0.057555523
0000b0 be 3d ac 3e ba c3 5f bf cf 33 49 bf 32 33 83 3e
       0.33640856 -0.8740803 -0.7859468 0.25624996
0000c0 b9 d4 b2 3e 51 dc 13 3f 35 de 59 bf ca 1f ab be
       0.3492792 0.5775805 -0.85104686 -0.3342269
0000d0 6f ce 62 be 5b b4 18 3e 75 9d 16 bf 9b 42 37 bf
       -0.2214906 0.1491255 -0.5883401 -0.71586007
0000e0 5d 34 ed be f4 d1 63 bf e0 8c b9 be 98 43 54 3e
       -0.46329013 -0.8899224 -0.36240292 0.2072891
0000f0 58 d4 06 3f 57 fb 46 3f 0e fa 88 3f 6e 8f 91 3e
       0.5266776 0.77727264 1.0701311 0.2842974
000100 0d 88 49 bf f5 d0 29 3f b7 50 4d 3f 36 84 1f bf
       -0.7872322 0.6633447 0.80201286 -0.6231111
000110 01 3a 9c 3d e2 a0 57 3e 0f e5 40 bf f3 4a 34 3f
       0.07628251 0.21057466 -0.75349516 0.70426863
000120 e9 1c 22 bc ac 4d 25 3f ea 33 58 3f 03 f2 19 bf
       -0.009894588 0.6457164 0.84454215 -0.60134906
000130 19 b4 bc bd d0 9d 9c be 56 c9 d9 be 71 07 27 3f
       -0.092140384 -0.3058915 -0.4253642 0.6524573
000140 42 c5 04 bf d6 dd 2c bf a2 69 ea be 2b 9c a9 3d
       -0.5186349 -0.67525995 -0.45783716 0.0828174
000150 d3 c0 8f 3f 81 cf 44 3f 49 15 f9 3e d6 7d 4a 3f
       1.123072 0.76879126 0.48649052 0.7909826
000160 36 32 17 3f 8e 25 23 bc a8 f1 81 be 96 95 57 bf
       0.5906099 -0.009957684 -0.25379682 -0.84212625
000170 ce da 76 bc 72 f0 26 3f 3a a5 78 bf fd 65 c8 3e
       -0.015066816 0.6521064 -0.97127116 0.3914031
000180 e5 e7 a7 be ea 9c 19 bf f0 4c 0e bf 1d 81 87 be
       -0.3279411 -0.60005057 -0.5558615 -0.26465693
000190 cc 4a 41 3f 87 83 41 bf c5 ec 64 bf 9a 00 6c bf
       0.75504756 -0.7559132 -0.8942378 -0.9218842
0001a0 31 6a 2f bf 50 ff 50 3f 9c eb c4 be 23 64 87 bf
       -0.6852141 0.81639576 -0.38461006 -1.0577434
0001b0 7e f1 6a be b8 fd 87 3e 19 6c c7 be 6e aa 36 bf
       -0.22943684 0.2656076 -0.3894966 -0.71353805

downstream.full.bias f4 [7]
000000 72 bc 15 3e 08 39 7a bd 5a be a7 be 92 4f ec 3d
       0.14622667 -0.061089545 -0.32762414 0.11538614
000010 17 56 84 3e 92 45 7c 3b 8b 8d 9d be
       0.2584693 0.0038493616 -0.3077205

maxpooling.full.weight f4 [16, 16]
000000 7c d4 7b be 1c a1 a6 be be 73 b8 be 50 1a 8c be
       -0.24592775 -0.32544792 -0.36025804 -0.27363825
000010 2b 9d a6 3e 4c 5c 54 be f9 5d 8b 3e 33 38 ac 3e
       0.32541785 -0.20738333 0.27220133 0.33636627
000020 08 fb cf be 0e a5 68 3e 36 de 05 be fe 04 67 3e
       -0.4062121 0.22719213 -0.13073048 0.22560498
000030 73 02 cb 3e 50 0b d3 bd 5c 77 a9 be 92 01 31 be
       0.39650306 -0.10304892 -0.33098876 -0.17285755
000040 e4 a1 0b be 86 42 3a 3e d7 40 4c be 80 67 e6 bd
       -0.13635975 0.18189439 -0.1994661 -0.1125021
000050 5a 55 35 3e 92 40 d4 be 1a 3a cd be dd df c2 3e
       0.1770834 -0.41455513 -0.4008339 0.3806142
000060 ca 42 08 be b5 cf 83 3e 58 84 48 3d 39 a6 b0 be
       -0.13306728 0.25744405 0.048954338 -0.34501818
000070 86 93 6b 3e c0 2a ee 3b 2d 94 c7 be e8 31 ba bd
       0.23005494 0.00726828 -0.38980237 -0.0909155
000080 0b ea b8 3e 58 cb d0 be 4e 6f 63 be af a4 80 3e
       0.3611606 -0.4078014 -0.22210428 0.25125644
000090 af c3 43 be a0 75 fb bc 20 9c 03 bd 1a 35 6c 3e
       -0.19117616 -0.030695736 -0.032131314 0.23067132
0000a0 aa 68 40 3e 8d 3d af 3e 35 ce 85 3e 69 d2 8a 3e
       0.18789926 0.34226647 0.26133886 0.27113655
0000b0 3b c4 ce be 41 41 74 be 6a 48 38 3e 7d 04 b0 3e
       -0.40384087 -0.23853017 0.17996374 0.34378424
0000c0 28 b2 fe bd 82 b1 4b 3e a2 c4 b6 be 7b 7d a4 3e
       -0.12436324 0.19891933 -0.35696894 0.32126984
0000d0 28 a1 32 3d 8d fc 85 3e a1 80 ad be c4 b5 ad 3d
       0.04361072 0.26169243 -0.338872 0.08481935
0000e0 18 36 42 3d d4 ea 4d be 4f 3d b8 3e 69 4c a6 3e
       0.04741487 -0.20109111 0.35984275 0.3248017
0000f0 4b e0 8d 3e 44 e0 9a bd 2d a8 b9 be e1 8b c4 3e
       0.27710184 -0.075623065 -0.3626112 0.3838797
000100 36 d3 75 be c0 9a c1 be f7 3e c2 3e 9b a8 b4 be
       -0.24006352 -0.37813377 0.37938663 -0.35284886
000110 f0 6c dc be 00 c4 b7 3a 96 33 0f be f3 f7 b1 3e
       -0.43051863 0.0014020205 -0.13984522 0.34759483
000120 e1 8c bd be 4a 1c 26 3e 49 95 c4 3e c0 9b 89 3b
       -0.37021545 0.16221729 0.38395146 0.004199475
000130 8e c5 29 3e ab c1 a7 3e 31 03 90 3e de e2 46 3e
       0.16579267 0.32764944 0.28127435 0.1942248
000140 e5 ea c1 be 8e e1 7d 3e 48 c7 94 bd a2 43 4d be
       -0.37874523 0.24793074 -0.072645724 -0.20045331
000150 5e 5f bf be 14 cb 09 be 30 95 d0 3c 80 99 0e bd
       -0.37377447 -0.13456374 0.025461763 -0.034814358
000160 1c a8 9c be 21 42 76 be 10 16 af bd 11 8a bd 3e
       -0.30597007 -0.24048664 -0.0854913 0.370194
000170 78 0f 64 bd bc a9 f8 bd 00 6a 27 be c9 85 b4 3e
       -0.055678815 -0.12141749 -0.1634903 0.3525832
000180 5a 32 6e 3e 00 20 eb b8 84 e5 83 be c0 ec e0 3b
       0.23261395 -0.00011211634 -0.25761044 0.0068641603
000190 46 63 5a 3e 35 75 c8 3e 67 9c c5 3e 3c aa f4 3d
       0.21326932 0.39151922 0.38595888 0.11946532
0001a0 f5 d3 8c 3e d5 59 ab 3e 13 64 81 3e 5d 0c b3 3e
       0.2750546 0.33466974 0.25271663 0.3497037
0001b0 a6 1a 5a 3e 2f b6 80 3e 32 68 20 3e 44 74 c5 be
       0.21299228 0.25138995 0.15664747 -0.38565266
0001c0 1c e1 e6 3d 3d f1 9d 3e e6 40 7a 3e e8 eb 7f bd
       0.11273405 0.30848113 0.2443882 -0.062480837
0001d0 2b a0 81 3e 82 29 46 3e fe 28 3c 3e ca c9 6f 3e
       0.2531751 0.19351771 0.18375012 0.2341682
0001e0 50 63 8f be 09 f8 ae 3e 40 fd ae bd 4a ea 2f 3e
       -0.28005457 0.3417361 -0.08544397 0.17179218
0001f0 4a 26 06 3e fd 0a 97 3e 73 a3 7b be 42 70 5b 3e
       0.13100544 0.2950057 -0.2457407 0.21429542
000200 65 a7 bc be 20 a7 2a bc 88 d3 47 bd a6 64 00 3e
       -0.36846462 -0.010415822 -0.048785716 0.12538394
000210 88 e6 b9 be 2a c9 74 be 75 e0 8b 3e e0 2e 3c 3c
       -0.36308694 -0.23904863 0.27319685 0.011485785
000220 f6 75 b6 be 28 26 d1 be 06 69 28 3e 4b 07 d3 3e
       -0.35636872 -0.40849423 0.16446313 0.41216502
000230 dc 4d c5 3d f2 df 42 3e 31 ca ce 3e f6 49 81 be
       0.09633991 0.19030741 0.40388635 -0.2525174
000240 2d f5 b4 3e 43 8e 5d be 35 77 d9 3e 90 dd b8 3c
       0.35343304 -0.216363 0.4247376 0.022566587
000250 2f f0 b8 3e 54 2f c9 3d 0e 64 0b 3e 60 ea a8 bd
       0.36120746 0.0982348 0.13612387 -0.082478285
000260 25 9d c7 3e 96 74 28 3e 00 1a f3 bb 19 5f a9 3e
       0.3898708 0.16450724 -0.007418871 0.33080366
000270 20 4a 13 3c 08 56 9a be 20 bd 25 bc 9e 2d 29 be
       0.008989841 -0.30143762 -0.010115892 -0.16521308
000280 c8 34 75 3d d0 1d 04 3d 31 45 50 be f4 19 85 be
       0.05986479 0.032254994 -0.20338894 -0.25996363
000290 92 cb d6 be fe 11 59 3e 66 46 56 be 98 75 6f bd
       -0.41952187 0.2119827 -0.20925292 -0.058461756
0002a0 1e 6d 4b 3e 89 a3 9a 3e 8d 7f 4d be 88 f6 06 bd
       0.19865844 0.30202892 -0.20068188 -0.032949954
0002b0 48 55 1b bd 20 95 c9 bd 08 4f cb be 0f 36 d2 be
       -0.037923127 -0.098428965 -0.39708734 -0.41056868
0002c0 24 9e b8 3d c0 da d4 3b 2b a1 af 3e 7c 34 fd 3d
       0.09014538 0.0064958036 0.3430265 0.12363526
0002d0 e2 fd a6 be e2 98 8b be 6c 15 96 be 16 d8 21 be
       -0.32615572 -0.27265078 -0.2931322 -0.15805086
0002e0 b1 64 ad be 02 e3 5e 3e 80 d2 b3 bb f2 78 71 be
       -0.33865884 0.21766284 -0.00548774 -0.23581293
0002f0 80 94 c7 bd 4d b1 8b be be 5a 6e 3e e1 06 4b be
       -0.09745121 -0.27283707 0.23276803 -0.19826843
000300 14 33 fb 3d f2 fd 6a 3e fa 90 2a 3e c2 35 15 be
       0.12265602 0.22948435 0.16656867 -0.14571288
000310 e9 30 ca 3e 5a a1 30 3e 60 29 49 3c 88 14 14 3d
       0.3949044 0.1724905 0.012277931 0.036152393
000320 fb b6 99 3e dd 7f 8d 3e 56 f5 2d 3e 1f 21 d9 be
       0.30022416 0.27636614 0.1698812 -0.42408082
000330 22 a5 04 3e 8a a5 75 3e ad c8 9f 3e c0 a0 4a bd
       0.12953618 0.2398893 0.3120779 -0.04946971
000340 f4 d5 99 3d 72 79 58 3e 00 5f d3 bb 75 85 81 3e
       0.075115114 0.21140078 -0.006450534 0.25297132
000350 3c 0d d7 3d 53 38 d3 3e ff 6c ba 3e 11 30 92 3e
       0.10500571 0.4125391 0.36411282 0.28552297
000360 5e e9 10 3e 4c f7 99 3d 15 03 cf 3e cd 72 bf 3e
       0.14151523 0.07517871 0.4043204 0.37392274
000370 33 bc d5 3e b4 a8 72 be b8 a0 8e bd 68 3c c4 be
       0.41745147 -0.23697168 -0.069642484 -0.38327336
000380 16 dc 37 3e 40 b3 61 bc 40 a1 d2 3b d3 17 70 be
       0.1795505 -0.013775647 0.006427914 -0.23446588
000390 a9 80 d5 3e 9e 26 05 3e 08 74 06 bd cc c4 ec bd
       0.41699722 0.13003013 -0.0328255 -0.115609735
0003a0 b4 a7 21 be 19 a8 51 be c1 d4 96 3e 8f 27 c7 3e
       -0.1578663 -0.2047428 0.29459193 0.38897368
0003b0 4c 32 f1 3d ae a0 60 3e 70 e4 09 3d 4d 7e be be
       0.117771715 0.21936294 0.03366512 -0.37205735
0003c0 b2 e2 5a 3e 3b 41 af 3e ca 28 0f 3e ef 30 a0 be
       0.2137554 0.34229454 0.13980404 -0.31287333
0003d0 40 04 5a 3d 2c 67 b3 bd 38 e1 7b be d6 13 99 be
       0.05322671 -0.08759913 -0.24597633 -0.29897946
0003e0 4d 64 d7 3e 38 24 d0 bd 4b 9b a8 be 60 c6 ac bd
       0.4206871 -0.10163158 -0.3293098 -0.084362745
0003f0 30 72 40 3d 30 52 3f bd db 3a a9 3e 63 6d 90 3e
       0.046983898 -0.04670924 0.33052716 0.28208455

maxpooling.full.bias f4 [16]
000000 36 59 2b 3e 98 58 4c bd 6c 0d 52 be 90 7f 30 be
       0.1673325 -0.049889177 -0.20512933 -0.17236161
000010 00 ec e7 bb f4 27 82 3d 50 84 f1 3d e8 32 19 3e
       -0.007077694 0.06355277 0.11792815 0.14960825
000020 66 e8 58 be cc 68 7b be a4 39 e6 3d d4 a2 21 3e
       -0.21182403 -0.24551696 0.11241463 0.1578477
000030 84 8a f7 bd f8 19 9e bd 18 80 81 3d 10 78 bb 3c
       -0.12086967 -0.07719797 0.0632326 0.022884399
