best_model/acc/cora_dropout=0_wd=0_b=256_lr=0.01_walk=4_best_model.pt (torch_old, 185335 bytes, 4 tensors)

aggregator.full.weight f4 [16, 2866]
0	0xbdf0e659	-0.11762685
1	0x3ee29401	0.44253543
2	0xbc49b099	-0.012310171
3	0x3f175b90	0.5912409
4	0xbef2d299	-0.47426298
5	0x3e140750	0.14455914
6	0x3e8a3c93	0.2699934
7	0x3e4dbb11	0.20090891
8	0xbcddb763	-0.027064985
9	0x3f0f0b68	0.5587678
10	0x3f0fd61c	0.5618608
11	0x3ecc8be6	0.39950484
12	0xbea6b52a	-0.32560092
13	0x3f12c522	0.5733205
14	0xbea75f50	-0.32689905
15	0xbdcc45df	-0.09974264
16	0xbe6e87fa	-0.23294058
17	0x3e92e6f3	0.28691825
18	0xbdb31323	-0.087438844
19	0x3f01c739	0.50694615
20	0x3eba4582	0.36381155
21	0x3e93162a	0.28727847
22	0xbe201518	-0.15633047
23	0xbedb527b	-0.42836365
24	0x3e92ea7e	0.28694528
25	0xbe92eb5e	-0.28695196
26	0xbf37ecac	-0.7184551
27	0xbe98b67b	-0.29826722
28	0xbd42a36e	-0.04751914
29	0xbf442ec4	-0.7663386
30	0xbf1f0a24	-0.6212485
31	0xbec1b14a	-0.37830573
32	0x3f16d398	0.58916616
33	0xbe868e3e	-0.26280397
34	0x3ea5f5a4	0.3241397
35	0xbec59529	-0.38590363
36	0x3e184eea	0.14873853
37	0x3e90e029	0.2829602
38	0x3ded4cc3	0.11586907
39	0x3e8ae769	0.27129677
40	0xbeb1a0e2	-0.34693056
41	0xbeab4f5c	-0.33458984
42	0x3e7bd077	0.24591242
43	0xbebf113b	-0.37317833
44	0x3ed0d454	0.40786994
45	0xbf098c38	-0.5372958
46	0x3eec5636	0.46159524
47	0xbe3b88ed	-0.18313952
48	0xbd3180c4	-0.04333569
49	0xbb0fa38d	-0.0021917552
50	0xbef2fdcd	-0.4745926
51	0xbf0dc975	-0.55385524
52	0xbe15f095	-0.14642556
53	0x3f24c8cb	0.64368886
54	0xbf0df997	-0.5545897
55	0x3c3f67b0	0.011682436
56	0xbebf2e8b	-0.37340197
57	0x3ed59375	0.41714063
58	0xbf0e314c	-0.5554397
59	0x3d7745c3	0.060369264
60	0xbe8367b7	-0.25665066
61	0x3e8a5192	0.27015358
62	0x3f1a61c1	0.6030541
63	0x3f2a0974	0.66420674
64	0x3e1c1b70	0.15244842
65	0x3d579b5f	0.052638408
66	0x3f284d90	0.6574335
67	0xbd9bf1c1	-0.0761447
68	0x3e38e83b	0.18057339
69	0xbeb95072	-0.36194187
70	0xbf159c78	-0.5844188
71	0xbe53bfa0	-0.20678568
72	0x3e5d1b3c	0.2159242
73	0x3eb0845d	0.34475985
74	0xbe4e4f75	-0.20147498
75	0x3d3038c4	0.043022886
76	0xbe8790ec	-0.26477754
77	0xbf4944ce	-0.7862061
78	0xbf0bf638	-0.54672575
79	0xbe2c2b2a	-0.16813341
80	0x3f048ca4	0.517771
81	0xbe5c67b3	-0.21523933
82	0x3e14e2d7	0.14539658
83	0xbed20869	-0.4102204
84	0x3c396abf	0.011316954
85	0x3f0d32c6	0.551556
86	0x3f120175	0.57033473
87	0x3eb90428	0.36135983
88	0x3ecb8aa3	0.3975421
89	0xbead2a18	-0.33821177
90	0xbee137a1	-0.43987754
91	0xbe72f131	-0.2372482
92	0xbdaffcf4	-0.08593169
93	0xbe9d2828	-0.306947
94	0xbf18062b	-0.5938441
95	0xbe30c0a3	-0.17260985
96	0x3e2b3629	0.16719879
97	0x3cb38a54	0.021916546
98	0x3edd8fce	0.43273777
99	0x3f14fe7c	0.5820081
100	0xbe47fca5	-0.1952997
101	0xbd5ea9a6	-0.054361008
102	0xbf001f8c	-0.50048137
103	0x3cc25dae	0.02372631
104	0xbe91c216	-0.28468388
105	0xbdc5c3f0	-0.09656513
106	0xbe7f2e1c	-0.24919933
107	0x3c1cd6f7	0.009572736
108	0xbef98ea5	-0.48741642
109	0x3f1ca9b2	0.61196434
110	0x3f00186d	0.5003727
111	0xbe47bbda	-0.19505253
112	0xbeba8bd4	-0.36434805
113	0xbba2fc90	-0.0049739555
114	0x3eeb3f7c	0.45946872
115	0x3e54cb4a	0.20780674
116	0xbf117926	-0.5682548
117	0x3ea2178d	0.31658593
118	0x3ea45908	0.32099175
119	0xbf201a23	-0.6253988
120	0x3e639754	0.22225696
121	0x3e4a4c67	0.19755708
122	0xbf1c9805	-0.61169463
123	0x3e571575	0.21004279
124	0x3e922695	0.2854506
125	0xbeb2e755	-0.34942117
126	0xbd6d851c	-0.05798827
127	0xbeb6fc3f	-0.35739323
128	0x3d664846	0.05622127
129	0xbeb1f315	-0.3475577
130	0x3f208534	0.6270325
131	0xbee265f0	-0.44218397
132	0x3f0812d2	0.5315372
133	0xbf19c25c	-0.60062194
134	0x3e9d1e3e	0.30687135
135	0xbf11aab4	-0.569011
136	0x3eb65c65	0.35617366
137	0x3ed443cb	0.41457972
138	0x3e25e4c2	0.16200545
139	0xbe89065c	-0.26762664
140	0x3ee948a9	0.45563248
141	0xbe2e03ad	-0.1699359
142	0x3e425a09	0.18979658
143	0x3f024600	0.5088806
144	0xbef8458f	-0.4849057
145	0xbf3439fd	-0.70400983
146	0x3eb606e9	0.35552147
147	0xbeba3704	-0.363701
148	0x3ee50ed9	0.4473789
149	0x3edd82d1	0.43263867
150	0x3f029571	0.5100928
151	0xbf25b5cf	-0.6473054
152	0x3f2c5a03	0.67324847
153	0xbe66c6de	-0.225368
154	0x3e8a5c71	0.27023652
155	0x3e280b59	0.16410579
156	0xbf205bc5	-0.6264003
157	0x3eb8dc62	0.3610564
158	0x3ee27ea7	0.44237253
159	0x3f0126c5	0.5044978
160	0x3f2e31f6	0.68044984
161	0x3f0f3466	0.5593933
162	0xbe3a593a	-0.181981
163	0x3ee46a41	0.44612315
164	0x3eae2b57	0.3401744
165	0x3e0f155e	0.13972995
166	0x3ef795c2	0.48356444
167	0x3f178d87	0.5920033
168	0x3dc71803	0.09721377
169	0x3f4f0b79	0.8087688
170	0x3e294b75	0.16532691
171	0x3d64423c	0.05572723
172	0xbe95f8bc	-0.29291332
173	0x3de8db9d	0.11370013
174	0xbec0baa3	-0.37642393
175	0x3d11ebb4	0.035625175
176	0x3dd60ab8	0.10451263
177	0x3ed1f807	0.41009542
178	0xbe39e73f	-0.1815462
179	0xbd82a7c7	-0.06379657
180	0x3e884019	0.26611403
181	0xbeb419d0	-0.35175943
182	0xbd8828cd	-0.06648407
183	0xbe854ed6	-0.2603671
184	0x3f0c12d6	0.5471624
185	0x3dc4b5c9	0.09604985
186	0x3eaba40e	0.335236
187	0xbecb05e4	-0.39652932
188	0xbe6866b1	-0.22695424
189	0x3e8679e5	0.26264873
190	0xbe16e1bc	-0.14734548
191	0xbe5ee1e1	-0.21765853
192	0x3e9cd525	0.30631366
193	0x3c3f488a	0.0116750095
194	0xbe92e846	-0.28692836
195	0xbdf47425	-0.11936215
196	0x3e97fa74	0.29683268
197	0xbea6a6c4	-0.32549107
198	0x3e745c0f	0.23863243
199	0x3ef86aa7	0.4851887
200	0xbed40193	-0.4140745
201	0x3e4c7620	0.19966936
202	0x3df6f1ee	0.12057863
203	0x3f3d3ef3	0.7392418
204	0xbe79d6f2	-0.24398401
205	0xbc383daa	-0.011245171
206	0xbdeb00f1	-0.11474789
207	0x3eabe57b	0.33573517
208	0x3f12c139	0.57326084
209	0xbc39be54	-0.011336882
210	0xbe082d6f	-0.13298582
211	0xbe59ebaa	-0.21281305
212	0xbf0c2b09	-0.54753166
213	0x3e8b18ed	0.27167454
214	0xbbc50540	-0.0060125887
215	0xbe584a61	-0.21122123
216	0x3edf65b5	0.43632284
217	0x3f17ac97	0.59247726
218	0x3e77ffb2	0.24218634
219	0x3f08cebd	0.5344046
220	0x3f28145f	0.65656084
221	0xbecc3415	-0.39883485
222	0x3ed6ac3c	0.4192828
223	0x3ea65927	0.32489893
224	0xbe9d0559	-0.30668142
225	0x3f047923	0.5174734
226	0xbe98218f	-0.29713103
227	0x3f214f5d	0.63011724
228	0x3bbaa288	0.0056956448
229	0x3f47422f	0.77835363
230	0x3eac8457	0.33694717
231	0x3e8e7a90	0.27827883
232	0xbe09ffb1	-0.13476445
233	0x3e23e557	0.16005455
234	0xbf1315b3	-0.57454985
235	0xbde972b6	-0.113988325
236	0xbeba30fe	-0.36365503
237	0xbd98a197	-0.07452696
238	0x3ef20653	0.4727045
239	0xbe160fdc	-0.14654487
240	0x3f1635df	0.5867595
241	0x3e3fcba7	0.18730031
242	0xbd867ce8	-0.06566793
243	0x3f15077a	0.58214533
244	0x3e909872	0.28241307
245	0xbefa15d6	-0.48844784
246	0xbe3c8cbe	-0.18413064
247	0x3e61403b	0.21997158
248	0x3efd7e87	0.49510595
249	0x3df39837	0.11894267
250	0xbec4d03a	-0.38440114
251	0xbe2ef006	-0.17083749
252	0xbea54ea9	-0.32286575
253	0x3ec017f9	0.3751829
254	0x3f20fb70	0.62883663
255	0xbf110743	-0.56651706

aggregator.full.bias f4 [16]
0	0x3e74059c	0.23830265
1	0x3ea05aec	0.31319368
2	0x3e85a2e1	0.2610083
3	0x3e8c4f34	0.27404177
4	0x3e8ef6c9	0.27922657
5	0x3e9e5d56	0.30930585
6	0x3efff9ff	0.4999542
7	0x3e81623c	0.2527026
8	0x3e95d0a1	0.29260734
9	0x3eb3a964	0.35090172
10	0x3eefceb5	0.46837392
11	0x3e59df08	0.21276486
12	0x3e8d5c34	0.27609408
13	0x3e7d2028	0.24719298
14	0x3ebd3a28	0.36958432
15	0x3e8d2e1a	0.27574235

mean.full.weight f4 [7, 32]
0	0xbf188fcb	-0.5959441
1	0xbf9b3c24	-1.2127728
2	0x3ecf38ef	0.40473124
3	0xbfa3567b	-1.2760767
4	0x3e3a56ad	0.18197127
5	0xbf814e78	-1.0102072
6	0xbfb10732	-1.3830321
7	0x3f16f9f9	0.5897518
8	0x3ebac36b	0.36477217
9	0xbf947302	-1.1597598
10	0x3f85683f	1.0422438
11	0xbf5ac3c6	-0.85454977
12	0x3f8d14ba	1.102195
13	0x3e07af9e	0.13250586
14	0x3f816822	1.0109904
15	0x3ebe2417	0.3713691
16	0xbd1bc0c4	-0.038025633
17	0xbf457792	-0.77135575
18	0xbf7afb5f	-0.9803981
19	0xbf7dfc60	-0.9921322
20	0xbef9c9d4	-0.48786795
21	0xbf5328e6	-0.8248428
22	0xbf54b981	-0.83095556
23	0x3f8066c9	1.0031368
24	0x3ebf25a6	0.3733341
25	0x3f528a97	0.8224272
26	0x3f1ce200	0.6128235
27	0xbe811f37	-0.25219128
28	0x3e098c50	0.13432431
29	0xbef16dfa	-0.47154218
30	0x3f13135b	0.5745141
31	0x3f67e003	0.9057619
32	0x3e1920f6	0.1495398
33	0xbf691d69	-0.910605
34	0xbd114439	-0.035465453
35	0x3f42c1c1	0.76076895
36	0x3fa4de47	1.2880334
37	0x3f73d90f	0.9525308
38	0xbf8b6d3d	-1.0892712
39	0xbf8832a6	-1.0640457
40	0x3f7b8548	0.98250246
41	0xbf757df0	-0.9589529
42	0x3d9b285b	0.075760566
43	0xbf0fcf99	-0.56176144
44	0x3eafa65e	0.34306616
45	0xbd15daf2	-0.036585756
46	0xbf23946c	-0.6389835
47	0xbe20595d	-0.1565909
48	0x3f18dd17	0.59712356
49	0xbefa4d15	-0.48886934
50	0x3ed3ddc2	0.41380125
51	0xbe611ee6	-0.21984443
52	0x3f277a51	0.65421015
53	0x3f135c1c	0.5756242
54	0xbfa5614c	-1.2920318
55	0xbea409e4	-0.32038796
56	0x3df0b805	0.11753849
57	0xbebedf8d	-0.3727993
58	0x3f032454	0.5122731
59	0xbeec105c	-0.4610623
60	0x3f1d2bb2	0.613948
61	0xbeef8b6e	-0.46786064
62	0xbf2cd0dc	-0.67506194
63	0xbd0338fa	-0.03203676
64	0x3f42273c	0.75841117
65	0x3f9270fc	1.144073
66	0x3f26c376	0.65142
67	0xbf86459f	-1.0489997
68	0xbf8be31a	-1.0928681
69	0x3f10b6ef	0.56529135
70	0x3ed5700d	0.4168705
71	0xbf87a8a0	-1.0598335
72	0xbf7963a0	-0.9741764
73	0xbb8c6774	-0.0042847935
74	0xbf6118b3	-0.87928313
75	0xbf5fba56	-0.873937
76	0x3f2bb6dd	0.670759
77	0x3f40e1f5	0.75344783
78	0xbf237d12	-0.6386272
79	0xbea89a42	-0.3293019
80	0x3f247e6f	0.6425542
81	0x3e3c5104	0.1839028
82	0x3f52477f	0.82140344
83	0xbf6e7f51	-0.9316302
84	0x3e6c2ff8	0.23065174
85	0x3f6da9bf	0.92837137
86	0x3f40188e	0.7503747
87	0xbeda079e	-0.42583936
88	0xbf536db6	-0.8258928
89	0xbf45b9a3	-0.77236384
90	0xbf838478	-1.0274801
91	0xbf369d0c	-0.71333385
92	0x3f36a695	0.71347934
93	0x3f701cd1	0.9379397
94	0xbf2424b4	-0.64118505
95	0xbe435699	-0.19076003
96	0x3f765843	0.96228427
97	0xbe11a2a6	-0.14222202
98	0x3f63ce53	0.889867
99	0x3f7ea66f	0.9947271
100	0xbeac3926	-0.3363735
101	0xbf1652cd	-0.58720094
102	0xbf2cd0bc	-0.67506003
103	0x3f764246	0.96194875
104	0xbf961bd1	-1.1727239
105	0x3f5b329f	0.85624117
106	0xbf932225	-1.1494795
107	0x3f893eee	1.072233
108	0xbf7c1dd7	-0.9848303
109	0x3f36d31c	0.7141588
110	0x3eb41a1b	0.35176167
111	0x3f955de1	1.1669275
112	0x3f02ddb6	0.51119554
113	0x3eb01beb	0.343963
114	0x3e808f8f	0.25109527
115	0x3e9caa8d	0.3059887
116	0xbefc53ee	-0.49282783
117	0x3e6fd396	0.23420557
118	0xbf443327	-0.7664055
119	0x3ebc7dfa	0.36814862
120	0xbf644e26	-0.89181745
121	0xbe5d2ffa	-0.21600333
122	0xbf0473d5	-0.51739246
123	0x3f402e1e	0.7507037
124	0xbf421a7d	-0.7582167
125	0x3e83cf4f	0.257441
126	0x3f486cb5	0.78290874
127	0x3f2846f6	0.6573328
128	0xbf809b02	-1.0047305
129	0x3f8105fd	1.0079952
130	0xbf92231f	-1.1416968
131	0x3ee68d39	0.4502962
132	0xbf547ae2	-0.83000004
133	0xbf5463d0	-0.829648
134	0xbf761c9c	-0.96137404
135	0x3ea82410	0.32840014
136	0x3f28e495	0.6597379
137	0x3f6cfa2e	0.92569244
138	0x3f22393a	0.6336857
139	0x3f78e54c	0.9722488
140	0xbf9351aa	-1.1509297
141	0x3f2fe4cf	0.6870851
142	0xbf145380	-0.5793991
143	0xbf657a83	-0.89640063
144	0xbf7de80a	-0.9918219
145	0x3f76dad9	0.96427685
146	0xbf0f8bcc	-0.5607269
147	0x3f40c2c5	0.75297195
148	0xbf142798	-0.57872915
149	0xbf5eed5b	-0.87080926
150	0xbf71fb74	-0.9452431
151	0x3ef38fde	0.475707
152	0x3f805213	1.0025047
153	0x3f730281	0.94925696
154	0x3f50c28f	0.8154687
155	0x3f4cf64e	0.8006333
156	0xbe8a724c	-0.27040327
157	0x3f45c218	0.7724929
158	0xbf57756b	-0.8416354
159	0xbf809f58	-1.0048628
160	0xbf965c20	-1.1746864
161	0xbf5a679f	-0.85314363
162	0x3f3cf2f5	0.73808223
163	0x3f1d30ab	0.61402386
164	0x3f88f203	1.0698856
165	0xbf983928	-1.1892443
166	0x3f91fdf3	1.1405624
167	0x3f155145	0.5832713
168	0xbfb82c41	-1.4388505
169	0xbf7cbcc8	-0.9872556
170	0x3f2c7ab6	0.6737474
171	0x3f8b90fc	1.0903621
172	0x3e417307	0.18891536
173	0xbf692864	-0.91077256
174	0xbf9ac804	-1.209229
175	0xbf883f15	-1.0644251
176	0xbe1d71cc	-0.15375441
177	0xbf294e20	-0.66134834
178	0xba87f0f5	-0.0010371493
179	0x3f249b23	0.6429922
180	0x3f16bad3	0.5887882
181	0xbf558ee0	-0.83421135
182	0x3f392634	0.7232392
183	0xbf1339d6	-0.57510126
184	0xbf426b0d	-0.75944597
185	0xbf2ca2ab	-0.6743571
186	0x3d8823aa	0.066474274
187	0x3f5f8355	0.8730977
188	0xbde27e05	-0.110591926
189	0xbf5bcf95	-0.8586362
190	0x3e1eeac8	0.1551925
191	0xbe9a1589	-0.30094555
192	0xbfa612fe	-1.2974546
193	0xbddaf23d	-0.106907345
194	0xbfb35f56	-1.4013469
195	0x3ef95431	0.48697045
196	0xbf334d32	-0.70039666
197	0xbf83f827	-1.0310105
198	0x3f8aa00f	1.0830096
199	0xbf819519	-1.0123626
200	0x3ec6af46	0.38805598
201	0x3f6c98a0	0.9242039
202	0xbd099857	-0.03359255
203	0xbfa29786	-1.2702491
204	0xbddf8113	-0.10913291
205	0xbf963e47	-1.1737756
206	0x3f09af97	0.53783554
207	0x3f1747b0	0.5909376
208	0xbed4159a	-0.4142273
209	0x3f04c940	0.51869583
210	0xbf756ee4	-0.9587233
211	0xbed5ec9d	-0.41782084
212	0x3e790db8	0.2432164
213	0xbf8a8fd1	-1.0825139
214	0x3f485b0e	0.7826394
215	0xbdfdfe10	-0.12401974
216	0x3e9bb4be	0.30411333
217	0xbdf6a5dc	-0.12043354
218	0xbe7658ee	-0.24057361
219	0xbf1191cd	-0.568631
220	0x3ebd281d	0.36944667
221	0xbf869cc3	-1.051659
222	0x3f00a6ff	0.50254816
223	0x3f2a8651	0.666112

mean.full.bias f4 [7]
0	0x3ed1f3ba	0.4100626
1	0xbe0bbd54	-0.13646442
2	0xbd195f80	-0.03744459
3	0x3d6c2ac9	0.05765799
4	0xbcc459b3	-0.023968553
5	0x3decfe3b	0.11571928
6	0xbdae5422	-0.08512141
