best_model/acc/cora_dropout=0_wd=0.0005_b=256_lr=0.01_walk=2_best_model.pt (torch_old, 98064 bytes, 12 tensors)

aggregator.full.weight f4 [16, 1433]
-0.102455474 -0.096706204 -0.056493968 0.17691039 -0.19610944 0.037987266 0.004322904 0.12768863
-0.19383332 0.025319545 0.06814543 -0.09483991 -0.1358073 -0.062414847 0.006434279 -0.034903146
-0.16368021 -0.060383517 -0.096945375 -0.10670898 -0.021720817 0.038119707 -0.05118935 0.10999692
-0.05453975 0.074386604 -0.15178291 -0.10701582 0.03907507 0.029047484 0.16475008 -0.11987214
0.014560049 -0.0061257402 -0.07024997 -0.0038226496 0.0072239987 0.010035528 0.02239377 0.10484075
-0.034647115 0.22513008 0.008456978 -0.030352954 -0.05219926 0.21285394 0.08577258 -0.058873575
-0.0044591897 0.21305488 -0.108718835 -0.24160226 0.14742497 -0.00277704 -0.030962856 0.001093541
0.14858687 0.06518516 -0.26808023 -0.123385035 0.121087275 0.020433798 0.064123936 0.22504328
0.22827104 0.08040741 0.010067379 -0.07727026 -0.024680287 -0.08633193 0.14511882 0.026214384
0.05705864 0.012007713 0.033409767 0.047661457 0.0881232 -0.20371166 -0.047066677 -0.049726866
0.09302204 0.008494107 -0.03495903 -0.0358836 -0.059390347 0.09381866 0.1673225 -0.01657421
-0.02585703 -0.10936748 -0.07551528 0.12739494 0.003712216 -0.034715004 -0.05550441 -0.042329684
0.06603667 -0.1285821 0.18466048 0.08594943 -0.057948105 -0.0030005618 -0.0018069701 -0.094035484
0.1787752 0.10363566 -0.10200537 -0.035251994 0.074521914 0.13935925 0.035568204 0.007726492
-0.081360295 -0.06275165 0.009214972 -0.07689968 -0.02666862 0.042130105 -0.12333799 -0.06577941
-0.012166062 -0.01865449 0.013243382 -0.19540977 -0.048308365 0.050370343 -0.010528934 0.059089333
0.23256211 -0.1465141 0.01956074 -0.26372766 0.12939315 0.037490714 -0.07025202 -0.09975496
-0.06114757 0.061706122 -0.049571045 0.08244619 0.11773471 -0.06715237 0.014787829 0.120085515
-0.09941979 -0.101467066 -0.043550678 -0.073431484 0.043196008 0.011762459 0.09850831 0.058201108
-0.0092707705 0.05458069 -0.0011677394 0.119813494 0.08190809 -0.1482866 -0.000988905 0.003094114
0.040586397 -0.0065672062 0.10238289 -0.019701177 0.017837051 0.052604266 0.0021380438 -0.015044536
-6.613842e-05 -0.07394391 -0.06666866 0.027097998 -0.099550836 0.038168106 0.04586786 -0.08147096
-0.05221501 -0.037954208 -0.041539982 0.22235896 -0.0189203 -0.061498195 -0.039012168 0.02278113
0.059125174 0.012569668 0.033364087 0.084141985 0.04386995 0.018388622 0.0027142682 -0.07691166
0.032000296 -0.023286527 0.0063963346 0.03073059 0.10622373 0.065652676 -0.11724941 -0.11084929
0.13799705 -0.012258003 0.17055304 0.014637029 -0.03619006 0.19933134 0.067117654 -0.17724115
-0.074281424 0.035966318 -0.034810174 0.123430714 0.036434133 0.09555178 0.1043916 0.06427331
0.023091348 0.1561987 0.08958072 -0.03831136 -0.019325975 -0.00025567465 -0.061239894 0.03274156
-0.011755632 0.048615813 0.007123474 0.08575206 -0.102784626 0.056116767 0.11298195 -0.035157524
-0.01827822 -0.047913842 -0.15275411 0.11438193 0.09288952 0.29397827 0.049452443 -0.0038770835
-0.05278542 0.097642735 -0.05592832 0.09454401 -0.14186476 -0.051212963 -0.045732424 -0.0053790566
-0.15566592 0.054512363 -0.024237001 -0.010751494 -0.028773833 -0.087157324 0.09909146 0.053104904
00000000: 2dd4 d1bd e70d c6bd 3866 67bd ff27 353e
00000010: ead0 48be 8998 1b3d 26a7 8d3b cfc0 023e
00000020: 3e7c 46be ef6a cf3c d58f 8b3d 6d3b c2bd
00000030: 1211 0bbe b6a6 7fbd a5d6 d23b 9af6 0ebd
00000040: c99b 27be b554 77bd 4c8b c6bd 3d8a dabd
00000050: dbef b1bc 6923 1c3d edab 51bd 1146 e13d
00000060: 1365 5fbd 0158 983d fb6c 1bbe 1c2b dbbd
00000070: 2e0d 203d fdf4 ed3c 3fb4 283e 867f f5bd
00000080: 468d 6e3c 6fba c8bb 37df 8fbd 6b85 7abb
00000090: 4bb7 ec3b 0e6c 243c 2473 b73c bfb6 d63d
000000a0: 22ea 0dbd 8088 663e 238f 0a3c c2a6 f8bc
000000b0: e4ce 55bd 62f6 593e 89a9 af3d 6b25 71bd
000000c0: 651e 92bb 0f2b 5a3e fba7 debd 9566 77be
000000d0: 92f6 163e 00ff 35bb d1a5 fdbc 2655 8f3a
000000e0: 2827 183e cc7f 853d d041 89be 4bb1 fcbd
000000f0: 9bfc f73d c864 a73c 6953 833d bf71 663e
00000100: e2bf 693e a4ac a43d a6f1 243c df3f 9ebd
00000110: 502e cabc cbce b0bd 079a 143e 8cbf d63c
00000120: 52b6 693d 00bc 443c aed8 083d a938 433d
00000130: f079 b43d ca99 50be fdc8 40bd 66ae 4bbd
00000140: 5782 be3d de2a 0b3c 3331 0fbd affa 12bd
00000150: 4b43 73bd ff23 c03d 9756 2b3e a3c6 87bc
00000160: 1fd2 d3bc 0ffc dfbd c1a7 9abd d273 023e
00000170: a648 733b 5231 0ebd 9858 63bd e461 2dbd
00000180: 3c3e 873d 07ab 03be a317 3d3e 4106 b03d
00000190: fe5a 6dbd 13a5 44bb dbd7 ecba ad95 c0bd
000001a0: d910 373e ef3e d43d 31e8 d0bd 6564 10bd
000001b0: f29e 983d 31b4 0e3e f7af 113d 832e fd3b
000001c0: 3aa0 a6bd f083 80bd 65fa 163c 947d 9dbd
000001d0: 2678 dabc 9e90 2c3d a198 fcbd 5bb7 86bd
000001e0: 2a54 47bc 4dd1 98bc c5fa 583c 8019 48be
000001f0: fede 45bd 2251 4e3d 8d81 2cbc a807 723d
00000200: c324 6e3e cb07 16be d83d a03c 5007 87be
00000210: a37f 043e dd8f 193d 4be0 8fbd 544c ccbd
00000220: e075 7abd 8fbf 7c3d 020b 4bbd 8cd9 a83d
00000230: e51e f13d 2f87 89bd a648 723c 65ef f53d
00000240: 9a9c cbbd f7cd cfbd 3262 32bd 3f63 96bd
00000250: 4cee 303d 54b7 403c babe c93d 4964 6e3d
00000260: 6ee4 17bc 0090 5f3d d50e 99ba c760 f53d
00000270: 6ebf a73d 71d8 17be 259e 81ba 9ec6 4a3b
00000280: ec3d 263d b831 d7bb 1fae d13d 5d64 a1bc
00000290: 021f 923c 9277 573d 6c1e 0c3b 5c7d 76bc
000002a0: cbb3 8ab8 e86f 97bd 9489 88bd 9ffc dd3c
000002b0: 4fe1 cbbd 2956 1c3d f0df 3b3d 3fda a6bd
000002c0: 68df 55bd df75 1bbd d425 2abd 11b2 633e
000002d0: bffe 9abc 88e5 7bbd 39cb 1fbd 7e9f ba3c
000002e0: 3d2d 723d 02f1 4d3c c8a8 083d a252 ac3d
000002f0: fab0 333d bca3 963c dde1 313b dc83 9dbd
00000300: be12 033d 63c3 bebc 5898 d13b b8be fb3c
00000310: d48b d93d e974 863d 7520 f0bd f404 e3bd
00000320: 194f 0d3e cad5 48bc 75a5 2e3e 26d0 6f3c
00000330: 073c 14bd 841d 4c3e fb74 893d b47e 35be
00000340: dc20 98bd 6b51 133d 1d95 0ebd 3ec9 fc3d
00000350: f53b 153d a7b0 c33d 43cb d53d baa1 833d
00000360: 112a bd3c 8df2 1f3e 1976 b73d 5fec 1cbd
00000370: 8251 9ebc 120c 86b9 afd6 7abd 041c 063d
00000380: b29a 40bc 6021 473d 086c e93b c79e af3d
00000390: bf80 d2bd b2da 653d 1563 e73d 5601 10bd
000003a0: 35bc 95bc 4e41 44bd 936b 1cbe 1341 ea3d
000003b0: dc3c be3d 5284 963e a58e 4a3d ab16 7ebb
000003c0: 8635 58bd eaf8 c73d 1815 65bd 4aa0 c13d
000003d0: ff44 11be afc4 51bd ec51 3bbd cc42 b0bb
000003e0: e366 1fbe 5b48 5f3d ad8c c6bc 0927 30bc
000003f0: 1ab7 ebbc 8a7f b2bd 77f0 ca3d 8784 593d

aggregator.full.bias f4 [16]
0.5437431 0.50791335 0.4930958 0.8770065 0.5831136 -0.17511061 -0.0055089053 0.4179065
0.33763537 0.38170254 0.5203952 0.26265645 0.2646277 0.3413563 0.748997 0.15499857
00000000: bf32 0b3f 9c06 023f 0d77 fc3e 7f83 603f
00000010: ef46 153f 3250 33be 0c84 b4bb d7f7 d53e
00000020: 8bde ac3e 846e c33e 9f38 053f e87a 863e
00000030: 487d 873e 41c6 ae3e 44be 3f3f f2b7 1e3e

lstm.lstm.weight_ih_l0 f4 [28, 16]
0.4700792 0.38153723 0.4190303 0.6787509 0.44650188 -0.00090749655 6.5896297e-06 0.31835812
0.22960982 0.29369807 0.42341706 0.22218075 0.20809644 0.2637686 0.5640963 0.12841515
0.26622948 0.20268452 0.28538287 0.38931274 0.26429722 -0.00049067684 -5.867953e-05 0.1757537
0.20214835 0.17321557 0.22390012 0.13294037 0.13028075 0.13151632 0.3183171 0.08232831
0.41243154 0.38134494 0.40279606 0.61866134 0.42832237 -0.0007590886 -1.7490212e-05 0.29724243
0.26371962 0.2863408 0.3750128 0.17893569 0.23620486 0.25602818 0.528429 0.1641655
0.5345747 0.4457448 0.39877418 0.7496256 0.53305686 -0.0016142419 -5.6804234e-05 0.42087454
0.2672412 0.39284295 0.5323303 0.24674638 0.28103334 0.3863625 0.54904157 0.18711577
0.42625967 0.36241323 0.36939633 0.6376462 0.44167557 -0.0018467661 -9.510596e-05 0.322682
0.25413564 0.3026341 0.41378334 0.21794641 0.17472324 0.22763856 0.52178955 0.09489647
0.41643763 0.33410043 0.3959868 0.6324582 0.39736718 -0.0010588503 -7.1098046e-05 0.27263457
0.20764005 0.25190115 0.36044878 0.17386092 0.17359036 0.27796045 0.49217427 0.09365357
0.20789576 0.1719272 0.21307065 0.32742244 0.23278403 -0.000816407 -6.073413e-05 0.16492179
0.19712275 0.16858909 0.16716288 0.10985493 0.15290281 0.15938145 0.25421792 0.12774074
0.31502357 0.2585129 0.28609392 0.4663101 0.3053476 -0.0008123165 -1.0523013e-05 0.21463363
0.159843 0.19794892 0.2849233 0.14624393 0.13973372 0.17813045 0.38434222 0.08549911
0.22017863 0.21579161 0.2058 0.3475726 0.23375651 -0.0006976621 3.0945455e-05 0.16387175
0.1280653 0.14593592 0.21202652 0.09859593 0.10426072 0.1387572 0.30095193 0.055390123
0.29043466 0.271933 0.2860618 0.44200647 0.31075132 -0.0006081165 -1.8743756e-05 0.20622835
0.18603274 0.19850668 0.2610209 0.12601459 0.16179723 0.17431936 0.3681205 0.10930317
0.30878133 0.2675252 0.26308468 0.46546033 0.31451753 -0.0010232554 -0.00012402932 0.23080516
0.16251525 0.21219903 0.28732026 0.14204422 0.1507438 0.20216322 0.37719625 0.09727688
0.29279453 0.25152093 0.25756517 0.45679596 0.30165625 -0.0005762893 -2.7502858e-05 0.21885753
0.17576258 0.20488638 0.28081194 0.14659135 0.12669133 0.1608561 0.37502688 0.07167079
0.29990262 0.25159094 0.2820015 0.4579156 0.29684925 -0.00088329194 -4.0217976e-05 0.20636076
0.16559267 0.18930906 0.2666887 0.13057737 0.13246247 0.1967769 0.36859858 0.07522778
0.17635226 0.16828118 0.15367952 0.27803195 0.1895556 -0.0005680292 -2.8318382e-05 0.13743854
0.104423076 0.12600704 0.1687579 0.083566874 0.09363652 0.118589625 0.23633549 0.060517937
1.126277 -0.61331916 1.166174 0.21428068 -0.4768766 -0.10081345 0.00015779569 -0.7803277
-1.0748217 -0.7872171 0.7555021 0.5508723 -1.0350258 -1.4524238 0.23260766 -1.2071368
-0.23510598 -0.16806191 -0.25208715 -0.34494594 -0.25207886 0.00053298206 -6.530548e-05 -0.1506864
-0.18101367 -0.16197376 -0.19352752 -0.1189943 -0.115600586 -0.11293113 -0.30403233 -0.07583172
00000000: 39ae f03e d958 c33e 248b d63e 9ec2 2d3f
00000010: e59b e43e 10e5 6dba 7d1c dd36 d6ff a23e
00000020: d61e 6b3e 985f 963e 1fca d83e 5a83 633e
00000030: 3c17 553e ae0c 873e 9d68 103f 437f 033e
00000040: 3b4f 883e 888c 4f3e b41d 923e 0054 c73e
00000050: f751 873e c4a0 00ba aa1e 76b8 c7f8 333e
00000060: faff 4e3e 6c5f 313e 1346 653e 8521 083e
00000070: 5168 053e 37ac 063e 75fa a23e bf9b a83d
00000080: 3a2a d33e a53f c33e 493b ce3e 9760 1e3f
00000090: 124d db3e 93fd 46ba f2b7 92b7 2930 983e
000000a0: 4206 873e 439b 923e ad01 c03e eb3a 373e
000000b0: b0df 713e 2016 833e 1f47 073f 001b 283e
000000c0: e3d9 083f aa38 e43e 212c cc3e 77e7 3f3f
000000d0: 6a76 083f f894 d3ba 1541 6eb8 de7c d73e
000000e0: d7d3 883e b622 c93e cc46 083f 15ab 7c3e
000000f0: 9ae3 8f3e 4ed1 c53e fd8d 0c3f 479b 3f3e
00000100: b53e da3e 3a8e b93e 8421 bd3e c83c 233f
00000110: 4d23 e23e 300f f2ba a073 c7b8 9336 a53e
00000120: 111e 823e dbf2 9a3e 69db d33e 582d 5f3e
00000130: a6ea 323e 151a 693e 0094 053f 1559 c23d
00000140: 5037 d53e 360f ab3e c8be ca3e c8e8 213f
00000150: b673 cb3e 1fc9 8aba 791a 95b8 c296 8b3e
00000160: 989f 543e 30f9 803e be8c b83e 9908 323e
00000170: acc1 313e d550 8e3e 44fe fb3e 71cd bf3d
00000180: a0e2 543e af0d 303e 312f 5a3e eaa3 a73e
00000190: f05e 6e3e 2504 56ba c7bc 7eb8 42e1 283e
000001a0: 8cda 493e 9ea2 2c3e bf2c 2b3e 9ffb e03d
000001b0: 8e92 1c3e e434 233e da28 823e 78ce 023e
000001c0: c54a a13e ce5b 843e e77a 923e 33c0 ee3e
000001d0: 8556 9c3e a3f1 54ba ff8b 30b7 ebc8 5b3e
000001e0: e2ad 233e 1fb3 4a3e 77e1 913e f8c0 153e
000001f0: 5b16 0f3e d467 363e 81c8 c43e 281a af3d
00000200: 8276 613e 7af8 5c3e 3cbd 523e 09f5 b13e
00000210: de5d 6f3e 50e3 36ba 6ecb 0138 ffcd 273e
00000220: 8d23 033e 3a70 153e 7b1d 593e aaec c93d
00000230: a586 d53d 5e16 0e3e 5f16 9a3e c1e0 623d
00000240: dab3 943e cd3a 8b3e b176 923e ac4e e23e
00000250: cc1a 9f3e 026a 1fba e93b 9db7 862d 533e
00000260: 5e7f 3e3e 5645 4b3e 88a4 853e f809 013e
00000270: 2cae 253e c680 323e 4a7a bc3e 57da df3d
00000280: 9618 9e3e 10f9 883e 09b3 863e d150 ee3e
00000290: 7108 a13e c11e 86ba de0d 02b9 3058 6c3e
000002a0: 666a 263e b44a 593e a41b 933e 0a74 113e
000002b0: 955c 1a3e e003 4f3e de1f c13e 1a39 c73d
000002c0: 2ae9 953e 5ac7 803e 95df 833e 29e1 e93e
000002d0: b072 9a3e 1f12 17ba f0b5 e6b7 301c 603e
000002e0: 1bfb 333e bccd 513e 95c6 8f3e 0b1c 163e
000002f0: 5fbb 013e 76b7 243e 8603 c03e 23c8 923d
00000300: d68c 993e 87d0 803e 8062 903e ea73 ea3e
00000310: a0fc 973e b88c 67ba b9af 28b8 3c50 533e
00000320: 2091 293e 3cda 413e 6c8b 883e 13b6 053e
00000330: 3ea4 073e e27f 493e f4b8 bc3e 0611 9a3d
00000340: b095 343e e751 2c3e 2a5e 1d3e 345a 8e3e
00000350: dd1a 423e cbe7 14ba 438d edb7 b0bc 0c3e
00000360: c4db d53d fd07 013e dfce 2c3e 1c25 ab3d
00000370: 81c4 bf3d 1edf f23d ee01 723e a8e1 773d
00000380: d829 903f 7c02 1dbf 3145 953f 656c 5b3e
00000390: 2b29 f4be 4877 cebd f575 2539 8ec3 47bf
000003a0: c293 89bf 0f87 49bf 9668 413f f805 0d3f
000003b0: ba7b 84bf 06e9 b9bf b430 6e3e 7583 9abf
000003c0: 9fbf 70be 6c18 2cbe 9111 81be c19c b0be
000003d0: 7b10 81be d2b7 0b3a 9df4 88b8 894d 1abe
000003e0: a65b 39be 73dc 25be 142c 46be 49b3 f3bd
000003f0: 00c0 ecbd 7048 e7bd 20aa 9bbe a94d 9bbd

lstm.lstm.weight_hh_l0 f4 [28, 7]
-0.0068661575 -0.3060366 -0.19363852 -0.06336754 -0.09233508 -0.14962614 -0.28670225 -0.07397713
-0.23456444 -0.08837137 -0.006138328 -0.049534433 -0.092102855 -0.21940447 -0.16825072 -0.26335624
-0.007139689 -0.09719122 -0.14893888 -0.18362904 -0.29282004 -0.35889342 -0.35374603 -0.2791592
0.032371115 -0.11192544 -0.32199904 -0.2580109 -0.11582848 -0.33334327 -0.20379421 -0.070544295
0.0013026712 -0.17772521 -0.32169756 -0.10263062 -0.3112363 -0.18711406 -0.08695494 -0.1335132
-0.0142385475 -0.27792257 -0.08494765 -0.21080297 -0.049598135 0.074214764 -0.031793427 -0.083894074
-0.19960397 -0.03332618 -0.4494516 -0.29201442 -0.0975641 -0.17423913 -0.2598462 -0.42964783
-0.11864414 -0.32581 -0.135283 -0.021219619 -0.0780986 -0.1407985 -0.30703 -0.27056894
-0.41290975 -0.04250212 -0.15927723 -0.23067355 -0.29007694 -0.41766146 -0.3377739 -0.43621486
-0.35981756 0.051324107 -0.19377501 -0.3002463 -0.390374 -0.18571405 -0.46654442 -0.2972478
-0.12680106 -0.00072871894 -0.25680056 -0.42222518 -0.17478605 -0.45575464 -0.29392755 -0.13754864
-0.20994364 -0.054241385 -0.42637217 -0.113865376 -0.25521886 -0.05470078 0.10094377 -0.0430416
-0.10771489 -0.24322122 2.7825978 0.08971279 -0.19188425 0.35151747 -0.3818616 -0.7427604
0.50642395 0.065661795 0.17566667 0.068988465 0.002213653 0.03193157 0.0688074 0.14608786
-0.59513766 0.32054073 2.439635 -0.12159855 -0.27216896 -0.20508307 0.11559699 -1.0259275
0.9029848 -0.8419412 2.9146483 -0.27454266 -0.10735363 0.4962221 0.028968064 0.2509532
-0.6030421 -0.27670327 2.691729 0.15440159 0.3269164 0.10556796 0.2793064 -0.51199615
0.089612864 -0.6208182 2.765997 0.20108916 0.054980356 0.15108408 0.036835134 -0.046243202
0.022981498 0.048769753 0.14869012 -0.0807627 -0.55315804 -0.3628082 -0.17492367 -0.26926607
-0.35381302 -0.52497834 1.7375817 -1.0649631 2.436793 2.9587672 2.557865 1.935492
-0.8536905 -0.37263724 -0.61321896 -0.083049536 -0.21593618 -0.34867552 -0.43342918 -0.56605893
-0.5027039 -0.45028427 -0.47172573 0.040874742 -0.4073378 -0.5744725 -0.55243313 -0.3260575
-0.6610655 -0.40383598 -0.16014108 -0.03792291 -0.4001928 -0.50151026 -0.30186933 -0.57731336
-0.39017057 -0.21596316 -0.31180778 -0.10129977 -0.55731446 -0.24077086 -0.50269544 -0.046851043
0.20917444 -0.076367386 -0.2137475 -0.5371815
00000000: 81fd e0bb d4b0 9cbe 2d49 46be d7c6 81bd
00000010: 2d1a bdbd 9837 19be a3ca 92be 5281 97bd
00000020: a931 70be 0dfc b4bd 0724 c9bb 9ee4 4abd
00000030: 6ca0 bcbd 91ab 60be eb49 2cbe a1d6 86be
00000040: 0df4 e9bb 310c c7bd 6f83 18be 4009 3cbe
00000050: 82ec 95be e1c0 b7be 331e b5be f4ed 8ebe
00000060: 9397 043d 2a39 e5bd 0fdd a4be 011a 84be
00000070: 7b37 edbd f8ab aabe 6eaf 50be 8779 90bd
00000080: 64be aa3a 99fd 35be 8bb5 a4be 0130 d2bd
00000090: 5d5a 9fbe d49a 3fbe 6e15 b2bd afb7 08be
000000a0: cc48 69bc de4b 8ebe 09f9 adbd bcdc 57be
000000b0: 6a27 4bbd e9fd 973d d339 02bd a8d0 abbd
000000c0: fc64 4cbe 0881 08bd 851e e6be ea82 95be
000000d0: b0cf c7bd be6b 32be 900a 85be cdfa dbbe
000000e0: b3fb f2bd 91d0 a6be a087 0abe c4d4 adbc
000000f0: 29f2 9fbd 7b2d 10be 0933 9dbe 0388 8abe
00000100: e868 d3be b416 2ebd 9219 23be b035 6cbe
00000110: f784 94be b9d7 d5be b3f0 acbe 8e57 dfbe
00000120: 023a b8be 3a39 523d f56c 46be e2b9 99be
00000130: 1adf c7be d32b 3ebe e9de eebe dd30 98be
00000140: 23d8 01be 8007 3fba 5d7b 83be e62d d8be
00000150: 1dfb 32be ac58 e9be ac7d 96be 8dd9 0cbe
00000160: 77fb 56be 372c 5ebd 744d dabe 4032 e9bd
00000170: 0cac 82be ed0d 60bd 9bbb ce3d 644c 30bd
00000180: a099 dcbd fc0e 79be 1516 3240 57bb b73d
00000190: 4e7d 44be 19fa b33e 5d83 c3be 8c25 3ebf
000001a0: 00a5 013f b179 863d f7e1 333e d349 8d3d
000001b0: ef12 113b aeca 023d e5ea 8c3d 0e98 153e
000001c0: f15a 18bf ea1d a43e fb22 1c40 a908 f9bd
000001d0: bb59 8bbe 4c01 52be 1dbe ec3d 9851 83bf
000001e0: 032a 673f 7589 57bf 9989 3a40 db90 8cbe
000001f0: 38dc dbbd d310 fe3e 6f4e ed3c f07c 803e
00000200: f860 1abf 0dac 8dbe 4a45 2c40 731b 1e3e
00000210: 9661 a73e 0434 d83d 4001 8f3e 2e12 03bf
00000220: f386 b73d f1ed 1ebf 1806 3140 51ea 4d3e
00000230: 1533 613d c9b5 1a3e 70e0 163d 8369 3dbd
00000240: b243 bc3c cbc2 473d 3942 183e ea66 a5bd
00000250: c49b 0dbf ffc1 b9be 311f 33be 3edd 89be
00000260: fb26 b5be fb64 06bf 1469 de3f b650 88bf
00000270: 6bf4 1b40 715c 3d40 0fb4 2340 34be f73f
00000280: 768b 5abf 4fca bebe ebfb 1cbf e015 aabd
00000290: 601e 5dbe 9985 b2be 6eea ddbe 3de9 10bf
000002a0: 34b1 00bf a98b e6be 0986 f1be 466c 273d
000002b0: 958e d0be a110 13bf 426c 0dbf 02f1 a6be
000002c0: 973b 29bf 97c3 cebe 06fc 23be 0e55 1bbd
000002d0: 12e6 ccbe fa62 00bf 9e8e 9abe cfca 13bf
000002e0: 70c4 c7be 7225 5dbe 45a5 9fbe 4176 cfbd
000002f0: 29ac 0ebf a38c 76be a6b0 00bf e1e6 3fbd
00000300: d331 563e 8166 9cbd a0e0 5abe ba84 09bf

lstm.lstm.bias_ih_l0 f4 [28]
0.7164908 0.46712217 0.58904314 0.5099365 0.61787117 0.63873285 0.3632173 0.5461836
0.37484297 0.46324396 0.522945 0.49561772 0.46483302 0.30987006 0.38217667 -0.07030738
0.07914492 -0.34181076 -0.08389303 0.36407965 -0.31578955 0.78788877 0.87332463 0.78766507
0.46024564 0.6014796 0.7626735 0.39387712
00000000: f16b 373f a32a ef3e 88cb 163f 338b 023f
00000010: ce2c 1e3f ff83 233f 9ef7 b93e b0d2 0b3f
00000020: 6beb bf3e 502e ed3e b9df 053f 9bc1 fd3e
00000030: 98fe ed3e 4aa7 9e3e a9ac c33e 51fd 8fbd
00000040: bb16 a23d d201 afbe 1cd0 abbd a668 ba3e
00000050: 2baf a1be 14b3 493f 3492 5f3f 6ba4 493f
00000060: 51a5 eb3e 91fa 193f 923e 433f 43aa c93e

lstm.lstm.bias_hh_l0 f4 [28]
0.8378799 0.43596932 0.72852916 0.41439533 0.76726586 0.7738929 0.316286 0.5233944
0.3766005 0.42846978 0.45707837 0.52828044 0.44556195 0.33156905 -0.17466027 -0.5151185
-0.16812676 0.019523479 -0.33664185 0.3947688 -0.39719966 0.75231063 0.94097215 0.48931012
0.4364986 0.736117 0.665105 0.49203968
00000000: 4c7f 563f 5f37 df3e e380 3a3f a02b d43e
00000010: 896b 443f d81d 463f 3df0 a13e 2dfd 053f
00000020: c8d1 c03e 6460 db3e 2d06 ea3e 633d 073f
00000030: b220 e43e 6bc3 a93e 24da 32be cede 03bf
00000040: 6c29 2cbe b4ef 9f3c 525c acbe 231f ca3e
00000050: c15d cbbe 6e97 403f 8de3 703f db86 fa3e
00000060: bf7c df3e 2a72 3c3f 5244 2a3f a0ec fb3e

downstream.full.weight f4 [7, 16]
0.27412695 -0.4457439 0.12842691 0.44998962 0.031544566 0.44302636 0.004181385 0.010044575
0.36073512 0.2924919 0.3483193 -0.39703435 -0.3426605 -0.36376116 0.4945175 -0.34678647
-0.29908016 -0.12189391 0.33016896 0.4558344 -0.22413221 -0.44303346 0.44183815 0.2370075
-0.25981888 -0.22809672 -0.25540686 -0.28161854 -0.48271048 0.051680923 0.34177905 0.15901846
-0.32104605 -0.19341546 0.41499823 -0.48027605 0.3438509 -0.03749332 -0.37846565 0.32232243
0.30077773 -0.28985488 -0.25623414 0.19220299 0.30340654 0.1095677 -0.009890258 -0.2763788
0.18645555 -0.48408595 -0.30724615 -0.3099706 -0.46627194 0.08648658 -0.3191362 0.15600711
0.42478645 -0.11384657 -0.34675443 0.3046373 0.0769462 0.4802804 0.3983035 -0.5022332
-0.2735294 0.43689334 -0.42628533 -0.082815826 -0.38357085 0.26332736 -0.41731954 0.26355577
-0.34949738 0.41959834 0.39186263 -0.5060087 0.48338777 0.103426695 0.36891133 -0.42810816
0.3331346 0.37187976 -0.0866352 -0.40803644 0.23825395 -0.32659122 -0.4326022 -0.41404122
0.502927 0.08644283 -0.1046966 -0.34580892 -0.12924719 -0.1423026 -0.11393723 0.4310189
-0.33889174 0.43913424 -0.27989316 0.01813364 0.09288126 -0.4910996 -0.29033053 0.3272196
0.17146325 0.25439447 0.10043913 -0.44636986 0.10804331 -0.2562599 -0.19758388 -0.11785439
00000000: 5e5a 8c3e 8b38 e4be 5882 033e 0a65 e63e
00000010: e034 013d 5ad4 e23e 0004 893b 0092 243c
00000020: 46b2 b83e 80c1 953e e856 b23e 1648 cbbe
00000030: 3271 afbe e73e babe 6631 fd3e ff8d b1be
00000040: 0921 99be 84a3 f9bd e80b a93e 2063 e93e
00000050: ea82 65be 48d5 e2be 9c38 e23e 18b2 723e
00000060: fb06 85be 3092 69be b0c4 82be 4e30 90be
00000070: d425 f7be 60af 533d aafd ae3e bcd5 223e
00000080: 2660 a4be b40e 46be a67a d43e bee6 f5be
00000090: 3a0d b03e 9892 19bd 40c6 c1be 7207 a53e
000000a0: 8aff 993e dc67 94be 1f31 83be dcd0 443e
000000b0: 1a58 9b3e 0865 e03d c00a 22bc 8681 8dbe
000000c0: 34ee 3e3e 1dda f7be 5e4f 9dbe 77b4 9ebe
000000d0: 32bb eebe e01f b13d d265 a3be 54c0 1f3e
000000e0: 9c7d d93e 6428 e9bd cc89 b1be 6cf9 9b3e
000000f0: f895 9d3d 50e7 f53e 70ee cb3e 5b92 00bf
00000100: 0c0c 8cbe 7cb0 df3e 1242 dabe 589b a9bd
00000110: 6663 c4be d8d2 863e e8aa d5be c8f0 863e
00000120: 52f1 b2be 98d5 d63e 38a2 c83e c989 01bf
00000130: 9a7e f73e 60d1 d33d f2e1 bc3e fe30 dbbe
00000140: 9e90 aa3e 0667 be3e cc6d b1bd 27ea d0be
00000150: d8f8 733e f736 a7be 097e ddbe 36fd d3be
00000160: d3bf 003f f008 b13d 2c6b d6bd de0d b1be
00000170: 6059 04be c6b7 11be ec57 e9bd 82ae dc3e
00000180: 3883 adbe 34d6 e03e 284e 8fbe 008d 943c
00000190: 8838 be3d 6871 fbbe 34a6 94be 5489 a73e
000001a0: 1094 2f3e fe3f 823e 08b3 cd3d 978a e4be
000001b0: d045 dd3d 7f34 83be 6e53 4abe a45d f1bd

downstream.full.bias f4 [7]
-0.23184127 0.18396607 -0.033029288 -0.11972183 -0.120515585 0.16427323 -0.053578466
00000000: cc67 6dbe 9a61 3c3e b849 07bd b830 f5bd
00000010: e0d0 f6bd 3e37 283e 1875 5bbd

maxpooling.full.weight f4 [7, 16]
-0.06689277 -0.30735373 -0.034902096 -0.08411941 0.2096209 -0.13693035 0.4808482 0.26148933
-0.014300436 0.23362905 -0.49357733 0.4045908 0.3240987 0.23309344 -0.4832358 -0.2468369
0.43897557 0.38743782 0.2799958 -0.41721097 0.2663114 0.03837329 0.37430423 0.3344937
0.21620321 0.0021139383 0.32087183 0.13041443 0.4664042 -0.27109087 -0.42307013 -0.3118685
0.39113253 0.36359388 0.45460021 -0.1400964 0.12463677 0.22414684 -0.12388793 -0.00868082
0.035057068 0.21648043 0.09991503 -0.04963088 0.098856986 -0.37727326 -0.3778718 0.1174044
-0.015895963 -0.2572432 0.30792195 -0.12065783 -0.20819488 -0.3740601 -0.011663258 0.3307972
0.10726088 -0.012582958 -0.29510188 0.41029245 -0.3034277 -0.33121598 0.49194187 -0.26331505
-0.49961826 -0.348081 -0.13220304 -0.08123383 0.12309307 -0.17744222 0.08547211 -0.37306038
0.062209904 -0.24639758 0.040214956 0.24161977 0.25257766 -0.36369115 -0.01890853 -0.2674293
-0.4125381 0.29375845 -0.17169374 -0.36330724 -0.33356285 -0.20276979 -0.06254828 0.009917319
-0.47093347 0.3659057 0.059547603 -0.0028207898 0.29893792 -0.38904297 0.022576869 0.20519972
-0.11856049 0.38813138 -0.10511476 0.4425645 0.36937696 -0.141621 -0.32532215 -0.31781363
0.06762105 -0.48474446 -0.31881815 -0.13769653 -0.26511127 0.17733514 0.38347477 -0.21565461
00000000: 14ff 88bd 785d 9dbe 80f5 0ebd cc46 acbd
00000010: dca6 563e 7837 0cbe bc31 f63e eee1 853e
00000020: 604c 6abc 743c 6f3e 2bb6 fcbe 8626 cf3e
00000030: 44f0 a53e 0cb0 6e3e af6a f7be d0c2 7cbe
00000040: 68c1 e03e 405e c63e 9c5b 8f3e ad9c d5be
00000050: f859 883e 502d 1d3d cea4 bf3e c242 ab3e
00000060: 6064 5d3e 008a 0a3b 5049 a43e 5c8b 053e
00000070: 88cc ee3e 6ccc 8abe a69c d8be 3aad 9fbe
00000080: 8642 c83e fa28 ba3e 5cc1 e83e 6e75 0fbe
00000090: 9041 ff3d c086 653e f4b8 fdbd 003a 0ebc
000000a0: 0098 0f3d 0cad 5d3e 40a0 cc3d c049 4bbd
000000b0: 8875 ca3d f629 c1be 6a78 c1be b871 f03d
000000c0: 4038 82bc 61b5 83be f2a7 9d3e 741b f7bd
000000d0: 0a31 55be ce84 bfbe 4017 3fbc 405e a93e
000000e0: 98ab db3d c028 4ebc 9817 97be da11 d23e
000000f0: e05a 9bbe 2495 a9be cedf fb3e 3bd1 86be
00000100: f7cd ffbe ac37 b2be 3c60 07be ec5d a6bd
00000110: 3818 fc3d 6ab3 35be 000c af3d c501 bfbe
00000120: d0cf 7e3d a64f 7cbe 70b8 243d 2c6b 773e
00000130: dc51 813e ba35 babe 10e6 9abc 7eec 88be
00000140: 3238 d3be 8267 963e 7cd0 2fbe 6803 babe
00000150: c0c8 aabe e2a2 4fbe 5019 80bd 407c 223c
00000160: 311e f1be fe57 bb3e 30e8 733d 00dd 38bb
00000170: 640e 993e a430 c7be 20f3 b83c e01f 523e
00000180: d8cf f2bd 28b9 c63e 6846 d7bd d097 e23e
00000190: fa1e bd3e 1805 11be a090 a6be 78b8 a2be
000001a0: e87c 8a3d 6d30 f8be 223c a3be 5200 0dbe
000001b0: aabc 87be 5897 353e ce56 c43e 90d4 5cbe

maxpooling.full.bias f4 [7]
-0.19433904 0.027214587 0.0068749785 -0.027311444 0.20726752 0.036286533 0.22161159
00000000: d000 47be 20f1 de3c 8047 e13b 40bc dfbc
00000010: f03d 543e 30a1 143d 26ee 623e

mean.full.weight f4 [7, 16]
-0.060521245 -0.3310726 0.40712732 0.30748093 0.16083091 0.5023926 -0.010921061 0.009769559
-0.4178502 0.019492388 -0.38643754 0.28082538 -0.042648077 0.3836925 0.2436257 0.004897237
0.14585787 -0.22486079 -0.074089825 -0.4631245 0.3393072 -0.0767746 -0.054548144 -0.4849277
-0.27115074 -0.49555767 0.04273349 0.16988438 0.09443301 -0.22475842 0.32360023 0.010958433
-0.47149163 0.49070746 0.4999401 0.40778404 0.23808807 0.179784 0.06041479 -0.36662295
-0.3723471 -0.15353715 0.36547703 0.22387344 0.19910032 -0.27456313 -0.048450887 0.35667616
-0.2902438 -0.038092613 -0.3185316 0.09385306 0.49208838 -0.035176456 -0.41445577 0.10509163
0.46990222 0.43065745 -0.34369427 -0.3130017 0.3041486 -0.3091346 0.43497956 0.4600219
0.45170414 -0.46243134 -0.19199005 -0.502437 0.4972697 -0.3460987 0.08343297 -0.41246888
-0.21624416 -0.4179477 -0.12858614 -0.3566979 -0.28579742 0.3475898 -0.29721427 0.1955573
-0.03720045 -0.2231651 0.18532783 -0.19790858 0.36927873 0.33962226 -0.2748204 -0.2718321
-0.23489323 0.4429654 0.19177854 0.3170979 0.49358886 0.17127287 -0.18597975 -0.36988947
-0.0715307 0.34753168 -0.19787967 0.0484128 -0.39201397 0.041689873 0.20511335 -0.30754584
0.34662288 0.04982859 -0.50472325 0.0923506 0.48184353 0.09946525 -0.1792874 0.21004796
00000000: 20e5 77bd 5982 a9be fe72 d03e 246e 9d3e
00000010: dcb0 243e cd9c 003f 40ee 32bc 8010 203c
00000020: 76f0 d5be 80ae 9f3c 24db c5be 58c8 8f3e
00000030: c0af 2ebd 5873 c43e 0479 793e 0079 a03b
00000040: c45b 153e e841 66be 68bc 97bd a81e edbe
00000050: acb9 ad3e 003c 9dbd e06d 5fbd 7248 f8be
00000060: 45d4 8abe bcb9 fdbe 5009 2f3d 2cf6 2d3e
00000070: 1866 c13d 1227 66be eeae a53e 008b 333c
00000080: 5a67 f1be 023e fb3e 26f8 ff3e 12c9 d03e
00000090: 5ccd 733e 4c19 383e 8075 773d 01b6 bbbe
000000a0: 47a4 bebe d838 1dbe ce1f bb3e 143f 653e
000000b0: f4e0 4b3e 8a93 8cbe 7074 46bd 429e b63e
000000c0: d69a 94be 0007 1cbd 9316 a3be 0836 c03d
000000d0: 02f3 fb3e 3015 10bd 8c33 d4be 483a d73d
000000e0: 0697 f03e 227f dc3e b2f8 afbe c241 a0be
000000f0: 5eb9 9b3e e446 9ebe a4b5 de3e fe87 eb3e
00000100: c445 e73e cdc3 ecbe 0a99 44be b69f 00bf
00000110: 229a fe3e d933 b1be e8de aa3d 1f2f d3be
00000120: 1c6f 5dbe 3efd d5be 16ac 03be 1ba1 b6be
00000130: 0a54 92be 4af7 b13e 782c 98be 2c40 483e
00000140: 805f 18bd 6485 64be 94c6 3d3e 8ca8 4abe
00000150: 1a12 bd3e f8e2 ad3e 42b5 8cbe 942d 8bbe
00000160: da87 70be 5ccc e23e 9861 443e a85a a23e
00000170: aeb7 fc3e 2862 2f3e 7a71 3ebe 2762 bdbe
00000180: b07e 92bd acef b13e f8a0 4abe 804c 463d
00000190: 0eb6 c8be 00c3 2a3d 3c09 523e a676 9dbe
000001a0: 8e78 b13e 1019 4c3d 8b35 01bf 5022 bd3d
000001b0: 32b4 f63e 70b4 cb3d 1e97 37be d016 573e

mean.full.bias f4 [7]
-0.18990108 0.12633082 -0.16551414 -0.07131365 0.21318573 0.009994328 -0.19429243
00000000: 6e75 42be de5c 013e 8a7c 29be e40c 92bd
00000010: 5c4d 5a3e 40bf 233c 98f4 46be
