best_model/acc/NorFeature-cora-b-h_dropout=0_wd=0_b=256_lr=0.01_walk=1_best_model.pt (torch_old, 289431 bytes, 15 tensors)

embedding.full.weight f4 [16, 1433]
00000000: d4c9 5abc dcb3 853c be68 193d cf0d 58bd
00000010: c470 32bd 96fa 4e3d 7e5d bfbc 70d3 11bd
00000020: fa8c 23bd c214 9bbc 8181 28bd 3059 253c
00000030: f414 523d 5811 16bc a09b 943b 0e06 60bd
00000040: 2c96 b6bc 16de 94bc 00a2 c439 4132 6bbd
00000050: f4dc 09bc b86c fbbb 238e 14bd ac51 d23c
00000060: f29f 0e3d 86ab 7b3d cab5 283d f882 ed3c
00000070: be26 23bd b056 6dbb ae40 483d ca92 92bc
00000080: 96fd 32bd 1c09 28bd b006 ba3b fed0 443d
00000090: e4c5 cebc be21 633d cc5a 423d b85f 34bd
000000a0: 486c 723d c8c9 2f3c a40d e33c 5e74 6c3d
000000b0: c370 23bd b6fd 25bd a6d2 5dbd 8447 5dbd
000000c0: a4d8 5fbd cc83 733d d030 61bb c33b 58bd
000000d0: 5eab 3abd aae1 773d dcb0 f1bc 9ddf 6ebd
000000e0: 5499 5bbd a878 2bbd 5279 2bbd 6c34 b03c
000000f0: f0bd 4a3c 40fd a0ba bcba 203d 328d 1a3d
00000100: d5b6 813d d09f 183d 7cc2 e33c 069c 35bd
00000110: 9c8e 34bd 2079 363c c23d 90bc e07f 08bd
00000120: 4c4a 72bc 1862 37bc fe5a 253d c010 883c
00000130: 1c14 4f3d 1d9b 833d 5671 583d 8ca2 1e3d
00000140: c86d 1d3d 4032 c73a 7451 2cbd 6425 04bc
00000150: e8b6 2fbc 94ee c5bc ac4b da3c 83c6 74bd
00000160: e19d 7bbd ba98 1d3d ec79 253d 4b64 83bd
00000170: 54cb 8d3c 6ea4 35bd af23 3bbd 6b5a 1abd
00000180: 5cfa 40bd 80b4 10ba 2a9c 4e3d c08b e23a
00000190: 7a08 aebc 001a 0d3b 54ed 55bc 0011 3f3b
000001a0: db63 70bd 8024 ad3c 56d3 553d cccc 2d3d
000001b0: 405c fc3a 77f7 54bd e86a 133c 84b7 5bbd
000001c0: 509d 5b3d 0030 9c3c 0593 64bd 3e44 1a3d
000001d0: 8cf9 ea3c b8ee cfbb bcd5 da3c 3281 53bd
000001e0: da54 4dbd 40ce a53b 526e 81bc 9842 4ebd
000001f0: e4ba af3c f2b5 cbbc 386c d2bc 6c4e ba3c
00000200: 50df 643d 0645 353d c461 a33c c422 dabc
00000210: 53d1 49bd 9005 7a3c 9e08 083d 6329 48bd
00000220: b6b8 aebc b276 c6bc 24e0 65bd 9878 143d
00000230: 9401 623d f842 443c f1dc 40bd 2c2b 513d
00000240: 868e acbc 9add 493d 9cfc 773d 2e8d 783d
00000250: 3aae 81bd c081 ceba dcf6 9bbc a8c3 81bd
00000260: 6086 08bb 2a2c 323d 3e7e 2abd e34a 00bd
00000270: 040a 7fbd f63d 193d b0df 483d 0892 a4bb
00000280: 681b e6bc a02b 7ebd fc82 cb3c d055 c23c
00000290: f04f f23b b081 fd3b 70f4 8a3c 805e 643a
000002a0: 22db 723d cc34 4d3d 646c 023d b07b 353c
000002b0: 8450 933c 0405 1bbc 9e46 0f3d be2e 743d
000002c0: 00d5 0ebb 4c65 d13c 80c1 c53b a460 29bc
000002d0: 0c5f 02bd f06f 963c a86d 5f3c c20e d9bc
000002e0: 5a70 653d acae 3c3d fa81 063d 960b 1fbd
000002f0: 4a06 453d 4055 82bc 8e64 5c3d 7ab4 783d
00000300: 4a2b 763d e41b 1dbd 98d3 383c a6c7 773d
00000310: f04c 42bb e7d7 67bd bf93 5dbd b042 f13c
00000320: 0017 183b d0c6 57bc 182e 643d c218 dcbc
00000330: 568f 2fbd 088d bf3c 9816 443c 087c f33c
00000340: 5a7a 1c3d 566a 82bd d4b4 813c 409e c5bb
00000350: 5c88 383d 6091 4e3c e826 1fbd 0481 74bd
00000360: 0000 d0ba 70b6 81bc f4c9 6d3d 8c4a 043d
00000370: 1806 e93c 20c6 523b 2c1c 6d3d e01f bb3b
00000380: bc1f 213d 50cb 8b3b ace1 e53c c0a4 e7bc
00000390: 287d c6bb a482 6fbc a4b6 9e3c 24d8 ba3c
000003a0: 4c1a 0e3d 803d 2f3c 66aa fdbc c066 493b
000003b0: d030 adbb 9afd 783d d0f8 943c 685a 12bd
000003c0: d966 52bd da6c dfbc 128d 13bd 98fb 583d
000003d0: 74f8 0a3d 7035 af3b 0892 5fbd 062e 4bbd
000003e0: 5cd1 20bd da1d 40bd 4395 1bbd 5011 9b3b
000003f0: f77e 1fbd 0016 a93b fa51 363d 108b 723c
-0.013353784 0.016321115 0.037453406 -0.052747544 -0.043564573 0.050531946 -0.02336001 -0.035602033
-0.039929368 -0.018930797 -0.04113913 0.010092065 0.051289514 -0.0091594085 0.0045351535 -0.054693274
-0.022288404 -0.018172305 0.00037504733 -0.057420973 -0.008414496 -0.0076728724 -0.036268365 0.02567371
0.034820504 0.061442874 0.041188993 0.028993115 -0.03983187 -0.0036215 0.04888981 -0.01789226
-0.04369887 -0.041024312 0.0056770667 0.048050873 -0.025240846 0.0554521 0.047449872 -0.044036597
0.059185296 0.010729261 0.027716465 0.057728164 -0.03990246 -0.04052516 -0.054155968 -0.05402328
-0.054649964 0.059451863 -0.003436137 -0.05279137 -0.045573585 0.060517944 -0.029503278 -0.058318723
-0.053613022 -0.041863114 -0.041863747 0.021509372 0.012374386 -0.0012282506 0.039240584 0.03773231
0.063337006 0.037261784 0.027802698 -0.04433825 -0.044081315 0.011137277 -0.017607573 -0.033325076
-0.014788222 -0.011192821 0.04036998 0.01660955 0.050556287 0.0642607 0.05284246 0.038729236
0.038434774 0.0015197471 -0.042069867 -0.008065555 -0.010724761 -0.024161614 0.026647411 -0.059759628
-0.061429862 0.03847573 0.040399477 -0.06415614 0.017308868 -0.044346265 -0.045688327 -0.037683886
-0.04711376 -0.00055200607 0.0504419 0.001728408 -0.021244276 0.002153039 -0.013057072 0.002915442
-0.05868898 0.021135569 0.0522035 0.042431638 0.0019253567 -0.051993813 0.008997656 -0.05364181
0.05361682 0.019065857 -0.05580427 0.037662737 0.028683446 -0.006345596 0.026713245 -0.051636882
-0.05012975 0.0050599873 -0.015799675 -0.050356477 0.021451421 -0.024867032 -0.025686368 0.022742473
0.05587703 0.04425528 0.01994408 -0.026627906 -0.049271893 0.015260115 0.033211343 -0.048867594
-0.021328311 -0.02422652 -0.05612196 0.03624782 0.055177286 0.011978857 -0.047085706 0.051066563
-0.021064054 0.0492836 0.06054364 0.060681514 -0.06332059 -0.0015755221 -0.01903861 -0.063361466
-0.0020832047 0.04349915 -0.0416243 -0.031321418 -0.06226541 0.037412606 0.04904145 -0.005022291
-0.02808924 -0.062053323 0.024842732 0.02372256 0.007394783 0.007736407 0.01696226 0.00087115914
0.059291013 0.05009918 0.03184165 0.011076853 0.017982729 -0.009461645 0.034979455 0.05961489
-0.0021794438 0.025560997 0.00603503 -0.010337982 -0.031828925 0.018363923 0.013636984 -0.026496295
0.05601535 0.046065018 0.0328388 -0.03882941 0.0481017 -0.015909791 0.053806834 0.06071899
0.060099877 -0.038356677 0.011280917 0.060493134 -0.002964791 -0.056602385 -0.05409598 0.029450744
0.0023207068 -0.013169959 0.05570802 -0.026867274 -0.042861305 0.023382679 0.011968277 0.029722229
0.03820262 -0.06367938 0.015833296 -0.0060308278 0.045051917 0.012607902 -0.038855463 -0.05969335
-0.0015869141 -0.015834063 0.058053926 0.032297656 0.028445289 0.0032161549 0.057888195 0.005710587
0.039336905 0.00426618 0.02806171 -0.028276801 -0.0060574003 -0.0146185495 0.0193742 0.022808142
0.034693047 0.010695815 -0.030965041 0.003073141 -0.00528536 0.06078873 0.01818505 -0.03573075
-0.051367614 -0.027273584 -0.036023207 0.052974313 0.03392835 0.0053469464 -0.054582626 -0.04960444
-0.03926216 -0.04690347 -0.037984144 0.0047322884 -0.038939442 0.0051600933 0.044511773 0.014803663

embedding.full.bias f4 [16]
00000000: d4e8 2fbc ba7b 8dbc 5c55 bb3c 3073 e53b
00000010: 32d0 9cbc d801 593b 3ee8 5ebc 1c95 2ebc
00000020: 59bd d6bc 4c2c fabb d0f5 893a a404 623c
00000030: 0058 8a39 5895 773b 9182 88bc 1253 a33c
-0.010736663 -0.017270911 0.022867851 0.007002257 -0.019142244 0.0033112671 -0.013605176 -0.010655668
-0.026213335 -0.007634675 0.0010525528 0.013795052 0.00026386976 0.0037778225 -0.016663821 0.019937072

aggregator.full.weight f4 [16, 2866]
00000000: aa42 3fbe 2fb4 e5be 3834 aebe 562c ee3e
00000010: 33ff 55bf f187 683f e56c 3c3f e089 06bf
00000020: f708 bebe 5606 e2be db8d 453f d9b4 aabe
00000030: 57cc eebe 233f da3d 8f1d 2dbf e9ef abbe
00000040: a277 71bf 782e 963e fb2f a5be b7ce 823e
00000050: af8a 173e aa6e 653e 439a f43e 2d62 92be
00000060: 98e6 5f3f e743 37bf f136 5fbf 1920 fabe
00000070: 5640 e9be 6b6d 9f3e 1ba3 f6be af3e 4bbf
00000080: 442e f53e 05d2 17bf 6bf9 b7be b94a 21bf
00000090: be96 c53e bf0a 8d3e f794 3bbe 5384 c83e
000000a0: fc36 84bf e6ca 36be df92 f1bc e3eb 07bf
000000b0: 5af6 9f3e a1b1 39bf 04ae 7e3f 2f11 34bd
000000c0: 080e dd3e 050f 053f 3e6a 23bf 73a2 5fbf
000000d0: f00b 013e ad12 dd3e caea 5abf c9db 30bf
000000e0: b32d 51bd 90ff f43e ec1b dbbe 1c2c 913e
000000f0: 7835 30be ea8b bf3e a9b1 933f ff8f bf3e
00000100: 10e6 073f 742d ce3e 9f3b 193f b6d3 afbe
00000110: 3661 323f 0d35 2fbf 7b25 cf3c 26b2 2d3c
00000120: a2ee 1f3f 7e48 6a3f 1706 1ebd f88c 493f
00000130: d6aa 18be 4c8f 8dbf 590c 6fbf 4010 9ebe
00000140: 89e6 e0be 544e 163e e589 8fbe b1de b5be
00000150: 250c 62be 902b 6c3f c598 093f 7ced 03bf
00000160: 1a46 013f 52a3 43be afc3 e1be e358 ab3e
00000170: 2ecf 1ebe e4eb 07be b4dd 14be c1a0 fcbe
00000180: 03f1 ec3e 2ee6 673d 6f72 453f 0225 923e
00000190: 9822 08be 7005 143f e94f 27bf 20bd ee3e
000001a0: 6076 b13e caba 7c3e bbbd 1dbf a599 a3be
000001b0: c049 19bf 7c72 353f 7c4b 2b3f 4843 29bf
000001c0: 5edb 0dbf 2355 a73d 9d28 5a3f 140c 1abe
000001d0: 4633 e0be 961b 173f de5c 443e ddd3 7bbf
000001e0: 9cec 24be 0470 1e3f a7ce 403e 15c0 803d
000001f0: 7d5d fdbc c57c 42be 520c 663e 14fd 19bf
00000200: da2f d13e 371e 44bf fa6f 313f d009 a2be
00000210: 6f9e ec3e 3283 1cbf d297 36be cce1 3bbf
00000220: 01ad 093f fdd6 053f 3f1f 033f 15d8 a7be
00000230: 47e6 6b3e c1eb 02bf 1925 a23e 6d8d 463f
00000240: 8b44 fbbe 4bc2 82bf e556 003f 728d 30bf
00000250: 0971 153e b360 ebbe 50bc 353f 6d72 39bf
00000260: ea23 3e3f 0bf6 0ebe 1d68 463e 52fc 88be
00000270: 773f d43e 5be4 123e 8d3f 953d 63d3 f83d
00000280: 56f7 873f a6c7 373f cda2 493e 9da1 9d3e
00000290: b8e4 f3bb f6fc babe 2a86 6c3e 4f35 c03e
000002a0: f6dc 3abf 4916 0b3f cdaf 2cbf e933 b03d
000002b0: 9b1b cbbe 3b36 0cbf b6bf 1bbf df08 483f
000002c0: 8670 21bd 0bbb 393d acf4 74be 1eaa 23be
000002d0: da62 f03e f746 1dbf 6276 d3be 2eb3 f3bd
000002e0: b3c8 1d3f d8af 2a3e 3131 adbe a8c7 17bf
000002f0: 70d1 86be 16ca df3e 4c74 b73e cdba 31bf
00000300: a355 02be d9e5 cf3c f997 26be e201 893e
00000310: 1714 00bf 3dc4 71be 30ec 153f 7d04 543f
00000320: 749a 26bf c3c5 013f 3930 903d aec9 413f
00000330: 31d2 9abe 7320 153f 4293 68be 0279 8e3e
00000340: 29b5 e03e 3222 43bf c0e6 c93e ee63 d5be
00000350: f23b 02bf 6cd2 0a3f 25dd 4f3d 9b2d 553e
00000360: 2f3b 383f 396c 1a3f 5591 363f a2ca b23e
00000370: bdd8 a73e 3c5c b53e 88c2 ab3e eb65 483e
00000380: 9055 f9be f1a7 4b3e 5d57 bd3d dd2d 3a3f
00000390: d39d 82bd c1bc d53e b965 3a3e b140 df3e
000003a0: dd32 10bf e62a 7b3e 8b5b 5cbf 79cf 923d
000003b0: f2e8 00bf da55 0e3f aa4b fe3e e885 32bf
000003c0: 9ce7 c63e 150c ca3e 3773 99be 4914 233f
000003d0: bc26 003f 7f71 303e e8cd fbbe f8d1 6f3e
000003e0: 0fff be3e 8ec0 81be b1bb 16bf 5d43 04bf
000003f0: 3f13 78bb 4c13 0cbe 9869 fdbd 869d dbbd
-0.18677774 -0.44864032 -0.34024215 0.465182 -0.8359253 0.9083243 0.7360366 -0.5255413
-0.37116215 -0.4414546 0.7716958 -0.333411 -0.46640274 0.106565736 -0.6762323 -0.33581474
-0.9432317 0.29332328 -0.3226317 0.25548336 0.14798997 0.22405496 0.47773942 -0.28590527
0.87461233 -0.71587986 -0.8719321 -0.48852614 -0.45556897 0.31138167 -0.48171315 -0.7939252
0.4788686 -0.5930484 -0.35932478 -0.6300464 0.3859157 0.2754726 -0.18318544 0.39163455
-1.032928 -0.17850837 -0.029488979 -0.5309431 0.3124264 -0.72536665 0.99484277 -0.0439617
0.43174767 0.51976043 -0.6383399 -0.8735725 0.1260221 0.4317831 -0.8551451 -0.69085366
-0.051068973 0.4785123 -0.4279474 0.28353965 -0.17207897 0.37411433 1.1538593 0.37414548
0.5308542 0.40269053 0.598566 -0.3434121 0.6967958 -0.68440324 0.025286427 0.010601556
0.624735 0.91516864 -0.038580026 0.78730726 -0.14908919 -1.1059356 -0.93378216 -0.30871773
-0.43925884 0.14678317 -0.28034893 -0.35521463 -0.22074945 0.9225397 0.5374873 -0.5153425
0.5049759 -0.1910527 -0.44094607 0.33466253 -0.1550872 -0.13273579 -0.14537698 -0.49341395
0.46277627 0.056616 0.77127737 0.2854386 -0.13294446 0.57820797 -0.6535631 0.46628666
0.34660625 0.2468063 -0.6161763 -0.3195316 -0.5987816 0.70877814 0.66912055 -0.6611829
-0.5541285 0.081705354 0.8521822 -0.1504367 -0.4378912 0.5902647 0.19176051 -0.9837015
-0.16105884 0.6188967 0.18828832 0.06286637 -0.030928368 -0.18992908 0.22465637 -0.6015179
0.4085682 -0.76608604 0.6931149 -0.3164811 0.46214625 -0.6113769 -0.17831352 -0.73391414
0.5377961 0.5228117 0.5121955 -0.32782045 0.23037063 -0.5114098 0.31668928 0.7755955
-0.49075732 -1.0215544 0.5013259 -0.6896583 0.145939 -0.45972213 0.7099047 -0.72440225
0.7427355 -0.13961045 0.19375654 -0.26755005 0.4145467 0.14344923 0.07287512 0.12149694
1.0622356 0.71789014 0.1969101 0.30787364 -0.007443037 -0.3652112 0.23098055 0.3754067
-0.7299341 0.5433088 -0.6745575 0.08603651 -0.396695 -0.5477025 -0.608394 0.78138536
-0.03941395 0.045344394 -0.2392146 -0.15982863 0.46950418 -0.6143641 -0.41301256 -0.1189941
0.6163437 0.16668642 -0.33826593 -0.59289026 -0.26331663 0.43708867 0.35830915 -0.6942566
-0.1272798 0.025378155 -0.1626891 0.2675925 -0.50030655 -0.23610015 0.5856352 0.8281935
-0.65079427 0.50692385 0.07040448 0.75698364 -0.30238488 0.5825264 -0.22712424 0.27826697
0.43888214 -0.7622405 0.3943386 -0.41677803 -0.5087272 0.5422733 0.05074801 0.20818178
0.71965307 0.60321385 0.7131551 0.34920222 0.32782546 0.35421932 0.33546853 0.19570129
-0.48698092 0.19888283 0.09245179 0.7272623 -0.06377759 0.4174557 0.18202867 0.43604043
-0.5632761 0.24528083 -0.86077183 0.071684785 -0.50355446 0.5559975 0.49667102 -0.69735575
0.3884858 0.39462343 -0.29970714 0.6370283 0.50059104 0.17230795 -0.49180532 0.2341994
0.3730397 -0.2534222 -0.58880144 -0.5166529 -0.0037853268 -0.13679236 -0.12373656 -0.107234046

aggregator.full.bias f4 [16]
00000000: 367c 563d eddb 493c fe25 8f3d 3f98 b73d
00000010: 8245 7f3c 361d c5bb 35c9 18bc d1b2 3dbd
00000020: 31f7 ba3c 6319 e93d d528 de3d acb0 0dbd
00000030: 0abc 193e 63ca 4e3d df7a 9f3d 32a6 84bb
0.05236455 0.012320501 0.06989668 0.089645855 0.015580537 -0.006015445 -0.009325315 -0.04631311
0.022822948 0.11381795 0.10847632 -0.034592316 0.15013137 0.05048598 0.07787108 -0.0040481323

step.full.weight f4 [1, 32]
00000000: 3cde 0b3d 8f90 20be b59e 1c3e fce6 d8bd
00000010: 410c 10be 38b4 323d 7102 293e 3f6b abbd
00000020: cd57 173e a40e 69bd ca6e c7bd bbaf a1bd
00000030: 34a2 233d 0602 e03d 8a69 21be 2011 62bc
00000040: aaf3 843d 00c0 f5ba 0222 f13d 1c31 2cbd
00000050: 8638 13be dd0a 133e 5882 f03c 027c ae3d
00000060: ca9d d73d 5d2f 20be 6f7e 30be 5816 f1bc
00000070: e411 02be 446c 0cbd d0ec 02be 2ad1 ebbd
0.034147486 -0.15680145 0.15294917 -0.10590932 -0.14067174 0.0436289 0.16504838 -0.08370065
0.14779587 -0.056898728 -0.09737928 -0.07894846 0.03994961 0.10937886 -0.15762916 -0.013798028
0.06491788 -0.0018749237 0.117740646 -0.04203902 -0.1437703 0.14359613 0.029359028 0.08519746
0.10528143 -0.15643068 -0.1723573 -0.0294296 -0.12702137 -0.034282938 -0.1278565 -0.11514504

lstm.lstm.weight_ih_l0 f4 [64, 16]
00000000: 9c42 183f b2cb b53e d7fb 273f 1f8e b23e
00000010: 0831 143f 6db0 103f a4f9 3e3f 5038 c33e
00000020: 48a3 163f 6e37 073f 40e3 ca3e 9e2d 1b3f
00000030: f6a9 043f 5bec 163f ca54 483f 88a1 2a3f
00000040: 02b7 563e 1d1f 1f3e ab8f 673e 92f6 463e
00000050: 02e3 18be ad89 e73e 77f2 6bbd d90d 233e
00000060: 9dc1 ef3e 7484 f13d 6392 8d3c e829 6e3e
00000070: ec4a ee3d 4cf3 a93e 32e7 ce3d d647 1d3d
00000080: 0a9b 4e3f 71ff 103f 1ff4 e53e 3f25 013f
00000090: c0bf b43e 1357 ae3e dfae 0e3f 7ab5 a53e
000000a0: f88a f53e d7dc 2b3f f953 1f3f 4e40 093f
000000b0: 721b 3d3f 6e5d 893e 2787 db3e 6825 1d3f
000000c0: 9ba7 543e b08a db3e 2103 843e 74b1 90bd
000000d0: 4c11 d73e 4747 9d3e e371 00be 9937 95be
000000e0: 94d5 ea3e 1fdf e53d 5aa9 8b3d 86fa f03e
000000f0: 51c0 233f 334f 293f 5f81 11be 84d3 f7bd
00000100: 4ae0 ae3e e733 153f 4549 643e 6cee 4b3f
00000110: a0f0 093e 5284 6e3e 13bb a93e 1660 373f
00000120: 10a0 a83e 13e6 9c3e 3804 033f d493 033f
00000130: ab86 e13d bf49 063f be08 fa3e 3d3d f83e
00000140: a1ae 163f 06e4 163f 5869 4a3f 1ea5 443f
00000150: c821 413f c39d c33e 392b 0a3f 80e3 1d3f
00000160: 8f8e ac3e 5933 3f3f e10e bc3e 7a07 263f
00000170: b7ee 2b3f b211 033f 8878 2f3f 485b 313f
00000180: bb1b 843e f7a6 c13e d454 0c3f c3de 063f
00000190: eb96 d43e 301b 113e 2cd9 4d3d bb1f 1d3e
000001a0: e667 6d3e 18aa a93e e72e a43e 9510 453e
000001b0: 9f32 b93e e262 b83e ff32 b33d bd78 9c3d
000001c0: a625 8dbe 5c5d 8b3e c899 ae3e 3171 6d3e
000001d0: 78cb 653e c7bb 843e 6b82 2d3e 04a9 80bd
000001e0: 3740 2e3f ffb1 e9bd 2fd9 5a3d 49dd 0f3e
000001f0: 376a a33e 5489 473f 54d6 193e dcf0 ad3d
00000200: 8459 9abe 1735 0bbe a699 443e c902 3d3e
00000210: 64ae b73d 9027 af3d 3b8b 7bbe 945b 163e
00000220: 5f3b 89bd a042 1ebe 7e5f d6bd 36b4 353e
00000230: 02f1 1abe 9ac1 6d3e b1f3 02be d4e6 023e
00000240: f5c0 373f 3aca 053e 33f7 723e e6bf ec3e
00000250: 2502 fa3d d9a1 9a3e 3f8b 1d3f c4bd 073f
00000260: c4c9 063f 4d0e fe3e e51e 053f db44 c53e
00000270: 8c43 d73e 7a25 993d cb25 343f d454 853e
00000280: 8111 c93e f3c0 003f 6428 c13e 262a bf3e
00000290: 5e9d 323f a1e9 a23e 01a9 ca3e 1b56 2b3f
000002a0: faeb ff3e f0d3 c13e c7a0 973e 7458 f83e
000002b0: 46df 353f a305 b93e 68b5 443f 8f51 a73e
000002c0: e5c7 1c3f c332 053f 2d8d c03e 2d43 033f
000002d0: c938 003f 3d31 083f 22e4 e33e 09db 0f3f
000002e0: a256 d93e 7082 b13e 096b e23e e91e 8c3e
000002f0: a428 8f3e a46f fc3e b301 c23e e250 123f
00000300: bed1 173f cb66 df3e 74a9 db3e 5f9f 543f
00000310: c7ef f33e 1a76 083e 034c cb3e ca09 013f
00000320: 33c7 f83e ccf6 123f 9b89 013f 30b4 043f
00000330: e127 e03e de17 593e 5acc 193f a29d 123f
00000340: cc0a ce3e 9d34 1a3e 2e15 2f3f 1a05 263d
00000350: 06c0 363f d3e7 473f 8d00 1f3f c5d3 1d3f
00000360: 1ab0 153f 28af f03e 27ee aa3e dfbc e83e
00000370: 2ab8 cb3e 0c01 253f dcde de3e f8c2 3c3f
00000380: aac6 233f 0638 363e 4fcd a93e c396 b93d
00000390: 7622 9f3e 1b21 f83e 8d25 c03e 2bb9 873e
000003a0: 1759 6a3e 257f b13e 6b57 553e b120 053f
000003b0: ca53 0e3f 0909 e63c 483c 233f 2dfd ca3e
000003c0: 4b7e f33e 90af a63e 3be4 823e 2f2f 1a3f
000003d0: 595a 733e c9fc aa3c 0abd 533d 1f9c 913e
000003e0: 4ce3 1d3e 62b8 003f 4251 1e3f 5357 3abd
000003f0: ca3e 063f 9595 183f 9d14 9b3e 5f49 8a3e
0.5947664 0.3550697 0.6561865 0.34874055 0.57887316 0.56519204 0.7459967 0.381289
0.588429 0.52818954 0.39626503 0.6061648 0.5182184 0.589544 0.7825438 0.6665273
0.2096825 0.15539213 0.22613399 0.19429997 -0.14930347 0.45222226 -0.05760428 0.15923251
0.46827403 0.117928416 0.017281717 0.23258173 0.11635384 0.33193433 0.10102691 0.038398586
0.8070532 0.5663977 0.44912812 0.5044746 0.35302544 0.34050807 0.5573558 0.32365018
0.47957587 0.6713385 0.6223751 0.53613746 0.73870003 0.26829094 0.4287655 0.613852
0.20767061 0.42879248 0.25783637 -0.070650965 0.42005384 0.30718443 -0.12543444 -0.2914398
0.45866072 0.112241976 0.068194106 0.47066134 0.63965327 0.66136473 -0.14209507 -0.1210089
0.34155494 0.5828232 0.22293575 0.7966068 0.13470697 0.23292664 0.3315054 0.7163099
0.32934618 0.30644283 0.5117831 0.5139744 0.11012014 0.5245628 0.48834795 0.4848422
0.5886021 0.58941686 0.7906699 0.7681445 0.7544217 0.382063 0.539722 0.6167526
0.33702514 0.74687725 0.36730102 0.6485516 0.67161125 0.51198876 0.6854329 0.6927991
0.25802407 0.37822697 0.5481694 0.5268366 0.4152139 0.14170527 0.05025594 0.15344135
0.23184165 0.33137584 0.32067034 0.19244607 0.36171433 0.36012942 0.08749961 0.076402165
-0.27567786 0.27219665 0.341017 0.2318771 0.22440898 0.25924513 0.16944282 -0.06282237
0.68066734 -0.11410903 0.05342978 0.14049257 0.31916973 0.7794392 0.15023166 0.08493206
-0.3014642 -0.13594471 0.19199237 0.18458094 0.08968809 0.08552468 -0.24564831 0.14683372
-0.06700777 -0.15455103 -0.104674324 0.17744526 -0.15131 0.23218384 -0.12788273 0.12783366
0.71778804 0.13065425 0.23727112 0.46240157 0.1220744 0.30201605 0.615406 0.53023934
0.5265162 0.49620286 0.52000266 0.38529095 0.42043722 0.07477851 0.7037017 0.2604128
0.39271167 0.5029442 0.37726128 0.37336844 0.69771373 0.3181887 0.39582065 0.6692826
0.49984723 0.37857008 0.2961485 0.48504984 0.71043813 0.36137113 0.76839304 0.32679412
0.61242515 0.5203058 0.3760771 0.5127438 0.5008665 0.5320013 0.4450999 0.56193596
0.42448908 0.34669828 0.44222286 0.27367333 0.27960694 0.49303925 0.3789192 0.5715467
0.59304416 0.43633112 0.4290272 0.8305568 0.47643873 0.13326302 0.3970643 0.5040556
0.48589477 0.5740783 0.50600594 0.51837444 0.43780425 0.21200511 0.6007744 0.5727178
0.40242612 0.15059133 0.6839169 0.04053221 0.71386755 0.7808811 0.62110215 0.6165126
0.58471835 0.47008634 0.3338482 0.45456597 0.39788944 0.6445472 0.43529403 0.73735
0.6397501 0.17794809 0.3316445 0.09061959 0.3108098 0.48462757 0.3752865 0.2650846
0.22885548 0.34667316 0.20834129 0.5200301 0.555966 0.02808048 0.63763857 0.39646283
0.4755729 0.3255582 0.2556475 0.60228246 0.23764934 0.02087249 0.051693954 0.28439423
0.15418738 0.50281346 0.6184274 -0.045493435 0.5243956 0.59603244 0.30289164 0.27009103

lstm.lstm.weight_hh_l0 f4 [64, 16]
00000000: 585d 063e 2dc1 053f 4b54 9cbe 4392 ecbe
00000010: 85b6 cfbe 091f 2f3e b909 20bf ea20 fa3e
00000020: 4971 073e 0f65 20bf 1be4 11bf fca3 7fbe
00000030: bd63 2c3f d187 b53e c975 0d3f 2602 223f
00000040: c582 503e b02f 8a3f fa85 ea3d 0290 89bf
00000050: 754f acbd 2f17 603f 12d1 49bf 6d52 233f
00000060: 0593 113f f4d5 e6be 1ddb 86bd cf2e cfbe
00000070: 6d44 b13e 0f5b 9e3e 1e5a 0c3f 6bbb 073f
00000080: c7fc 05be 9837 373f 9353 23be 26ef cebe
00000090: 2f24 59be a0f9 aa3e 9590 c8be c7a0 2e3f
000000a0: df33 0abd 8a85 dabe 3cf9 9ebe 6a68 b5be
000000b0: b8a9 063f 3d02 0f3f 24fa 633e 4414 e43e
000000c0: 4e60 eebe 8886 3c3f 661b 0dbc a48a 11bf
000000d0: fb2d b53d 0dd9 8fbd 73a7 1ebf d8cb 0d3f
000000e0: e3fb 6e3f fe1f c2be ae0c e8be 9db8 cf3e
000000f0: da2f a7bd 1e74 123f fc35 d63c 2b73 8a3e
00000100: cf87 da3e b0e9 e83e 0eb6 b9be 245e 18bf
00000110: 2228 9dbe 36f5 2d3e 0137 f7be 32df a63e
00000120: 4676 453e 4cc8 23bf f6d2 c5be d26c 54be
00000130: a042 de3e 36b8 ce3d a25a 153f b1c4 1c3e
00000140: 8c22 9bbe c933 2b3f 16ee cabd ba51 3abf
00000150: 951b c1be 767f 053f d8ff 18bf 42f5 413f
00000160: ae3d bb3e 379a a5be 7225 4d3c ea22 d3be
00000170: 6cf6 a33e aeb8 f83e 6413 ee3e aa79 ea3e
00000180: ecf4 9dbe f62d 553f 8cd8 14bf f746 31bf
00000190: df6a f5bd 197e 4a3e a1da 22bf 8f2a 483e
000001a0: b465 0e3f 34f4 1bbe e7a1 efbe fed5 41be
000001b0: ba8b 753e 2966 0b3f 4223 4f3e 3708 b13e
000001c0: 3d6d ecbe 7e43 523f 57bd 89bd 91d5 66bf
000001d0: 3540 c53e 7a41 5a3d 6f01 efbe 5e0e c33e
000001e0: 5c39 233f f99c b73d 86de 713e faba 1f3f
000001f0: 7f6e fa3d 137b 483f 0f82 bb3d 7bbf 1c3f
00000200: 6bae 3fbf 1e45 ad3c 3bc9 313f 0390 35be
00000210: 99be d53d 9e52 843f 12e1 74be c70d 623f
00000220: 80b9 a63e 2415 10bc 7ec9 733f 148b 263f
00000230: 8a1f 22bd 9cd1 253f b9d2 01be 91be c33d
00000240: 93ed f33e 72d0 043f 3737 fcbe c3b8 cfbe
00000250: b3ad cdbd 5537 513d 2065 18bf 7736 733e
00000260: e657 153e 8ea0 9fbe 67ee 6cbe e779 59be
00000270: d49d 6e3e a158 7a3d 153f 903e 354c ee3e
00000280: 3238 a23e f511 233f a28a edbe 502f 31bf
00000290: 0c07 2cbf eae4 b53e d33d 95be 4df5 963e
000002a0: 1e26 7f3e f038 80be 99f5 8dbe 457e 12be
000002b0: 9121 143f 4a95 a13e bd98 f83e 14d9 d13e
000002c0: 2289 5bbf 5481 0c3f c11e 02bc bc69 0ebf
000002d0: fff6 a9be 1af5 b73e 4ef6 10bf bae4 5f3f
000002e0: 8160 cf3e be74 05bf 5c38 113e 07ac 743b
000002f0: 7586 9f3d 9046 603f 36ca 8b3e a9e1 f83e
00000300: 2167 003f c8f2 013f 90f5 34bf 061f 20be
00000310: abe3 83be 8b62 193e 8216 74be 9e2b cb3e
00000320: df26 133f 9967 f1be 74e2 28bf 10e4 c7bd
00000330: 3939 173f d55b bc3d e455 9f3e 125a 8e3e
00000340: 5c06 73be edc4 343f fd74 0cbf b5b5 4ebf
00000350: 8518 ecbe 49ee 613e 668d e3be 9770 853e
00000360: 89fd f53e fb01 69be 116d b3be eae3 d8bd
00000370: 2c3b dc3e 6000 d93e c1d5 0a3f 14c5 023f
00000380: 6710 18be 6729 1f3f bdcc 6abe 54c5 15bf
00000390: ab34 94bd d562 843e ffe6 28bf 55d6 2c3e
000003a0: 8d36 89bc 5a99 e6bd 7af7 16bf d87f 213e
000003b0: 7c3c 9a3d ece9 903e b792 023f 1725 c03e
000003c0: 8887 e63e 3dd0 1a3e 3102 253e 4d23 cfbd
000003d0: 8a98 f83c bf64 cb3e 0365 b2be 170d b73b
000003e0: 796c 183e 99fc d3be 8054 843e 309f b7bd
000003f0: 9c0a a53e 80c7 80be 53b3 103e 71b4 8d3e
0.13121545 0.5224789 -0.3053306 -0.4620534 -0.4056894 0.17101683 -0.62514836 0.48853236
0.13226809 -0.62654203 -0.56988686 -0.24964899 0.6733969 0.35455182 0.5525785 0.6328453
0.20362385 1.0795803 0.11451335 -1.0747073 -0.08413593 0.87535375 -0.7883464 0.63797647
0.5686496 -0.45085108 -0.06584761 -0.404654 0.34622517 0.30928847 0.5482501 0.5302035
-0.13084708 0.71569204 -0.1594985 -0.4041683 -0.21205209 0.33393574 -0.39172807 0.68214077
-0.033740874 -0.42680007 -0.31049526 -0.35431224 0.5260272 0.5586279 0.2226339 0.4454671
-0.4655785 0.7364278 -0.008612489 -0.56852174 0.08846661 -0.07023821 -0.6197426 0.55389166
0.933531 -0.37915033 -0.45322174 0.40570536 -0.08163424 0.5720843 0.026148789 0.2704099
0.4268174 0.4549079 -0.3627171 -0.5951865 -0.3069468 0.16988072 -0.48284152 0.3259216
0.19283399 -0.63977504 -0.38637513 -0.20744637 0.43410206 0.10093729 0.5834142 0.15309407
-0.30299795 0.6687589 -0.099086925 -0.72780955 -0.37716356 0.52147615 -0.59765387 0.7576486
0.36570495 -0.3234422 0.012521135 -0.41237575 0.32023942 0.485784 0.4649917 0.45795947
-0.30850923 0.83273256 -0.58142924 -0.6924891 -0.11983275 0.19774665 -0.6361485 0.19547485
0.55623937 -0.15229875 -0.4680321 -0.18929288 0.23979083 0.5445276 0.20228294 0.3457658
-0.46177092 0.82134235 -0.06725567 -0.90169626 0.3852555 0.0532851 -0.4668078 0.380969
0.637594 0.08965487 0.23620042 0.6239468 0.12228107 0.78312796 0.09155666 0.61229676
-0.74875516 0.021151122 0.6944768 -0.17730717 0.10436744 1.0337713 -0.23913983 0.8830227
0.325634 -0.008794103 0.9522933 0.65055966 -0.03958086 0.64772964 -0.1267804 0.09557832
0.47642192 0.5188056 -0.49260876 -0.4057065 -0.10042896 0.05107816 -0.59529305 0.23751245
0.14584312 -0.3117718 -0.23137818 -0.21237908 0.23302394 0.06111968 0.28173128 0.46542516
0.316835 0.63699275 -0.4639483 -0.6921282 -0.6719825 0.3552621 -0.2914873 0.29484025
0.24916884 -0.2504344 -0.2772644 -0.1430598 0.5786372 0.3155921 0.4855403 0.4098593
-0.85756123 0.5488484 -0.007941903 -0.5563009 -0.33196256 0.35929185 -0.5662583 0.87458384
0.40503314 -0.5213126 0.14181656 0.0037333982 0.077893175 0.8760767 0.27302712 0.48609665
0.5015736 0.5076108 -0.706872 -0.15636835 -0.25759634 0.14978997 -0.23836711 0.39681715
0.5748119 -0.4714935 -0.6597054 -0.09760296 0.5907169 0.09197203 0.31120217 0.27803093
-0.23732895 0.70612985 -0.5486601 -0.8074601 -0.46112457 0.22063555 -0.44443816 0.26062462
0.48044994 -0.22754662 -0.3504415 -0.10590346 0.43013895 0.423831 0.5423241 0.5108197
-0.14850007 0.6217255 -0.22929664 -0.58504224 -0.07236608 0.25856653 -0.6597747 0.16878636
-0.016749645 -0.11259718 -0.5897137 0.15771425 0.07531068 0.28303468 0.5100512 0.37528297
0.45025277 0.15118499 0.16114117 -0.10114155 0.030346174 0.397253 -0.3484269 0.005586277
0.14885129 -0.41403654 0.25845718 -0.089659095 0.32234657 -0.25152206 0.14130907 0.27676728

lstm.lstm.bias_ih_l0 f4 [64]
00000000: 4a36 243f e5f7 463d f24d 303f 039a 823e
00000010: 2bd5 013f a8b2 2b3f 5f71 373d e7d1 063f
00000020: fe27 6c3e e84d 833e 1bfe bd3e ac32 8a3e
00000030: 16a6 ee3e 2f48 a03e e09f e53e db02 293e
00000040: d627 853e 5a19 063e f0ba 1f3f 820e cf3d
00000050: 0b08 d93d 7f76 bf3e a4e3 1b3d ae86 803e
00000060: 6b22 3e3e 7d7d 8b3d 3795 133f 69c4 db3d
00000070: 9ecf 073f 7c0a f73e 338e e13c 6255 4fbe
00000080: 76af 1a3e 3a0d 0b3e 34fb c2bc ce56 84bd
00000090: 5531 093e 0842 13be c824 39bd 7e61 493d
000000a0: be1b c6ba f8ad bdbd 6330 563d 46fa 61bb
000000b0: 067d 053d 9474 08be 89fd 8fbe 7855 9c3e
000000c0: 4fe9 023f 40d7 cb3e 02d9 383f 64f4 d53e
000000d0: 4e3c 9d3e 62bb 253f 7a1a 8c3e 058c c73e
000000e0: 3c74 7a3e b247 bc3e 8fdb fa3e 5c31 233f
000000f0: d5a0 143f ab74 c43e 4555 503e a539 a33e
0.6414534 0.048576254 0.68868935 0.25508127 0.50715894 0.6706948 0.044785853 0.52664036
0.23062131 0.25645375 0.3710793 0.26991785 0.4661109 0.31305072 0.44848537 0.16504996
0.26006955 0.13095608 0.6239462 0.10110189 0.10597237 0.37395093 0.038058892 0.25102752
0.18567817 0.06811044 0.5764956 0.10730822 0.53051174 0.48250186 0.027533626 -0.20247415
0.15105996 0.13579264 -0.023801424 -0.06461869 0.13397725 -0.14380658 -0.045201093 0.04916524
-0.0015114469 -0.092616975 0.05229224 -0.003448145 0.032589935 -0.13325721 -0.2812312 0.30533957
0.5113725 0.3981266 0.7220613 0.41788018 0.3071007 0.6473905 0.2736395 0.38974014
0.24458402 0.3677345 0.48995635 0.6374719 0.5805791 0.3837026 0.20345028 0.31879917

lstm.lstm.bias_hh_l0 f4 [64]
00000000: cb98 083f a2b9 b43e 9b84 1b3f a1dd a23d
00000010: d161 043f eb51 da3e 522a 173e 67ba 063e
00000020: 9b3e 463d 1a07 ff3e e38e 233f c186 0d3f
00000030: 0941 f13e 537c 923e 1945 9e3e 0e85 ca3e
00000040: cf8b 663e 3f18 87bc 7f8b 1c3f 735d 853d
00000050: 1f32 043f 37e8 d23e b6e5 edbd 75cf 8fbc
00000060: fe27 81bd 0abb 1f3d a8b3 cd3e 09b6 f13e
00000070: 69cc f53e 8512 cb3e acf4 9c3d afb8 4f3d
00000080: cd14 a1bd a526 0fbd 84cb a33e e54e c13d
00000090: c843 d43d c2b3 8f3d a56d 66be 40b4 c3bd
000000a0: c37b be3d cede cc3b 1ebf 393d 0d2c 293e
000000b0: 92b8 f83b 2975 053d adab 243e bed0 ec3d
000000c0: 7555 b53e c1c3 e23e 68f1 1e3f 087b fc3e
000000d0: d0d2 043f 1830 ab3e b9d8 d83e da61 9a3e
000000e0: 50cc 593e 89c7 783e a2f7 d43e 4d02 453e
000000f0: a3a9 f93e 86a3 073f f5b5 f13e e387 453e
0.53358144 0.35297877 0.60749215 0.079524286 0.51711756 0.42640623 0.14762238 0.13157044
0.04839955 0.49810106 0.638899 0.55283743 0.4711993 0.28610477 0.30912092 0.39554638
0.2251427 -0.016491054 0.61150354 0.06511965 0.5163898 0.4119279 -0.116160795 -0.017554978
-0.06306456 0.038996734 0.4017613 0.47209194 0.48007515 0.39662567 0.07663855 0.050713237
-0.078652956 -0.034948964 0.31991208 0.09438876 0.10364491 0.07016708 -0.22502764 -0.09555864
0.093009494 0.0062521463 0.04534828 0.1652071 0.007590362 0.032582436 0.16081114 0.11563252
0.3541676 0.44289973 0.62087107 0.49312615 0.51884174 0.3343513 0.42352846 0.3015278
0.21269345 0.24294867 0.4159518 0.19239159 0.48762235 0.5298389 0.47209135 0.19290118

downstream.full.weight f4 [7, 16]
00000000: e30b 92bf 51cf 263e 144f 04bf 204c debe
00000010: 5709 f53e ce40 80bf f23c 8c3e c246 213f
00000020: ba20 2d3e b1e4 12bf a704 f0be f6dc 9d3f
00000030: be94 6fbf 6a55 903f 5e2f 683f f9bf 2fbf
00000040: 9097 6f3f 0aa5 073f 8366 5f3f d80d ca3e
00000050: 4dd2 1e3d b319 af3f d4f7 923e 1b78 78be
00000060: 4af2 8d3e 6e37 dbbe 91bd a43f 7ba6 583f
00000070: 4d6d 713f e5c3 7abf df2f 0dbf e77a d33d
00000080: 35fe 9c3f 9d72 d53e 61d2 113f 0c0b b93f
00000090: f1f6 9abf 39fe fabe 6b50 773f da00 56bf
000000a0: 2b27 2abf c87e 51bf 274a 87bf d0d5 343e
000000b0: afde 5b3f 08d1 9ebf c642 9c3d d150 0e3f
000000c0: 8ab3 643f e0be f43e 2654 96bf f57f 73bc
000000d0: ae14 943e 8f74 e9be 67ff 1dbf 688b a6bf
000000e0: 98ad d6be 2df7 8bbf 6820 62bf 6ae6 9a3e
000000f0: 2ed0 5d3f 4dc2 143f 9be6 853f e350 643e
00000100: 0b3c 6bbf 8015 333f 35d9 9c3f 018a b0be
00000110: 5c0c 9c3e 5a67 363f 0a95 99be 0b5a 223f
00000120: 9e26 203e 79bb 4e3f c4d4 8f3f 0fdc 6ebf
00000130: b84d dbbd a1c0 c4be 741b 42bf 4c3b 243f
00000140: 4678 98bf 1ad9 95bf 74ae eabe 9e09 edbc
00000150: 8572 3a3f bf86 393f 1971 343e f88b 603f
00000160: b7bc a43e db0b 3a3f 0074 3f3f 9b16 93bf
00000170: 39de 46bf aab0 753f ac5d 8fbf d77d 12be
00000180: 61f0 5abf 7f09 76bf 77b3 6bbf 3bd5 dabe
00000190: 1b2a 0c3f baea 9ebf f131 0dbf b104 99bd
000001a0: b7b1 c4be 3684 6c3f 1e95 52bf 6efa a7bf
000001b0: 8232 1cbf c7c2 273f 53df b3be 447a 22bf
-1.1409878 0.16290022 -0.51683164 -0.43417454 0.47858688 -1.0019777 0.27390248 0.6299859
0.16907015 -0.57380205 -0.4687855 1.2333057 -0.9358634 1.1276066 0.90697277 -0.686523
0.9359064 0.52986205 0.87265795 0.39463687 0.038774777 1.3679718 0.28704703 -0.24264567
0.27723914 -0.42815727 1.2870351 0.8462903 0.94307405 -0.9795516 -0.5515117 0.10326176
1.2265078 0.41689005 0.5696164 1.4456496 -1.210661 -0.49022081 0.96607083 -0.8359505
-0.66466016 -0.8183408 -1.0569504 0.17659688 0.85886663 -1.2407541 0.076299235 0.55592066
0.89336455 0.47801876 -1.174443 -0.01486205 0.28922027 -0.4559674 -0.6171784 -1.3011293
-0.41929317 -1.0934807 -0.883307 0.30253917 0.8664578 0.5810898 1.0461 0.22296481
-0.91888493 0.6995468 1.2253786 -0.3448029 0.3047818 0.7125145 -0.2999652 0.63418645
0.15639731 0.8075481 1.1236806 -0.9330453 -0.10708183 -0.38428214 -0.7582314 0.6415298
-1.1911705 -1.1706879 -0.45836222 -0.02893525 0.7283099 0.7247123 0.17621268 0.87713575
0.32175228 0.7267434 0.74786377 -1.1491274 -0.77682835 0.9597269 -1.1200461 -0.14305817
-0.8552304 -0.9610824 -0.92070717 -0.42740807 0.5475175 -1.2415383 -0.5515433 -0.07471598
-0.38416836 0.9238924 -0.82258785 -1.31233 -0.6101457 0.6553158 -0.3513132 -0.6346781

downstream.full.bias f4 [7]
00000000: 035e 0d3e 5e75 02bc 2203 69be b81c 383e
00000010: 1c3b 203e 34a5 4cbe 8241 8cbe
0.13805394 -0.007962553 -0.22755101 0.17979705 0.15647548 -0.19984895 -0.27393728

maxpooling.full.weight f4 [16, 16]
00000000: 7cd4 7bbe 1ca1 a6be be73 b8be 501a 8cbe
00000010: 2b9d a63e 4c5c 54be f95d 8b3e 3338 ac3e
00000020: 08fb cfbe 0ea5 683e 36de 05be fe04 673e
00000030: 7302 cb3e 500b d3bd 5c77 a9be 9201 31be
00000040: e4a1 0bbe 8642 3a3e d740 4cbe 8067 e6bd
00000050: 5a55 353e 9240 d4be 1a3a cdbe dddf c23e
00000060: ca42 08be b5cf 833e 5884 483d 39a6 b0be
00000070: 8693 6b3e c02a ee3b 2d94 c7be e831 babd
00000080: 0bea b83e 58cb d0be 4e6f 63be afa4 803e
00000090: afc3 43be a075 fbbc 209c 03bd 1a35 6c3e
000000a0: aa68 403e 8d3d af3e 35ce 853e 69d2 8a3e
000000b0: 3bc4 cebe 4141 74be 6a48 383e 7d04 b03e
000000c0: 28b2 febd 82b1 4b3e a2c4 b6be 7b7d a43e
000000d0: 28a1 323d 8dfc 853e a180 adbe c4b5 ad3d
000000e0: 1836 423d d4ea 4dbe 4f3d b83e 694c a63e
000000f0: 4be0 8d3e 44e0 9abd 2da8 b9be e18b c43e
00000100: 36d3 75be c09a c1be f73e c23e 9ba8 b4be
00000110: f06c dcbe 00c4 b73a 9633 0fbe f3f7 b13e
00000120: e18c bdbe 4a1c 263e 4995 c43e c09b 893b
00000130: 8ec5 293e abc1 a73e 3103 903e dee2 463e
00000140: e5ea c1be 8ee1 7d3e 48c7 94bd a243 4dbe
00000150: 5e5f bfbe 14cb 09be 3095 d03c 8099 0ebd
00000160: 1ca8 9cbe 2142 76be 1016 afbd 118a bd3e
00000170: 780f 64bd bca9 f8bd 006a 27be c985 b43e
00000180: 5a32 6e3e 0020 ebb8 84e5 83be c0ec e03b
00000190: 4663 5a3e 3575 c83e 679c c53e 3caa f43d
000001a0: f5d3 8c3e d559 ab3e 1364 813e 5d0c b33e
000001b0: a61a 5a3e 2fb6 803e 3268 203e 4474 c5be
000001c0: 1ce1 e63d 3df1 9d3e e640 7a3e e8eb 7fbd
000001d0: 2ba0 813e 8229 463e fe28 3c3e cac9 6f3e
000001e0: 5063 8fbe 09f8 ae3e 40fd aebd 4aea 2f3e
000001f0: 4a26 063e fd0a 973e 73a3 7bbe 4270 5b3e
00000200: 65a7 bcbe 20a7 2abc 88d3 47bd a664 003e
00000210: 88e6 b9be 2ac9 74be 75e0 8b3e e02e 3c3c
00000220: f675 b6be 2826 d1be 0669 283e 4b07 d33e
00000230: dc4d c53d f2df 423e 31ca ce3e f649 81be
00000240: 2df5 b43e 438e 5dbe 3577 d93e 90dd b83c
00000250: 2ff0 b83e 542f c93d 0e64 0b3e 60ea a8bd
00000260: 259d c73e 9674 283e 001a f3bb 195f a93e
00000270: 204a 133c 0856 9abe 20bd 25bc 9e2d 29be
00000280: c834 753d d01d 043d 3145 50be f419 85be
00000290: 92cb d6be fe11 593e 6646 56be 9875 6fbd
000002a0: 1e6d 4b3e 89a3 9a3e 8d7f 4dbe 88f6 06bd
000002b0: 4855 1bbd 2095 c9bd 084f cbbe 0f36 d2be
000002c0: 249e b83d c0da d43b 2ba1 af3e 7c34 fd3d
000002d0: e2fd a6be e298 8bbe 6c15 96be 16d8 21be
000002e0: b164 adbe 02e3 5e3e 80d2 b3bb f278 71be
000002f0: 8094 c7bd 4db1 8bbe be5a 6e3e e106 4bbe
00000300: 1433 fb3d f2fd 6a3e fa90 2a3e c235 15be
00000310: e930 ca3e 5aa1 303e 6029 493c 8814 143d
00000320: fbb6 993e dd7f 8d3e 56f5 2d3e 1f21 d9be
00000330: 22a5 043e 8aa5 753e adc8 9f3e c0a0 4abd
00000340: f4d5 993d 7279 583e 005f d3bb 7585 813e
00000350: 3c0d d73d 5338 d33e ff6c ba3e 1130 923e
00000360: 5ee9 103e 4cf7 993d 1503 cf3e cd72 bf3e
00000370: 33bc d53e b4a8 72be b8a0 8ebd 683c c4be
00000380: 16dc 373e 40b3 61bc 40a1 d23b d317 70be
00000390: a980 d53e 9e26 053e 0874 06bd ccc4 ecbd
000003a0: b4a7 21be 19a8 51be c1d4 963e 8f27 c73e
000003b0: 4c32 f13d aea0 603e 70e4 093d 4d7e bebe
000003c0: b2e2 5a3e 3b41 af3e ca28 0f3e ef30 a0be
000003d0: 4004 5a3d 2c67 b3bd 38e1 7bbe d613 99be
000003e0: 4d64 d73e 3824 d0bd 4b9b a8be 60c6 acbd
000003f0: 3072 403d 3052 3fbd db3a a93e 636d 903e
-0.24592775 -0.32544792 -0.36025804 -0.27363825 0.32541785 -0.20738333 0.27220133 0.33636627
-0.4062121 0.22719213 -0.13073048 0.22560498 0.39650306 -0.10304892 -0.33098876 -0.17285755
-0.13635975 0.18189439 -0.1994661 -0.1125021 0.1770834 -0.41455513 -0.4008339 0.3806142
-0.13306728 0.25744405 0.048954338 -0.34501818 0.23005494 0.00726828 -0.38980237 -0.0909155
0.3611606 -0.4078014 -0.22210428 0.25125644 -0.19117616 -0.030695736 -0.032131314 0.23067132
0.18789926 0.34226647 0.26133886 0.27113655 -0.40384087 -0.23853017 0.17996374 0.34378424
-0.12436324 0.19891933 -0.35696894 0.32126984 0.04361072 0.26169243 -0.338872 0.08481935
0.04741487 -0.20109111 0.35984275 0.3248017 0.27710184 -0.075623065 -0.3626112 0.3838797
-0.24006352 -0.37813377 0.37938663 -0.35284886 -0.43051863 0.0014020205 -0.13984522 0.34759483
-0.37021545 0.16221729 0.38395146 0.004199475 0.16579267 0.32764944 0.28127435 0.1942248
-0.37874523 0.24793074 -0.072645724 -0.20045331 -0.37377447 -0.13456374 0.025461763 -0.034814358
-0.30597007 -0.24048664 -0.0854913 0.370194 -0.055678815 -0.12141749 -0.1634903 0.3525832
0.23261395 -0.00011211634 -0.25761044 0.0068641603 0.21326932 0.39151922 0.38595888 0.11946532
0.2750546 0.33466974 0.25271663 0.3497037 0.21299228 0.25138995 0.15664747 -0.38565266
0.11273405 0.30848113 0.2443882 -0.062480837 0.2531751 0.19351771 0.18375012 0.2341682
-0.28005457 0.3417361 -0.08544397 0.17179218 0.13100544 0.2950057 -0.2457407 0.21429542
-0.36846462 -0.010415822 -0.048785716 0.12538394 -0.36308694 -0.23904863 0.27319685 0.011485785
-0.35636872 -0.40849423 0.16446313 0.41216502 0.09633991 0.19030741 0.40388635 -0.2525174
0.35343304 -0.216363 0.4247376 0.022566587 0.36120746 0.0982348 0.13612387 -0.082478285
0.3898708 0.16450724 -0.007418871 0.33080366 0.008989841 -0.30143762 -0.010115892 -0.16521308
0.05986479 0.032254994 -0.20338894 -0.25996363 -0.41952187 0.2119827 -0.20925292 -0.058461756
0.19865844 0.30202892 -0.20068188 -0.032949954 -0.037923127 -0.098428965 -0.39708734 -0.41056868
0.09014538 0.0064958036 0.3430265 0.12363526 -0.32615572 -0.27265078 -0.2931322 -0.15805086
-0.33865884 0.21766284 -0.00548774 -0.23581293 -0.09745121 -0.27283707 0.23276803 -0.19826843
0.12265602 0.22948435 0.16656867 -0.14571288 0.3949044 0.1724905 0.012277931 0.036152393
0.30022416 0.27636614 0.1698812 -0.42408082 0.12953618 0.2398893 0.3120779 -0.04946971
0.075115114 0.21140078 -0.006450534 0.25297132 0.10500571 0.4125391 0.36411282 0.28552297
0.14151523 0.07517871 0.4043204 0.37392274 0.41745147 -0.23697168 -0.069642484 -0.38327336
0.1795505 -0.013775647 0.006427914 -0.23446588 0.41699722 0.13003013 -0.0328255 -0.115609735
-0.1578663 -0.2047428 0.29459193 0.38897368 0.117771715 0.21936294 0.03366512 -0.37205735
0.2137554 0.34229454 0.13980404 -0.31287333 0.05322671 -0.08759913 -0.24597633 -0.29897946
0.4206871 -0.10163158 -0.3293098 -0.084362745 0.046983898 -0.04670924 0.33052716 0.28208455

maxpooling.full.bias f4 [16]
00000000: 3659 2b3e 9858 4cbd 6c0d 52be 907f 30be
00000010: 00ec e7bb f427 823d 5084 f13d e832 193e
00000020: 66e8 58be cc68 7bbe a439 e63d d4a2 213e
00000030: 848a f7bd f819 9ebd 1880 813d 1078 bb3c
0.1673325 -0.049889177 -0.20512933 -0.17236161 -0.007077694 0.06355277 0.11792815 0.14960825
-0.21182403 -0.24551696 0.11241463 0.1578477 -0.12086967 -0.07719797 0.0632326 0.022884399

mean.full.weight f4 [16, 16]
00000000: 8958 d43e 6006 f2bc fbd2 5bbe 0613 4d3e
00000010: ac0a 92bd 8eec 793e 54d5 0abe 2aec 713e
00000020: af3a 953e 8db8 a3be ff3a 973e 1d43 883e
00000030: 2988 6fbe ca55 333e 48c4 97bd 4502 963e
00000040: 0868 5fbe 8d65 93be ac9f f73d ae56 4f3e
00000050: 6ce4 85bd 4645 733e c0ea d0bb 76e0 4abe
00000060: 0819 babd 90f1 ef3c 60b0 c9bd dcdc a93d
00000070: 2fb3 bf3e 5a9d 763e fa1a 0c3e e9e6 b8be
00000080: 7cb4 edbd efce 9e3e 6a3e 303e 97ce db3e
00000090: a892 8bbe f746 c23e 887a d9bd 8a42 4c3e
000000a0: 78b8 33bd c2c6 423e 1a46 723e 8ee9 023e
000000b0: ab1d 863e f34b af3e d793 a03e 0231 7c3e
000000c0: 5025 95bc 13c0 68be e951 b53e cab8 0fbe
000000d0: 396e 87be 910e b73e 4b12 9e3e b922 5abe
000000e0: dc5d 8fbe 4229 88be c09d 85be 945a d4bd
000000f0: 17ef d13e 2d9a 933e 98a4 93be d016 5d3d
00000100: dd3e 5ebe d12e d13e a518 b43e e3c3 d5be
00000110: 589b 53bd 9e52 233e 72c6 393e 7d65 ad3e
00000120: 545c f13d f02f 2cbe 343f adbe 9c8c c3be
00000130: bf4f cc3e d1c5 cd3e f725 933e 0480 17be
00000140: e098 a6be 164c 6bbe 6891 0b3d 18e6 053d
00000150: 28ec 173d 51bc d33e 723e 403e 5448 db3d
00000160: 0752 4fbe 8201 92be 82ae 9abe f4cc acbd
00000170: c0d0 c23c f6c8 0b3e 9568 aa3e 05ed ce3e
00000180: 3407 d9bd 33aa 85be e184 923e 9d13 d4be
00000190: bb93 d9be c4e5 dbbd 2b1f 833e 0473 aebe
000001a0: e837 bbbe 103d 443d ac37 c0be b503 d4be
000001b0: 0834 6cbe 05a6 c63e 72ae 493e 18b9 58bd
000001c0: 1890 4ebd 6c0d 81be f489 d93d c044 26bc
000001d0: cadf 643e 4092 b9bd e260 37be 5c8b e83d
000001e0: 5b2e b93e 3aaa 423e b016 4ebe 2cab babd
000001f0: 20aa 123c 145a a8bd c4eb e73d 2be6 8d3e
00000200: 7cd6 fa3d 6933 953e feb3 573e 4564 ba3e
00000210: b5f1 ca3e a3f6 70be 3c88 8fbe 7b32 c23e
00000220: 8857 35be d0af fabd 8072 fd3b 7d96 79be
00000230: 571e aebe 0098 a3bc 141b ee3d f03b 89bc
00000240: 4707 d43e 30dd 603d 66b8 2c3e f606 05be
00000250: 235e 993e 405f ad3b 389f 00be 589d 75bd
00000260: 6c9b fd3d 69e6 abbe c32a c83e 80e5 4cbb
00000270: ad00 4fbe e0e1 0e3c e560 b53e d8e1 f7bd
00000280: 8c61 26be a603 733e df35 af3e 94f0 ef3d
00000290: 6419 05be 3e96 dcbe 5730 9f3e 949d b83d
000002a0: 9bfe 9dbe f666 4abe b34d ba3e 14dd 0cbe
000002b0: 701e 90bc cab3 233e 8cd0 c03d 3f75 cb3e
000002c0: 36c0 70be 0b62 88be f482 12be 34c8 873d
000002d0: 0eb9 88be 436f 973e 1873 b8bd d833 dfbd
000002e0: 4401 b5be c472 973d 40a6 23bc 284d 45bd
000002f0: 5907 6ebe f16e 903e c8c2 00be d093 8dbe
00000300: 347c 01be d0aa 3e3d fdf2 d2be 60d9 073d
00000310: 61d8 b93e 803e ac3b 68a8 54bd 3d7b 72be
00000320: c42f e93d d362 d73e 64f1 ba3d 0990 903e
00000330: 7606 163e bca4 69be f8f2 253d a02e e5bc
00000340: a054 ac3c 40c4 cfbb 5cb6 60be b5e2 b43e
00000350: 2f6a a43e 3dd3 a13e ccce b0be 2317 bb3e
00000360: 0e07 12be 00b9 f3bc fcf9 04be 10b6 ddbd
00000370: 581a 54be 3e2b 3c3e f276 063e 8730 c83e
00000380: 703d 48be acdd ae3d 2823 34bd 6a4b 1fbe
00000390: c277 073e c047 b7bc 2e29 d6be 7c90 8ebe
000003a0: a099 07be c4e3 e73d 4c19 90bd 60c7 cdbc
000003b0: 9b59 9fbe a2ab 9bbe ca0d 1d3e 73bd bf3e
000003c0: 6afc 473e 8807 73bd 6839 81bd 91c0 a63e
000003d0: d1d4 c2be 27ad 3bbe 4bd5 a2be b85c 3cbd
000003e0: 72ac 1dbe 003b 1f3b a4ef 8cbd d265 013e
000003f0: 0068 adbd 0e18 3b3e 5689 513e 6378 a6be
0.41473797 -0.029544055 -0.21467201 0.20026788 -0.07130942 0.24406645 -0.1355794 0.23625246
0.29146335 -0.3197674 0.29537198 0.26613703 -0.23391785 0.17513195 -0.074104846 0.29298607
-0.21817029 -0.28788415 0.12091002 0.2024791 -0.06537709 0.23756894 -0.0063756406 -0.19812188
-0.090868056 0.02928999 -0.09848094 0.08294079 0.37441394 0.24083462 0.13682166 -0.3611367
-0.1160669 0.31017253 0.17211309 0.42931053 -0.27260327 0.37944767 -0.10619074 0.19947258
-0.043877095 0.19021133 0.23659554 0.12784407 0.2619451 0.34237632 0.31362793 0.2462807
-0.018206269 -0.2272952 0.35414055 -0.14035335 -0.2645128 0.357533 0.3087333 -0.21302308
-0.28001297 -0.26593977 -0.26096916 -0.10368839 0.41002724 0.28828564 -0.28836513 0.053976834
-0.21703668 0.4085603 0.35175052 -0.41751012 -0.05166182 0.15949485 0.18142107 0.33866492
0.11785188 -0.16815162 -0.33837283 -0.38193214 0.3990459 0.40189984 0.28739902 -0.14794928
-0.3253851 -0.22978243 0.034074217 0.032690138 0.03709045 0.41354612 0.18773821 0.10707155
-0.20246135 -0.28516775 -0.30211264 -0.08437529 0.02378118 0.1365088 0.33282915 0.40415207
-0.10597077 -0.26106414 0.28617004 -0.41421214 -0.42495522 -0.10737184 0.25609717 -0.34072125
-0.3656609 0.047909796 -0.37542474 -0.41409078 -0.23066723 0.38798538 0.19695452 -0.052910894
-0.050430387 -0.25205553 0.106220156 -0.010148227 0.22350994 -0.09061098 -0.17908052 0.11354706
0.3616818 0.19010249 -0.20125842 -0.0911468 0.008951694 -0.08220306 0.113242656 0.27714667
0.12247941 0.29140785 0.21064755 0.36404625 0.39637533 -0.23531584 -0.28033626 0.3792914
-0.17709172 -0.12240565 0.0077345967 -0.24373813 -0.34007522 -0.01996994 0.116262585 -0.016752213
0.41411802 0.05489844 0.16867217 -0.12990937 0.29954633 0.0052908957 -0.12560737 -0.059964508
0.1238316 -0.33574226 0.39095125 -0.0031264722 -0.20215102 0.008720845 0.35425487 -0.12103623
-0.16248149 0.2373186 0.34220788 0.117158085 -0.12997967 -0.43083376 0.31091568 0.09014431
-0.3085831 -0.19765839 0.36387405 -0.1375621 -0.017592639 0.15986553 0.09414777 0.3973789
-0.23510823 -0.266373 -0.14307767 0.066299826 -0.26703686 0.29577073 -0.090063274 -0.1089856
-0.35352528 0.07394937 -0.009988368 -0.048169285 -0.2324499 0.28209642 -0.12574303 -0.27651834
-0.12645036 0.04654962 -0.4120101 0.03316629 0.36297897 0.005256474 -0.051918417 -0.23679824
0.11386064 0.42067584 0.09128073 0.2823489 0.14650902 -0.22816747 0.040514916 -0.027976334
0.021036446 -0.0063405335 -0.21944565 0.35329214 0.32112262 0.31606475 -0.34532773 0.3654109
-0.14260504 -0.0297513 -0.12985986 -0.10825741 -0.20713174 0.1837587 0.13131312 0.39099523
-0.19554687 0.08538374 -0.04397884 -0.15556112 0.13229278 -0.02237308 -0.41828293 -0.27844608
-0.13242197 0.1132274 -0.07036075 -0.025119483 -0.3112305 -0.30404383 0.15337291 0.37449226
0.19529882 -0.059333354 -0.063097775 0.32568792 -0.3805299 -0.18327771 -0.31803355 -0.04598686
-0.15397814 0.0024296641 -0.06881645 0.12636498 -0.08467102 0.18270895 0.20462546 -0.32513723

mean.full.bias f4 [16]
00000000: a4ec a53d 384b 753e 40c9 e83c 0c0e 683e
00000010: 787d c6bd 8015 69bd 3202 33be b03a bf3c
00000020: 0032 4fbe 82dd 513e a874 c63d aa4d 77be
00000030: 9440 2b3e 2812 46bd b407 4d3e b068 e33d
0.08101776 0.23954475 0.028416276 0.22661608 -0.096919 -0.05690527 -0.17481306 0.023343414
-0.20233917 0.20494655 0.09690219 -0.2415072 0.16723853 -0.04835716 0.2002247 0.11103952
