best_model/acc/pubmed_dropout=0_wd=0_b=256_lr=0.001_walk=2_best_model.pt (torch_old, 106890 bytes, 17 tensors)

embedding.full.weight f4 [16, 500]
000000 c7 8d 62 bd 83 46 a8 bd ea 12 9f 3d 60 e1 24 bb
       -0.05531099 -0.08216574 0.077672794 -0.0025158748
000010 25 62 da bd 1c 49 d9 bc 90 44 51 3c 30 86 44 3d
       -0.10663251 -0.02652412 0.012772694 0.047979534
000020 32 e8 00 bd 8d 27 55 bd d0 65 08 3d b4 a0 3b 3d
       -0.03147144 -0.05203967 0.03330022 0.045807555
000030 d6 9d 9f 3d b4 90 39 bd 30 fc 1c 3c 84 95 5c bd
       0.07793777 -0.045304015 0.009581611 -0.053853527
000040 ac c3 9b bc 40 6c 06 3c e3 92 cf bd 90 2e 84 3b
       -0.019014202 0.00820452 -0.10135438 0.004033871
000050 88 d7 a2 bc b2 b8 da 3d 98 39 f0 bc f0 19 2c bc
       -0.019878164 0.10679759 -0.029324338 -0.010504231
000060 90 ba c4 bc 08 ba 0f 3d 4a d2 2d bd 80 37 ce 3c
       -0.024014741 0.035089523 -0.042436875 0.025172949
000070 bc 56 0f 3d 50 3c 91 bb 34 b2 a4 bd fa 64 c1 3d
       0.034994826 -0.0044322386 -0.08041802 0.09443088
000080 94 57 65 3d 62 5f 92 3d 70 94 f5 3c e7 32 6f bd
       0.055991724 0.07147099 0.029978007 -0.058398154
000090 48 06 99 bd e4 da 24 3d df d6 b2 bd b3 70 6b bd
       -0.07471901 0.040247813 -0.0873239 -0.057480525
0000a0 e8 d8 c9 bd 04 cf 79 3d 9a 17 c4 3d 10 77 c3 bd
       -0.09855825 0.06098844 0.09574814 -0.09544194
0000b0 12 5b d4 bd e8 24 98 bc cc b1 a3 bd 52 f2 67 bd
       -0.10368933 -0.018572286 -0.079928964 -0.05662758
0000c0 d6 89 b7 3d d4 b8 ab 3d b0 52 c4 3d 20 66 a9 3d
       0.08961837 0.083848625 0.09586084 0.08271432
0000d0 14 22 01 bd 1c bb 9d 3d 58 48 28 3d 04 f7 0f bd
       -0.03152664 0.07701704 0.041084617 -0.03514768
0000e0 7a be 99 bd 90 e6 a0 3c e8 9f f3 3c 5c ec d7 3d
       -0.07507034 0.01964119 0.029739335 0.10543129
0000f0 70 55 9c 3d 68 69 a0 3c b4 11 78 3d c0 89 e5 bb
       0.076334834 0.019581512 0.060563758 -0.0070049465
000100 5e 6f c2 bd ec f1 76 bd 96 33 c1 bd 9d 03 a3 bd
       -0.09493898 -0.06028931 -0.09433667 -0.079596736
000110 58 61 a4 bd fc 1b d1 bc 40 06 36 3d 23 68 89 bd
       -0.08026379 -0.02552604 0.044439554 -0.06709316
000120 70 95 88 3b 28 9b 1f 3d a8 18 56 3d 00 d3 c3 b9
       0.004168205 0.038966328 0.052269608 -0.00037350506
000130 a8 5b 38 3d b8 24 c8 3c 5a 9e b6 bd 34 1c bc bc
       0.045009285 0.024431571 -0.08916922 -0.022962667
000140 10 7d 1f 3c 16 61 92 bd 7d a9 d9 bd 75 e7 9f bd
       0.009734407 -0.07147424 -0.106280304 -0.07807819
000150 7a c7 cf 3d 40 24 0b 3c 38 91 5e 3d 8e 20 a2 3d
       0.10145469 0.008492529 0.05433771 0.079163656
000160 b0 5b d8 3d 14 83 67 bd c3 ed b8 bd 96 68 c7 bd
       0.10564363 -0.05652149 -0.090297244 -0.09736745
000170 74 12 35 3d 68 ac 57 3d ea 4f a3 3d 48 34 e1 bc
       0.04420705 0.052654654 0.07974227 -0.02749075
000180 00 33 ad 3c 88 9a 74 bd c2 8e a5 bd c0 88 fa 3a
       0.021142483 -0.059717685 -0.080838695 0.0019114241
000190 f1 52 cf bd 28 8d 03 bc 6b 11 4f bd b0 e2 08 3c
       -0.10123242 -0.00802926 -0.05055372 0.008354828
0001a0 40 95 99 bd ee 32 95 3d 20 14 b0 3d f4 9b 58 bd
       -0.0749917 0.07285105 0.085975885 -0.052883103
0001b0 d0 30 dc 3c 70 24 79 3d 40 6a b2 3c 0e 20 2c bd
       0.026878744 0.060825765 0.02177918 -0.042022757
0001c0 b4 83 0b 3d 90 78 8f bd 57 b7 4e bd c8 b0 cf 3d
       0.03406115 -0.07005417 -0.050467815 0.1014114
0001d0 3d 23 6a bd 9b 64 66 bd ea ca 9b 3d 23 73 95 bd
       -0.057162512 -0.05624829 0.07607062 -0.07297351
0001e0 23 57 c5 bd 58 0a be 3c 2a e2 bb 3d d8 57 2f 3d
       -0.09635761 0.023198292 0.09173997 0.042808384
0001f0 f8 39 0a bc 52 4b 84 bd 04 95 d1 3d 60 3c d1 3d
       -0.008436672 -0.06459679 0.102335006 0.10216594
000200 70 12 17 bc 6b 54 50 bd fe 9a ce 3d 5c c2 cd 3d
       -0.009220704 -0.050861757 0.10088156 0.10046837
000210 a5 fa ba bd f2 ff b6 3d cb db 62 bd 60 1b 67 3c
       -0.09129838 0.089355364 -0.055385392 0.014105648
000220 1a e4 a4 3d 50 bc a5 bd ac 90 ae bd 62 27 83 bd
       0.080513194 -0.080925584 -0.08523688 -0.06403996
000230 59 a3 c9 bd 4e 89 95 3d 0b a7 c6 bd 78 be b1 3d
       -0.09845609 0.073015794 -0.0969983 0.08678907
000240 7d 1c 7c bd 70 c0 8b bc 60 40 aa 3c 01 2a a7 bd
       -0.061550606 -0.017059535 0.02078265 -0.081623085
000250 b4 04 87 bd da 84 b7 bd 0e 00 a2 3d e2 a0 0d bd
       -0.06592694 -0.08960886 0.07910167 -0.034577258
000260 00 ce 71 bc 18 84 7a bc 76 88 2f bd c8 ae 7a bc
       -0.014758587 -0.015290283 -0.04285475 -0.01530046
000270 8a 5a 88 3d 71 f5 8b bd 8e 24 d0 3d c0 f0 72 3d
       0.06657894 -0.068339236 0.10163222 0.05931163
000280 5c 78 6f bd f0 c4 36 3d 94 bd 67 3d c2 02 99 3d
       -0.058464393 0.044621408 0.05657728 0.07471229
000290 d4 04 86 3c 3c 53 88 3c 90 f3 e1 3c 7f 3b 6e bd
       0.016359724 0.016641252 0.02758196 -0.05816221
0002a0 e0 5e 5e bc 39 42 db bd c0 c7 fc 3b bc b1 1b 3d
       -0.013572425 -0.1070599 0.0077142417 0.038011298
0002b0 a0 56 ea 3c a8 c3 f9 bc 10 d7 51 3c 28 e3 f3 bc
       0.02860576 -0.030488804 0.012807623 -0.029771402
0002c0 c0 df 59 3c c0 1b 92 3c 30 d7 93 bd 9a 2b c7 bd
       0.013297975 0.017835498 -0.07218778 -0.09725113
0002d0 cc 06 26 bd ff b9 c4 bd 96 b4 8e 3d 98 65 10 3d
       -0.040533826 -0.096057884 0.06968038 0.035253137
0002e0 ca f0 84 3d d2 8c 83 3d 70 8d d1 3c ba 9c ac bd
       0.06491239 0.06423344 0.025580138 -0.08428331
0002f0 24 e9 35 3d 4f 51 4a bd 40 88 bc 3c 34 8f 24 bd
       0.044411793 -0.04939395 0.023014188 -0.04017563
000300 14 1d b9 bc 18 68 8e 3d 58 ea 4a bc b4 72 5f 3d
       -0.022596873 0.06953448 -0.0123849735 0.05455275
000310 a9 7a c8 bd 00 0e d0 bc e6 ae 8a bd 86 ad bd 3d
       -0.097890206 -0.0253973 -0.067716405 0.092616126
000320 c4 96 c1 3d ce c3 98 bd 56 d5 b1 3d d1 4e 57 bd
       0.094525844 -0.07459222 0.08683269 -0.0525654
000330 b7 15 87 bd 96 f9 77 bd 26 1d db 3d 1c 56 ad 3d
       -0.06595939 -0.060540758 0.10698919 0.0846369
000340 f2 50 82 3d 40 63 47 bb 97 56 be bd b6 26 ca 3d
       0.06363095 -0.0030424148 -0.092938595 0.09870665
000350 c2 5f 8e 3d 2c ca 97 bd 08 72 34 3d 4d 9c 43 bd
       0.06951858 -0.07411608 0.04405406 -0.047756482
000360 96 cc a4 3d 49 7e d3 bd 74 9e aa 3d a0 6b 5f 3c
       0.08046834 -0.10326821 0.08331004 0.0136365
000370 90 9f 61 3c 9c 3a 97 3d 94 f0 9d bd 6e 2c 84 3d
       0.013770953 0.07384226 -0.07711902 0.06453787
000380 96 12 a5 3d 48 d1 9c bc b1 85 9a bd 6a 8c 75 bd
       0.080601856 -0.019142762 -0.07545031 -0.059948362
000390 d0 1b b4 3d 23 0f d4 bd 6f 60 cb bd fa 5d 95 3d
       0.08794367 -0.103544496 -0.099305026 0.07293315
0003a0 c0 59 4d 3d 07 ca da bd fc ed cd 3d e2 c1 d9 3d
       0.05013442 -0.10683065 0.100551575 0.10632683
0003b0 1a fb b3 3d 64 d6 05 3d 78 15 36 bd 94 e6 4a 3d
       0.08788128 0.032675162 -0.044454068 0.049536303
0003c0 c0 fa 61 bb 00 11 cd 3c 7e 63 0e bd ac 11 8d 3d
       -0.0034481734 0.02503252 -0.034762852 0.06888136
0003d0 72 6d 36 bd 4c 7a 17 3d 54 6c c1 3d c4 a4 ab bd
       -0.04453797 0.036981866 0.0944449 -0.08381036
0003e0 a5 d7 bd bd 50 88 36 3d 4c 6e 5a 3d 88 7f 10 bd
       -0.092696466 0.04456359 0.053327844 -0.035277873
0003f0 8b a8 55 bd d0 6d f6 bb 8c d0 a2 3d 28 9f 84 bc
       -0.05216269 -0.007520415 0.079499334 -0.016189173

embedding.full.bias f4 [16]
000000 fc c1 f6 bc fc ee 17 bd be b8 10 bd ee 32 ae 3c
       -0.030121796 -0.037093148 -0.035332434 0.02126452
000010 c3 e3 10 3d df 47 20 bd d3 13 1f 3d 00 b1 a2 ba
       0.03537346 -0.03913104 0.038837265 -0.0012412369
000020 d1 98 2e bd 22 0e 01 bd 74 07 3b bc e8 82 2a bc
       -0.042626206 -0.03150762 -0.011415351 -0.010407187
000030 00 32 ef 3b 32 c6 86 bc 6a 21 e1 3c f3 e7 1e 3d
       0.0072996616 -0.016451929 0.027481753 0.038795423

aggregator.full.weight f4 [16, 1000]
000000 4c 2b 0f 3f 9f f8 8a bd f5 31 3c 3d 5e 94 f6 3d
       0.5592544 -0.06785702 0.04594608 0.120400175
000010 40 25 0b be 40 24 80 bd aa 9f 73 3e 39 24 3f 3b
       -0.13588428 -0.06256914 0.23791376 0.0029165877
000020 91 65 37 3f 18 57 51 3e fc 4e 5c be 03 62 ee bd
       0.71639353 0.2044338 -0.21514505 -0.11639788
000030 5f 6b bf bd c3 cc 92 3e 0e e6 ec 3d be cb a3 3e
       -0.09346651 0.28671846 0.11567317 0.3199138
000040 15 b8 ed be 36 0d e0 3d d7 4f 08 3e 9c 8b cd 3c
       -0.46429506 0.1094002 0.13311706 0.025090985
000050 a0 0c d0 be 9c 55 b3 3e da 93 70 3e 87 b1 19 3f
       -0.40634632 0.35026252 0.23493901 0.6003651
000060 d4 d7 33 3f 6e 30 e5 3e 2d 9a 01 3e 8b af 81 3e
       0.702512 0.4476351 0.1265647 0.2532924
000070 95 8d c9 3e f8 44 0e 3e ed 51 76 3e ea c7 f1 bc
       0.3936583 0.13893497 0.2405469 -0.029514272
000080 9a 5c 0c 3e d3 05 ed 3d a7 b5 6e 3d 8d c0 92 3d
       0.137072 0.115733765 0.058278706 0.071656324
000090 63 b7 01 bd 44 c2 68 3e 3b 97 ab 3e cc 6f e1 3e
       -0.03166903 0.22730356 0.33513817 0.44030607
0000a0 e1 c0 c0 3c f4 f1 74 3e 54 ed c0 3e d5 5f e5 3e
       0.023529472 0.23920423 0.37681067 0.44799677
0000b0 e0 1f 63 be d1 db 0c 3d 16 b1 1a 3e 50 ad 9f 3d
       -0.22180128 0.03438932 0.15106615 0.077967286
0000c0 0d c2 22 bd 7c 2f a3 be d1 b5 dc 3d ab 58 b8 be
       -0.039735842 -0.31872165 0.10776866 -0.36005148
0000d0 1b e7 53 3e 4b c2 b1 3e fd 45 bb 3e b9 62 bf be
       0.20693628 0.34718546 0.36576834 -0.37380007
0000e0 26 f4 29 be 69 58 9a be 56 f5 2c be 87 cf bb be
       -0.16597041 -0.30145577 -0.16890463 -0.36681768
0000f0 30 31 b0 3e 6c 96 c2 3d 55 e7 a7 3e 9f c7 54 3e
       0.34412527 0.09501347 0.3279368 0.20779274
000100 66 e9 32 3e 8f 5f a9 3e 93 23 e6 3e d9 f7 2a be
       0.17471847 0.33080718 0.44949016 -0.16696109
000110 fa 0d 64 be d3 7c f9 bc 3e a1 69 bf be 7c b2 bd
       -0.22270957 -0.030455029 -0.9126166 -0.08715199
000120 7a 16 ff 3a 09 bc 61 be 79 a5 e8 3e f5 46 de bc
       0.0019461655 -0.22044386 0.45438746 -0.027133444
000130 cb ea b6 3e 3c 3f 9a 3e a6 a6 85 3e cd 3e fd 3d
       0.35726008 0.3012637 0.26103705 0.12365494
000140 04 dc 40 3e ba 8e b4 3e 7d b4 9c 3e 8b 38 11 3e
       0.1883393 0.35265142 0.30606452 0.14181726
000150 a2 f8 8c 3e 90 42 be bc 62 f0 80 be d3 2b b1 be
       0.27533442 -0.023225099 -0.25183398 -0.34603748
000160 1c 6f 47 be fc 3d 5e bf da 8d e3 be 4b 95 3f 3c
       -0.19475979 -0.8681333 -0.44444162 0.011693309
000170 fb ab 7f 3e 7f f8 a5 3e c3 26 59 3e 1a f1 7a 3c
       0.24967949 0.3241615 0.21206193 0.015316272
000180 38 7f 8e 3d 2e 34 e7 bd 22 40 4d 3e 53 ae b6 3d
       0.06957859 -0.11289249 0.20043996 0.089199685
000190 59 22 26 3e 1f 53 f6 3e a1 b1 06 3f f3 f3 3b be
       0.1622404 0.4811029 0.5261479 -0.18354778
0001a0 20 78 c3 3d bb fb a7 3d b3 6d 2a 3d 72 33 22 3d
       0.095443964 0.08202311 0.041608524 0.039599843
0001b0 fe 6e d9 be 0e f9 e4 3d 65 69 97 3e c7 1b 9f be
       -0.42467493 0.11180316 0.29572597 -0.3107588
0001c0 75 c4 80 be 10 64 c3 bc 69 07 43 be 2e 56 d0 bd
       -0.25149885 -0.023851424 -0.19045796 -0.101726875
0001d0 01 46 55 3e 3c e7 06 3d 79 57 2c 3d cd 90 0f 3e
       0.20827486 0.032935366 0.042075608 0.14020081
0001e0 b5 27 e9 be f1 b7 d6 be 85 31 bb bd d5 09 7b 3e
       -0.45538107 -0.4193721 -0.091403045 0.2451547
0001f0 a0 c9 78 be ee a4 7d be 7b f7 52 be e2 6a b6 be
       -0.24295664 -0.24769947 -0.20602219 -0.3562842
000200 ff e9 5f be 33 b0 3a be c9 7a 87 be 31 3e 75 bd
       -0.21866606 -0.18231277 -0.26460865 -0.059873763
000210 71 fb 74 be 83 37 ec be 57 86 8f be c5 24 bb 3c
       -0.23924042 -0.46136102 -0.2803218 0.022844682
000220 76 8b f2 bd f2 cd 09 bf 81 25 a8 3d 22 e0 04 bf
       -0.11843006 -0.5382987 0.08210278 -0.519045
000230 b8 c7 1a 3e 1b 13 ae bc f1 32 c6 bd e2 6f 3c be
       0.15115249 -0.021249345 -0.09677685 -0.18402055
000240 88 6d 79 be 03 2a 28 bd 7f cd 49 3e 88 3d 16 3e
       -0.24358189 -0.04105569 0.19707297 0.1467191
000250 cb 49 93 be bb f4 4a be e5 07 b4 3e fb 69 a8 3d
       -0.28767237 -0.1981992 0.35162273 0.08223339
000260 b6 be c0 bd b1 ee 95 be 8e 60 42 3e 7f c4 5d bc
       -0.09411375 -0.2928367 0.18982145 -0.013535618
000270 ef 9e 04 3e 47 7b 9e 3e 52 d1 83 be e7 01 00 3f
       0.12951253 0.30953428 -0.25745636 0.500029
000280 7e 93 62 be 9b 5a cc bd 51 d5 76 be 92 5d 2b be
       -0.22126576 -0.09978219 -0.24104811 -0.16734913
000290 f9 34 8d bc 65 3d dd bd 79 32 c6 3c 84 43 84 be
       -0.017237173 -0.10802726 0.02419399 -0.2583276
0002a0 ad f1 45 3e 40 b2 1c 3f 31 38 5d be ce d4 1f 3e
       0.19330473 0.6120949 -0.21603467 0.15608522
0002b0 90 66 a6 3e f1 59 01 3d 95 c8 9c 3d 90 b8 a2 be
       0.32500124 0.031579915 0.076554455 -0.31781435
0002c0 2f 15 9d be fa ac d6 3c 8b 59 a6 3d 4e 68 c9 3c
       -0.30680224 0.026205529 0.08122548 0.02458587
0002d0 72 71 36 3c 80 4d 4b bc ff 47 fb 3d cf f9 47 3e
       0.011135446 -0.012408614 0.122695915 0.19528888
0002e0 07 53 3a 3f 1f d2 55 3e 77 bd 2c be 5f 0a 29 3c
       0.7278294 0.20880936 -0.1686915 0.010317414
0002f0 c1 ea 47 be f3 96 be bd b1 ae 25 3d f3 9b 05 3e
       -0.19523145 -0.09306135 0.0404498 0.13047771
000300 5e 72 bc 3e e9 76 3a 3e 03 94 21 bd 47 53 8e bd
       0.36806005 0.18209423 -0.039447796 -0.06949478
000310 0d 1c cc 3c 84 ab 71 be 07 da 62 3e 86 4b b0 be
       0.02491572 -0.23600584 0.22153483 -0.3443262
000320 6e c2 08 3f 84 16 ab be 3e 82 95 3d ed 70 85 be
       0.53421676 -0.33415616 0.07300232 -0.26062718
000330 d5 ff b7 3e d3 24 a6 be c2 6d d4 be 15 b5 3c be
       0.35937372 -0.3244997 -0.4148999 -0.18428452
000340 ec 5b 9c 3e 8d 8e 19 3f 99 2c 7b be b1 d0 68 3d
       0.3053888 0.5998314 -0.24528731 0.05683965
000350 96 3b 06 be ad d4 ce bd 3e c0 12 3e 7f 6c 98 be
       -0.13108668 -0.100991584 0.14331147 -0.29770276
000360 40 d7 67 3d 3b 6d c8 be a3 7d f5 bd e1 e7 34 be
       0.056601763 -0.39145836 -0.11986854 -0.1766658
000370 45 b5 68 3e de 74 3e be 10 cf 98 bd 16 b5 43 3d
       0.22725399 -0.18599269 -0.07461369 0.04778012
000380 d9 e0 23 be b6 ca 8c bd 42 fe aa be 8f 84 01 3e
       -0.16003741 -0.068746015 -0.33397108 0.12648223
000390 c5 1d bd 3e 26 88 76 be 21 9d 66 be 1c 6c f8 bd
       0.36936775 -0.24075374 -0.22520877 -0.12129995
0003a0 24 95 5a be 9f a9 8e bd 7e db 69 bd 76 4f eb be
       -0.21345955 -0.069659464 -0.05709409 -0.4595906
0003b0 16 1b 1d bd 24 71 10 bf 82 15 a0 be 8e e9 be be
       -0.03835591 -0.5642264 -0.3126641 -0.37287563
0003c0 10 56 ad be 7c 71 19 bd e5 4e 3e 3e d5 84 b0 be
       -0.33854723 -0.037461743 0.18584783 -0.34476343
0003d0 00 71 8a bd 5e 96 83 be 4c 00 cc be 4d 9b 05 bf
       -0.06759834 -0.2570066 -0.39843976 -0.52190095
0003e0 dd 40 09 3f 81 40 cc bd 8c e7 b7 3d 2f 98 72 bf
       0.536146 -0.09973241 0.08979711 -0.94763464
0003f0 5c 43 8e 3e 6b 70 b1 3c 56 48 8f bd ae 61 22 be
       0.27785766 0.02166005 -0.06996219 -0.15857574

aggregator.full.bias f4 [16]
000000 cb a8 41 3e 14 e1 c9 3d 2d 19 92 3e 36 f4 64 3e
       0.18912046 0.09857383 0.28534833 0.22358784
000010 22 df 25 3e 57 9c 86 3e 1f 42 80 3e b4 00 80 3e
       0.161984 0.26291153 0.25050446 0.25000536
000020 99 54 f5 3d 95 2d 22 3e b2 3e 8a 3e 3e 07 63 3e
       0.11979026 0.158377 0.27000958 0.22170731
000030 23 ff f8 3d e7 31 fd 3d 4c 91 98 3e c9 d2 52 3e
       0.121580385 0.12363034 0.29798353 0.2058822

step.full.weight f4 [1, 32]
000000 5e aa 78 bd 00 3c fe 39 2a ab de 3d d8 d4 ef bc
       -0.06070935 0.0004849136 0.10872491 -0.029276296
000010 94 61 1d be 00 3c 3e 3a b1 4c 08 3e dc 7a 3e 3d
       -0.15369254 0.00072568655 0.13310505 0.046503887
000020 9a 3d 90 bd e8 37 2c 3d 94 cc bf bd d2 9c 02 be
       -0.070429996 0.042045504 -0.09365192 -0.12755135
000030 78 78 93 bc f6 56 07 be 3f 8d 9b bd 97 47 2e 3e
       -0.01800178 -0.13216767 -0.075953 0.17019497
000040 74 cd 88 bd f8 eb ff 3c f0 06 37 3c a7 dd 15 be
       -0.06679812 0.031240448 0.011171088 -0.14635335
000050 a1 59 00 3e e1 90 28 3e a0 44 54 3c 30 ef 55 3d
       0.1253419 0.16461517 0.012955815 0.05223006
000060 1a d5 9e 3d 21 49 2b 3e 17 85 f4 bd 8a 53 b1 3d
       0.0775549 0.16727115 -0.119394474 0.08658512
000070 a8 24 ea 3c 36 60 17 be f8 36 ef 3c 95 81 12 3e
       0.028581932 -0.14782795 0.029201016 0.14307244

lstm.lstm.weight_ih_l0 f4 [12, 16]
000000 54 95 9e bd e6 e0 9c 3e 98 b1 0f bf 9c 1f 48 3e
       -0.07743326 0.30640334 -0.5613036 0.19543308
000010 98 e1 f9 3d 36 c2 d0 3e e6 c2 97 3e d2 7a 0f 3f
       0.12201232 0.4077317 0.29640883 0.56046784
000020 86 4d 5d be 56 5f e4 be 3a 05 92 be c0 a0 dd 3d
       -0.21611604 -0.44603986 -0.28519613 0.10821676
000030 f2 7f 0e 3f 9e c5 30 be 6c 2e 63 3e f2 fb 35 be
       0.5566398 -0.17262885 0.22185677 -0.17771891
000040 3c 34 98 3e 70 a5 0a 3f a6 02 78 be d0 77 75 bd
       0.29727352 0.5415869 -0.2421976 -0.059928715
000050 22 91 82 be 8c c3 85 be 66 42 f7 be 20 cc 20 bd
       -0.25501353 -0.26125753 -0.48292845 -0.03925717
000060 dc 9f ff 3e 28 f5 ec be 80 2f c8 bc 60 19 7e bd
       0.4992665 -0.4628079 -0.024436712 -0.06203592
000070 40 14 a1 be f6 b0 82 3e 58 ec 5e 3e c0 ef a8 3e
       -0.31460762 0.25525635 0.21769845 0.32995415
000080 9c ae 2e be 0c 77 1b 3e fa 59 10 bf 58 ea d2 bd
       -0.17058796 0.15182132 -0.56387293 -0.10298604
000090 60 9b bf 3d 28 99 ea 3e 3c 5f ef 3e 70 6f 4f 3d
       0.09355807 0.45819974 0.46752346 0.050643384
0000a0 a8 cd c3 3d b1 73 b7 be 26 40 13 3f 90 cf dd be
       0.0956071 -0.35830453 0.5751976 -0.4332242
0000b0 b8 13 bf bd de b8 1c be 00 04 00 bb 12 45 bb 3e
       -0.09329933 -0.15304896 -0.0019533634 0.36576134
0000c0 f0 7e 10 bf 88 33 46 3e e8 fe 09 bf 28 a9 e9 3e
       -0.5644369 0.19355595 -0.5390458 0.45636868
0000d0 41 1f c4 be 38 4f 6e 3e 80 16 b9 bb 70 81 4f bd
       -0.38305095 0.23272407 -0.005648434 -0.05066055
0000e0 f4 a3 3a 3e e9 4f 97 be 00 8a 42 3e ce 97 0c 3f
       0.18226606 -0.29553154 0.18997955 0.54919136
0000f0 0a a3 c0 3e fc 70 78 3e 90 3f 1f 3d 87 d9 9a be
       0.3762439 0.2426185 0.038878977 -0.30244085
000100 52 f2 07 bf b3 21 b8 be 02 fc 13 be c4 71 48 3e
       -0.53104126 -0.3596321 -0.14451602 0.19574648
000110 e3 2e 91 be 48 56 38 be 6e a4 cb 3e e0 b9 9e bc
       -0.28356084 -0.18001664 0.39773887 -0.019375741
000120 b8 2c 0d 3e 70 95 a4 bd 70 d7 67 3d 68 6e e2 be
       0.1378659 -0.080363154 0.05660194 -0.44224858
000130 c4 ad 80 be 80 ff 96 bd d8 8f 2c 3e 80 13 41 be
       -0.25132573 -0.073729515 0.16851747 -0.18855095
000140 70 9d e2 be 90 9b eb 3d 50 7e d2 be da 27 07 bf
       -0.4426074 0.115042806 -0.41111994 -0.52795184
000150 70 dc 67 bd a4 d4 ad bd 7c 89 f8 3e b8 72 94 be
       -0.05660671 -0.084878236 0.48542392 -0.28993773
000160 42 b5 92 3e b8 c0 07 3f c7 0e d9 be 74 b5 c4 3e
       0.28653914 0.5302844 -0.42394087 0.38419688
000170 9e 79 ec be 04 c9 d4 be 6c a2 38 be 00 b0 25 bb
       -0.46186537 -0.41559613 -0.18030709 -0.0025281906
000180 3c 1a 81 be ba 24 72 be 34 fe 53 be c8 30 01 3e
       -0.25215328 -0.23646823 -0.2070244 0.12616265
000190 b0 7d a7 3d 96 78 8e 3e ca d6 be 3e c0 de 21 bd
       0.0817827 0.27826375 0.37273246 -0.03951907
0001a0 ea 9f 57 be 28 31 f5 3d 54 77 ba be cc 44 e4 3e
       -0.21057096 0.119722664 -0.36419165 0.44583738
0001b0 1c 32 71 3e 01 8a 8a be 4e 97 9c be c0 78 73 be
       0.23554271 -0.27058414 -0.30584186 -0.23776531
0001c0 cb ea 08 bf b2 4d 91 3e c0 dc 10 3d a1 c0 a6 be
       -0.53483266 0.2837959 0.035366774 -0.3256884
0001d0 52 17 08 3f 70 3a 3a 3d b4 e4 f7 3e bc 13 ba 3e
       0.53160584 0.045465887 0.48416674 0.3634318
0001e0 70 6d a3 3d dc ed 04 3f 7a cb 77 be 14 f4 a9 be
       0.07979858 0.51925445 -0.24198714 -0.3319403
0001f0 a8 d2 95 3e ac ce 66 be a4 1d dc 3e 5e c1 af be
       0.2926228 -0.22539777 0.42991364 -0.34327215
000200 08 f9 c0 be f2 af c9 3e b0 8e 19 3d 00 c1 28 3b
       -0.37689996 0.39392048 0.037489593 0.0025749803
000210 c0 7e da 3d 74 c3 01 3f eb c7 0b bf f0 e4 8e 3e
       0.10668707 0.5068886 -0.54601926 0.2790904
000220 10 ec 10 3e 18 d9 ce 3e b2 a1 9d 3e f8 06 ef 3e
       0.1415255 0.40400004 0.30787426 0.46685004
000230 6a 47 82 be 40 97 f9 3d ea 06 ad 3e 2e 90 b4 3e
       -0.2544511 0.12187052 0.33794338 0.3526625
000240 7c ae 0c 3f 10 7c 7f be 9c b4 a9 3e 50 c0 11 bf
       0.5495374 -0.2494967 0.33145607 -0.5693407
000250 7c 03 ef 3e c3 23 8d be 67 8c 88 be 52 b4 a3 3e
       0.46682346 -0.27566347 -0.26669618 0.3197351
000260 b8 08 f7 be 8f 83 0b bf 44 4c 34 3e f9 42 81 be
       -0.4824884 -0.5449762 0.17607218 -0.2524641
000270 e6 eb cf 3e ce e2 a1 3e 48 2c 2a 3e 0a 8e d9 be
       0.40609664 0.3161835 0.16618454 -0.4249118
000280 5c e4 63 3e d2 7a 88 3e 4e 42 c0 3e 6c ed 04 be
       0.22255081 0.26656204 0.37550586 -0.12981194
000290 dc 89 47 3e 80 b0 68 bc 14 6a c7 be 2c 55 12 3f
       0.19486183 -0.014202237 -0.3894812 0.5716121
0002a0 18 f5 d4 3e b4 d6 67 3e fe f1 cd be 9b 80 a5 be
       0.41593242 0.22640496 -0.40223688 -0.3232468
0002b0 40 1d 3b 3c b3 ea ed be a4 d1 02 3e 2c 6d d7 3e
       0.011420548 -0.46468124 0.12775284 0.4207548
0002c0 50 b7 f9 3e 2a a6 9f 3e 98 40 99 3e 31 ac 86 be
       0.4877267 0.3118146 0.29932094 -0.26303247
0002d0 06 a3 41 be 3a 19 18 be 0a 0f cc be e0 3b a9 bc
       -0.18909845 -0.14853373 -0.39855224 -0.020658433
0002e0 dc 7d d9 bd 30 98 c5 3e 90 fc 7f bd e9 99 b3 be
       -0.10619709 0.38592672 -0.06249672 -0.35078362
0002f0 be ee fe be 8a ce af be ea 8b 14 be ce 37 db be
       -0.4979152 -0.34337264 -0.14506498 -0.42816013

lstm.lstm.weight_hh_l0 f4 [12, 3]
000000 ea 62 bc be e8 a8 08 bf be 42 cd be 1a a0 c1 3e
       -0.36794215 -0.5338273 -0.40089983 0.3781746
000010 fc 08 51 3e 24 87 4d be a0 80 eb 3e eb 97 e7 be
       0.20413584 -0.20071083 0.4599657 -0.45233092
000020 10 7f a1 3d 8c c2 03 bf f2 8c 89 be 46 43 f6 be
       0.078855634 -0.5146873 -0.26865345 -0.480982
000030 23 e9 0b bf 50 b8 c4 bd 04 ec 23 be 48 25 1e be
       -0.54652613 -0.09605467 -0.16008002 -0.15443909
000040 d8 49 19 3e 80 be 14 bc b4 e9 fd 3e 78 d9 bd 3e
       0.14969575 -0.009078622 0.49592364 0.37079978
000050 4c 1d 11 3e c5 da 95 be 66 f0 81 3e 6c 8e 46 be
       0.14171332 -0.2926847 0.25378722 -0.19390267
000060 50 16 18 3d 68 b6 da 3e d0 41 79 3d 60 60 f2 be
       0.037130654 0.4271729 0.06085378 -0.47339153
000070 78 f3 fc 3e ec e8 68 3e 75 ca 0c bf 2c 71 97 3e
       0.49404502 0.22745103 -0.54996425 0.2957853
000080 84 44 e2 3e 60 28 d8 3c 45 d8 ba be 9c 80 ab 3e
       0.44192898 0.02638644 -0.36493126 0.3349656

lstm.lstm.bias_ih_l0 f4 [12]
000000 68 47 60 be 7c f2 15 3e 44 72 1d be 00 59 d0 bc
       -0.2190224 0.14643282 -0.1537562 -0.025433064
000010 d9 42 8b be 7f 23 d4 be 5e 6d c1 3e 48 db 97 3e
       -0.27199438 -0.4143333 0.37778753 0.29659486
000020 c0 8b 5a bc ba 9a 17 be 20 bd f3 bd c0 a3 50 3e
       -0.013338983 -0.14805117 -0.11901307 0.20374966

lstm.lstm.bias_hh_l0 f4 [12]
000000 a4 75 e3 bd 68 55 e2 3e 4d 3e 8d be f0 cd 32 3e
       -0.111064225 0.44205785 -0.27586594 0.17461371
000010 bc 30 d5 bd aa ab 29 be 20 38 d4 be 34 ab 0a bf
       -0.10409686 -0.16569391 -0.4144907 -0.54167485
000020 6c 59 c8 bd 6e 4f c5 be bb cc 09 bf c8 2c f7 3e
       -0.09782681 -0.38537163 -0.5382802 0.48276353

downstream.full.weight f4 [3, 16]
000000 d0 f9 72 3e 7c 94 e9 be b8 02 dd bd 50 36 0d bd
       0.23728108 -0.45621097 -0.10791534 -0.034475625
000010 78 61 2f 3e 88 a0 66 be 82 00 f1 be 3b 38 8e be
       0.17127025 -0.22522175 -0.470707 -0.27777275
000020 d9 a8 95 be 87 6c 86 be a6 4b b3 3e dd fe 86 be
       -0.29230383 -0.26254675 0.35018653 -0.2636632
000030 c2 1b e9 3e 40 1a 7d bd e0 89 d7 bc 31 2b b8 be
       0.4552899 -0.061792612 -0.026310861 -0.35970452
000040 57 5d e7 be e7 e9 0d 3f 80 92 69 be 66 49 0f be
       -0.451884 0.5543503 -0.22809792 -0.13992843
000050 af 18 0a 3f a8 5e 63 3e 80 6c 1c be 82 d3 9a 3e
       0.53943914 0.22204077 -0.15275764 0.30239493
000060 f6 d4 06 bf 68 0a 9f bd 7f 26 ca be 00 5b 04 be
       -0.526687 -0.07765657 -0.39482495 -0.12925339
000070 3c 13 b4 3e 00 28 80 3e 6c d2 ba bd 40 8f 13 bc
       0.35170925 0.25030518 -0.09122166 -0.009006321
000080 0b 16 03 bf 70 bb cc 3e 7a 85 be be c6 38 9d be
       -0.5120551 0.39986753 -0.3721121 -0.30707377
000090 be 97 fd 3e 06 00 df be 15 e3 0a bf a0 24 d6 3d
       0.49529833 -0.43554705 -0.5425275 0.104562044
0000a0 1c d4 91 3e 91 4b 07 3f 00 91 f8 3b 2d 04 0e 3f
       0.2848214 0.5284968 0.0075856447 0.5547512
0000b0 88 1e af 3d c5 f3 aa be d1 4a 01 3f 4e 1e f5 3e
       0.08550745 -0.33389106 0.50504786 0.47874683

downstream.full.bias f4 [3]
000000 e0 fe 67 3c 7c b1 05 3e 2e ba 07 3e
       0.014159888 0.13055986 0.13254616

maxpooling.full.weight f4 [3, 16]
000000 63 18 9b 3f 9d 95 d1 bd 45 15 61 bf b1 d2 33 3f
       1.2116817 -0.102336146 -0.8792308 0.70243365
000010 ad 62 80 3f ff c6 81 be eb 2b 92 3f ea bf 66 bf
       1.0030113 -0.25347134 1.1419653 -0.9013659
000020 8b 09 9e 3e 22 23 a2 3f dc 5c 89 bf d7 77 54 3f
       0.30866656 1.2666972 -1.0731463 0.8299536
000030 78 42 9e 3e 98 78 0c bf 31 22 4c bf 62 19 59 3f
       0.30910087 -0.5487151 -0.7973967 0.84804356
000040 d2 52 d4 be 69 74 65 3f 52 72 1c 3f 45 94 85 bf
       -0.41469437 0.8963075 0.6111194 -1.0435873
000050 ad a9 89 3f 21 ee a1 bf 99 0a ea be 1a 87 70 3f
       1.0754906 -1.2650796 -0.4571121 0.9395615
000060 37 0d 9d 3f ba da ac bf 8e c7 d7 3e 29 2d 87 bf
       1.2269658 -1.350425 0.42144436 -1.0560657
000070 67 96 3a 3f 36 d3 9a 3f 9f 20 20 3f fb e1 61 3f
       0.72885746 1.2095706 0.62549776 0.88235444
000080 f3 a1 39 bf 1e 5b 95 bf 39 7b 34 3f 2f 68 3d 3f
       -0.7251274 -1.1668432 0.7050052 0.73987097
000090 03 06 73 bf f3 0e 42 3f 79 09 a9 3f 8c 3e 25 3f
       -0.9493105 0.7580406 1.3206016 0.64548564
0000a0 f0 e8 66 bf d8 28 95 bf be 15 d3 bd e0 d1 93 3f
       -0.90199184 -1.165309 -0.10306881 1.1548424
0000b0 cd c4 82 bf ca a8 3a bf 98 81 87 3f 9e 7a 58 bf
       -1.0216309 -0.729138 1.0586424 -0.845621

maxpooling.full.bias f4 [3]
000000 cf f4 d1 bd ae dd 91 bd 4d 5e b7 3e
       -0.10251772 -0.0712236 0.35814133

mean.full.weight f4 [3, 16]
000000 38 7c f4 3d bc f1 aa 3e 9c ac 34 be a4 22 a4 3e
       0.11937755 0.33387554 -0.1764397 0.3205768
000010 90 f1 53 bd da d9 eb 3e 06 5b a8 be 20 53 8a 3e
       -0.051744044 0.46064645 -0.32881945 0.27016544
000020 26 33 89 3e c0 b1 54 bd dc 7d c5 bd 70 6f 77 3e
       0.26796836 -0.051927328 -0.096431464 0.24163604
000030 9a 09 9c 3e 2e d0 47 be a0 b9 1f be 69 16 0f bf
       0.30476075 -0.19513008 -0.15598154 -0.5589357
000040 b8 1d db bd b5 76 e7 be a8 99 60 3e 56 40 17 be
       -0.10699028 -0.45207754 0.21933615 -0.14770636
000050 80 27 2c be c8 5a 00 bf 30 4d 7f bd fe 31 85 3e
       -0.16811943 -0.5013852 -0.06232947 0.26014704
000060 8c 6f 45 3e 40 63 9c be d4 1e 25 be b7 80 bf be
       0.19280833 -0.30544472 -0.16125041 -0.3740289
000070 c0 10 36 3c b0 e7 49 bd 7c 00 f2 bd 2c 8b 40 3e
       0.011112392 -0.04929322 -0.11816499 0.1880309
000080 68 92 85 3e 8f 84 05 3f 04 e8 02 3e 3c 9f b3 be
       0.26088262 0.52155393 0.1278382 -0.35082424
000090 e2 cc fc be 96 9d e5 3e 64 5b db 3e e8 df 85 3d
       -0.49375063 0.4484679 0.42843163 0.06536847
0000a0 c8 80 e7 be b0 5f 5a be 7e 30 f5 3e 36 63 df 3e
       -0.4521544 -0.21325564 0.4788856 0.4363038
0000b0 34 83 fb be 34 9d 69 3e 34 ad d6 3e 48 a2 cd bd
       -0.49123538 0.22813874 0.41929018 -0.10040718

mean.full.bias f4 [3]
000000 e0 be 33 3e d0 9d 5f be 80 2e 3c bc
       0.17553282 -0.21837544 -0.011485696

aggregator2.full.weight f4 [3, 500]
000000 60 2e ad 3b f0 9a 5d 3c fc 3d 94 3c ac 36 bc 3c
       0.0052850693 0.0135257095 0.018095963 0.022975288
000010 18 26 95 bd 9b 1c 81 bd 05 ea 5d bd d2 07 6b 3d
       -0.072826564 -0.06304284 -0.054178257 0.057380505
000020 53 36 d2 3d da c2 77 3d 20 bc b3 bd 1c 64 c4 bc
       0.10264268 0.06048856 -0.08776116 -0.023973517
000030 4d 46 89 bd 89 1d d4 bd 26 21 3a 3d 83 3e b1 3d
       -0.06702862 -0.10357196 0.04544177 0.08654501
000040 b1 64 c0 bd dc 30 b8 bd d4 04 d1 bc 88 70 15 3c
       -0.09394205 -0.08993694 -0.025514998 0.009121068
000050 57 e7 4b bd 46 25 95 bd 8d 03 a1 bd 88 19 4d bc
       -0.04978117 -0.072825 -0.078620054 -0.012518294
000060 cb 05 9a 3d 40 0e ae bd 40 4e 74 3b 02 6a 34 3d
       0.07520636 -0.08498812 0.0037278086 0.04404641
000070 03 ea 9d 3d e0 ec ef bb 78 20 00 bd 9c b5 f8 3c
       0.0771065 -0.007321939 -0.031280965 0.030360036
000080 14 b5 d1 3c a8 6c 85 bd 28 ea 58 bd 72 89 10 bd
       0.02559904 -0.06514865 -0.052957684 -0.035287328
000090 aa 68 0a 3d 20 fe 08 3c da c4 45 bd e3 a2 ce bd
       0.03379122 0.008361369 -0.048283435 -0.10089662
0000a0 32 32 6b 3d 2a 4c ae bd 00 a8 43 38 56 ee 18 bd
       0.057420917 -0.08510621 4.6648085e-05 -0.03733667
0000b0 99 37 c5 bd ca c9 19 3d 9f db d5 bd 16 2a 1a 3d
       -0.09629745 0.037545957 -0.1044228 0.037637793
0000c0 cc 41 a3 3c 91 86 c0 3d b8 a3 0e bc be 5a 62 3d
       0.019928835 0.094006665 -0.008706026 0.05526232
0000d0 86 14 39 bd 7c a9 93 bc 28 60 37 bd 04 73 9a 3c
       -0.04518559 -0.018025152 -0.044769436 0.018853672
0000e0 de c1 74 3d 60 8a bf bd 3b 70 8e 3d 7e 09 41 3d
       0.0597552 -0.09352565 0.06955 0.047128193
0000f0 f7 13 b9 3d d2 11 35 3d 38 34 d6 bd a0 1c 3f 3c
       0.09037011 0.044206448 -0.10459179 0.01166454
000100 47 b9 86 bd c8 e4 60 3c 09 a4 d4 3d 0b ab 84 3d
       -0.065783076 0.013726421 0.1038285 0.06477936
000110 e6 48 d2 bd 00 d6 8f bc 91 87 72 bd a3 3e 59 bd
       -0.102678105 -0.017558098 -0.059211317 -0.05303825
000120 99 d0 87 3d 3e e9 3f bd f7 1a d8 3d 62 aa 9b bd
       0.06631584 -0.046853296 0.10552018 -0.07600857
000130 49 ec 95 3d 00 cc 70 bb 5b 97 80 3d bc e7 e7 3c
       0.073204584 -0.0036742687 0.06278869 0.028308742
000140 40 12 dd 3a bc 00 65 bd 04 6f fb 3c 81 8f c2 3d
       0.0016866401 -0.055908903 0.030692585 0.095000274
000150 40 36 05 bb 3f 34 9c 3d 3b 62 ac 3d 6a da 82 bd
       -0.0020326525 0.07627153 0.084171735 -0.063893154
000160 47 b8 b1 3d a1 65 b4 bd e6 47 18 3d dc 49 e0 bc
       0.08677726 -0.08808447 0.037177943 -0.027378969
000170 57 68 d8 3d 00 be 23 bb b4 57 a1 3c 62 eb 55 3d
       0.10566776 -0.0024985075 0.01969514 0.05222643
000180 ba ca cf bd be 32 03 3d 74 aa e7 3c 72 18 2d 3d
       -0.10146089 0.032030813 0.02827952 0.04225964
000190 42 70 01 3d ca 47 64 3d 9e 5a 3b 3d 06 b6 7e 3d
       0.031601198 0.055732526 0.045740716 0.06218531
0001a0 d3 1a b7 3d 9a ec 26 bd d4 e3 91 bd 5a d2 8b bd
       0.08940663 -0.040752985 -0.07123533 -0.06827231
0001b0 87 84 84 3d 15 9b b1 3d 40 5c bb bb f9 62 db 3d
       0.0647059 0.08672158 -0.005717784 0.10712237
0001c0 60 25 39 bc 3c cd aa 3c b7 a2 d5 3d cf f2 84 3d
       -0.011300415 0.020849817 0.10431426 0.064916246
0001d0 ad 37 a0 3d 31 12 96 3d ae ee 8d bd 6e 8a 6b 3d
       0.07823119 0.073276885 -0.0693029 0.057505064
0001e0 f0 d2 47 3c 64 ba 7e bd ce fd 21 3d 06 49 33 3d
       0.0121962875 -0.062189475 0.039548688 0.043770812
0001f0 4b 22 ad 3d 14 6b fc 3c 6d 95 d5 3d 6f 87 ad 3d
       0.084538065 0.030812778 0.10428891 0.084730975
000200 a0 0d b1 bd a2 c1 21 3d 74 36 d4 3c 7d 32 96 bd
       -0.08645177 0.039491303 0.025904872 -0.073338486
000210 e4 f0 83 3c c0 c4 a6 3a 4c 8f 8c bc bc bf dd bd
       0.016106077 0.0012723431 -0.017158173 -0.10827586
000220 3d 1e d6 bd e2 29 2d 3d bb df 82 3d 1b 4c 9d 3d
       -0.10454986 0.04227627 0.063903295 0.076805316
000230 34 6f a7 bc 9d 1d bc 3d c2 74 00 3d 42 de 5e 3d
       -0.020438768 0.09185336 0.03136135 0.05441118
000240 b0 25 73 bd da e1 25 bd 30 91 be bb b0 0e 80 bc
       -0.059362113 -0.040498592 -0.0058156475 -0.015632004
000250 04 9c f5 bc c0 df 7b bc 0c eb ac bd 08 9e 58 bc
       -0.02998162 -0.01537317 -0.08443269 -0.013221271
000260 c3 5a bf 3d 59 1b da 3d 68 5f ac bd d6 e7 31 3d
       0.09343483 0.106497474 -0.08416635 0.043433987
000270 d8 05 fa bc b4 16 38 bd fa 43 4f 3d 63 02 a9 3d
       -0.030520365 -0.044943526 0.050601937 0.08252408
000280 ba be 5f bd 56 de 91 bd fc a4 c1 bc b0 40 91 bd
       -0.05462525 -0.07122485 -0.023638241 -0.07092416
000290 44 b1 07 bd 42 d9 8f bd 2f a3 93 3d 38 5f 6b 3c
       -0.033128038 -0.070238605 0.07208859 0.014365964
0002a0 2c 4c c0 3c ac cb bc 3c 90 7c eb bb d5 58 b9 3d
       0.023473822 0.023046337 -0.00718648 0.090501465
0002b0 95 24 d3 3d 55 64 b4 3d fe 62 59 3d 07 95 a9 3d
       0.10309712 0.08808199 0.053072922 0.08280378
0002c0 f4 3c ba bd a8 9e d0 bd 6d b0 40 bd c2 cf 7d 3d
       -0.09093657 -0.10186511 -0.047043253 0.06196571
0002d0 af 9e 9f bd c4 16 37 bd 06 31 0a 3d 58 ff 32 bc
       -0.07793938 -0.044699445 0.03373816 -0.0109251365
0002e0 0a 93 20 bd d4 98 bd bd a8 cb 4b bd b8 4c de bd
       -0.039202727 -0.09257665 -0.04975477 -0.10854477
0002f0 13 1d 89 3d ac 32 e6 3c 28 9e af bc 98 01 21 bd
       0.066949986 0.028100334 -0.02143772 -0.03930816
000300 ec 81 aa bc 65 cd 9d 3d 2b 46 b3 bd 54 31 a9 3c
       -0.020813905 0.077051915 -0.08753618 0.020653404
000310 01 29 8c 3d f6 42 90 bd 02 6c b8 bd db 34 6c bd
       0.068437584 -0.07044022 -0.09004976 -0.057667594
000320 ef 2f a8 3d 84 45 8b bd 1e 14 19 3d fa ad 38 3d
       0.082122676 -0.068003684 0.0373727 0.045087792
000330 24 a7 8e bd 89 34 d7 bd 20 5d 21 3c cc dd b1 3c
       -0.06965473 -0.10508067 0.009848863 0.021712206
000340 ce 17 02 3d ec 39 f2 bc f4 de d8 bc b5 2b 85 3d
       0.031760983 -0.029568635 -0.0264735 0.06502477
000350 58 d3 9c bd 42 d6 2e 3d 6a 09 be bd c0 13 8d bd
       -0.07657498 0.0426848 -0.09279139 -0.06888533
000360 14 e8 9b 3c 9c 15 b8 bd 6a 12 36 3d 62 e2 61 bd
       0.019031562 -0.08988497 0.044451155 -0.055147536
000370 dc f0 83 bd c0 24 af 3a 14 42 a2 3c 5e ae 5f 3d
       -0.06442425 0.0013362393 0.0198069 0.05460965
000380 6e 01 11 3d 70 30 3d bc d8 b4 10 3c 70 9e cf bb
       0.035401754 -0.011547193 0.008832179 -0.006336026
000390 10 85 28 3c 5e e8 27 3d 92 c4 26 3d 5a 86 b0 bd
       0.010285631 0.040993087 0.040714808 -0.086193755
0003a0 2e 22 73 3d 8d f3 95 bd e0 20 59 3b cc ec e9 3c
       0.05935877 -0.07321844 0.0033131167 0.028555296
0003b0 69 7d c4 bd b0 0b 64 bc 9d 8a ad 3d 46 c1 a6 bd
       -0.095942326 -0.013918802 0.08473704 -0.08142333
0003c0 f9 9f 67 bd 8e 8f 7f 3d 2e 61 c3 bd fc 83 a1 bd
       -0.056549046 0.062392764 -0.0954002 -0.07886502
0003d0 e8 a2 98 bc 7f 10 52 bd 1b 96 c4 3d 56 17 4a 3d
       -0.018632367 -0.051285263 0.09598943 0.04933866
0003e0 aa 72 69 3d 28 c8 da bc 2f 2b 8a 3d d8 bd 93 bd
       0.056994118 -0.02670677 0.06746518 -0.07213944
0003f0 82 b0 3c 3d 20 f2 9d bc f4 77 23 bd ce 28 27 bd
       0.04606677 -0.019280493 -0.039909318 -0.0408104

aggregator2.full.bias f4 [3]
000000 7a 1c 5d bc be de af 3c a4 f9 4b 3c
       -0.013495559 0.021468516 0.012449656
