best_ether_attn_feat_matrix/loss/ether_dropout=0_wd=0_b=256_lr=0.001_epochs=1000_walk=11_best_model.pt (torch, 20819 bytes, 4 tensors)

aggregator.full.weight f4 [128, 24]
00000000: 9645 afbd fa7f f2bd 0be9 603d 0374 803e
00000010: b74e 83be 61be 7ebc 2843 1b3e cd82 983e
00000020: 813c a93d 0c9e 863e befe 73bd ad30 cdbe
00000030: d61f 5f3c 8b4b 53bd 68a2 acbd 5caa a8bc
00000040: 4aa6 9abd 0759 d63c 4c9e 9c3e e605 1d3e
00000050: 9293 b6bd 64e0 bbbd de77 483e a739 0ebe
00000060: 3dc2 533d fb37 99bd e8f8 043e 6028 673e
00000070: cfef c9bc 260b 853d d09b dfbd a84b 3e3d
00000080: 8879 0d3c 5388 6cbd 197b a43d 3879 e03b
00000090: a7fa d43c f067 203d 37cd c23d c6a7 11be
000000a0: f2bf 513e e5e2 183e 80fd fdbc 2afc 99bd
000000b0: 0c30 333e edd4 48be ade7 cfbc 9802 edbe
000000c0: 52ea 023e 9f0a 91ba 9d3e 0e3e 6c2e a6bd
000000d0: 2a36 293e 6542 ab3d 1fbd 54be 2dc4 a1bd
000000e0: 2939 05be 6394 173e 7183 dcbb 5bdf 1e3d
000000f0: d0da 6cbe b73d 8ebe 8990 2f3d 7388 283c
00000100: 91af 9b3d 4252 613e c601 da3d 929f fc3d
00000110: a57b 44bc 4df0 d1be 9c7d 47bd 6195 41be
00000120: 4d36 573e 7a30 27be 2f61 5ebb 8f7b dd3d
00000130: 302b 82bc 489d 273e 9f94 c13d fced adbd
00000140: 05bf 523e 26bf 733e fddf b03d 631f 693e
00000150: e3a6 0e3e a97e 3e3d 4a31 c93d e70e 78bd
00000160: 3bda 28be e0d2 25bd 397a 68be fe24 18be
00000170: 9182 c0bc 91bc 913c 80ce 0fbe 0bf6 a7bc
00000180: b712 10be 933e a0bd c103 89be 82fd 6bbd
00000190: 8b25 cdbe 8dab 85be fa23 d4be 6951 55be
000001a0: b1ad 14be 3301 96bd d577 503e d603 69be
000001b0: c867 1dbe affd b33d fc81 303d 2142 853c
000001c0: ac9b 2a3e c01d 153e cb28 f83c 5925 6e3c
000001d0: 0909 88bd 2196 663d 2abd 30bd ca67 8ebd
000001e0: 046e 463e 6203 133e 45a7 a9bd 0d0d 843e
000001f0: 280e 6e3e b802 163e b18e 6f3d 731a 613e
00000200: 3704 20be c6fe d5be 8b4b 093e 9781 41be
00000210: 3bef d3bd c658 fa3c 4eef 1cbe c9fe 3ebc
00000220: b2d0 603c e1f1 943d 7e09 4f3e 3714 f1bd
00000230: 7d4c 01be 5030 3fbe 7bb2 263e aa44 853e
00000240: e958 9f3c 494a 193e 0ada 6c3e cc07 283e
00000250: ba47 83bd 399c d33d 1b73 3dbc 75ba c23c
00000260: 784e c3bd 3a6f 50bd c882 433d 0376 d73d
00000270: 88a9 753c ec14 4abd 879f 71bd 2914 593c
00000280: a032 753c 89db 5f3e fc3a 92bd c9e9 533e
00000290: 243d 9f3c 0cd1 c6be e65b 01bd a8f4 d6be
000002a0: ac8b 33bc 9a30 fc3d 425c 333e 5d59 7a3e
000002b0: 4ea1 8a3e 2f77 3d3d 824d 8a3e d016 963e
000002c0: e02a 99bc 524e 423e 372f a53b 9a75 ebbb
000002d0: 8e78 f93d 14cc 7cbd 0348 c8bd 7b7c 803d
000002e0: bda0 f5bd 6e37 4a3e c9f8 7b3e 6c5d 103d
000002f0: 4612 3fbe e9fb 923e c096 b4bc a699 70be
00000300: 04e5 153e 40fb 7fbe 9af8 32be 735c 8c3d
00000310: 846b 333c 9ce3 283e d1c1 c7be 2b0b 17be
00000320: b87e 76bb 3681 90bd a066 36be 8c6f 823c
00000330: bacf 82bd 2f16 dfbd 030e 8f3d 8d35 ee3d
00000340: 4df4 903d d57a 953d f0d8 15be 1510 8c3d
00000350: 9764 b73d 5a7e 393d 3a4f 9bbd 5c03 113e
00000360: 03af 033e a3cb fb3d b2d5 0a3e 4098 6a3e
00000370: a20d 5c3e 8af9 febb 1093 8d3e 3c4b 4bbc
00000380: 7486 693e f14e 5d3e 137c 6abd bd2c aa3c
00000390: ad8b d13d b5bb 093e 7934 83bd 5fbd 13be
000003a0: 98b7 a63c e275 813e 56c1 a13c 6916 5d3e
000003b0: 37f8 013d 1d47 1f3e e025 28be 2180 fbbd
000003c0: 2c75 54be 0743 803d e3d7 61be 467e 763d
000003d0: d0ff 933d 73b4 193e d3e0 9ebd 139c d83c
000003e0: 7f06 113e d073 8cbc dcff e9bd 5149 0f3d
000003f0: 4278 02be 03cf 4d3d 0b8e 543d b9f1 14bc
-0.08558194 -0.11840816 0.054909747 0.2508851 -0.25645992 -0.01554832 0.15162337 0.29787293
0.08263493 0.26292455 -0.059569113 -0.400762 0.01361843 -0.051585715 -0.08429414 -0.020589046
-0.07551248 0.026165498 0.3058952 0.15334281 -0.089148656 -0.091736585 0.19576976 -0.1388918
0.051698912 -0.074813806 0.12985575 0.22573996 -0.024650482 0.06496267 -0.10918391 0.04645887
0.008634932 -0.057747196 0.080312915 0.006850388 0.025998427 0.039161623 0.09511798 -0.14224157
0.20483378 0.14930303 -0.031004667 -0.075187996 0.17498797 -0.19612475 -0.025379026 -0.4629104
0.12784699 -0.0011065787 0.13891073 -0.08114323 0.16524568 0.08362273 -0.20775269 -0.07898746
-0.13010086 0.14802699 -0.006729536 0.038787227 -0.23130345 -0.2778146 0.04286245 0.010286438
0.07601846 0.22004035 0.106448695 0.12335123 -0.01199237 -0.41003647 -0.048703775 -0.1890464
0.21016808 -0.16327086 -0.0033932438 0.108145826 -0.015889734 0.16368592 0.09452175 -0.084926575
0.2058068 0.23803386 0.086364724 0.2276588 0.1393085 0.04650751 0.09823854 -0.060561087
-0.16489498 -0.04048431 -0.22702874 -0.14857861 -0.023499759 0.01779011 -0.14043617 -0.020503065
-0.14069639 -0.07824435 -0.26760677 -0.05761481 -0.40067706 -0.26107445 -0.41433698 -0.20831837
-0.14519383 -0.073244475 0.20358212 -0.2275537 -0.1537162 0.08788621 0.043092713 0.016266884
0.16660947 0.1456213 0.03029289 0.014535272 -0.06642348 0.056295518 -0.04314915 -0.0695339
0.19377905 0.14356759 -0.08283857 0.25791207 0.23247588 0.14649475 0.05848569 0.21982746
-0.15626608 -0.4179594 0.13407724 -0.18897091 -0.10348364 0.030559909 -0.15325662 -0.011657425
0.013721632 0.07272697 0.20218465 -0.11771434 -0.12626834 -0.18670774 0.16279022 0.2602895
0.019451575 0.14969744 0.2313005 0.16409224 -0.06410165 0.103325315 -0.011563088 0.02377055
-0.09536451 -0.050887324 0.047732145 0.10520556 0.014994033 -0.04933636 -0.058990028 0.013249435
0.014965683 0.2186109 -0.071401566 0.2069465 0.019438334 -0.38831365 -0.03158178 -0.41983533
-0.010958593 0.123139575 0.17515662 0.24448152 0.2707619 0.04625624 0.2701226 0.2931428
-0.018697202 0.1897519 0.005041029 -0.00718565 0.12181197 -0.06171806 -0.0977936 0.06273743
-0.11993549 0.19747707 0.24606623 0.035245344 -0.18659315 0.28707817 -0.02204454 -0.23496112
0.14638144 -0.24998188 -0.17477646 0.06853571 0.010950927 0.16493076 -0.39015058 -0.14750354
-0.0037612151 -0.07055895 -0.17812586 0.01592233 -0.06387277 -0.10892903 0.069850944 0.11631308
0.07077847 0.07298819 -0.14633536 0.06839005 0.08954733 0.045286514 -0.07583471 0.14161438
0.1285973 0.122947 0.13558081 0.22909641 0.21489576 -0.007781212 0.27651262 -0.012408074
0.22805196 0.21612145 -0.057247233 0.020773286 0.10231719 0.13450511 -0.06406493 -0.14427708
0.020351216 0.2528525 0.01974551 0.2159058 0.031730857 0.15554471 -0.16420698 -0.12280298
-0.20747823 0.062627845 -0.2205501 0.060179017 0.07226527 0.15010242 -0.077577256 0.02644161
0.14162634 -0.017145067 -0.114257544 0.03498203 -0.12741187 0.05024625 0.051893275 -0.009090834

aggregator.full.bias f4 [128]
00000000: 56a8 3d3d 362a 3abc 2392 dd3d a6db 0abe
00000010: b491 47be 986a 663d d5d1 e9bd 8caa 133e
00000020: d938 0c3e a04b 9a3d 92e7 87be 4761 a53d
00000030: e3b3 57be b988 973e 0b9c 8d3d 7fb5 2a3f
00000040: 488c eb3e 7d94 3bbd 8191 0fbe a508 ae3e
00000050: 2801 0f3e e696 11be cba4 043d 3a7f a3bb
00000060: 5c5f 923e b429 393e e96f 143f 31df bb3d
00000070: 3748 2c3d d888 bc3d c220 b73e 8ba1 1b3f
00000080: 0120 6d3d 1b19 d33c d798 923a 39d3 763c
00000090: 5dab 783d df28 b73d ef8f efbd e789 193b
000000a0: e2e2 803e 5d1b e93a 9757 0d3d 52f9 9d3d
000000b0: 7dde 28be bca1 c03e c198 fa3e e481 84bd
000000c0: d6b0 a73d 6aab 893e 0f2c 23be 7add 873e
000000d0: e9c8 26bc 85eb 903e 26f0 e23d 2e39 e93e
000000e0: dd5d 3d3e 88ab cfbb 1fb1 163e d10d 423d
000000f0: 061e 423b 1bb7 973d c623 a8bd 22ef 843e
00000100: 1fd1 3abe 847d c23e 3d99 8e3d 3584 163f
00000110: cd67 b0bc ade3 973e 8b1d 143e 020c 9bbc
00000120: 2de2 8fbd 2f17 90be ec8c b1bd 10f3 863d
00000130: 219d fe3d 3038 c4bd 7e2b 4f3d 6291 ac3e
00000140: 0c57 13ba 256b db3c 9bbd 75bd df93 833e
00000150: 35ef d33e 9a47 8bbe 875a 863e 4ffc 81bb
00000160: 6c5d c93e 6d65 fbbc aedb 25bd cf14 af3e
00000170: d568 00bf d3a5 05bd a3df 32be 8454 4b3e
00000180: 7ce9 a03e e957 36bd f9c6 f5bd 57de f4bc
00000190: ca0d a43e 7c1d 133d 3b9c 083e 9f61 043d
000001a0: 609d 81be 0514 6d3d aba1 05bd 1d1e 403e
000001b0: 05c5 d7bd d472 093e e6a0 6b3e 1903 d93c
000001c0: 5ad1 2e3d 3e9f d7bc 2847 eb3c 0219 253e
000001d0: 5372 a93e aa3d 973e 18ba 463d f196 41be
000001e0: a326 62be cb43 4d3d 7ba6 bebd 9367 bcbd
000001f0: 240d 603e 24b4 403d 7ebb e9bd 82fe 8abe
0.046303116 -0.011362603 0.10818889 -0.13560352 -0.19489175 0.056254 -0.114169754 0.14420527
0.1369356 0.075339556 -0.26543862 0.08075195 -0.21064715 0.295965 0.069145285 0.6668319
0.46005464 -0.045795906 -0.14020349 0.3399097 0.13965285 -0.1421772 0.03238372 -0.004989532
0.28588378 0.18082315 0.5798326 0.0917343 0.042061057 0.092057884 0.3576718 0.6079337
0.05789185 0.025768807 0.0011184466 0.015065008 0.0607103 0.089433424 -0.11697375 0.0023428143
0.25173098 0.0017784644 0.03450736 0.0771357 -0.16491123 0.37623394 0.48944667 -0.06470087
0.08188026 0.2688859 -0.15934776 0.2653616 -0.010179737 0.28304687 0.11080961 0.45551437
0.18492837 -0.006337587 0.14716004 0.047376458 0.0029619946 0.074079715 -0.08209948 0.25963694
-0.18243836 0.37986386 0.06962822 0.5879548 -0.021533871 0.2966589 0.14464395 -0.018926624
-0.070255615 -0.28142688 -0.08669457 0.06589329 0.12432314 -0.095810294 0.050578587 0.33704668
-0.0005620576 0.026784489 -0.059995275 0.25698754 0.41393438 -0.27203065 0.26240942 -0.003966845
0.39329088 -0.030688012 -0.040492706 0.34195563 -0.5015996 -0.032628845 -0.17468123 0.19856459
0.31428134 -0.04451743 -0.12000842 -0.029891176 0.3204177 0.03591679 0.13340847 0.03231966
-0.2531538 0.05788042 -0.03262488 0.18761487 -0.10535625 0.1342271 0.23010597 0.026490735
0.042680122 -0.02632105 0.028720453 0.16122821 0.33095035 0.29539233 0.048517317 -0.18905236
-0.22085051 0.05011348 -0.093090974 -0.09199443 0.21880013 0.047046795 -0.114127144 -0.271473

mean.full.weight f4 [6, 256]
00000000: bc63 cebd efb9 7e3e e586 de3d c7c9 bbbd
00000010: 4098 e4bc d474 cebc e157 b83d d787 173d
00000020: 3c7e d03d 0294 6d3d 1277 0e3e 0dd5 e4bb
00000030: 67cd c23d 96a3 4c3e 050d 21be d987 e2be
00000040: 0538 e9bc 9aca 3bb8 816b 96bd 6edd 4b3d
00000050: c30f 6f3b 0821 81bd 6826 8ebd 3aec abbc
00000060: 4bfc 933b ff48 d0be dabe 8abe ba68 aabd
00000070: 9c0b 023e 12d9 e6bd 5712 d0be ee30 b9bd
00000080: b798 8ebe 3f36 813d 3a42 cdbd 7148 783e
00000090: 3162 e63d eed1 fdbd a774 be3d 5563 2e3c
000000a0: b49f 55bd f320 d4bd b674 bcbd a44b 933d
000000b0: b7ab 4abe 02dd 763d a372 5dbe 5b21 cb3d
000000c0: 71ad a53c 08ff f9bd 8c9d f93c 802a 46be
000000d0: 3f80 213e e312 d3bd 34e6 debe 7a98 88bb
000000e0: 75a8 a5bc e704 f8bd 0417 c5bd 884a 243e
000000f0: e498 d73d c692 353d 2af6 e63d 9c66 c8bd
00000100: ad80 003e d51e 0fbe dc69 b8bc 82c8 7ebe
00000110: 14df 0ebe d145 15bd 0f6b c0bd 6227 763c
00000120: e8b0 78be d7d7 883d aed7 c53d 4a02 823d
00000130: 7db3 95bd 9141 efbd c49d 60be 0cca 5a3c
00000140: 7f66 2dbe 0302 b6bd d3d9 bfbd 5012 f33d
00000150: 042f 1fbe b6ef 89bd 1ea0 ebbd 7b5f 093d
00000160: c4a8 f8bd ec8e eebd 03aa 4e3e dd59 bfbd
00000170: 9cfc 43bd 8fb8 dcbb 2b79 93bd 2ea9 e4bd
00000180: 326d 0abe 5e0b 273e 130a e63d 2347 72bd
00000190: d001 773d 5348 7e3d b166 893d 5f5d 023c
000001a0: 18af 62be 94c5 a13d a5ff 9e3d 0205 0cbd
000001b0: a203 d3bd 4558 47be 6306 41be 5d25 133e
000001c0: f2e4 0a3a 02bd c7bc 3ada d43c 57c2 123e
000001d0: 491b 69bd 6828 e6bd 532f f4bd 8763 0e3d
000001e0: 0aec d93b c136 093e 74d6 6d3e 6b32 f9bd
000001f0: f9b5 a43d 847a 46bd 31b9 5a3d e72c 003e
00000200: 7638 563e 5083 4bbd ae58 593d 4f8b 45be
00000210: 3ede 123d 7c38 0a3e 65da 6f3d b10d 92bb
00000220: bb91 dc3d e800 003d c980 e43c 3ce3 c13d
00000230: 90fb aa3d 927e 33be d927 0fbe e5d6 b13d
00000240: a805 efbe d164 62bb 9c79 9bbd 099c 48be
00000250: e0b7 43be 5ec2 64bd 1436 4dbe ed35 853d
00000260: ae3c dfbd 840a 7bbe f54b 03bb 50d5 333e
00000270: 6e47 083e 7e4d c43d 7f0d 59bd f162 0fbe
00000280: c819 4cbe 256f 1f3e e054 a9bd 0895 a0bc
00000290: e68f 93bb 0e2e 39be bd06 d8bc b4e6 de3d
000002a0: 5b76 3b3c 6049 f83d d01a 49bb 04fd 203c
000002b0: 673f c3bc 1dac 413d 5cd8 60be 1ba7 aa3e
000002c0: 4d68 b9bd 1556 4abd d41c 933c fc8b 52be
000002d0: 252e 423e 6728 d93d f6d7 41be 616d f83a
000002e0: 7027 373d ecca 1bbe 5df6 7cbe 94e2 f5bd
000002f0: 402d 43be 56a2 003d 7a25 d43d 1859 38be
00000300: b964 843d 2c46 44bd b26f 4ebe 2f1b f3be
00000310: b2d9 e7bb 2d1c 00be 1edf 7c3c a68e a8bd
00000320: d7fd f43c beb1 a93d 3787 efbd 7cbd 9ebd
00000330: 8445 a43d b141 b4bc 1c04 e6bc ae76 bbbc
00000340: d386 13bd 88da 9c3d 1aa7 91bc 03a7 efbd
00000350: 390f 85bb 8b3b 2b3e 436e 943d f070 d2bd
00000360: 52be 31bd 6015 40bd 41fa 22bd 6de0 58bd
00000370: 8d5e 32be d409 2e3d 3d91 48bd eb06 d33d
00000380: 4e0f d9bd 1474 13bd 3694 013d 1b6a 933d
00000390: 8726 82bd 5bb4 663a 6456 6c3d 1794 46be
000003a0: 58ff 2ebe 1b21 cabd c145 df3d eb77 81bd
000003b0: a237 b13d 1dcd 34be 7759 08be d833 0a3e
000003c0: 5c72 d9bd 45c1 04be 58f6 ddbd 5fbf 893d
000003d0: a2ed f83d ad2d 73be 0d59 40be d779 4bbd
000003e0: 5bfa 0fbe d8d7 5abd 9406 033e a393 a73d
000003f0: ad85 323e 7031 f23d ea0a 5cbd a8da 313e
-0.100776166 0.24875616 0.10865573 -0.09169345 -0.02790463 -0.025202192 0.090011366 0.03699478
0.10180327 0.05800248 0.13912609 -0.0069834054 0.09511834 0.19984278 -0.15727623 -0.4424427
-0.028469095 -4.477296e-05 -0.073447235 0.04977172 0.00364779 -0.06305128 -0.06940919 -0.020986665
0.0045161596 -0.40680692 -0.27098733 -0.08320756 0.12699741 -0.112718716 -0.40638992 -0.09042536
-0.27850887 0.06309175 -0.10022397 0.24246384 0.11249197 -0.123935565 0.092995934 0.0106438
-0.052154258 -0.10357847 -0.09201948 0.07192162 -0.19792067 0.060269363 -0.21625762 0.099184714
0.020224305 -0.122068465 0.030470632 -0.1935215 0.15771578 -0.10306337 -0.43535006 -0.0041685672
-0.020221928 -0.1211031 -0.096235305 0.16044056 0.105272084 0.044329427 0.11277421 -0.09785196
0.12549086 -0.13976605 -0.022511415 -0.24881175 -0.13952285 -0.036443535 -0.0939542 0.015024038
-0.24286234 0.06681793 0.09660278 0.06348093 -0.07309625 -0.11682428 -0.21935183 0.013353836
-0.1693363 -0.088871025 -0.093677185 0.11868727 -0.15545279 -0.06735174 -0.11505149 0.033538323
-0.121415645 -0.11648354 0.20182042 -0.09343312 -0.04784833 -0.0067358683 -0.07200845 -0.11165081
-0.13518217 0.1631293 0.1123239 -0.059149873 0.060304463 0.062080692 0.0670904 0.007956832
-0.22137105 0.07899013 0.07763604 -0.034184463 -0.10303427 -0.19467266 -0.18850093 0.14369722
0.0005298398 -0.024382118 0.025982965 0.14331947 -0.056910787 -0.11238176 -0.11923089 0.034762885
0.0066504525 0.13399793 0.23226339 -0.121678196 0.08042521 -0.048456684 0.05339927 0.12517129
0.20919976 -0.049685776 0.053063087 -0.19291423 0.035856478 0.1349811 0.058557887 -0.0044571985
0.107699834 0.031250864 0.02789344 0.0946717 0.08348763 -0.17528751 -0.13980044 0.08683566
-0.46684003 -0.0034544955 -0.075915545 -0.19590773 -0.19113111 -0.055849425 -0.2004016 0.06504426
-0.109002456 -0.2451573 -0.0020034288 0.17561841 0.13308498 0.09585093 -0.052991387 -0.14002587
-0.1993171 0.15569742 -0.08268142 -0.019602314 -0.004503238 -0.18083975 -0.0263704 0.10883847
0.011441792 0.1212337 -0.0030686148 0.009825949 -0.023833944 0.04728328 -0.21957535 0.33330616
-0.09053097 -0.0493985 0.017958082 -0.20561212 0.18962915 0.10603409 -0.18930039 0.0018953496
0.044715345 -0.15214127 -0.24703355 -0.12006107 -0.1906023 0.031404816 0.103587106 -0.18002737
0.06464524 -0.047918484 -0.20159796 -0.47481677 -0.007075512 -0.12510748 0.015434055 -0.08230333
0.029906197 0.08285855 -0.11695712 -0.07750985 0.080210716 -0.02200398 -0.028078131 -0.02288374
-0.03601725 0.07658869 -0.017779876 -0.11701777 -0.0040606526 0.16721933 0.07247593 -0.10275447
-0.043394394 -0.046895385 -0.039789442 -0.052948404 -0.17418881 0.04248984 -0.048966635 0.10304054
-0.10598622 -0.035999373 0.031635486 0.071979724 -0.06355005 0.0008800679 0.057699576 -0.1939243
-0.17089593 -0.098695956 0.109019764 -0.06321701 0.08653189 -0.1765637 -0.13315378 0.1349634
-0.106175154 -0.12964351 -0.10838002 0.06725954 0.121547 -0.23747893 -0.1878397 -0.049676742
-0.14060347 -0.0534285 0.12795478 0.08182456 0.17433806 0.11825836 -0.053721346 0.17368567

mean.full.bias f4 [6]
00000000: 6e2f 36be fbcb 5b3c c9dc 503d 69e3 4d3d
00000010: e6f3 41be 1817 4d3d
-0.1779153 0.013415332 0.050991807 0.050265703 -0.18940696 0.050070852
