best_ether_attn_feat_matrix/loss/ether_dropout=0_wd=0_b=256_lr=0.001_epochs=1000_walk=2_best_model.pt (torch, 57509 bytes, 5 tensors)

aggregator.full.weight f4 [128, 24]
-0.0668295 -0.08732996 0.0785984 0.22722715 -0.20513585 -0.03916047 -0.011005572 0.10328855
0.025540246 0.18374048 0.121485755 -0.36970007 -0.062155366 -0.08002728 -0.130867 -0.15418817
-0.03079462 0.042098884 0.17155047 -0.06382451 -0.12344798 0.100604534 0.23626427 0.24158034
0.029751949 -0.08447553 0.11399728 0.15794696 -0.025814472 0.081282884 -0.15638205 0.08647325
-0.07336384 0.06389383 0.090335265 -0.22073796 0.00944639 0.02547806 0.079657234 -0.07490901
0.17434576 0.16373289 0.08283392 0.003593502 0.15351275 -0.20059799 0.14082564 -0.3646945
0.15929288 0.028129699 0.16957156 -0.037466064 0.24456167 0.1582491 -0.19774015 -0.02621831
-0.14551 -0.09857918 -0.16843341 -0.16530043 -0.18613972 -0.17875606 0.11359436 0.0019236743
0.065759234 0.20694715 0.103195705 0.06449957 -0.15494946 -0.3085956 -0.12010954 -0.16366109
0.1338918 -0.2271354 -0.07532419 0.07560117 -0.09787448 0.08568673 -0.069887325 -0.10260658
0.12095943 0.110649355 0.062359918 0.059157874 0.10625001 0.013297646 0.065605775 0.037815828
-0.05626467 0.06324408 -0.084520504 -0.04065 -0.04132372 0.0028023848 -0.080333024 -0.24090621
-0.030258756 0.0028824436 -0.1771988 0.041574392 -0.09471705 -0.10716467 -0.26240095 -0.22181252
-0.20810808 -0.26244786 0.1941696 -0.16640168 -0.17274515 0.08011098 0.029166793 -0.002794356
0.21160324 0.15756555 0.026933592 -0.11616431 -0.13090312 -0.21941575 -0.102255285 -0.3640673
0.12590325 0.08430449 -0.14687355 0.16453266 0.15095153 0.04891112 0.00660199 0.097422324
-0.17839533 -0.20452519 0.16310966 0.03299225 -0.14181349 -0.0008710715 -0.18760642 -0.008422455
-0.12607633 -0.01739978 0.095654406 -0.14936619 -0.19569927 -0.26900992 0.04937651 -0.01987025
0.019564047 0.15088601 0.23185752 0.23008588 -0.052014668 0.14310087 -0.012078645 0.05914486
-0.1223064 -0.13950634 0.03635762 -0.022754414 0.03301628 -0.0367616 -0.043073762 0.050699513
-0.037530735 0.21679801 -0.036178045 0.2338548 0.045056727 -0.08509441 0.022420714 -0.23215817
-0.15365319 0.026007624 0.055531036 0.08717671 0.17158495 -0.09045394 -0.16083536 -0.0052182768
-0.07031568 0.0966097 -0.0018901419 -0.13703294 0.124874175 -0.06988365 -0.10088694 0.09812486
-0.08245599 0.23640938 -0.18768758 -0.30039108 -0.18110138 -0.14570192 -0.07349208 -0.20058094
0.15650953 -0.13039964 -0.14258018 0.00021270702 -0.09836255 0.056977227 -0.115976185 0.12013829
-0.016966064 0.14789292 -0.21938798 -0.1119572 -0.060540393 -0.098999515 0.07649363 0.13859218
0.0411972 0.07215258 0.10073935 0.2517254 0.069608964 0.21976371 0.04116526 0.25821877
0.1371307 0.13150617 0.14303294 0.17748725 0.15421398 -0.121482946 0.22958325 -0.062000215
0.1784677 -0.03479545 -0.17704053 -0.2998553 0.13565156 0.1641179 -0.0332779 -0.2146358
-0.08502239 0.15383877 0.012030776 0.19722824 0.0530905 0.22169788 0.047650654 0.23386285
-0.21377358 0.05849398 -0.22322494 0.047692128 0.065367244 0.1362121 -0.20766592 -0.19206947
0.11237984 -0.25679994 -0.11855659 -0.0014040044 -0.1010339 0.089301914 0.08536029 0.024028394
00000000: e8dd 88bd 0dda b2bd 33f8 a03d 3cae 683e
00000010: 220f 52be bb66 20bd b750 34bc f388 d33d
00000020: c739 d13c 7726 3c3e 86cd f83d 5449 bdbe
00000030: a096 7ebd 58e5 a3bd 0002 06be 81e3 1dbe
00000040: 0045 fcbc e16f 2c3d edaa 2f3e 6db6 82bd
00000050: 4bd2 fcbd c009 ce3d 43ef 713e d660 773e
00000060: 5cba f33c 8201 adbd 6877 e93d d9bc 213e
00000070: df78 d3bc a477 a63d 9e22 20be e318 b13d
00000080: c83f 96bd c5da 823d b201 b93d 2209 62be
00000090: 08c5 1a3c 5db7 d03c 5523 a33d e569 99bd
000000a0: b287 323e 98a9 273e d5a4 a93d f680 6b3b
000000b0: 7232 1d3e 8f69 4dbe 9934 103e 3db9 babe
000000c0: ac1d 233e 4170 e63c 2ba4 2d3e 0476 19bd
000000d0: 606e 7a3e 0d0c 223e 657c 4abe c8c7 d6bc
000000e0: 9300 15be e2e3 c9bd cf79 2cbe 8444 29be
000000f0: 699b 3ebe d40b 37be 29a4 e83d cc23 fc3a
00000100: c7ac 863d f4e9 533e 4558 d33d 5a18 843d
00000110: 12ab 1ebe 3e00 9ebe fefb f5bd c696 27be
00000120: ef1a 093e 2f96 68be 9243 9abd c9d4 9a3d
00000130: 6a72 c8bd 867c af3d 1621 8fbd 6623 d2bd
00000140: 94b9 f73d 219c e23d 1d6d 7f3d 874f 723d
00000150: 9b99 d93d 5fde 593c 525c 863d c5e4 1a3d
00000160: c875 66bd 1d86 813d 1619 adbd 9d80 26bd
00000170: 1043 29bd 37a8 373b a485 a4bd 1eb0 76be
00000180: 36e1 f7bc 61e7 3c3b 9a73 35be e949 2a3d
00000190: 03fb c1bd 2779 dbbd 6b59 86be d222 63be
000001a0: 491a 55be 915f 86be 65d4 463e 3465 2abe
000001b0: 1be4 30be 3a11 a43d 33ef ee3c 8421 37bb
000001c0: 85ae 583e dd58 213e d6a3 dc3c 8ee7 edbd
000001d0: 780b 06be 86ae 60be 386b d1bd 0767 babe
000001e0: c8ec 003e d5a7 ac3d 0566 16be 407b 283e
000001f0: 0a93 1a3e 0757 483d 8255 d83b 5b85 c73d
00000200: 44ad 36be 0d6f 51be 3806 273e e222 073d
00000210: 8e37 11be 9e58 64ba e61b 40be 56fe 09bc
00000220: 271a 01be fc89 8ebc 75e6 c33d 73f3 18be
00000230: 6465 48be abbb 89be 063f 4a3d efc6 a2bc
00000240: c844 a03c dd81 1a3e 0f6c 6d3e a29b 6b3e
00000250: 550d 55bd 0989 123e 82e5 45bc e141 723d
00000260: c77b fabd c0da 0ebe baeb 143d 7767 babc
00000270: 143c 073d 5593 16bd 1d6e 30bd 4baa 4f3d
00000280: d4b9 19bd 4c00 5e3e 6e2f 14bd a277 6f3e
00000290: 678d 383d fa45 aebd a5ab b73c dfba 6dbe
000002a0: 4357 1dbe f10d d53c 8374 633d b489 b23d
000002b0: f7b3 2f3e ea3f b9bd 06b2 24be 14fe aabb
000002c0: ab01 90bd 4edb c53d a3be f7ba 5d52 0cbe
000002d0: 08be ff3d 291f 8fbd d09d cebd b0f5 c83d
000002e0: b0de a8bd 4d15 723e 2c31 40be dccc 99be
000002f0: a472 39be e232 15be 0483 96bd 1765 4dbe
00000300: 0944 203e 7c87 05be 8a00 12be 1b0a 5f39
00000310: 4e72 c9bd f460 693d ec84 edbd 100b f63d
00000320: 6afc 8abc 3e71 173e 3ea7 60be d149 e5bd
00000330: 34f9 77bd 42c0 cabd b1a8 9c3d 1ceb 0d3e
00000340: 65be 283d bbc4 933d 6f50 ce3d 27e2 803e
00000350: 258f 8e3d bd09 613e e79c 283d 4035 843e
00000360: fd6b 0c3e 8ea9 063e 3a77 123e 38bf 353e
00000370: 45ea 1d3e 0dcc f8bd df17 6b3e f0f3 7dbd
00000380: 3dc0 363e ac85 0ebd 1d4a 35be a286 99be
00000390: 3ee8 0a3e 860e 283e 684e 08bd 7dc9 5bbe
000003a0: 3820 aebd e987 1d3e bb1c 453c 33f6 493e
000003b0: 6d75 593d c504 633e 552d 433d be79 6f3e
000003c0: 76e7 5abe 6297 6f3d 1495 64be d258 433d
000003d0: 43df 853d 2f7b 0b3e 60a6 54be dcad 44be
000003e0: 6727 e63d 487b 83be cccd f2bd 9206 b8ba
000003f0: ddea cebd ece3 b63d 60d1 ae3d 32d7 c43c

aggregator.full.bias f4 [128]
0.09097635 0.11899544 0.10011646 -0.07689387 -0.21792702 -0.05319223 -0.08928816 0.22548056
0.27414098 0.34439108 -0.021989588 0.11608457 -0.06052728 0.19870459 0.02497437 0.1982269
0.34159955 0.05489721 -0.09599754 0.24827929 0.28307903 -0.121731095 -0.0857106 0.28979218
0.29810348 -0.16273822 0.31581938 0.10148091 0.21670142 0.1912386 0.27575767 0.3881528
0.17695637 -0.082042366 -0.053665955 0.28484774 0.18649532 0.021490468 -0.19498901 0.06823051
0.30054945 -0.018898297 0.033044647 0.1692264 0.12118558 0.4011947 0.36829743 0.2770859
0.045047358 0.16193758 0.18364719 0.26647642 0.22309448 0.28730848 -0.16205122 0.36930767
0.10409251 0.06986963 0.32246354 0.18036908 -0.17682847 0.1566596 -0.03091567 0.10357567
0.010963917 0.36540508 0.21884239 0.31220004 0.23916116 0.17963772 0.30462748 -0.055144742
0.012725289 0.010233104 0.10915045 0.11488639 0.15162887 0.34421533 -0.004542648 0.24249668
-0.14265063 -0.23860492 -0.19181234 0.11636796 -0.2125759 -0.21541744 0.27014503 0.1160345
0.06923966 0.052285753 0.056252018 0.28128448 -0.23247737 0.062592395 0.097660385 0.12446154
0.3715226 0.092741095 -0.15930441 -0.03918015 0.40999565 0.21648943 0.15532814 -0.17100982
-0.1871227 -0.064310625 0.04699608 -0.075554006 -0.09438091 0.110477656 -0.090049475 0.1383705
-0.018956073 0.3358307 -0.12903601 0.16078934 -0.061086785 0.2506578 0.06291893 -0.12792118
0.042290274 0.24064082 -0.12143304 0.06700188 0.106597506 0.28920943 -0.24772288 -0.1597682
00000000: cf51 ba3d e2b3 f33d dc09 cd3d 897a 9dbd
00000010: 4328 5fbe 19e0 59bd b6dc b6bd 60e4 663e
00000020: 355c 8c3e 0754 b03e 8223 b4bc bfbd ed3d
00000030: 74eb 77bd 3779 4b3e 0d97 cc3c fefb 4a3e
00000040: 23e6 ae3e e6db 603d 5c9a c4bd ed3c 7e3e
00000050: bcef 903e 274e f9bd 0a89 afbd a45f 943e
00000060: 05a1 983e d9a4 26be 14b3 a13e 39d5 cf3d
00000070: fae6 5d3e 0dd4 433e 1c30 8d3e f7bb c63e
00000080: 0d34 353e d405 a8bd d5d0 5bbd 90d7 913e
00000090: a1f8 3e3e c70c b03c 33ab 47be 70bc 8b3d
000000a0: 9ee1 993e 9ad0 9abc d359 073d af49 2d3e
000000b0: 2530 f83d 6469 cd3e 7b91 bc3e 34de 8d3e
000000c0: 9483 383d f7d2 253e 020e 3c3e 996f 883e
000000d0: e172 643e 191a 933e c1f0 25be e515 bd3e
000000e0: 742e d53d cf17 8f3d f119 a53e acb2 383e
000000f0: 8612 35be 606b 203e dc42 fdbc 7b1f d43d
00000100: 00a2 333c 6016 bb3e 3818 603e afd8 9f3e
00000110: aae6 743e f3f2 373e 22f8 9b3e 74df 61bd
00000120: bb7d 503c c0a8 273c 458a df3d 8e49 eb3d
00000130: 9944 1b3e fe3c b03e 7eda 94bb 0d51 783e
00000140: 0213 12be d954 74be 746a 44be 5352 ee3d
00000150: 7fad 59be 6496 5cbe 7350 8a3e 7fa3 ed3d
00000160: 86cd 8d3d 9629 563d 8468 663d 8504 903e
00000170: 8c0e 6ebe 7130 803d 2b02 c83d b1e5 fe3d
00000180: 3638 be3e 0bef bd3d b220 23be 5d7b 20bd
00000190: f3ea d13e 68af 5d3e 570e 1f3e 331d 2fbe
000001a0: 189d 3fbe 4ab5 83bd f67e 403d 0fbc 9abd
000001b0: c74a c1bd 1c42 e23d dc6b b8bd ffb0 0d3e
000001c0: c449 9bbc 00f2 ab3e 0422 04be f6a5 243e
000001d0: 2336 7abd 3856 803e a4db 803d c5fd 02be
000001e0: 9138 2d3d 8c6a 763e e3b1 f8bd 4838 893d
000001f0: cb4f da3d 4213 943e 11ab 7dbe 469a 23be

mean.full.weight f4 [41, 256]
-0.14812821 0.16749924 0.115843415 0.0814969 0.18389343 0.07225073 0.1641354 0.085934825
-0.09485195 -0.18051516 0.2005341 -0.18192066 0.047383647 0.04139747 -0.17802642 -0.12877707
-0.114465356 -0.052976463 -0.006708631 -0.15174164 -0.104229 -0.05431857 -0.20372732 -0.039424967
-0.065930635 -0.15765722 0.013563545 -0.035129573 0.060458895 0.056814544 -0.0013174398 -0.06520907
-0.12221277 0.05880833 -0.090150416 -0.013387816 -0.08475061 0.001793512 -0.022209033 -0.052228507
-0.1022188 -0.016315516 -0.07253386 -0.046356183 -0.26310605 -0.055829503 -0.28029737 -0.16753332
-0.067203045 -0.027733399 -0.060772315 0.06486484 0.0064184573 0.030837404 -0.106041946 0.030388718
0.067390464 -0.05136738 -0.06670116 -0.1585492 -0.0424722 -0.06197928 0.1596822 0.049875192
-0.04179029 -0.22256301 -0.037810802 -0.15334916 -0.02276483 0.061637644 0.107853346 0.03659553
-0.060517136 -0.07706066 -0.027329639 0.042588767 -0.06900372 -0.12812755 -0.074667335 0.035351064
-0.025679335 0.027277108 -0.05873169 -0.11530136 -0.069059744 -0.10738503 0.010457983 0.11993098
0.023882033 0.20062621 -0.10359309 0.13700116 -0.17685378 0.05835226 -0.10638477 -0.09013234
-0.17371975 0.1377611 -0.17029648 0.07415998 -0.11126788 0.007600669 0.0061873435 0.07845063
0.034623582 0.077158496 -0.03399017 -0.11681643 -0.05583136 -0.03998308 -0.025764678 -0.019514302
0.04670054 -0.18807757 -0.09552158 0.15546924 0.08985209 -0.25655675 -0.008762352 0.056584954
-0.12802881 0.16609487 -0.031558163 0.13987845 -0.21338753 -0.13163722 -0.18142164 0.06825894
-0.16403165 0.17219724 0.008382773 0.058182936 -0.016348233 0.078943506 0.071506225 0.10326551
0.005574776 -0.14318132 0.14153543 0.080600336 0.1068733 0.17037423 0.11712007 0.11023427
0.004967878 -0.0905402 0.07582901 -0.11189871 0.041488905 0.057397295 -0.037359025 -0.015682729
-0.051761072 -0.10054788 0.09218651 -0.03454416 0.11202342 -0.07969582 -0.1434182 -0.29861078
-0.009230016 -0.027423281 0.1470617 0.03238666 0.017154653 -0.07503271 -0.09388868 -0.0796102
-0.06031309 0.06971897 -0.015519222 -0.06346896 -0.021740137 -0.16515024 -0.16044411 -0.20231183
0.16270445 -0.12648097 0.039813347 0.18534651 -0.053038314 0.010910782 0.010449633 0.067683
-0.012428802 -0.02957777 0.0018835928 0.073226765 0.099083245 -0.10938491 0.011003875 -0.0038651593
-0.09352151 -0.07813171 -0.16597967 -0.09788673 -0.14717339 -0.0852403 0.045006506 0.10811968
0.07977378 -0.102805346 -0.13777661 0.08909236 -0.18861675 -0.06786522 0.10813252 0.10644111
0.012363382 -0.107434094 0.12009231 0.057009034 0.0042878864 -0.1413939 0.12108414 -0.101154596
0.0741 -0.004533678 0.14932595 -0.093451545 0.053456854 -0.10731925 -0.0037011155 0.14608541
-0.021477843 -0.06925991 -0.0013837209 0.124920025 -0.15316966 0.14811558 -0.08187724 0.060505945
0.11864284 -0.21054713 0.059722032 0.08057901 0.0997295 -0.2205718 0.106023476 0.100110635
0.06535366 0.04853813 0.027473722 0.04353253 0.001746011 0.032854907 -0.1081792 0.014434316
-0.12901919 0.118069164 -0.033736542 0.13407752 0.02785864 -0.10296921 0.062522344 0.09477428
00000000: ecae 17be ec84 2b3e 503f ed3d d9e7 a63d
00000010: 8f4e 3c3e 31f8 933d 1c13 283e 99fe af3d
00000020: bd41 c2bd f7d8 38be d058 4d3e 6949 3abe
00000030: 5b15 423d 6590 293d 8f4c 36be 23de 03be
00000040: d06c eabd d9fd 58bd 13d4 dbbb 2962 1bbe
00000050: 0476 d5bd 267d 5ebd e59d 50be 137c 21bd
00000060: a406 87bd e570 21be a239 5e3c 07e4 0fbd
00000070: bfa3 773d 5eb6 683d f2ad acba 558c 85bd
00000080: b04a fabd 01e1 703d c8a0 b8bd 9258 5bbc
00000090: ba91 adbd 4714 eb3a b8ef b5bc 8fed 55bd
000000a0: 1758 d1bd 1ea8 85bc a28c 94bd fbdf 3dbd
000000b0: d6b5 86be 7aad 64bd 2383 8fbe db8d 2bbe
000000c0: c0a1 89bd 2731 e3bc 64ec 78bd dbd7 843d
000000d0: ec51 d23b b99e fc3c 852c d9bd c3f1 f83c
000000e0: 0304 8a3d 9a66 52bd 9e9a 88bd b95a 22be
000000f0: 54f7 2dbd fcdd 7dbd bb83 233e ee49 4c3d
00000100: 4c2c 2bbd 8fe7 63be 80df 1abd 9007 1dbe
00000110: 4f7d babc c177 7c3d 37e2 dc3d 32e5 153d
00000120: d1e0 77bd fbd1 9dbd 68e2 dfbc 8f71 2e3d
00000130: d351 8dbd de33 03be 30eb 98bd 47cc 103d
00000140: 785d d2bc 3e74 df3c a490 70bd 1f23 ecbd
00000150: 326f 8dbd afec dbbd f657 2b3c 609e f53d
00000160: 41a4 c33c f570 4d3e 9d28 d4bd 084a 0c3e
00000170: 2819 35be c802 6f3d 42e0 d9bd 4e97 b8bd
00000180: 97e3 31be 3f11 0d3e 3362 2ebe 30e1 973d
00000190: 6ae0 e3bd 080f f93b 33bf ca3b b9aa a03d
000001a0: 75d1 0d3d 4605 9e3d 4739 0bbd 743d efbd
000001b0: 6daf 64bd 4cc5 23bd 7210 d3bc 75dc 9fbc
000001c0: 1149 3f3d 6897 40be d1a0 c3bd 5433 1f3e
000001d0: 5f04 b83d 685b 83be f88f 0fbc a0c5 673d
000001e0: fc19 03be c614 2a3e 2243 01bd 4c3c 0f3e
000001f0: 4382 5abe e8cb 06be 98c6 39be 58cb 8b3d
00000200: eaf7 27be 7954 303e e657 093c 3b51 6e3d
00000210: bbec 85bc 22ad a13d db71 923d de7c d33d
00000220: 9cac b63b 209e 12be aaee 103e ca11 a53d
00000230: 64e0 da3d 9576 2e3e a6dc ef3d 81c2 e13d
00000240: 95c9 a23b 246d b9bd 3d4c 9b3d 272b e5bd
00000250: 45f0 293d 6d19 6b3d c705 19bd 1179 80bc
00000260: 6b03 54bd 0cec cdbd 48cc bc3d 2d7e 0dbd
00000270: 896c e53d 9037 a3bd 38dc 12be 83e3 98be
00000280: 7e39 17bc caa6 e0bc 5897 163e e0a7 043d
00000290: ea87 8c3c c0aa 99bd b548 c0bd ac0a a3bd
000002a0: dc0a 77bd d2c8 8e3d 5644 7ebc 04fc 81bd
000002b0: 5f18 b2bc 251d 29be 764b 24be d52a 4fbe
000002c0: ff9b 263e 3a84 01be 5213 233d 7acb 3d3e
000002d0: b43e 59bd 23c3 323c f034 2b3c 629d 8a3d
000002e0: 2da2 4bbc 144d f2bc e3e2 f63a eaf7 953d
000002f0: 28ec ca3d 3205 e0bd 9949 343c 9d4e 7dbb
00000300: 3588 bfbd 8503 a0bd 93f6 29be d778 c8bd
00000310: 9fb4 16be 7792 aebd be58 383d da6d dd3d
00000320: 7060 a33d 9c8b d2bd 5015 0dbe 0e76 b63d
00000330: c024 41be ecfc 8abd 9574 dd3d ccfd d93d
00000340: c88f 4a3c 6806 dcbd f5f2 f53d 4e82 693d
00000350: 6681 8c3b 90c9 10be f6fa f73d 242a cfbd
00000360: bec1 973d 3f8f 94bb e7e8 183e 8663 bfbd
00000370: 93f5 5a3d 32ca dbbd 6a8e 72bb 6a97 153e
00000380: 4df2 afbc 24d8 8dbd f85d b5ba 12d6 ff3d
00000390: 82d8 1cbe 9cab 173e 41af a7bd 15d5 773d
000003a0: 04fb f23d ab99 57be 179f 743d 9c06 a53d
000003b0: fb3e cc3d 93dd 61be d622 d93d ce06 cd3d
000003c0: 24d8 853d ebcf 463d 9210 e13c 2b4f 323d
000003d0: 68da e43a de92 063d 0e8d ddbd e97d 6c3c
000003e0: 9b1d 04be 3fce f13d 542f 0abd 9e4b 093e
000003f0: cd37 e43c 85e1 d2bd b70b 803d 0519 c23d

mean.full.bias f4 [41]
0.0414446 0.017056169 0.02915033 0.18423903 -0.057520334 0.06995008 -0.14596075 -0.13887191
-0.12937972 -0.17561203 -0.12228976 -0.09212425 -0.1293039 -0.11678766 -0.08898206 -0.11071381
-0.14719807 -0.16071549 -0.11678578 -0.10178842 -0.107641764 -0.16852148 -0.13030465 -0.08247221
-0.10490431 -0.16336899 -0.05441214 -0.07905293 -0.07542879 -0.1366794 -0.15371294 -0.09909111
-0.07352988 -0.14056487 -0.07230629 -0.032882027 -0.13650098 -0.030995686 -0.055333894 -0.15177965
-0.082252614
00000000: d0c1 293d 61b9 8b3c accc ee3c 28a9 3c3e
00000010: 719a 6bbd fd41 8f3d bc76 15be 7034 0ebe
00000020: 1e7c 04be a4d3 33be 0e73 fabd a4ab bcbd
00000030: 3e68 04be 5e2e efbd 3a3c b6bd ecbd e2bd
00000040: 17bb 16be 9a92 24be 622d efbd 7276 d0bd
00000050: 4973 dcbd e590 2cbe 956e 05be 31e7 a8bd
00000060: 12d8 d6bd 334a 27be 44df 5ebd 81e6 a1bd
00000070: 697a 9abd aff5 0bbe ed66 1dbe 48f0 cabd
00000080: d596 96bd 3df0 0fbe 5215 94bd 4eaf 06bd
00000090: eac6 0bbe aaea fdbc cba5 62bd 206c 1bbe
000000a0: 0f74 a8bd

walk.linear.weight f4 [1, 24]
0.23497745 0.39699805 0.46085712 -0.19351779 0.07728567 -0.032827616 -0.12100542 0.4009174
-0.100988455 0.15357023 0.048032507 0.10907504 0.023130115 0.2847748 -0.20753172 0.35680258
-0.15670861 -0.0031474887 0.038514413 0.016581388 -0.22722135 0.4642181 -0.47171533 -0.14654006
00000000: ee9d 703e 5443 cb3e 77f5 eb3e 8729 46be
00000010: f347 9e3d 4076 06bd b1d1 f7bd 0c45 cd3e
00000020: 09d3 cebd 8441 1d3e bcbd 443d bc62 df3d
00000030: 5e7b bd3c 01ce 913e 3283 54be d4ae b63e
00000040: 3978 20be 1946 4ebb 4ac1 1d3d b1d5 873c
00000050: b7ac 68be ffad ed3e ac84 f1be 990e 16be
