best_model/loss/Adaptivepup-b-h_dropout=0_wd=0_b=256_lr=0.001_walk=2_best_model.pt (torch_old, 289431 bytes, 15 tensors)

embedding.full.weight f4 [16, 1433]
000000 d4 c9 5a bc dc b3 85 3c be 68 19 3d cf 0d 58 bd
       -0.013353784 0.016321115 0.037453406 -0.052747544
000010 c4 70 32 bd 96 fa 4e 3d 7e 5d bf bc 70 d3 11 bd
       -0.043564573 0.050531946 -0.02336001 -0.035602033
000020 fa 8c 23 bd c2 14 9b bc 81 81 28 bd 30 59 25 3c
       -0.039929368 -0.018930797 -0.04113913 0.010092065
000030 f4 14 52 3d 58 11 16 bc a0 9b 94 3b 0e 06 60 bd
       0.051289514 -0.0091594085 0.0045351535 -0.054693274
000040 2c 96 b6 bc 16 de 94 bc 00 a2 c4 39 41 32 6b bd
       -0.022288404 -0.018172305 0.00037504733 -0.057420973
000050 f4 dc 09 bc b8 6c fb bb 23 8e 14 bd ac 51 d2 3c
       -0.008414496 -0.0076728724 -0.036268365 0.02567371
000060 f2 9f 0e 3d 86 ab 7b 3d ca b5 28 3d f8 82 ed 3c
       0.034820504 0.061442874 0.041188993 0.028993115
000070 be 26 23 bd b0 56 6d bb ae 40 48 3d ca 92 92 bc
       -0.03983187 -0.0036215 0.04888981 -0.01789226
000080 96 fd 32 bd 1c 09 28 bd b0 06 ba 3b fe d0 44 3d
       -0.04369887 -0.041024312 0.0056770667 0.048050873
000090 e4 c5 ce bc be 21 63 3d cc 5a 42 3d b8 5f 34 bd
       -0.025240846 0.0554521 0.047449872 -0.044036597
0000a0 48 6c 72 3d c8 c9 2f 3c a4 0d e3 3c 5e 74 6c 3d
       0.059185296 0.010729261 0.027716465 0.057728164
0000b0 c3 70 23 bd b6 fd 25 bd a6 d2 5d bd 84 47 5d bd
       -0.03990246 -0.04052516 -0.054155968 -0.05402328
0000c0 a4 d8 5f bd cc 83 73 3d d0 30 61 bb c3 3b 58 bd
       -0.054649964 0.059451863 -0.003436137 -0.05279137
0000d0 5e ab 3a bd aa e1 77 3d dc b0 f1 bc 9d df 6e bd
       -0.045573585 0.060517944 -0.029503278 -0.058318723
0000e0 54 99 5b bd a8 78 2b bd 52 79 2b bd 6c 34 b0 3c
       -0.053613022 -0.041863114 -0.041863747 0.021509372
0000f0 f0 bd 4a 3c 40 fd a0 ba bc ba 20 3d 32 8d 1a 3d
       0.012374386 -0.0012282506 0.039240584 0.03773231
000100 d5 b6 81 3d d0 9f 18 3d 7c c2 e3 3c 06 9c 35 bd
       0.063337006 0.037261784 0.027802698 -0.04433825
000110 9c 8e 34 bd 20 79 36 3c c2 3d 90 bc e0 7f 08 bd
       -0.044081315 0.011137277 -0.017607573 -0.033325076
000120 4c 4a 72 bc 18 62 37 bc fe 5a 25 3d c0 10 88 3c
       -0.014788222 -0.011192821 0.04036998 0.01660955
000130 1c 14 4f 3d 1d 9b 83 3d 56 71 58 3d 8c a2 1e 3d
       0.050556287 0.0642607 0.05284246 0.038729236
000140 c8 6d 1d 3d 40 32 c7 3a 74 51 2c bd 64 25 04 bc
       0.038434774 0.0015197471 -0.042069867 -0.008065555
000150 e8 b6 2f bc 94 ee c5 bc ac 4b da 3c 83 c6 74 bd
       -0.010724761 -0.024161614 0.026647411 -0.059759628
000160 e1 9d 7b bd ba 98 1d 3d ec 79 25 3d 4b 64 83 bd
       -0.061429862 0.03847573 0.040399477 -0.06415614
000170 54 cb 8d 3c 6e a4 35 bd af 23 3b bd 6b 5a 1a bd
       0.017308868 -0.044346265 -0.045688327 -0.037683886
000180 5c fa 40 bd 80 b4 10 ba 2a 9c 4e 3d c0 8b e2 3a
       -0.04711376 -0.00055200607 0.0504419 0.001728408
000190 7a 08 ae bc 00 1a 0d 3b 54 ed 55 bc 00 11 3f 3b
       -0.021244276 0.002153039 -0.013057072 0.002915442
0001a0 db 63 70 bd 80 24 ad 3c 56 d3 55 3d cc cc 2d 3d
       -0.05868898 0.021135569 0.0522035 0.042431638
0001b0 40 5c fc 3a 77 f7 54 bd e8 6a 13 3c 84 b7 5b bd
       0.0019253567 -0.051993813 0.008997656 -0.05364181
0001c0 50 9d 5b 3d 00 30 9c 3c 05 93 64 bd 3e 44 1a 3d
       0.05361682 0.019065857 -0.05580427 0.037662737
0001d0 8c f9 ea 3c b8 ee cf bb bc d5 da 3c 32 81 53 bd
       0.028683446 -0.006345596 0.026713245 -0.051636882
0001e0 da 54 4d bd 40 ce a5 3b 52 6e 81 bc 98 42 4e bd
       -0.05012975 0.0050599873 -0.015799675 -0.050356477
0001f0 e4 ba af 3c f2 b5 cb bc 38 6c d2 bc 6c 4e ba 3c
       0.021451421 -0.024867032 -0.025686368 0.022742473
000200 50 df 64 3d 06 45 35 3d c4 61 a3 3c c4 22 da bc
       0.05587703 0.04425528 0.01994408 -0.026627906
000210 53 d1 49 bd 90 05 7a 3c 9e 08 08 3d 63 29 48 bd
       -0.049271893 0.015260115 0.033211343 -0.048867594
000220 b6 b8 ae bc b2 76 c6 bc 24 e0 65 bd 98 78 14 3d
       -0.021328311 -0.02422652 -0.05612196 0.03624782
000230 94 01 62 3d f8 42 44 3c f1 dc 40 bd 2c 2b 51 3d
       0.055177286 0.011978857 -0.047085706 0.051066563
000240 86 8e ac bc 9a dd 49 3d 9c fc 77 3d 2e 8d 78 3d
       -0.021064054 0.0492836 0.06054364 0.060681514
000250 3a ae 81 bd c0 81 ce ba dc f6 9b bc a8 c3 81 bd
       -0.06332059 -0.0015755221 -0.01903861 -0.063361466
000260 60 86 08 bb 2a 2c 32 3d 3e 7e 2a bd e3 4a 00 bd
       -0.0020832047 0.04349915 -0.0416243 -0.031321418
000270 04 0a 7f bd f6 3d 19 3d b0 df 48 3d 08 92 a4 bb
       -0.06226541 0.037412606 0.04904145 -0.005022291
000280 68 1b e6 bc a0 2b 7e bd fc 82 cb 3c d0 55 c2 3c
       -0.02808924 -0.062053323 0.024842732 0.02372256
000290 f0 4f f2 3b b0 81 fd 3b 70 f4 8a 3c 80 5e 64 3a
       0.007394783 0.007736407 0.01696226 0.00087115914
0002a0 22 db 72 3d cc 34 4d 3d 64 6c 02 3d b0 7b 35 3c
       0.059291013 0.05009918 0.03184165 0.011076853
0002b0 84 50 93 3c 04 05 1b bc 9e 46 0f 3d be 2e 74 3d
       0.017982729 -0.009461645 0.034979455 0.05961489
0002c0 00 d5 0e bb 4c 65 d1 3c 80 c1 c5 3b a4 60 29 bc
       -0.0021794438 0.025560997 0.00603503 -0.010337982
0002d0 0c 5f 02 bd f0 6f 96 3c a8 6d 5f 3c c2 0e d9 bc
       -0.031828925 0.018363923 0.013636984 -0.026496295
0002e0 5a 70 65 3d ac ae 3c 3d fa 81 06 3d 96 0b 1f bd
       0.05601535 0.046065018 0.0328388 -0.03882941
0002f0 4a 06 45 3d 40 55 82 bc 8e 64 5c 3d 7a b4 78 3d
       0.0481017 -0.015909791 0.053806834 0.06071899
000300 4a 2b 76 3d e4 1b 1d bd 98 d3 38 3c a6 c7 77 3d
       0.060099877 -0.038356677 0.011280917 0.060493134
000310 f0 4c 42 bb e7 d7 67 bd bf 93 5d bd b0 42 f1 3c
       -0.002964791 -0.056602385 -0.05409598 0.029450744
000320 00 17 18 3b d0 c6 57 bc 18 2e 64 3d c2 18 dc bc
       0.0023207068 -0.013169959 0.05570802 -0.026867274
000330 56 8f 2f bd 08 8d bf 3c 98 16 44 3c 08 7c f3 3c
       -0.042861305 0.023382679 0.011968277 0.029722229
000340 5a 7a 1c 3d 56 6a 82 bd d4 b4 81 3c 40 9e c5 bb
       0.03820262 -0.06367938 0.015833296 -0.0060308278
000350 5c 88 38 3d 60 91 4e 3c e8 26 1f bd 04 81 74 bd
       0.045051917 0.012607902 -0.038855463 -0.05969335
000360 00 00 d0 ba 70 b6 81 bc f4 c9 6d 3d 8c 4a 04 3d
       -0.0015869141 -0.015834063 0.058053926 0.032297656
000370 18 06 e9 3c 20 c6 52 3b 2c 1c 6d 3d e0 1f bb 3b
       0.028445289 0.0032161549 0.057888195 0.005710587
000380 bc 1f 21 3d 50 cb 8b 3b ac e1 e5 3c c0 a4 e7 bc
       0.039336905 0.00426618 0.02806171 -0.028276801
000390 28 7d c6 bb a4 82 6f bc a4 b6 9e 3c 24 d8 ba 3c
       -0.0060574003 -0.0146185495 0.0193742 0.022808142
0003a0 4c 1a 0e 3d 80 3d 2f 3c 66 aa fd bc c0 66 49 3b
       0.034693047 0.010695815 -0.030965041 0.003073141
0003b0 d0 30 ad bb 9a fd 78 3d d0 f8 94 3c 68 5a 12 bd
       -0.00528536 0.06078873 0.01818505 -0.03573075
0003c0 d9 66 52 bd da 6c df bc 12 8d 13 bd 98 fb 58 3d
       -0.051367614 -0.027273584 -0.036023207 0.052974313
0003d0 74 f8 0a 3d 70 35 af 3b 08 92 5f bd 06 2e 4b bd
       0.03392835 0.0053469464 -0.054582626 -0.04960444
0003e0 5c d1 20 bd da 1d 40 bd 43 95 1b bd 50 11 9b 3b
       -0.03926216 -0.04690347 -0.037984144 0.0047322884
0003f0 f7 7e 1f bd 00 16 a9 3b fa 51 36 3d 10 8b 72 3c
       -0.038939442 0.0051600933 0.044511773 0.014803663

embedding.full.bias f4 [16]
000000 d4 e8 2f bc ba 7b 8d bc 5c 55 bb 3c 30 73 e5 3b
       -0.010736663 -0.017270911 0.022867851 0.007002257
000010 32 d0 9c bc d8 01 59 3b 3e e8 5e bc 1c 95 2e bc
       -0.019142244 0.0033112671 -0.013605176 -0.010655668
000020 59 bd d6 bc 4c 2c fa bb d0 f5 89 3a a4 04 62 3c
       -0.026213335 -0.007634675 0.0010525528 0.013795052
000030 00 58 8a 39 58 95 77 3b 91 82 88 bc 12 53 a3 3c
       0.00026386976 0.0037778225 -0.016663821 0.019937072

aggregator.full.weight f4 [16, 2866]
000000 ee ae 8e 3d 6e 0a 1f bd 22 d0 63 3c 8a b5 69 bc
       0.06966959 -0.038828306 0.013904603 -0.014264474
000010 3a 70 0b be 85 2e 11 3d e5 b8 a4 3d 58 73 3f bd
       -0.1361703 0.035444755 0.08043078 -0.04674086
000020 fb b8 b2 3d 9e c9 26 bd 72 dc b8 3c 1c bd 3b 3d
       0.087266885 -0.04071962 0.022566054 0.045834646
000030 38 c3 77 bd 81 94 b9 3d 21 f8 27 be cb f7 50 3d
       -0.06048891 0.09061528 -0.16403247 0.051017564
000040 a3 4e 38 bd 4c 16 bc 3d 3f 31 aa 3c 88 30 ec 3d
       -0.04499687 0.0918394 0.020775435 0.11532694
000050 91 14 09 3e 66 88 11 be f2 5c 6e 3d d0 ec fd bc
       0.13386752 -0.14212188 0.05819411 -0.03099671
000060 06 17 0e 3e 97 c9 1a bd a8 87 0c be 91 ad 1a bd
       0.1387597 -0.037789907 -0.13723624 -0.037763182
000070 c3 f4 de bd b5 7c 0d be e8 38 8b bc 01 d0 d6 3b
       -0.10886528 -0.13817103 -0.016994908 0.0065555577
000080 86 24 09 3e f8 ac 73 bc bc 03 bd bc 27 80 aa bd
       0.13392839 -0.014872782 -0.02307307 -0.08325224
000090 8d 79 e6 3d 75 21 11 3d 55 a7 8d bc 39 82 e5 3d
       0.11253653 0.035432298 -0.017291704 0.112064786
0000a0 85 24 de bd 15 d7 c3 bd 1d 4b a1 3d 59 2c 65 bd
       -0.10846809 -0.09562508 0.07875655 -0.055950496
0000b0 c5 8c 10 3d df a0 c3 bd 3e 06 91 3d 44 fc b9 bd
       0.0352905 -0.09552168 0.07081269 -0.09081319
0000c0 4c 4c f1 3d 0f 11 c1 bd 83 60 d6 bc 55 29 96 bd
       0.117821306 -0.09427082 -0.026169067 -0.07332102
0000d0 f1 20 be 3c 1e 0f 7e 3d 5c 7c 46 be 66 d3 ee bc
       0.023209067 0.062026136 -0.19383377 -0.029153537
0000e0 ce bb ac bd 3b 88 27 3d aa 90 81 bb 11 5d c7 bd
       -0.084342584 0.040901404 -0.003954013 -0.09734548
0000f0 6e b1 fb bd 6b ee 6f 3d b4 36 57 3e 07 53 9c 3d
       -0.122897014 0.058576982 0.21016961 0.07633024
000100 6b 15 08 3e aa 8b 80 bd eb 2d e1 3d 09 35 99 bc
       0.1328942 -0.06276639 0.10995086 -0.018702047
000110 03 2c b4 3d 6a a4 8f 3b cb 71 54 bd 42 83 40 bd
       0.08797457 0.0043836134 -0.051866334 -0.047000177
000120 eb 90 0b 3e 7c 47 0d 3e e3 2d f7 3c 33 68 0c 3e
       0.136295 0.137968 0.030173248 0.13711624
000130 4d d3 24 bd 59 d8 94 bd fc 6d 1f be 89 df cf bc
       -0.040240575 -0.072678275 -0.155693 -0.025375145
000140 8c b5 84 bd 24 a7 da 3c 4a 14 99 bd 26 98 0f bd
       -0.0647994 0.026691027 -0.07474573 -0.03505721
000150 77 8c c2 3d a6 22 d9 3d ba 06 e3 3d d5 88 6a bd
       0.09499448 0.10602312 0.11085267 -0.0572594
000160 49 b0 ba 3d eb bb 9f 3c 63 2a 4f 3d 23 9c a5 bd
       0.09115655 0.019498786 0.050577533 -0.08086421
000170 45 b4 ba bd 0f d2 82 bd 26 34 7d bd fe 47 20 ba
       -0.09116415 -0.06387722 -0.06181731 -0.00061142433
000180 60 2e a8 bb 6a 73 ca 3c 98 87 20 3e 78 08 ae ba
       -0.0051324815 0.024713237 0.15676725 -0.001327767
000190 54 34 cc 3a 58 29 4b 3d 62 3b da bd 7b c3 b8 3d
       0.001557956 0.049599975 -0.106558576 0.0902166
0001a0 fd 31 73 bd e6 ca b0 3d a9 29 f6 bd 5c 3a d6 3d
       -0.059373844 0.0863245 -0.12019665 0.1046035
0001b0 5f 14 b3 bd c9 6b 9d 3d 0f c0 d1 3d 31 2b 47 be
       -0.0874412 0.07686574 0.102417104 -0.1945007
0001c0 93 43 19 be 6f 04 39 bd 4b 99 ce 3d bf 4d 2b 3d
       -0.14967184 -0.045170244 0.10087832 0.04182219
0001d0 ff 98 cb 3c f2 8e da 3d d4 04 b1 bb 44 51 fe bd
       0.024853228 0.10671796 -0.005402187 -0.12417844
0001e0 b5 4d 31 3d e7 7e b4 3d 38 a5 fc 3c 00 f9 84 bc
       0.043286998 0.08813267 0.030840501 -0.016232014
0001f0 2b 17 23 3d 26 a5 45 bd 40 31 81 3d 16 b3 e9 3b
       0.039817017 -0.0482532 0.06308222 0.0071319444
000200 77 be f3 3d 7c c6 8a bd 15 3e ed 3d 0b 25 8f 3d
       0.11901563 -0.06776139 0.11584107 0.06989487
000210 bf 9b 06 3d d7 86 6e bd b6 be 42 bd 19 77 71 3d
       0.032863375 -0.058234062 -0.047545157 0.05895147
000220 fd c8 88 3d 02 f5 3b 3e ef 2c 71 3d 45 60 5f bd
       0.066789605 0.18355182 0.058880743 -0.05453517
000230 f5 5f c3 ba 27 9a 13 be 83 db 2d bd e9 53 ed 3d
       -0.0014905917 -0.14414273 -0.04244567 0.1158827
000240 29 96 3e bc c5 d6 ca bd f3 f0 4e bc eb d7 17 be
       -0.011632481 -0.09904245 -0.012630689 -0.1482846
000250 87 7e 38 3b 2e b9 7b bd 80 7d f2 3d f1 7c f6 bd
       0.0028151588 -0.061455898 0.118403435 -0.120355494
000260 12 43 87 3d 87 85 d1 bd 02 7e 50 3d 68 58 c3 bc
       0.066045895 -0.102305464 0.05090142 -0.023845866
000270 8d 80 46 3d ff 16 73 3d 1e 37 1b 3d 74 27 d1 3c
       0.04846244 0.059348103 0.03789436 0.025531508
000280 10 6d 1d 3e 51 dc cf 3d fe 98 e7 3c 75 a8 a2 3d
       0.15373635 0.10149444 0.028271195 0.07942287
000290 2b 93 03 3d 3b 8f 48 3c e9 8a e7 bd 72 e8 a1 3d
       0.032122772 0.01224118 -0.11305792 0.079056635
0002a0 32 04 17 be 66 6e a6 3d 2a 93 ed bd 1e 3d f7 3c
       -0.14747694 0.081265256 -0.11600335 0.03018051
0002b0 f4 23 be 3c 85 64 aa bd 6c 3d 17 3d eb 6b ef 3c
       0.023210503 -0.08319954 0.03692381 0.029226264
0002c0 96 68 d2 3c 06 49 c3 3d 98 ac 72 bd ce 4c 9d 3d
       0.025684636 0.095354125 -0.05924663 0.07680665
0002d0 9e 64 ea 3c 29 d0 68 3c df 1a bc 3b a9 4a 8e bd
       0.028612431 0.0142097855 0.005740508 -0.06947834
0002e0 79 cd c9 3d 31 f7 07 3d bf 71 f1 3c 4f 57 10 be
       0.09853644 0.033194724 0.029473184 -0.14095806
0002f0 79 b2 fd bc 57 17 f6 3d 04 99 4c 3d 87 47 9f bd
       -0.030968891 0.120161705 0.049950615 -0.07777315
000300 0e 6e 61 3c f5 53 15 3e f5 25 d1 ba 4a 29 10 bd
       0.013759149 0.14582808 -0.0015956747 -0.035195626
000310 ee 9f e8 bd a4 53 d5 bd 9a e7 43 3d c6 71 bd 3d
       -0.11358629 -0.10416344 0.047828294 0.09250216
000320 dd 77 b8 bd 55 0f 3c 3d 61 94 9e bc 7f f6 0c 3e
       -0.09007237 0.04591306 -0.019357862 0.13765906
000330 e1 2b 91 3d c3 b8 d1 3c c1 a4 2a be cd f7 1c bd
       0.07088447 0.025600797 -0.16664411 -0.03832226
000340 c3 ea 74 bd d5 54 11 be de 1f a0 3d 7b 5a 34 be
       -0.0597942 -0.14192517 0.07818578 -0.1761264
000350 73 60 85 bd 3d d1 0f 3d 40 aa 35 bc ba 75 a9 3d
       -0.06512537 0.035111655 -0.011087954 0.08274408
000360 17 07 bf 3d b1 66 85 3d 5f aa a9 3d ba ae 3d 3d
       0.09327524 0.065137275 0.08284449 0.04630921
000370 c7 99 c2 3b 0c 26 10 3e 56 c9 39 3d e4 27 ee 3d
       0.005938742 0.14077014 0.045358025 0.11628702
000380 73 04 1e bd 53 e0 a4 3d 80 91 4d bc 3f 08 a6 3d
       -0.03857846 0.08050599 -0.012546897 0.081070416
000390 49 be c0 3c ab d3 1f 3b f8 c4 ba 3d 32 5e 48 3d
       0.023528235 0.0024387639 0.091196 0.048917957
0003a0 8f ea 4b bd 47 01 d0 3d db 58 40 be 73 b9 60 bd
       -0.04978424 0.10156494 -0.18783896 -0.05486436
0003b0 14 6d cd 3b 4b 70 fd 3c 78 8f df 3d 1c fd 9d bc
       0.0062691066 0.030937335 0.10916036 -0.019285731
0003c0 01 03 03 3e fa 5a c8 3d a1 8c 68 bd b8 45 c7 3d
       0.12794115 0.097829774 -0.05677474 0.09730095
0003d0 10 22 bc 3d 35 2b 7f 3d 68 21 57 3d 48 50 c4 3d
       0.091861844 0.062297065 0.052522093 0.09585625
0003e0 ec a3 8f 3b f3 5f 95 bd 1f a6 48 be d7 f4 e2 bd
       0.0043835547 -0.072936915 -0.1959462 -0.11081856
0003f0 b1 dd ca 3c 1d 66 21 bd 77 99 b9 bd f8 b1 16 be
       0.024763914 -0.039404023 -0.09062474 -0.14716327

aggregator.full.bias f4 [16]
000000 55 3c 92 3d a6 ef 88 3d 88 0e 80 3d 34 64 0c 3e
       0.07140414 0.06686334 0.062527716 0.137101
000010 52 dd 89 3d 67 31 28 3d 4c b9 36 3d 54 bc 92 3d
       0.067316666 0.04106274 0.044610307 0.07164827
000020 15 25 b7 3d b7 0a d3 3d 06 fd 00 3e f4 4f 8d 3c
       0.0894262 0.10304778 0.12596521 0.017250039
000030 bd 85 e4 3d ec f7 9c 3d 96 9c 18 3e 07 6a e0 3c
       0.11158321 0.07664475 0.14903483 0.027394308

step.full.weight f4 [1, 32]
000000 3c de 0b 3d 8f 90 20 be b5 9e 1c 3e fc e6 d8 bd
       0.034147486 -0.15680145 0.15294917 -0.10590932
000010 41 0c 10 be 38 b4 32 3d 71 02 29 3e 3f 6b ab bd
       -0.14067174 0.0436289 0.16504838 -0.08370065
000020 cd 57 17 3e a4 0e 69 bd ca 6e c7 bd bb af a1 bd
       0.14779587 -0.056898728 -0.09737928 -0.07894846
000030 34 a2 23 3d 06 02 e0 3d 8a 69 21 be 20 11 62 bc
       0.03994961 0.10937886 -0.15762916 -0.013798028
000040 aa f3 84 3d 00 c0 f5 ba 02 22 f1 3d 1c 31 2c bd
       0.06491788 -0.0018749237 0.117740646 -0.04203902
000050 86 38 13 be dd 0a 13 3e 58 82 f0 3c 02 7c ae 3d
       -0.1437703 0.14359613 0.029359028 0.08519746
000060 ca 9d d7 3d 5d 2f 20 be 6f 7e 30 be 58 16 f1 bc
       0.10528143 -0.15643068 -0.1723573 -0.0294296
000070 e4 11 02 be 44 6c 0c bd d0 ec 02 be 2a d1 eb bd
       -0.12702137 -0.034282938 -0.1278565 -0.11514504

lstm.lstm.weight_ih_l0 f4 [64, 16]
000000 2d 12 52 3e e1 7d ae 3c 90 91 99 3e 0a 0f 16 bd
       0.20514746 0.021300258 0.29993868 -0.036635436
000010 27 01 66 3e 1e 28 63 3e 70 57 bc 3e d6 53 72 b9
       0.22461377 0.22183272 0.3678546 -0.0002311015
000020 e9 ec 7f 3e 81 5c 18 3e fd 5e 50 3c 20 7e 81 3e
       0.24992718 0.14879037 0.0127179595 0.25291538
000030 01 75 23 3e d6 1e 7b 3e 68 64 c9 3e d9 53 92 3e
       0.15962602 0.24523482 0.39334416 0.28579596
000040 f1 b3 82 3e 21 c6 e2 bc 9b ee d3 3d 25 3a 2b 3c
       0.2552791 -0.027682366 0.10348245 0.010450874
000050 17 6c 05 bd b0 a5 c3 3e 1e 65 34 bc 23 7e 48 3e
       -0.032573786 0.38212347 -0.011010436 0.19579367
000060 08 54 cb 3e 74 76 b4 3d 4c bf 93 bd 8a a4 9f 3e
       0.39712548 0.08811656 -0.07214221 0.3118022
000070 b6 1e d0 3d 66 d9 2e 3e 0c 84 61 3d 51 ae fe 3d
       0.10162108 0.17075118 0.05505757 0.12435592
000080 b0 3f d7 3e 5a 70 9d 3e 2f 0b c6 3d 72 b8 67 3e
       0.42040777 0.3074978 0.09670102 0.22628954
000090 48 49 0a bd e7 0d 09 bc bb 32 71 3e 69 60 4f bd
       -0.033761293 -0.008365131 0.23554508 -0.050629053
0000a0 99 e7 01 3e a4 f2 b5 3e 9d 5b a2 3e a2 22 2c 3e
       0.12686004 0.35536683 0.3171052 0.16810086
0000b0 09 63 b7 3e 02 16 f3 3c 31 0b bf 3d 85 3d 6c 3e
       0.35817745 0.02967358 0.093283065 0.23070343
0000c0 36 cb b2 3e aa e8 b7 3e 6b df 62 bd 7c 0a f9 3d
       0.34920663 0.35919696 -0.05538885 0.12160203
0000d0 1e 36 4c 3e 8d ec c3 3b ad e6 a3 3d 53 59 45 bd
       0.19942519 0.005979127 0.08002982 -0.04818089
0000e0 3c c8 1d 3e 92 16 b9 3e fc 3c 6c 3e e0 9b c3 3e
       0.15408415 0.36150032 0.23070139 0.3820486
0000f0 9b 7d b3 3e 10 ee d6 3e 2e 83 1e 3e a9 26 1b 3d
       0.35056767 0.41978502 0.15479729 0.037878666
000100 e5 c7 e4 3c 9a 1c 93 3e 84 36 57 3d ad 03 c9 3e
       0.027927348 0.2873276 0.052542225 0.39260617
000110 35 a5 9b 3d 23 2d d6 3d bb 98 c1 bc 98 99 cd 3e
       0.0759987 0.10457828 -0.023632398 0.40156245
000120 a6 33 7d 3e 68 19 f1 bc c6 84 d2 3d 2c 9e 9e 3e
       0.24726734 -0.02943106 0.10279231 0.3098005
000130 2c 64 1b bd c8 b6 8c 3e d1 81 ff 3d 15 36 5a 3e
       -0.03793733 0.274832 0.124759324 0.21309693
000140 e0 74 a1 3e 90 b3 71 3e 82 67 ce 3e 83 9d d9 3e
       0.3153448 0.23603654 0.40313345 0.42502984
000150 12 3a e2 3e 1b 4f 00 3d 0a 6d b2 3e 5e 2d a8 3e
       0.4418493 0.03132544 0.34848815 0.32847112
000160 8d d7 43 bd b4 93 ca 3e 23 d0 cd 3d 95 ad db 3e
       -0.047812987 0.39565814 0.100494646 0.4290587
000170 14 57 ad 3e 93 4b 06 3e b6 bb c2 3e a7 3d d0 3e
       0.33855498 0.13114767 0.38033837 0.40672037
000180 d4 eb 80 3e 1d 2d 56 3e 0e d7 8d 3e d9 b0 dc 3e
       0.25179923 0.20915647 0.27703136 0.43103674
000190 a2 22 c6 3e 53 06 1f 3e 2e 45 63 3e c5 97 ce 3d
       0.38698298 0.15529756 0.22194359 0.100875415
0001a0 af af cc 3d c4 83 a6 3e 2d 28 8d 3e ea 85 8e 3e
       0.099944465 0.32522404 0.27569714 0.27836543
0001b0 fb 12 f9 3d 19 be a0 3e d1 7e 37 3e c7 5a d9 3d
       0.12161823 0.31395033 0.1791947 0.106130175
0001c0 77 b8 25 bd 6d f2 f0 3d 75 13 aa 3d a0 9f 90 3e
       -0.040459123 0.11764989 0.083044924 0.28246784
0001d0 37 f6 9a 3d 0e e0 3f bd 13 f5 9d 3e 40 cb 6e 3e
       0.07566493 -0.046844535 0.3085104 0.23319721
0001e0 5b 79 d3 3e 89 b1 5c 3d 0b dc 0f 3e 0b 1e 62 3e
       0.41303524 0.05388025 0.14048783 0.22081773
0001f0 67 d0 15 3e cd af c7 3e 09 63 cc 3e 53 75 95 3e
       0.1463028 0.39001313 0.39919308 0.29191074
000200 2c d0 c3 bd 54 0b c5 bd 51 df 85 3e 07 23 61 3e
       -0.0956119 -0.09621301 0.2614694 0.21986018
000210 59 77 33 3e 08 43 25 be 10 f0 bf 3c 2c 9a cc 3e
       0.17525996 -0.16138852 0.0234299 0.39961374
000220 56 60 4c be 42 79 39 be 3f f5 de 3d 5a 42 be 3e
       -0.19958624 -0.18112662 0.10886621 0.37159997
000230 4d 73 80 3d 20 11 c7 bc 34 dc b3 bd 63 a3 96 3e
       0.06271992 -0.024300158 -0.08782235 0.2942153
000240 e0 c7 ce 3e b9 24 6f bc 1e c3 18 3e e8 45 48 3e
       0.40386868 -0.014596158 0.14918181 0.19557917
000250 e4 0d 22 bd 64 02 49 3e dd 31 b9 3e 21 93 6d 3e
       -0.03956403 0.19629818 0.36170855 0.23200656
000260 6f 01 e0 3e 5b a1 4a 3e 05 dd 81 3e cc 4f 18 3e
       0.43751094 0.19788115 0.25363937 0.1487419
000270 67 46 8f 3e 16 91 31 3d 5c 47 be 3e 55 4a 24 bd
       0.279834 0.043351255 0.37163818 -0.04010995
000280 08 42 92 3c 1b 81 7b 3e cb 54 87 3d b0 e8 8c 3d
       0.017853752 0.24560969 0.0660797 0.06880319
000290 1f 24 a8 3e 17 c7 6b bc d4 e9 35 3d 3d 2b a2 3e
       0.32840058 -0.014390728 0.04441245 0.31673613
0002a0 58 c4 41 3e fc 4e 40 3d 72 2d 20 bd 96 1d 0b 3e
       0.18922555 0.046950325 -0.03910584 0.13585505
0002b0 5f 5b b5 3e 26 b2 d8 3d e0 a0 dc 3e 72 27 4a bd
       0.35421273 0.10580854 0.43091488 -0.049354024
0002c0 92 cd c1 3e 5b 18 82 3e cf 2e 9f 3c a2 39 8c 3e
       0.3785215 0.25409207 0.0194315 0.2738772
0002d0 eb a3 48 3e e5 5b 51 3e 7a e5 6d 3e f5 5a ba 3e
       0.1959378 0.20445211 0.2323207 0.3639752
0002e0 11 c2 c3 3d f6 4a 02 3e 05 44 49 3e 38 42 e4 3c
       0.095584996 0.12723908 0.19654854 0.027863607
0002f0 86 c9 91 bd 16 9c 20 3e e4 fd 3d 3e 05 73 ae 3e
       -0.07118516 0.15684542 0.18553883 0.34072128
000300 f8 c1 7a 3e 84 fd 0e 3e 91 1d 79 3e 17 7c d3 3e
       0.24488056 0.13963896 0.24327685 0.4130561
000310 60 3d 95 3e dc 18 a6 bb 12 7e b1 3d f5 01 04 3e
       0.29148388 -0.0050688814 0.08666624 0.12891372
000320 43 12 b7 3e 62 e3 41 3e 4b 8c ff 3d 8b 31 95 3e
       0.3575612 0.18934396 0.12477931 0.2913936
000330 a5 60 86 3e 06 ce 45 3d 4c ab 4e 3e 7e 51 80 3e
       0.2624561 0.048292182 0.20182532 0.25062174
000340 ac 20 9c 3d 07 29 2c bd 5b f2 9a 3e 35 61 39 bd
       0.07623419 -0.042031314 0.30263028 -0.04525872
000350 03 3d 9a 3e 4b cd b7 3e a9 2f dd 3e 2d f9 bc 3e
       0.30124673 0.35898814 0.43200424 0.36908856
000360 2c ad 35 3e 0f 99 93 3e b3 ea 3d 3e c2 24 a8 3d
       0.17741841 0.28827712 0.18546562 0.08210136
000370 23 bd 1d 3c e5 cd b9 3e 85 11 74 3e 79 4d d8 3e
       0.009627613 0.36289898 0.23834808 0.42246607
000380 9f 00 b6 3e 97 3e 37 3e 9a 02 46 3e 09 ff 9d bc
       0.3554735 0.1789497 0.1933693 -0.01928665
000390 92 94 f2 3d 7d c7 a0 3e 87 6d 81 3e c1 47 30 3d
       0.11844744 0.31402197 0.25278875 0.04303718
0003a0 de d2 aa 3d aa c0 27 3e 60 70 31 3d 97 82 86 3e
       0.08341001 0.1638209 0.04332006 0.26271507
0003b0 eb 69 b6 3e c0 bb 8e 3d 04 4b ce 3e 4c 9a 19 3e
       0.35627684 0.06969404 0.40291607 0.15000266
0003c0 e3 6d 9f 3e 8f de 48 bd 0b 08 88 3d 67 91 67 3e
       0.31138524 -0.049040373 0.06642159 0.2261406
0003d0 33 db 48 3e 1c e9 b0 bc 7c e3 19 be e5 92 49 3d
       0.19614868 -0.02159553 -0.15028185 0.049212355
0003e0 62 1d 92 3d 8c 9b 8d 3e 1f 0a 99 3e 63 8b d4 bd
       0.071345106 0.27657735 0.29890534 -0.103781484
0003f0 e0 58 c5 3e 45 3d cc 3e 51 c2 9f 3d 4b 90 cd 3d
       0.3854437 0.39890495 0.07800735 0.10037287

lstm.lstm.weight_hh_l0 f4 [64, 16]
000000 15 bf 35 be 2d d7 49 3e b8 67 28 3d 1f aa b3 bd
       -0.17748673 0.1971099 0.04111454 -0.087726824
000010 e0 b2 da bd bf 57 bb bd a1 7e 8f be 18 4a bd 3d
       -0.10678649 -0.091475956 -0.28026298 0.09242648
000020 78 93 2f be de 40 9c be 9e 5f 80 be 34 4e 95 3e
       -0.17146099 -0.3051824 -0.2507295 0.29161227
000030 09 40 be 3e 40 06 e5 3c a8 ff 5c 3e 86 dc b1 3e
       0.3715823 0.027957082 0.215819 0.3473856
000040 cb c7 30 be 1d 76 96 3e b9 2e 85 bd 98 0d f3 be
       -0.17263715 0.29386988 -0.06503052 -0.4747131
000050 cc 53 48 be a5 23 e7 3d 31 df d0 bd a6 36 7c bd
       -0.19563216 0.112860955 -0.101988204 -0.061575554
000060 ba bd b0 be 54 8d 16 bd 85 50 37 bd a0 9b 4d 3e
       -0.3451975 -0.036755875 -0.044754524 0.20078897
000070 6f a2 9f 3d 9c b6 85 3e 46 f7 17 3e a2 ee 2e 3d
       0.077946536 0.26115882 0.14840421 0.042708047
000080 58 d7 1f be 23 f8 b9 3e a9 ae aa 3d fc c0 a9 bd
       -0.15609491 0.36322126 0.08334095 -0.08288762
000090 6b 19 15 3d 27 b4 1f 3d 09 88 5d bd ef 0b 71 3e
       0.036401194 0.038990166 -0.05408481 0.23539709
0000a0 13 0d dc be 62 54 07 be 14 64 a7 bd dc 9f 05 3e
       -0.42978725 -0.13215783 -0.08173385 0.13049263
0000b0 b5 16 86 3e c8 42 88 3e f8 76 af bd 86 45 40 3e
       0.261892 0.2661345 -0.08567613 0.18776521
0000c0 66 b6 9d bc 03 9b 4b 3e 1a 59 4d 3e b5 3d c9 bd
       -0.019252013 0.19883351 0.20053521 -0.09826223
0000d0 00 49 de 3c 2a cd 09 3e 41 2d 31 be c0 f8 e7 3d
       0.027134418 0.1345717 -0.17302419 0.11326742
0000e0 4e 3f 1e 3d 36 c9 cc be 3b e7 de be c8 bf de 3e
       0.03863459 -0.39997262 -0.4353579 0.43505692
0000f0 d6 90 4d 3d 24 02 28 3e cd f9 8f bd a2 3b 20 3d
       0.050186954 0.16407067 -0.070300676 0.03911937
000100 4a ea 80 bd 23 c0 0f be 6c e3 64 be 95 fb 3d be
       -0.06294687 -0.14038138 -0.2235238 -0.18553002
000110 22 da 81 bd 46 65 93 be f1 f2 ee 3b b8 9f b4 3d
       -0.06340434 -0.28788203 0.0072921445 0.088195264
000120 f2 92 96 be 91 0f ac be 56 6a db bd 4e d8 49 3d
       -0.29408985 -0.33605626 -0.10713641 0.04927855
000130 62 e6 f7 3d d7 ba 14 3d 91 f8 85 3e 6d 6a 34 bd
       0.12104489 0.036310997 0.26166204 -0.044046808
000140 fe e8 fd 3c 1a 8f ff 3d a1 15 b1 ba d1 3d a5 be
       0.030994888 0.12478466 -0.0013510474 -0.32273725
000150 02 86 df bd cc 1a 97 3d e7 7e ee bd 3b 51 ca 3e
       -0.10914232 0.07378158 -0.116452985 0.395151
000160 6d 90 a2 be 9b 10 11 bd 94 c8 43 3c 64 08 df 3d
       -0.31750813 -0.035416227 0.011949677 0.10890272
000170 ab 86 1f 3d 99 2d 90 3d 76 6c 2b 3e 6c 99 5f 3e
       0.03894679 0.07039947 0.16740593 0.2183587
000180 19 41 97 be a7 0a bf 3e 44 2c af be eb 4f db be
       -0.29541853 0.37312815 -0.3421346 -0.4283441
000190 11 80 00 bd 59 9c bb 3e 9b 9f 66 be 0b 21 ff 3d
       -0.031372134 0.3664272 -0.22521822 0.12457474
0001a0 d1 7a 0f be 7a d9 ce 3c fe ad 42 be 45 3d 9a 3e
       -0.14011694 0.025250185 -0.19011685 0.3012487
0001b0 57 c2 fe 3d 3e 48 ed 3e 17 a8 69 3c 90 81 62 3e
       0.12439411 0.4634418 0.014261267 0.22119737
0001c0 b4 94 8d bd 2c d3 28 3e d3 c0 ba be 90 7d db be
       -0.069131285 0.16486806 -0.36475238 -0.42869234
0001d0 2d 14 90 3e 66 7e 44 3e cd 45 35 bd 8d 85 8f bd
       0.28140393 0.19188842 -0.04425602 -0.07007895
0001e0 09 2d a1 be 64 ff 20 3e 68 de 46 bd 3b 36 d0 3e
       -0.31479672 0.15722424 -0.048551947 0.40666375
0001f0 12 b0 3b 3e dc 00 a7 3e 7d 1a be bb 02 c7 c7 3e
       0.18328884 0.32617843 -0.0058014975 0.39019018
000200 0c 3f b4 3e 8b e0 32 bd 9b 97 a0 be c8 8a 2a 3d
       0.3520435 -0.043671172 -0.31365666 0.04163626
000210 bd dd b7 be 4b c4 e9 bd c7 5c e8 be 01 37 ea bd
       -0.3591136 -0.11414393 -0.45383283 -0.114362724
000220 f6 4e c6 3d 7f 9d fd bd c1 ef ac be 4f 7c 62 be
       0.09683029 -0.123835556 -0.33776668 -0.22117732
000230 13 75 6e be eb 8c d6 3d 79 9a 83 3e bf b5 11 bd
       -0.23286848 0.10476097 0.2570379 -0.035573717
000240 8d 38 4b 3d 99 97 0a 3e fa 37 8d be b6 82 0e be
       0.049614478 0.13534392 -0.2758177 -0.1391705
000250 d6 1d 8f 3d 0a 94 98 be 58 67 81 be 0d 21 04 be
       0.06988113 -0.29800445 -0.25274158 -0.12903233
000260 b6 4a be be f7 2c 19 bd 22 ec 16 ba 21 48 1c 3e
       -0.37166375 -0.037396397 -0.00057572324 0.1526189
000270 fd 06 09 bc bc 3d 22 be f2 1c ae 3c 38 0b 8f 3e
       -0.008363483 -0.15843862 0.021254037 0.27938247
000280 c1 4d a7 bd cc c6 8d 3e 3c 12 dc bd 3c 83 af be
       -0.08169127 0.27690732 -0.107456654 -0.3427981
000290 d5 f2 c8 be 7a 7f aa 3c fc ac 81 3d de e4 02 bc
       -0.39247766 0.020812739 0.06331822 -0.0079891365
0002a0 21 26 47 be 9c 09 7b 3d 2a c9 90 3c d4 bc cb 3e
       -0.19448139 0.06128846 0.017674047 0.39792502
0002b0 64 dc 96 3e 75 ad e3 bd eb 4b 1d 3e d7 28 12 3e
       0.2946502 -0.11117069 0.15360992 0.14273392
0002c0 6c 07 91 be 01 bd 6d 3c ae a2 1c 3d 22 66 14 bd
       -0.28325975 0.014510394 0.03824108 -0.036230214
0002d0 f8 a8 92 be d6 e5 29 3d 91 5b be 3d e8 49 af 3e
       -0.28644538 0.041478954 0.09294809 0.34236073
0002e0 75 c8 62 be ff 0a 73 be ea 4b 91 3d a2 1a 62 3e
       -0.22146781 -0.23734663 0.070945576 0.22080472
0002f0 12 97 e5 bd be 39 a0 3e c2 53 f1 bd ca 5d b4 3d
       -0.11210455 0.31294054 -0.11783554 0.08806951
000300 39 42 14 3e 45 bc 11 3e 78 19 b8 be 32 8f 05 3e
       0.14478387 0.14231975 -0.3595693 0.13042906
000310 ff 49 84 bd de fa 5e 3c d9 34 f4 3d c2 49 df 3d
       -0.06459426 0.013609616 0.119241424 0.1090274
000320 ce 32 82 bd 3b b3 02 be c2 0f c2 be 31 cc 88 3e
       -0.063573465 -0.12763683 -0.37902647 0.26718286
000330 df 84 9f 3e 54 03 ae bd 64 1d 27 bd c3 c8 59 3d
       0.3115606 -0.084967285 -0.040799513 0.053169977
000340 92 fe 1a 3d 04 7f 66 3e 4f 31 35 be 26 4a ca be
       0.037840433 0.2250939 -0.17694591 -0.39509696
000350 0c 5c 51 be dc 99 66 be 48 af 50 bd 22 bb 54 be
       -0.2044527 -0.2251963 -0.05094841 -0.2077451
000360 c8 b4 9c be 4c 92 8c 3d db 41 16 3c 04 97 c0 3e
       -0.30606675 0.068638414 0.009170975 0.37615216
000370 ad 07 31 3e 28 e6 e4 3d 96 d2 81 3e 3e 02 83 3e
       0.17288084 0.11176711 0.25355977 0.25587648
000380 8a ad 87 be b2 21 64 3e 67 fd 8f 3d 1b f7 99 be
       -0.26499587 0.22278479 0.070307545 -0.3007134
000390 a7 d7 34 be 3c 43 a2 3e 12 67 88 be d6 5a bc bd
       -0.1766039 0.3169192 -0.26641136 -0.09197013
0003a0 dd 91 e8 be 05 60 a2 3d a4 02 9c be ef a1 99 3e
       -0.45423785 0.079284705 -0.30470765 0.30006358
0003b0 0e ef 57 ba 98 24 21 bb 17 eb 92 3e ea 1c 76 3e
       -0.0008237221 -0.0024588462 0.28694984 0.24034467
0003c0 0a 5b e4 3c 57 d8 50 bd 51 92 a7 bd 16 6e 0f bc
       0.027875442 -0.050987568 -0.081822045 -0.008754274
0003d0 e0 4d 4e be 2e e1 90 3e 88 c9 61 bd c2 c6 77 3e
       -0.20146894 0.28296798 -0.055123836 0.24196914
0003e0 e2 8b 61 be 8b 7e 93 be 13 a2 a2 3d d3 76 96 3d
       -0.22026017 -0.28807482 0.079410695 0.07346883
0003f0 4b 50 0e 3e 19 2b 8e bd cb 14 87 bc 14 7f 7a 3d
       0.13897817 -0.06941814 -0.016489407 0.061156347

lstm.lstm.bias_ih_l0 f4 [64]
000000 71 cd 8a 3e 0b 0a 90 bc 17 f9 b6 3e b2 84 2d 3e
       0.27109864 -0.017582914 0.35736915 0.1694515
000010 30 4c 64 3e 67 05 ad 3e 23 eb fd 3c a1 ef ce 3e
       0.22294688 0.33793184 0.030995911 0.40417197
000020 90 98 8c 3e 5a 75 8d 3d e5 65 27 3d 35 53 93 bc
       0.27460146 0.06907149 0.04086866 -0.017984012
000030 7c c0 4d 3e 5a 03 8b ba df 1c a6 3e 03 8c 83 3a
       0.20092958 -0.0010605857 0.32443902 0.0010036234
000040 e3 38 33 bd 39 57 a8 3e 15 61 c8 3e fd 18 2d 3e
       -0.043755423 0.32879046 0.39136568 0.16904064
000050 9c 98 7c 3c 38 45 0b 3e 6e f4 85 3e 05 59 90 3e
       0.015417244 0.13600624 0.26163048 0.28192917
000060 79 5c 5c 3e 08 db 2b 3c 4c d1 b8 3e 9e de 72 bd
       0.2151965 0.010489233 0.3609718 -0.059294336
000070 3d 52 e0 3e 77 89 61 3e eb 37 72 3d bf 11 10 be
       0.43812743 0.22025095 0.05913536 -0.1406927
000080 20 50 0c 3e 09 d0 f9 3c 11 0a 8e bd d6 de e3 3a
       0.1370244 0.030494707 -0.06935514 0.0017385136
000090 39 9d 2a 3e f5 f9 46 be 4e 7a c0 3c e1 c7 57 bd
       0.16661538 -0.19431289 0.02349582 -0.052680854
0000a0 7a 33 7d be 35 fd c5 bd 75 ef 82 bb 6d 5e 86 3d
       -0.24726668 -0.09667436 -0.0039958307 0.06560979
0000b0 e6 a9 8e 3d d3 38 ca bd 5b 7b 8e be 3c 48 82 3e
       0.06965999 -0.098741196 -0.27828488 0.25445735
0000c0 0b 03 18 3e 1e 27 a9 3e 68 d8 ce 3e bb a9 a7 3e
       0.14844911 0.33037657 0.4039948 0.32746682
0000d0 29 f9 fc 3c 06 0f ae 3e a4 6b 84 3e a0 4e 8e 3e
       0.030880528 0.33995837 0.25863373 0.2779436
0000e0 69 63 a0 3e 4e 74 34 3e b4 29 45 3e 52 7d cf 3e
       0.31325844 0.17622492 0.1925419 0.405253
0000f0 2b df a6 3e b6 96 5d 3d e6 81 67 3d 25 08 5b 3e
       0.3259214 0.054098807 0.056520365 0.21389826

lstm.lstm.bias_hh_l0 f4 [64]
000000 dd 24 27 3e 07 da 92 3e 6a 66 8d 3e e9 0f c8 bb
       0.16322656 0.28681967 0.27617198 -0.0061054123
000010 c6 7e 6e 3e 10 c8 bf 3d 61 0b 09 3e 51 20 15 3c
       0.23290548 0.09364331 0.13383247 0.009101943
000020 9d 31 bd 3d 85 16 9f 3e 5f 0c 9e 3e a5 a5 87 3e
       0.092379786 0.3107187 0.30868813 0.26493564
000030 60 f6 52 3e c1 6d e5 bc 26 84 3d 3e 57 0e 6d 3e
       0.20601797 -0.028006436 0.18507442 0.23150001
000040 2d 24 a1 bd 10 b2 39 3e 31 02 c2 3e 71 40 08 3e
       -0.07868228 0.18134332 0.37892297 0.13305832
000050 03 07 da 3e 9f 28 32 3e 3a fa db 3d c8 ab 5a 3c
       0.42583475 0.17398308 0.10741086 0.01334662
000060 c0 67 09 bd 81 92 98 bc 29 b5 3e 3e 1b 69 9c 3e
       -0.03354621 -0.018624546 0.18623795 0.3054894
000070 64 7f c6 3e 89 99 09 3e 1a ad dd 3d 9e 63 e6 3d
       0.38769066 0.13437475 0.10824032 0.11249469
000080 79 d3 bd bd df 9c 0f be b8 78 8c 3e 99 9a 24 3e
       -0.09268851 -0.14024685 0.2743585 0.160746
000090 c2 8d 0b 3e 7f 0f a1 3c 26 15 20 be 74 24 4a be
       0.13628295 0.01966071 -0.15633067 -0.19740468
0000a0 6e 69 1c be ff d6 0f 3b df 3c 33 bc 35 e3 6f 3e
       -0.15274593 0.0021948216 -0.010939806 0.23426516
0000b0 d8 ed 36 3d eb 6a 89 3d 0b b0 27 3e e5 9b 84 3d
       0.04466042 0.06709846 0.16375749 0.06475047
0000c0 3e 74 0f bc 9f 13 c0 3e 35 09 9b 3e 5f 30 ce 3e
       -0.008755742 0.3751497 0.30280462 0.4027128
0000d0 ca 71 78 3e 32 85 dc 3c e0 29 d1 3e e6 48 42 3e
       0.24262157 0.026918981 0.4085226 0.18973121
0000e0 74 0f 90 3e d8 b1 52 3d b9 c3 f2 3d 9b 21 23 bd
       0.2813679 0.051439136 0.118537374 -0.03982697
0000f0 3f 8e 6e 3e 77 0a 4d 3e 86 7b a6 3e 71 39 b4 3d
       0.2329645 0.20023523 0.32516116 0.088000186

downstream.full.weight f4 [7, 16]
000000 9c 4f d2 be a6 37 65 be 9f e2 5b be a6 7a 81 bc
       -0.41076362 -0.2238451 -0.21473168 -0.015805554
000010 5e 55 09 be 1c 86 f6 be 2c ea 39 3f 55 26 9d 3e
       -0.13411471 -0.48149192 0.7262294 0.30693308
000020 47 8f 93 3c 1b 22 ec be 2e da a9 be df d0 24 3f
       0.018012656 -0.4611977 -0.3317427 0.6438121
000030 48 cc bd be 7a d6 1a 3f 24 68 fb 3e 63 a2 ca be
       -0.37069917 0.60483515 0.4910289 -0.39577016
000040 92 9a ce 3e d6 9f f7 3d 83 15 d4 3e 9e b6 3a 3f
       0.40352303 0.12091033 0.41422662 0.729349
000050 0c 21 82 3e a2 1b 3b 3f ff d0 ee 3e 42 dd 31 be
       0.25415838 0.7308904 0.46643826 -0.1736956
000060 e4 e6 9d 3d 18 7b 36 be 8b f8 38 3f 41 fb 1b 3f
       0.077100545 -0.17820394 0.72254246 0.6093026
000070 26 77 05 3f 2d 4a 05 bf 46 90 06 bf 64 7c 52 bd
       0.5213493 -0.5206631 -0.52563894 -0.05138816
000080 65 99 2d 3f e2 c6 0c 3f cc 25 82 3e f1 60 40 3f
       0.67812186 0.5499097 0.25419462 0.7514792
000090 78 c3 04 bf b3 56 e2 be 6b 87 b7 3e 79 01 a5 be
       -0.5186076 -0.4420677 0.35845503 -0.32227686
0000a0 db e9 51 be 4c 3f 00 bf bb 7d 01 bf 9e 5a c0 bc
       -0.20499365 -0.50096583 -0.50582474 -0.02348071
0000b0 ae d7 e5 3e c9 62 1d bf 24 2f 97 bd 23 0b aa 3e
       0.44891113 -0.6147886 -0.07382038 0.33211622
0000c0 6b a0 61 3e 4a 75 ff 3e 24 aa 20 bf d9 10 42 be
       0.22033851 0.49894172 -0.62759614 -0.1895174
0000d0 62 43 90 bc 19 fd 91 3e e4 62 13 bf ce 3a 0b bf
       -0.017610256 0.2851341 -0.5757277 -0.54386604
0000e0 8b f8 67 be 21 7c 2c bf e7 a4 b6 be 87 03 29 3d
       -0.22653405 -0.67376906 -0.35672686 0.04126313
0000f0 82 97 cf 3e 46 98 03 3f 3e 4c 30 3f a3 ce c9 3d
       0.4054528 0.51404226 0.68866336 0.09853866
000100 a1 1a 15 bf 9d 82 07 3f d3 53 1c 3f ac 8d e1 be
       -0.5824376 0.52933675 0.61065406 -0.440534
000110 72 9e e8 3d a5 03 39 3e 4e 6a e9 be 06 a3 15 3f
       0.11358346 0.18067797 -0.45588917 0.5845188
000120 81 87 4c 3e 44 34 cc 3e e9 8a 24 3f 7d 64 23 bf
       0.19973566 0.39883626 0.6427446 -0.6382521
000130 3a f5 ec 3d 6a 62 6d be 8c 46 d6 be 29 35 0d 3f
       0.11570211 -0.23182073 -0.41850698 0.5515924
000140 d8 c8 1a bf 29 b7 e2 be f2 0c 90 be 37 51 02 be
       -0.60462713 -0.44280365 -0.28134876 -0.12726294
000150 c5 4d 2f 3f 64 69 f0 3e f2 b5 a6 3e 8d 44 2b 3f
       0.6847804 0.46955407 0.32560688 0.66901475
000160 31 2f 7d 3e a6 c8 80 3e d3 7f 3f be c2 3f 08 bf
       0.24725033 0.25153083 -0.18701105 -0.53222287
000170 cf e1 c0 be 04 ee e7 3e da 86 fe be 2b 91 6d 3e
       -0.37672278 0.4529878 -0.4971226 0.23199908
000180 06 f6 39 be 43 e1 06 bf 50 e9 00 bf b3 9b 8e be
       -0.18160257 -0.5268747 -0.50356007 -0.27853164
000190 d9 39 f9 3e 20 5c 14 bf 36 8b 0e bf 5c 45 05 bf
       0.48676947 -0.5795307 -0.5568117 -0.5205896
0001a0 2b 50 04 bf 60 07 0d 3f 5e 7e 91 be 1a bc 2e bf
       -0.51684827 0.5508938 -0.28416723 -0.6825577
0001b0 f6 1a 35 be 47 2e 85 3e 83 f5 eb be 73 e7 ff be
       -0.17686066 0.2601187 -0.46085748 -0.4998127

downstream.full.bias f4 [7]
000000 fd 1b 31 3e 5f da 76 bd b7 c3 88 be dc e1 9a 3d
       0.17295833 -0.06026685 -0.2671182 0.075626105
000010 bd aa 31 3e 19 7f 87 3c 15 8f 81 be
       0.17350288 0.016540097 -0.25304475

maxpooling.full.weight f4 [16, 16]
000000 7c d4 7b be 1c a1 a6 be be 73 b8 be 50 1a 8c be
       -0.24592775 -0.32544792 -0.36025804 -0.27363825
000010 2b 9d a6 3e 4c 5c 54 be f9 5d 8b 3e 33 38 ac 3e
       0.32541785 -0.20738333 0.27220133 0.33636627
000020 08 fb cf be 0e a5 68 3e 36 de 05 be fe 04 67 3e
       -0.4062121 0.22719213 -0.13073048 0.22560498
000030 73 02 cb 3e 50 0b d3 bd 5c 77 a9 be 92 01 31 be
       0.39650306 -0.10304892 -0.33098876 -0.17285755
000040 e4 a1 0b be 86 42 3a 3e d7 40 4c be 80 67 e6 bd
       -0.13635975 0.18189439 -0.1994661 -0.1125021
000050 5a 55 35 3e 92 40 d4 be 1a 3a cd be dd df c2 3e
       0.1770834 -0.41455513 -0.4008339 0.3806142
000060 ca 42 08 be b5 cf 83 3e 58 84 48 3d 39 a6 b0 be
       -0.13306728 0.25744405 0.048954338 -0.34501818
000070 86 93 6b 3e c0 2a ee 3b 2d 94 c7 be e8 31 ba bd
       0.23005494 0.00726828 -0.38980237 -0.0909155
000080 0b ea b8 3e 58 cb d0 be 4e 6f 63 be af a4 80 3e
       0.3611606 -0.4078014 -0.22210428 0.25125644
000090 af c3 43 be a0 75 fb bc 20 9c 03 bd 1a 35 6c 3e
       -0.19117616 -0.030695736 -0.032131314 0.23067132
0000a0 aa 68 40 3e 8d 3d af 3e 35 ce 85 3e 69 d2 8a 3e
       0.18789926 0.34226647 0.26133886 0.27113655
0000b0 3b c4 ce be 41 41 74 be 6a 48 38 3e 7d 04 b0 3e
       -0.40384087 -0.23853017 0.17996374 0.34378424
0000c0 28 b2 fe bd 82 b1 4b 3e a2 c4 b6 be 7b 7d a4 3e
       -0.12436324 0.19891933 -0.35696894 0.32126984
0000d0 28 a1 32 3d 8d fc 85 3e a1 80 ad be c4 b5 ad 3d
       0.04361072 0.26169243 -0.338872 0.08481935
0000e0 18 36 42 3d d4 ea 4d be 4f 3d b8 3e 69 4c a6 3e
       0.04741487 -0.20109111 0.35984275 0.3248017
0000f0 4b e0 8d 3e 44 e0 9a bd 2d a8 b9 be e1 8b c4 3e
       0.27710184 -0.075623065 -0.3626112 0.3838797
000100 36 d3 75 be c0 9a c1 be f7 3e c2 3e 9b a8 b4 be
       -0.24006352 -0.37813377 0.37938663 -0.35284886
000110 f0 6c dc be 00 c4 b7 3a 96 33 0f be f3 f7 b1 3e
       -0.43051863 0.0014020205 -0.13984522 0.34759483
000120 e1 8c bd be 4a 1c 26 3e 49 95 c4 3e c0 9b 89 3b
       -0.37021545 0.16221729 0.38395146 0.004199475
000130 8e c5 29 3e ab c1 a7 3e 31 03 90 3e de e2 46 3e
       0.16579267 0.32764944 0.28127435 0.1942248
000140 e5 ea c1 be 8e e1 7d 3e 48 c7 94 bd a2 43 4d be
       -0.37874523 0.24793074 -0.072645724 -0.20045331
000150 5e 5f bf be 14 cb 09 be 30 95 d0 3c 80 99 0e bd
       -0.37377447 -0.13456374 0.025461763 -0.034814358
000160 1c a8 9c be 21 42 76 be 10 16 af bd 11 8a bd 3e
       -0.30597007 -0.24048664 -0.0854913 0.370194
000170 78 0f 64 bd bc a9 f8 bd 00 6a 27 be c9 85 b4 3e
       -0.055678815 -0.12141749 -0.1634903 0.3525832
000180 5a 32 6e 3e 00 20 eb b8 84 e5 83 be c0 ec e0 3b
       0.23261395 -0.00011211634 -0.25761044 0.0068641603
000190 46 63 5a 3e 35 75 c8 3e 67 9c c5 3e 3c aa f4 3d
       0.21326932 0.39151922 0.38595888 0.11946532
0001a0 f5 d3 8c 3e d5 59 ab 3e 13 64 81 3e 5d 0c b3 3e
       0.2750546 0.33466974 0.25271663 0.3497037
0001b0 a6 1a 5a 3e 2f b6 80 3e 32 68 20 3e 44 74 c5 be
       0.21299228 0.25138995 0.15664747 -0.38565266
0001c0 1c e1 e6 3d 3d f1 9d 3e e6 40 7a 3e e8 eb 7f bd
       0.11273405 0.30848113 0.2443882 -0.062480837
0001d0 2b a0 81 3e 82 29 46 3e fe 28 3c 3e ca c9 6f 3e
       0.2531751 0.19351771 0.18375012 0.2341682
0001e0 50 63 8f be 09 f8 ae 3e 40 fd ae bd 4a ea 2f 3e
       -0.28005457 0.3417361 -0.08544397 0.17179218
0001f0 4a 26 06 3e fd 0a 97 3e 73 a3 7b be 42 70 5b 3e
       0.13100544 0.2950057 -0.2457407 0.21429542
000200 65 a7 bc be 20 a7 2a bc 88 d3 47 bd a6 64 00 3e
       -0.36846462 -0.010415822 -0.048785716 0.12538394
000210 88 e6 b9 be 2a c9 74 be 75 e0 8b 3e e0 2e 3c 3c
       -0.36308694 -0.23904863 0.27319685 0.011485785
000220 f6 75 b6 be 28 26 d1 be 06 69 28 3e 4b 07 d3 3e
       -0.35636872 -0.40849423 0.16446313 0.41216502
000230 dc 4d c5 3d f2 df 42 3e 31 ca ce 3e f6 49 81 be
       0.09633991 0.19030741 0.40388635 -0.2525174
000240 2d f5 b4 3e 43 8e 5d be 35 77 d9 3e 90 dd b8 3c
       0.35343304 -0.216363 0.4247376 0.022566587
000250 2f f0 b8 3e 54 2f c9 3d 0e 64 0b 3e 60 ea a8 bd
       0.36120746 0.0982348 0.13612387 -0.082478285
000260 25 9d c7 3e 96 74 28 3e 00 1a f3 bb 19 5f a9 3e
       0.3898708 0.16450724 -0.007418871 0.33080366
000270 20 4a 13 3c 08 56 9a be 20 bd 25 bc 9e 2d 29 be
       0.008989841 -0.30143762 -0.010115892 -0.16521308
000280 c8 34 75 3d d0 1d 04 3d 31 45 50 be f4 19 85 be
       0.05986479 0.032254994 -0.20338894 -0.25996363
000290 92 cb d6 be fe 11 59 3e 66 46 56 be 98 75 6f bd
       -0.41952187 0.2119827 -0.20925292 -0.058461756
0002a0 1e 6d 4b 3e 89 a3 9a 3e 8d 7f 4d be 88 f6 06 bd
       0.19865844 0.30202892 -0.20068188 -0.032949954
0002b0 48 55 1b bd 20 95 c9 bd 08 4f cb be 0f 36 d2 be
       -0.037923127 -0.098428965 -0.39708734 -0.41056868
0002c0 24 9e b8 3d c0 da d4 3b 2b a1 af 3e 7c 34 fd 3d
       0.09014538 0.0064958036 0.3430265 0.12363526
0002d0 e2 fd a6 be e2 98 8b be 6c 15 96 be 16 d8 21 be
       -0.32615572 -0.27265078 -0.2931322 -0.15805086
0002e0 b1 64 ad be 02 e3 5e 3e 80 d2 b3 bb f2 78 71 be
       -0.33865884 0.21766284 -0.00548774 -0.23581293
0002f0 80 94 c7 bd 4d b1 8b be be 5a 6e 3e e1 06 4b be
       -0.09745121 -0.27283707 0.23276803 -0.19826843
000300 14 33 fb 3d f2 fd 6a 3e fa 90 2a 3e c2 35 15 be
       0.12265602 0.22948435 0.16656867 -0.14571288
000310 e9 30 ca 3e 5a a1 30 3e 60 29 49 3c 88 14 14 3d
       0.3949044 0.1724905 0.012277931 0.036152393
000320 fb b6 99 3e dd 7f 8d 3e 56 f5 2d 3e 1f 21 d9 be
       0.30022416 0.27636614 0.1698812 -0.42408082
000330 22 a5 04 3e 8a a5 75 3e ad c8 9f 3e c0 a0 4a bd
       0.12953618 0.2398893 0.3120779 -0.04946971
000340 f4 d5 99 3d 72 79 58 3e 00 5f d3 bb 75 85 81 3e
       0.075115114 0.21140078 -0.006450534 0.25297132
000350 3c 0d d7 3d 53 38 d3 3e ff 6c ba 3e 11 30 92 3e
       0.10500571 0.4125391 0.36411282 0.28552297
000360 5e e9 10 3e 4c f7 99 3d 15 03 cf 3e cd 72 bf 3e
       0.14151523 0.07517871 0.4043204 0.37392274
000370 33 bc d5 3e b4 a8 72 be b8 a0 8e bd 68 3c c4 be
       0.41745147 -0.23697168 -0.069642484 -0.38327336
000380 16 dc 37 3e 40 b3 61 bc 40 a1 d2 3b d3 17 70 be
       0.1795505 -0.013775647 0.006427914 -0.23446588
000390 a9 80 d5 3e 9e 26 05 3e 08 74 06 bd cc c4 ec bd
       0.41699722 0.13003013 -0.0328255 -0.115609735
0003a0 b4 a7 21 be 19 a8 51 be c1 d4 96 3e 8f 27 c7 3e
       -0.1578663 -0.2047428 0.29459193 0.38897368
0003b0 4c 32 f1 3d ae a0 60 3e 70 e4 09 3d 4d 7e be be
       0.117771715 0.21936294 0.03366512 -0.37205735
0003c0 b2 e2 5a 3e 3b 41 af 3e ca 28 0f 3e ef 30 a0 be
       0.2137554 0.34229454 0.13980404 -0.31287333
0003d0 40 04 5a 3d 2c 67 b3 bd 38 e1 7b be d6 13 99 be
       0.05322671 -0.08759913 -0.24597633 -0.29897946
0003e0 4d 64 d7 3e 38 24 d0 bd 4b 9b a8 be 60 c6 ac bd
       0.4206871 -0.10163158 -0.3293098 -0.084362745
0003f0 30 72 40 3d 30 52 3f bd db 3a a9 3e 63 6d 90 3e
       0.046983898 -0.04670924 0.33052716 0.28208455

maxpooling.full.bias f4 [16]
000000 36 59 2b 3e 98 58 4c bd 6c 0d 52 be 90 7f 30 be
       0.1673325 -0.049889177 -0.20512933 -0.17236161
000010 00 ec e7 bb f4 27 82 3d 50 84 f1 3d e8 32 19 3e
       -0.007077694 0.06355277 0.11792815 0.14960825
000020 66 e8 58 be cc 68 7b be a4 39 e6 3d d4 a2 21 3e
       -0.21182403 -0.24551696 0.11241463 0.1578477
000030 84 8a f7 bd f8 19 9e bd 18 80 81 3d 10 78 bb 3c
       -0.12086967 -0.07719797 0.0632326 0.022884399
