best_model/loss/citeseer-b-h_dropout=0_wd=0_b=256_lr=0.01_walk=2_best_model.pt (torch_old, 725205 bytes, 15 tensors)

embedding.full.weight f4 [16, 3703]
0	0x3cc4d152	0.024025593
1	0x3d065ca3	0.03280319
2	0x3c8f260c	0.017474197
3	0x3d220d73	0.039563607
4	0x3c9d627c	0.019212
5	0xbba11e08	-0.00491691
6	0x3d135963	0.035973918
7	0x3d091363	0.033465754
8	0x3c2fc678	0.010728471
9	0x3c5721bc	0.0131306015
10	0xbc2584e2	-0.0101024825
11	0xbc9c4c8f	-0.019079475
12	0xbbfb9b30	-0.007678412
13	0xbd1aba18	-0.03777513
14	0x3b3cf4a0	0.0028832331
15	0x3cadc9ce	0.021214392
16	0x3ab40c40	0.0013736561
17	0x3cc0b5ee	0.02352425
18	0x3d127fc3	0.035766374
19	0x3adaa740	0.0016681924
20	0x3cadbe8a	0.02120902
21	0xbc6d709c	-0.01449218
22	0x3c43fe98	0.011962555
23	0x3cc95bfa	0.02457999
24	0xbba11890	-0.004916258
25	0xbc357a8c	-0.011076581
26	0xbc367c22	-0.011137994
27	0xbca018f3	-0.019543147
28	0x38e8c800	0.00011099875
29	0xbce39fc0	-0.027786136
30	0xbcb3c89d	-0.021946246
31	0x3c9b4e68	0.018958285
32	0xbc43a29e	-0.011940626
33	0xbcf3eacc	-0.029775046
34	0x3d01358f	0.031545218
35	0x3cf0e77a	0.029407252
36	0xbc7d69c8	-0.015467115
37	0x3d147c63	0.036251437
38	0x3d0ed8a7	0.034874585
39	0xbcb8aac0	-0.022542357
40	0xbc96e552	-0.018419895
41	0x3bbd8e10	0.0057847574
42	0x3d21a4a9	0.039463673
43	0xbcc5111b	-0.024056008
44	0x3c86c2d2	0.01645032
45	0x3c1bf33c	0.009518441
46	0x3d0ed2e5	0.034869093
47	0xbb8b5968	-0.0042526014
48	0xbd12949f	-0.035786267
49	0xbc96b660	-0.01839751
50	0x3c805d5c	0.015669517
51	0x3bc67958	0.006056946
52	0xbd0b9d08	-0.034085304
53	0x3d23def9	0.040007565
54	0x3c72fbf0	0.014830574
55	0xbc2fe41a	-0.010735536
56	0x3b9ac960	0.004723713
57	0x3ce9718e	0.02849653
58	0x3d245975	0.040124375
59	0x3d13f50d	0.03612237
60	0x3ba8b488	0.005148474
61	0x3c88c1be	0.016693946
62	0xbb83ea50	-0.004025735
63	0x3bdc0640	0.0067146122
64	0xbbc021f8	-0.0058634244
65	0xbccfe10e	-0.02537587
66	0xbd11104b	-0.03541593
67	0xb94e9200	-0.0001970008
68	0x3c726c34	0.014796305
69	0x3cb51190	0.022103101
70	0x3c2f1cd0	0.010688022
71	0x3d02f5c1	0.03197265
72	0xbc1e210c	-0.009651434
73	0x3c021208	0.007938869
74	0x3c87e3d2	0.016588125
75	0xbd04ccad	-0.032421757
76	0xbc8cec04	-0.017202385
77	0xbcce5dba	-0.025191177
78	0xbd0efd39	-0.03490946
79	0x3c99747c	0.018732302
80	0x3c7db254	0.015484411
81	0x3a6174c0	0.0008600466
82	0xbbac4090	-0.00525672
83	0xbcaba6a3	-0.020953482
84	0x3cd25b4a	0.025678296
85	0xbcc31a6d	-0.023816312
86	0xbc02c2f4	-0.007981051
87	0x3b137c50	0.0022504516
88	0x3bbf22f0	0.0058330223
89	0xbcb96a5a	-0.02263372
90	0x3c9a06c6	0.018802058
91	0x3d0481e9	0.032350454
92	0x3c387750	0.011258915
93	0x3bfc6ba8	0.0077032633
94	0x3d19efa5	0.03758206
95	0x3cc6af2e	0.024253454
96	0xbcd2debe	-0.025740977
97	0x3ceaeaaa	0.02867635
98	0x3d205ed3	0.03915293
99	0xbc16fb5a	-0.0092152
100	0x3d18ab0b	0.037272494
101	0x3c26cbe8	0.010180451
102	0xbb38c090	-0.0028190948
103	0xbcd6eab2	-0.026234958
104	0xbb638990	-0.0034719445
105	0x3d1ba693	0.038000654
106	0xbc84a681	-0.016192676
107	0x3cf0e2de	0.029405054
108	0x3d067441	0.032825712
109	0xbc3fce00	-0.011706829
110	0x3c179f08	0.009254225
111	0xbc77f610	-0.015134349
112	0xbca9ab56	-0.020711582
113	0x3d14db27	0.036341812
114	0x3cd46ed2	0.02593175
115	0xbc853c4e	-0.016264107
116	0x3a57e680	0.00082359463
117	0xba8750e0	-0.0010323785
118	0x3b029350	0.001992423
119	0x3cc59b5a	0.024121929
120	0x3b6b26f0	0.0035881363
121	0xbc7f3e20	-0.015578777
122	0x3c9b61aa	0.018967468
123	0x3ce47ada	0.027890611
124	0xbc99efc6	-0.01879109
125	0xbc8c3bba	-0.017118324
126	0xbbad20d0	-0.0052834526
127	0x3d03ba97	0.032160368
128	0xbc80a9ff	-0.01570606
129	0xbcbccdaa	-0.023047287
130	0x3cf2f4ee	0.029657807
131	0x3ca50c96	0.020147603
132	0xbce29c90	-0.027662545
133	0x3c912da6	0.017721962
134	0xbc677f1a	-0.0141294245
135	0xbd0da212	-0.03457839
136	0x3c05d030	0.008167312
137	0x3d16dc3d	0.03683113
138	0x3ced905a	0.028999496
139	0xbcd22938	-0.02565442
140	0x3d1ef42f	0.03880709
141	0xbcb40b61	-0.021978082
142	0xbc3edf9c	-0.011649992
143	0x3baa9da8	0.0052067824
144	0x3c617a24	0.013762031
145	0xbce50d6a	-0.027960498
146	0xbb8e4a50	-0.004342355
147	0x3cfa1fb6	0.0305327
148	0x3c6a1d5c	0.014289226
149	0x3d0cbceb	0.034359854
150	0x3c5e5fac	0.013572615
151	0xbcf18328	-0.029481485
152	0x3cc9ee76	0.02464984
153	0xba008d00	-0.0004903823
154	0xbc598fe8	-0.013278939
155	0x3cb25dcc	0.021773241
156	0xbc26e45c	-0.010186281
157	0x3c8860f0	0.016647786
158	0xbc0859dc	-0.008322205
159	0x3c0b8f38	0.008518033
160	0xbd202406	-0.039096855
161	0x3d1e8121	0.038697366
162	0xbc048d0c	-0.008090269
163	0x3cc884f2	0.024477456
164	0xbbf54fc8	-0.0074863173
165	0x3ce1262e	0.027484026
166	0xbb5e2420	-0.0033896044
167	0x3cccbf92	0.024993692
168	0xbc7a66a6	-0.015283262
169	0x3d17a5db	0.037023406
170	0x3d01753b	0.03160594
171	0xbb869528	-0.0041071363
172	0xbcdf86da	-0.027285982
173	0x3c3488e8	0.011018969
174	0x3cbc615e	0.022995647
175	0xbc910336	-0.017701726
176	0xbcd8c595	-0.026461402
177	0xbd0cca45	-0.034372587
178	0x3bb73df0	0.0055921003
179	0xbc744978	-0.014910094
180	0x3b377350	0.0027992316
181	0xbcf811c0	-0.030281901
182	0xbcfbb758	-0.030727074
183	0xbd17b67b	-0.03703926
184	0xbc9faf02	-0.01949263
185	0x3c55f590	0.013059035
186	0xbd0c59b2	-0.034265228
187	0x3c9b521a	0.018960048
188	0xbc846654	-0.016162075
189	0x3b83fcd8	0.004027944
190	0x3ca55f6c	0.020187102
191	0xbd15ccb4	-0.036572173
192	0x3a3b31c0	0.0007140897
193	0x3d1805f7	0.037115064
194	0xbd165ca2	-0.036709435
195	0xbc4ddb00	-0.012564421
196	0x3c631494	0.013859887
197	0xbc3e7940	-0.011625588
198	0x3d0f796f	0.035027917
199	0xbcc0024b	-0.023438593
200	0xbc493a16	-0.012281915
201	0xbd1acc89	-0.037792716
202	0xbc52c164	-0.012863491
203	0x3d101dbd	0.03518461
204	0x3c1bdd48	0.009513207
205	0x3c9e749c	0.019342713
206	0xbbdaf0c0	-0.0066815317
207	0xbc4a446e	-0.0123454165
208	0xbc77a9a0	-0.015116125
209	0xbd066f78	-0.03282115
210	0xbd21a739	-0.039466117
211	0xbcb95544	-0.022623666
212	0x3d0c50f3	0.034256887
213	0x3c5c91a8	0.0134624615
214	0x3c4815dc	0.012212243
215	0xbc98403a	-0.018585313
216	0xbd045fe6	-0.03231802
217	0x3c0cbfe8	0.008590676
218	0x3b981550	0.0046412125
219	0x3c12fad4	0.008970935
220	0x3c11cff8	0.008899681
221	0xbaa0cd20	-0.0012268163
222	0x3cba51b2	0.022744033
223	0xbca528bf	-0.02016103
224	0xbcd6add5	-0.026205936
225	0xbc2b376e	-0.010450227
226	0xbc76cddc	-0.015063729
227	0xbcc757b6	-0.024333816
228	0xbcf75183	-0.030190235
229	0x3cc87dda	0.024474073
230	0x3ca3e65e	0.020007309
231	0x3c8f8e32	0.017523859
232	0x3d0fe887	0.035133865
233	0x3bde8530	0.0067907795
234	0xbb2f0a40	-0.002670899
235	0x3c703b54	0.014662582
236	0x3c15e9a4	0.009149943
237	0xbb50f4f0	-0.0031884275
238	0x3d1f50a1	0.038895253
239	0x3c9aa7b8	0.018878803
240	0xbcb9dd59	-0.022688555
241	0xbcc20209	-0.023682611
242	0xbc8fa1b3	-0.017533159
243	0xbd093f6e	-0.033507757
244	0x3c244dcc	0.010028314
245	0x3cf0c8fe	0.029392716
246	0xbc2b2412	-0.010445612
247	0xbb8dc130	-0.0043260083
248	0xb9874d80	-0.00025806949
249	0x3cea3102	0.028587822
250	0xbca4ac2e	-0.020101633
251	0x3c9b8554	0.018984474
252	0xbc650432	-0.013978051
253	0xbc909dd3	-0.017653381
254	0xbabf6840	-0.0014603212
255	0xbc47bd60	-0.012191147

embedding.full.bias f4 [16]
0	0x3bc6b04c	0.0060634967
1	0xbb8f2790	-0.00436873
2	0xbc807e34	-0.015685178
3	0xbc344c02	-0.01100445
4	0xbb404f74	-0.0029344233
5	0xbc29a244	-0.010353629
6	0x3c44ad12	0.012004154
7	0xbb5d00d8	-0.0033722427
8	0x3c3aa112	0.011390941
9	0xb94b2680	-0.00019373931
10	0x3c850d9d	0.016241843
11	0x3bc35158	0.0059606247
12	0x3c1f9b3a	0.009741599
13	0xbb64cf6c	-0.0034913672
14	0x3c33d356	0.010975679
15	0x3c029ea0	0.007972389

aggregator.full.weight f4 [16, 7406]
0	0xbe461f23	-0.19347815
1	0xbf292a1a	-0.66079867
2	0x3e3ace01	0.18242647
3	0xbe8f09be	-0.2793712
4	0xbf0b729e	-0.54471767
5	0xbf26d1d7	-0.6516394
6	0xbef14dd6	-0.47129697
7	0xbe654215	-0.2238849
8	0x3f031c05	0.5121463
9	0x3eb36271	0.35036042
10	0x3d08c6f9	0.03339288
11	0x3e1b2f04	0.15154654
12	0x3f0ab4a2	0.54181874
13	0x3e13adc6	0.14421758
14	0x3e40c15b	0.1882376
15	0x3ea760e9	0.32691124
16	0xbd7a9e01	-0.06118584
17	0xbb91b2c7	-0.0044463607
18	0x3e7c4f5a	0.24639645
19	0xbe470ceb	-0.19438522
20	0xbec55450	-0.38540888
21	0xbe325499	-0.17415084
22	0x3ede755c	0.43448913
23	0x3e787f20	0.24267244
24	0x3e1c91c1	0.15289976
25	0x3ed6f807	0.41986105
26	0x3df68061	0.12036205
27	0xbefdb815	-0.49554506
28	0xbeb1280a	-0.3460086
29	0x3d9e6942	0.0773492
30	0xbe16aff1	-0.14715554
31	0xbf001ce3	-0.5004408
32	0x3f109c12	0.56488144
33	0xbe95e145	-0.2927343
34	0x3d0b4567	0.034001734
35	0xbf1e5d0f	-0.61860746
36	0xbecc8ca2	-0.39951044
37	0xbebbcbd4	-0.36678946
38	0x3e90f3f8	0.28311133
39	0xbd31ded0	-0.04342538
40	0x3dff83d7	0.12476318
41	0x3edecbba	0.43514806
42	0xbf1768d1	-0.5914431
43	0xbe743bcc	-0.23850936
44	0xbef3d061	-0.47619918
45	0xbe6c1329	-0.23054184
46	0xbe669550	-0.22517896
47	0xbe864022	-0.26220804
48	0x3e6675ab	0.22505824
49	0xbec2ce7e	-0.38048166
50	0x3df78eac	0.120877594
51	0xbd831f8a	-0.064025
52	0x3e0c5f6b	0.13708274
53	0x3efe797a	0.49702054
54	0xbed049de	-0.40681356
55	0xbeefa673	-0.46806678
56	0x3ea6ccd9	0.3257816
57	0xbf17cf30	-0.5930052
58	0xbed25433	-0.41079864
59	0x3e0c86f7	0.1372336
60	0xbedbf34e	-0.42959064
61	0x3ccaf2ef	0.024774043
62	0x3f133a10	0.5751047
63	0x3efa8ee9	0.48937157
64	0xbed3325d	-0.41249362
65	0xbf46b179	-0.7761455
66	0xbf19340e	-0.59845054
67	0xbec77cfd	-0.38962546
68	0xbef02ca6	-0.46909064
69	0x3f18fb3a	0.5975834
70	0x3f0cfc49	0.55072457
71	0xbd8480ac	-0.06469855
72	0x3d635c7c	0.05550812
73	0xbf12b3f3	-0.5730583
74	0xbe9a98d0	-0.30194712
75	0xbeef9778	-0.4679525
76	0xbf039923	-0.51405543
77	0xbed7412f	-0.4204192
78	0x3ef7b20a	0.4837802
79	0xbe7a73ee	-0.24458286
80	0x3e26733f	0.162549
81	0xbe9ec97d	-0.31013098
82	0xbdf1f680	-0.11814594
83	0xbe2bcb95	-0.16776879
84	0xbe970b0d	-0.2950062
85	0xbee84bb7	-0.45370266
86	0xbf0cc7f1	-0.54992586
87	0xbd5f4c31	-0.05451602
88	0xbef58a03	-0.47956857
89	0x3e1985ba	0.14992419
90	0x3e0f4334	0.1399048
91	0xbd110ec8	-0.035414487
92	0x3edc82b2	0.43068463
93	0x3ee7a84b	0.45245585
94	0x3e0fcad0	0.1404221
95	0xbf092aca	-0.53580916
96	0x3e41b502	0.18916705
97	0x3e509e10	0.20372796
98	0xbec370c6	-0.38171977
99	0x3eed4f40	0.46349525
100	0xbdfcbe1f	-0.1234095
101	0x3f259815	0.64685184
102	0xbf1ebdf6	-0.6200861
103	0x3ca2af8a	0.019859094
104	0x3ea73fdd	0.3266591
105	0xbdf96643	-0.12177708
106	0x3f208229	0.6269861
107	0xbdf4f8fd	-0.11961553
108	0x3f101585	0.56282836
109	0xbe89e76a	-0.26934367
110	0xbe015e79	-0.12633695
111	0x3eb5ba9f	0.35493943
112	0x3ee68a1a	0.45027238
113	0x3f00add7	0.5026526
114	0x3eb03dbe	0.34422106
115	0x3efc928f	0.49330565
116	0x3e986b06	0.29769152
117	0xbeb96516	-0.36209935
118	0x3e2e5c87	0.17027484
119	0xbe81b179	-0.25330713
120	0xbe9eab4b	-0.3099006
121	0x3ee39bbf	0.44454762
122	0xbf12992b	-0.57264966
123	0xbea8deb1	-0.329824
124	0x3e6415a4	0.2227388
125	0x3f072402	0.5278932
126	0x3ee97592	0.45597512
127	0x3ecce545	0.4001867
128	0xbcd86e51	-0.02641979
129	0xbf260576	-0.6485208
130	0xbe336446	-0.1751872
131	0x3e827fa1	0.25487998
132	0x3e3a6b1d	0.18204923
133	0xbd834db4	-0.06411305
134	0xbf24ae97	-0.643289
135	0x3eb67042	0.3563252
136	0x3eb27ce7	0.34860918
137	0x3e703a43	0.23459725
138	0xbe3c8e06	-0.18413553
139	0xbce614f2	-0.02808616
140	0xbf28f252	-0.6599475
141	0x3f0d9f2d	0.5532101
142	0x3d804cb1	0.06264628
143	0x3e4617ee	0.19345066
144	0x3e7788d5	0.24173291
145	0xbdf946ce	-0.12171708
146	0x3ddc0c6b	0.10744556
147	0x3f13be92	0.5771266
148	0xbe864aa1	-0.26228812
149	0x3ee16510	0.44022417
150	0xbee64ccc	-0.44980466
151	0x3efed235	0.4976975
152	0xbbde8304	-0.0067905206
153	0x3e3d6c33	0.18498306
154	0xbf23d65e	-0.63998973
155	0xbf057863	-0.5213682
156	0xbeba92f9	-0.36440256
157	0xbf024596	-0.5088743
158	0xbd59869e	-0.053106897
159	0xbf131b92	-0.57463944
160	0xbedc3f54	-0.43017066
161	0x3e93b045	0.2884542
162	0x3ea619c1	0.32441524
163	0xbe880040	-0.2656269
164	0x3f0e2039	0.5551792
165	0xbe7d00e7	-0.24707375
166	0xbed96d9a	-0.42466432
167	0x3e800194	0.25001204
168	0x3e171b84	0.1475659
169	0xbe647e05	-0.22313698
170	0xbea8d357	-0.3297374
171	0xbf2d1d43	-0.67622775
172	0xbbeedbad	-0.007289371
173	0xbee66b31	-0.45003656
174	0x3eb6bc21	0.35690406
175	0xbf1ed4c0	-0.6204338
176	0x3e583265	0.21112974
177	0xbef66eba	-0.48131353
178	0x3e19946c	0.14998025
179	0x3eb00b61	0.3438368
180	0xbe2b3789	-0.16720404
181	0x3ebe50cf	0.37171027
182	0xbe3dfc6d	-0.18553324
183	0xbeacb792	-0.33733803
184	0x3f184490	0.5947962
185	0xbe837f8d	-0.2568325
186	0x3d940160	0.07226825
187	0x3efdcd68	0.49570775
188	0xbece3293	-0.4027296
189	0xbe2e0a9d	-0.16996236
190	0x3e556d3a	0.20842448
191	0xbee07d80	-0.4384575
192	0xbeaa3648	-0.33244538
193	0xbe707512	-0.23482159
194	0x3ec562e4	0.3855201
195	0xbd177c90	-0.036984026
196	0xbe031ef5	-0.12804778
197	0xbdf89bb8	-0.12139076
198	0x3e83689a	0.25665742
199	0xbec6f975	-0.38862196
200	0xbf13d7f4	-0.57751393
201	0xbef7da81	-0.48408893
202	0xbd9bc737	-0.076063566
203	0xbe8372a0	-0.2567339
204	0xbe650952	-0.22366837
205	0xbe742bfe	-0.23844907
206	0x3e9929b9	0.29914644
207	0xbf0abfde	-0.54199016
208	0x3e881cbc	0.26584423
209	0xbee5b137	-0.44861767
210	0xbd86d1c0	-0.065829754
211	0x3e75d617	0.2400745
212	0xbf0ed66e	-0.55795944
213	0x3e214179	0.15747632
214	0xbcda3857	-0.026638193
215	0xbef6c40e	-0.48196453
216	0x3e81105e	0.252078
217	0x3cee5b3d	0.02909624
218	0x3edde768	0.4334061
219	0x3e66c069	0.22534336
220	0x3ed0408d	0.40674248
221	0x3dfbeb59	0.123007484
222	0x3eb0f49d	0.34561625
223	0x3e582814	0.21109039
224	0xbe70f4d5	-0.23530896
225	0x3e01701b	0.12640421
226	0xbefe3982	-0.4965325
227	0xbe5d7009	-0.2162477
228	0xbe9cadd3	-0.30601367
229	0x3e48ef4e	0.19622537
230	0xbe96b409	-0.2943423
231	0x3f1bf406	0.60919225
232	0xbf09dd87	-0.5385365
233	0xbeeb5256	-0.45961255
234	0x3e01d4ae	0.12678787
235	0xbd8a1c3d	-0.06743667
236	0x3e31417d	0.17310138
237	0x3eb90629	0.36137512
238	0xbeeb20af	-0.45923373
239	0x3d984764	0.07435492
240	0xbdc9f9e2	-0.098621145
241	0x3e496f22	0.196713
242	0x3de86cf0	0.11348903
243	0xbe1f2e10	-0.15544915
244	0xbf0580c0	-0.5214958
245	0x3deef594	0.11667934
246	0xbe3bb000	-0.18328857
247	0xbf33731e	-0.7009753
248	0xbf2792d6	-0.6545843
249	0x3e910a7d	0.28328314
250	0xbf3306fb	-0.69932526
251	0xbebb9f7f	-0.36645123
252	0xbd9d03ed	-0.076667644
253	0x3d307022	0.04307569
254	0x3e755361	0.23957588
255	0x3ead6565	0.3386642

aggregator.full.bias f4 [16]
0	0xbca1125a	-0.019662071
1	0xbc596c56	-0.013270458
2	0xbd62d541	-0.055379156
3	0xbd42c2ce	-0.04754906
4	0x3c035963	0.008016917
5	0x3d229af7	0.039698567
6	0x3cf59d77	0.029982312
7	0xbdeb5804	-0.11491397
8	0xbd41af4b	-0.047286313
9	0xbe155991	-0.14584948
10	0x3d219832	0.039451785
11	0xbaaf5d8b	-0.0013379318
12	0xbd62df93	-0.055389
13	0xbd8595a2	-0.06522681
14	0xbbbcb8c8	-0.0057593323
15	0x3b898955	0.0041972795

step.full.weight f4 [1, 32]
0	0x3e11ef53	0.14251451
1	0xbe329b9b	-0.17442171
2	0x3e2d29b7	0.16910444
3	0xbd67004a	-0.05639676
4	0xbd5539f8	-0.052057236
5	0xbd4f2e68	-0.050581366
6	0x3e2f22cf	0.17103122
7	0xbd0502d0	-0.032473385
8	0x3dbf5f9a	0.093444064
9	0xbe0178db	-0.12643759
10	0xbdb3f1aa	-0.08786328
11	0xb90c3c00	-0.00013373792
12	0xbd6c93fc	-0.057758316
13	0xbdb36107	-0.08758741
14	0x3dc121b6	0.09430258
15	0x3de0b5da	0.109721854
16	0x3e330f6d	0.17486353
17	0xbe24df63	-0.1610084
18	0xbe0459e3	-0.12924914
19	0xbdc50412	-0.09619917
20	0x3e324f99	0.17413177
21	0x3e05ae9d	0.13054891
22	0x3e251e1f	0.16124772
23	0xbc20d370	-0.009816036
24	0xbd13f860	-0.03612554
25	0xbda251f5	-0.07925788
26	0xbc0fc130	-0.008774087
27	0xbc8fa250	-0.017533451
28	0x3e26e56f	0.1629846
29	0xbe17761f	-0.14791153
30	0x3d4c8bf0	0.049938142
31	0x3da876ee	0.08225809

lstm.lstm.weight_ih_l0 f4 [64, 16]
0	0x3e228696	0.15871653
1	0x3eb01d82	0.34397513
2	0x3ededb8f	0.43526885
3	0x3e55caf7	0.20878206
4	0x3ea3281d	0.31866542
5	0x3ebe610c	0.37183416
6	0x3e2d2ad5	0.1691087
7	0x3efea22e	0.49733108
8	0x3f0a78cd	0.5409058
9	0x3e2d1378	0.16901958
10	0x3ddb69e5	0.10713557
11	0x3e810c58	0.2520473
12	0x3e913f0f	0.28368422
13	0x3f1adcf1	0.6049338
14	0x3eed2d3c	0.46323574
15	0x3e40d23e	0.18830201
16	0xbd28936a	-0.04115621
17	0x3ef48dd7	0.47764465
18	0x3e27d11a	0.1638836
19	0x3e029a59	0.12754191
20	0x3ecf9140	0.40540504
21	0x3f0d5340	0.55205154
22	0x3e11ffdf	0.14257763
23	0xbc95361c	-0.018214278
24	0x3db2663a	0.087109044
25	0x3e5ec6a2	0.2175546
26	0xbd7ba7d7	-0.06143936
27	0xbd6dbfcd	-0.058044244
28	0x3cfea301	0.031083586
29	0x3dda647c	0.10663697
30	0x3e8880ad	0.26660672
31	0x3e837aff	0.25679776
32	0x3e88e117	0.2673423
33	0x3df6380e	0.1202241
34	0x3e7f2ff9	0.24920644
35	0x3ea17e64	0.3154174
36	0xbd1a5cbd	-0.0376861
37	0x3d86c739	0.065809675
38	0x3e80eeee	0.2518229
39	0x3eed44d8	0.46341586
40	0xbd71f65d	-0.05907284
41	0x3e88b4ce	0.26700443
42	0x3ef95acf	0.48702094
43	0x3e37b757	0.17941032
44	0xbc850015	-0.01623539
45	0x3e045cc1	0.12926008
46	0x3dfe984e	0.124313936
47	0x3c81d15b	0.015846899
48	0x3ef29aac	0.4738363
49	0x3e07d33f	0.13264178
50	0x3e8c5020	0.2740488
51	0x3e9747ad	0.29546872
52	0x3f118635	0.5684541
53	0xbdf1ccd7	-0.11806648
54	0x3e8fc5e1	0.28080657
55	0x3e918693	0.28422984
56	0x3e354c6b	0.17704932
57	0x3ec39a3a	0.38203603
58	0x3ebb0626	0.36528128
59	0x3ea527e2	0.3225699
60	0x3ed7c82e	0.42144912
61	0xbd3aaf3d	-0.045577276
62	0x3e2fd0ec	0.17169541
63	0x3e80e0ac	0.2517141
64	0x3e820846	0.25396937
65	0x3e860e9f	0.2618303
66	0x3e8329b6	0.2561776
67	0xbe1118b1	-0.14169575
68	0x3db0e4af	0.08637368
69	0x3e44d607	0.1922227
70	0xbc9473d8	-0.018121645
71	0x3b46f648	0.0030359197
72	0xbd851f80	-0.06500149
73	0x3e1e6fec	0.15472382
74	0x3e14ff39	0.14550485
75	0x3eb4d75e	0.35320562
76	0xbd82ebe3	-0.06392648
77	0x3ebcd61d	0.36882105
78	0x3dba8e98	0.09109229
79	0x3e8c1d00	0.27365875
80	0x3ed205b1	0.41019967
81	0x3eef66ce	0.4675812
82	0xbcc9a62e	-0.024615373
83	0x3de9fcfd	0.11425207
84	0x3e8a39d8	0.26997256
85	0x3eed3295	0.46327654
86	0x3ea46fc3	0.32116517
87	0x3f151d19	0.58247524
88	0x3e990665	0.2988769
89	0x3f181de9	0.5942064
90	0x3e146da7	0.14494954
91	0x3e2c3ac7	0.16819297
92	0x3e788651	0.24269988
93	0x3ec47e18	0.38377452
94	0x3f078720	0.5294056
95	0x3e1abb5e	0.15110537
96	0xbe06327c	-0.13105196
97	0xbe6c2064	-0.23059231
98	0x3eb2e2f3	0.34938774
99	0xbe9b4ec9	-0.30333546
100	0x3dbf5d3d	0.09343956
101	0x3e2d6875	0.16934378
102	0x3e0eb091	0.13934542
103	0xbe59cd02	-0.2126961
104	0xbcd7e523	-0.026354378
105	0xbac03f23	-0.0014667254
106	0x3d397f78	0.04528758
107	0x3e5c028f	0.21485351
108	0x3e261340	0.16218281
109	0xbe0eb813	-0.13937406
110	0x3d0476ff	0.032340046
111	0x3c62cd8c	0.0138429515
112	0x3ec44025	0.38330188
113	0x3f0bc25b	0.5459344
114	0x3e5bb6c9	0.21456446
115	0x3eed0c85	0.46298614
116	0x3edbb0c6	0.42908305
117	0x3edb698b	0.4285396
118	0x3ed9d66f	0.42546412
119	0x3e99c5ff	0.30033872
120	0x3e62d259	0.22150554
121	0x3e9d56f3	0.307304
122	0x3f37e6e2	0.71836674
123	0x3e86c468	0.2632172
124	0x3e9d6f2b	0.30748877
125	0x3ed9cdb5	0.42539755
126	0x3e9cc5f4	0.30619776
127	0x3e415017	0.18878208
128	0x3e9cf617	0.30656502
129	0xbd9455d6	-0.072429344
130	0x3cff5776	0.031169634
131	0xbe79abdf	-0.2438197
132	0x3ef110a4	0.47083008
133	0x3e9f3ca2	0.31100947
134	0xbdc49669	-0.09599001
135	0x3ecc61e1	0.39918426
136	0xbdf5bed8	-0.11999291
137	0x3e7c792a	0.24655595
138	0x3f1d12df	0.6135692
139	0x3e598929	0.21243729
140	0x3eb11883	0.34589013
141	0xbe2b5b8a	-0.16734138
142	0x3d84e6d0	0.064893365
143	0x3d946d13	0.07247367
144	0x3e59c6a8	0.21267188
145	0x3e52db78	0.20591533
146	0x3da0872f	0.07838284
147	0x3e77c54d	0.24196358
148	0x3e86aa66	0.2630188
149	0x3ec6f464	0.3885833
150	0x3eca70df	0.3953924
151	0x3e624a92	0.22098759
152	0x3de3de96	0.11126439
153	0x3efd2ff4	0.49450648
154	0x3f22cfc3	0.6359827
155	0x3dec6ce8	0.1154421
156	0x3ea02616	0.31279057
157	0x3eef6b75	0.4676167
158	0x3edcb146	0.43104
159	0x3ee3e76f	0.44512507
160	0x3ee73966	0.4516098
161	0x3e98cfd9	0.29846075
162	0x3eb89b4b	0.3605598
163	0x3f08c41d	0.53424245
164	0x3f01bb5a	0.506765
165	0x3e8a4b75	0.27010694
166	0x3f131b7b	0.57463807
167	0x3ed37fc9	0.4130843
168	0x3dc2e6bc	0.09516665
169	0x3f05204a	0.52002394
170	0x3dc197d7	0.09452789
171	0x3eaa0eff	0.33214566
172	0x3ee1d0a3	0.4410449
173	0x3e9d1074	0.30676615
174	0x3e969700	0.2941208
175	0x3d9cd003	0.076568626
176	0x3e1fa7d9	0.15591373
177	0x3be610e2	0.0070210556
178	0xbcf279ef	-0.029599158
179	0x3b09c8c0	0.0021024197
180	0x3db99b59	0.09062833
181	0xbd30ad1e	-0.043133847
182	0x3e184bf9	0.14872731
183	0x3e41b268	0.18915713
184	0x3ee0241e	0.43777555
185	0xbe0964f0	-0.13417411
186	0xbe9f727d	-0.31142035
187	0x3e6e2dbc	0.23259634
188	0xbea5ba8a	-0.3236888
189	0x3e89ab6e	0.26888603
190	0x3ea10599	0.31449583
191	0x3ea87fe1	0.32910064
192	0x3d5c93ee	0.053852014
193	0xbe964627	-0.29350397
194	0x3ed6610f	0.41870925
195	0xbe687320	-0.22700167
196	0xbe880177	-0.26563618
197	0xbc951d98	-0.018202588
198	0xbe60039f	-0.21876381
199	0xbe4328a9	-0.1905848
200	0x3eb4b21a	0.3529213
201	0xbe9ad269	-0.30238655
202	0xbe8c70d8	-0.27429843
203	0x3e2eba4f	0.17063259
204	0xbd99fdd8	-0.0751912
205	0x3ea09989	0.31367138
206	0x3de3be9d	0.11120341
207	0x3de777a4	0.113021165
208	0xbd946d38	-0.07247394
209	0x3f01f22e	0.5076016
210	0x3e7ff976	0.24997506
211	0x3c3e21e5	0.011604761
212	0x3e771bc6	0.24131688
213	0x3e8a6886	0.2703287
214	0x3ef7c262	0.4839049
215	0xbd555be8	-0.0520896
216	0x3e139b81	0.14414789
217	0x3ea962c3	0.33083162
218	0x3b7d4b8e	0.003864977
219	0x3da76af4	0.081746966
220	0x3bae5f43	0.0053214147
221	0x3e9e0a9f	0.30867478
222	0x3d8aa380	0.067694664
223	0x3e000d02	0.12504962
224	0x3de7b39f	0.11313557
225	0x3e07865a	0.13234845
226	0x3eaae8a6	0.33380622
227	0x3ea0b77b	0.31389984
228	0xbeab2959	-0.33429983
229	0xbe851e2b	-0.2599958
230	0x3dd20c8b	0.10256299
231	0xbe1843f5	-0.14869674
232	0x3ea42d92	0.32066017
233	0xbe7939db	-0.24338476
234	0xbebd65e0	-0.36991787
235	0x3e9c48eb	0.30524382
236	0xbe51198c	-0.20419902
237	0x3e8534a5	0.26016727
238	0x3e25df40	0.16198444
239	0xbe6be67e	-0.23037145
240	0x3ebd6b57	0.36995956
241	0x3d65fed5	0.05615123
242	0xbd5fb40b	-0.05461506
243	0x3d5005ab	0.050786655
244	0x3eedece4	0.46469796
245	0xbe295e34	-0.16539842
246	0x3f0071e3	0.5017378
247	0x3d8888d9	0.066667266
248	0xbe64c220	-0.22339678
249	0x3e847850	0.2587304
250	0x3ec81c85	0.3908426
251	0x3e647a7a	0.22312346
252	0x3ee7bb87	0.4526026
253	0xbe325b7f	-0.17417715
254	0x3ec372e1	0.38173583
255	0xbdbba169	-0.09161646

lstm.lstm.weight_hh_l0 f4 [64, 16]
0	0xbd77af61	-0.06046999
1	0x3eb649cc	0.35603178
2	0xbe3bf3ee	-0.1835477
3	0xbd23b7de	-0.03997027
4	0xbece042a	-0.40237552
5	0xbe7af905	-0.24509056
6	0xbd71e860	-0.0590595
7	0xbf00be4b	-0.50290364
8	0xbf090dbd	-0.5353659
9	0x3eddd27b	0.43324646
10	0xbd8872ec	-0.066625446
11	0xbedce976	-0.43146867
12	0xbeb540e5	-0.35401073
13	0xbf0d2463	-0.55133647
14	0xbe907d91	-0.282208
15	0xbe428b59	-0.1899847
16	0x3f0599b3	0.5218765
17	0x3dfed331	0.12442625
18	0x3e1dda61	0.15415336
19	0x3dffb078	0.124848306
20	0xbe131f30	-0.14367366
21	0xbc3062dc	-0.010765757
22	0xbe9d211f	-0.30689332
23	0x3da34df6	0.07973854
24	0xbec6d27a	-0.38832456
25	0xbd9fdf1d	-0.07806227
26	0xbe291ce5	-0.16514929
27	0xbefa6d9e	-0.48911756
28	0xbde37105	-0.11105541
29	0xbe9f1007	-0.31066915
30	0xbe89d247	-0.2691824
31	0xbdd4f40d	-0.103981115
32	0xbed86765	-0.42266384
33	0x3e4863dd	0.19569345
34	0xbe8274b7	-0.2547967
35	0xbee811d0	-0.4532609
36	0xbe701d15	-0.23448594
37	0xbe3b5c32	-0.18296888
38	0x3e06008f	0.1308615
39	0x3f49b9ba	0.7879902
40	0xbe9df6f7	-0.30852482
41	0xbdb676ca	-0.08909376
42	0x3efd2462	0.4944182
43	0x3d965b3e	0.07341622
44	0xbdade8b7	-0.084916525
45	0x3c05af30	0.008159444
46	0xbdb13fc6	-0.08654742
47	0xbe3e429e	-0.185801
48	0x3d988d0f	0.0744878
49	0x3f182bd0	0.5944185
50	0xbe694318	-0.227795
51	0xbce131d9	-0.02748959
52	0xbdf38174	-0.118899256
53	0xbe1ea851	-0.15493895
54	0xbd72d003	-0.059280407
55	0x3edb6d9c	0.42857063
56	0xbe68859c	-0.22707218
57	0xbdc780fa	-0.09741397
58	0x3eaa521c	0.3326577
59	0xbdb4da1a	-0.08830662
60	0xbeabc89f	-0.335515
61	0xbe5db679	-0.21651639
62	0xbe3485e0	-0.17629194
63	0xbeb111d2	-0.34583908
64	0x3bc10f4e	0.005891717
65	0x3d3f1666	0.04665222
66	0x3e491dfe	0.19640347
67	0xbde92a65	-0.11385039
68	0xbe4dad3f	-0.2008562
69	0x3ce435f4	0.027857758
70	0xbe9281f8	-0.28614783
71	0x3f00fbdd	0.5038431
72	0x3e36201c	0.17785686
73	0xbc9c6398	-0.019090459
74	0xbe773607	-0.24141704
75	0xbe4fdd5e	-0.20299289
76	0x3de71f6f	0.11285292
77	0xbaa918f0	-0.0012901109
78	0x3ccae7b4	0.024768688
79	0xbdf329c7	-0.11873203
80	0xbe3c36c2	-0.18380263
81	0x3f23ee27	0.64035267
82	0xbedef1f0	-0.4354396
83	0xbf044e22	-0.5168172
84	0xbe825b9f	-0.25460526
85	0xbeb16b2e	-0.34652084
86	0xbee4a352	-0.44655854
87	0x3ee65176	0.44984025
88	0xbef8e538	-0.4861238
89	0x3dcf6ea6	0.101285264
90	0xbd59e877	-0.05320021
91	0xbe98b7cc	-0.29827726
92	0xbe7a9680	-0.24471474
93	0xbe4bc5d6	-0.19899687
94	0xbea2b6f3	-0.31780204
95	0xbf063b4a	-0.5243422
96	0xbebb5cde	-0.3659429
97	0x3dae7732	0.085188285
98	0x3c9301c5	0.01794518
99	0x3e83b7d9	0.25726202
100	0x3da29c0a	0.07939918
101	0x3eeef27b	0.46669373
102	0xbd8ae780	-0.06782436
103	0xbe560800	-0.2090149
104	0xbe5320cc	-0.2061798
105	0x3e19fce4	0.15037876
106	0xbf055f07	-0.52098125
107	0x3e2a3e53	0.16625337
108	0xbef5799c	-0.47944343
109	0xbe15c46d	-0.14625712
110	0x3d801e3f	0.06255769
111	0xbe0630e7	-0.13104592
112	0x3e26c78a	0.16287056
113	0x3eb4ac21	0.35287574
114	0xbed2595d	-0.41083804
115	0xbe740450	-0.2382977
116	0xbf27affe	-0.6550292
117	0xbec6565c	-0.38737762
118	0xbf0e09fd	-0.5548399
119	0x3e347e52	0.17626312
120	0xbf2d057b	-0.6758649
121	0xbeac09db	-0.3360127
122	0x3ef05422	0.46939188
123	0xbec6f46f	-0.38858363
124	0xbf1b8611	-0.60751444
125	0xbee89dbf	-0.4543285
126	0xbea9f785	-0.33196655
127	0xbedf3bf4	-0.43600428
128	0xbee5d7bf	-0.44891164
129	0x3daf0cf4	0.085473925
130	0xbdaae0d5	-0.083436646
131	0xbcc35049	-0.023841994
132	0xbbf5c846	-0.007500681
133	0xbe8c7fc6	-0.27441233
134	0xbec3a507	-0.38211843
135	0x3f159678	0.5843272
136	0xbf076028	-0.528811
137	0xbe33564e	-0.17513391
138	0x3e22e940	0.1590929
139	0xbe16fcfc	-0.14744943
140	0x3d55587a	0.05208633
141	0xbe9c0cc1	-0.3047848
142	0xbe179528	-0.14802992
143	0xbeed09f3	-0.46296653
144	0x3e19e13e	0.1502733
145	0x3f279478	0.6546092
146	0xbd5acc5f	-0.05341756
147	0xbefc60fa	-0.49292737
148	0xbee9af79	-0.45641688
149	0xbe3f0f97	-0.18658291
150	0xbe26fc0d	-0.16307087
151	0x3edb4607	0.42826864
152	0xbea9e9ce	-0.3318619
153	0xbe0de319	-0.13856162
154	0x3e3ab6c1	0.18233778
155	0xbeef8e4d	-0.46788254
156	0xbef940b7	-0.48682186
157	0xbf091e5e	-0.5356196
158	0xbeb43e9f	-0.35204026
159	0xbe25176a	-0.16122213
160	0xbe495832	-0.1966255
161	0x3dcae583	0.09907057
162	0xbd810b00	-0.06300926
163	0xbe3c47a8	-0.1838671
164	0xbec2d995	-0.38056627
165	0xbecf26b1	-0.40459207
166	0xbeab3bce	-0.33444065
167	0x3f29ee51	0.66379267
168	0xbea8083d	-0.32818785
169	0xbd6e6edb	-0.05821119
170	0x3e9cf861	0.30658248
171	0xbee194dd	-0.44058886
172	0xbf0e2492	-0.5552455
173	0xbd7375b1	-0.05943841
174	0xbdbe1a7a	-0.09282394
175	0xbef237fa	-0.47308332
176	0x3e43022c	0.19043797
177	0x3e0d4c8d	0.13798733
178	0x3e2f60ed	0.17126818
179	0xbdb559c9	-0.08855016
180	0xbe22f97c	-0.15915483
181	0x3d88e929	0.06685097
182	0x3ca8e3db	0.020616462
183	0xbf42467b	-0.75888795
184	0x3e27d48f	0.16389678
185	0x3e90e79e	0.2830171
186	0xbdc99ccf	-0.09844362
187	0xbe7774e9	-0.24165691
188	0xbe024d1b	-0.12724726
189	0xbd861e74	-0.06548777
190	0xbee04770	-0.43804502
191	0x3ea10ba5	0.31454197
192	0x3e26dcba	0.16295138
193	0x3d11d1de	0.035600536
194	0x3e35cd20	0.1775403
195	0x3eac471c	0.33648002
196	0xbe5a1b1e	-0.21299407
197	0x3e5e8e10	0.2173388
198	0xbe1b754f	-0.15181468
199	0xbf310d80	-0.69161224
200	0xbbfa3bef	-0.007636539
201	0x3ebb6893	0.3660322
202	0xbf221265	-0.6330932
203	0xbe1fbc9f	-0.15599297
204	0xbe3f0648	-0.1865474
205	0xbdef9f6b	-0.117003284
206	0xbeb04129	-0.34424713
207	0x3ec569a4	0.3855716
208	0xbd3e690c	-0.0464869
209	0x3e9041dd	0.2817525
210	0xbea95b13	-0.33077297
211	0xbe21b4a8	-0.15791571
212	0x3d9bc0f8	0.07605165
213	0xbe5de35b	-0.2166876
214	0xbe1d989a	-0.15390244
215	0x3ef370fe	0.47547144
216	0xbeb6ea12	-0.35725456
217	0x3dec55b1	0.11539782
218	0x3e0c6f77	0.13714395
219	0xbe05f710	-0.13082528
220	0xbea91b6a	-0.33028728
221	0xbeaaadfc	-0.33335865
222	0xbdf60881	-0.12013341
223	0xbc13cdce	-0.009021236
224	0x3ecd7812	0.4013067
225	0xbe2cac63	-0.16862635
226	0xbe8f3a2c	-0.2797407
227	0xbd13dd7d	-0.0360999
228	0x3d89f31f	0.06735825
229	0xbdc7b700	-0.09751701
230	0x3e241694	0.16024238
231	0xbf5444fa	-0.8291775
232	0xbdb14a15	-0.08656708
233	0x3f583841	0.84460837
234	0x3dda5730	0.10661161
235	0xbe850679	-0.259815
236	0xbe8c6537	-0.2742097
237	0xbc7b8f70	-0.015354022
238	0xbdcd3823	-0.10020473
239	0x3ed40307	0.4140856
240	0xbce9e3d5	-0.028551022
241	0x3ed4cdd9	0.415633
242	0xbea83ced	-0.32858983
243	0xbe90fe3b	-0.28318962
244	0xbebff6cd	-0.37492982
245	0x3ea16831	0.31524804
246	0x3d952d81	0.0728407
247	0x3f2cd089	0.675057
248	0xbdf93756	-0.121687576
249	0xbd49cc5a	-0.04926715
250	0x3e9a7cbf	0.301733
251	0xbcee7b7c	-0.029111616
252	0xbc24f395	-0.01006784
253	0x3dc0e1fc	0.09418103
254	0xbda69752	-0.08134331
255	0xbef0f586	-0.4706232

lstm.lstm.bias_ih_l0 f4 [64]
0	0x3e68cc0b	0.22734086
1	0x3e431327	0.19050275
2	0x3e52140e	0.20515463
3	0x3e891287	0.26771948
4	0x3ebc905a	0.36828882
5	0x3f005608	0.50131273
6	0x3e9150c2	0.28381926
7	0x3ec3d1c4	0.38245976
8	0xbcdf0fad	-0.027229154
9	0x3e67c2c1	0.22632886
10	0x3efe80c6	0.4970762
11	0x3e54d0fb	0.20782845
12	0x3dedfe9b	0.11620828
13	0x3e4a53f2	0.19758585
14	0xbcb2417b	-0.02175974
15	0xbc43b57c	-0.011945125
16	0x3d64648e	0.05575996
17	0x3e23bd20	0.15990114
18	0x3eb35361	0.3502455
19	0x3e70b4ee	0.23506519
20	0x3cb43ba2	0.022001091
21	0x3eeea9a3	0.46613798
22	0xbe12d1e6	-0.14337882
23	0x3e95175b	0.2911938
24	0x3dfb9546	0.12284331
25	0x3e7ab307	0.24482356
26	0x3ed0cb4b	0.407801
27	0x3ddbf8da	0.10740824
28	0x3e0402e1	0.12891723
29	0x3e826bb7	0.25472805
30	0x3cc983ec	0.024599038
31	0x3e725531	0.2366531
32	0x3e4c60d1	0.19958808
33	0x3da9aa34	0.08284417
34	0xbe07ac4c	-0.1324932
35	0x3e3d6964	0.18497235
36	0xbe908fd4	-0.28234732
37	0x3e8fce1f	0.28086945
38	0xbe7c2775	-0.24624427
39	0xbd95e673	-0.07319345
40	0xbd43509e	-0.047684304
41	0xbd381730	-0.04494399
42	0x3b2da3c9	0.0026495329
43	0x3e86e2c0	0.26344872
44	0xbe2e296b	-0.17007987
45	0x3e748cf1	0.2388189
46	0x3c82f0bd	0.015983934
47	0x3d070190	0.032960474
48	0x3f064dbe	0.52462375
49	0x3df90eef	0.121610515
50	0x3ec3694a	0.38166267
51	0x3eb2661c	0.34843528
52	0xbbc03084	-0.0058651585
53	0x3d63446a	0.055485167
54	0x3e41e5c9	0.18935312
55	0x3eb4730e	0.3524403
56	0x3e3a8a62	0.18216851
57	0x3eb36c7a	0.350437
58	0x3f199a52	0.600011
59	0x3ea78128	0.32715726
60	0x3dee9823	0.116501115
61	0x3eaa7976	0.33295792
62	0x3e0a93d4	0.13532954
63	0x3e0c6275	0.13709433

lstm.lstm.bias_hh_l0 f4 [64]
0	0x3e37576d	0.17904444
1	0x3de475cb	0.1115528
2	0x3e289ba8	0.16465628
3	0x3d8224d7	0.06354683
4	0x3d07d2f4	0.033160165
5	0x3e105be7	0.14097558
6	0xbde57694	-0.112042576
7	0x3f2a029b	0.66410226
8	0xbd966705	-0.07343868
9	0x3f1a0792	0.601678
10	0x3ea737f7	0.32659885
11	0xbda91ac1	-0.08257056
12	0x3df144e7	0.1178072
13	0x3ea76be2	0.32699496
14	0xbd630e4e	-0.055433564
15	0x3e8325f7	0.25614902
16	0x3eab270d	0.3342823
17	0x3d258e23	0.040418755
18	0xbdd2e0e5	-0.102968015
19	0x3e7fe6f2	0.24990442
20	0x3e2ecc33	0.17070083
21	0x3ef2358d	0.4730648
22	0x3e0f33ac	0.13984555
23	0x3f208171	0.6269751
24	0x3e028dae	0.12749359
25	0x3e43d0fd	0.19122691
26	0x3e340950	0.17581677
27	0xbd82ebdf	-0.06392645
28	0x3e49f9d9	0.19724216
29	0xbe19cde2	-0.15019944
30	0xbd3f07be	-0.046638243
31	0x3e422d56	0.18962607
32	0x3d9e8175	0.07739536
33	0xbd0f2f03	-0.034956943
34	0xbdef7867	-0.11692887
35	0x3d844f6d	0.06460462
36	0xbe995bde	-0.29952902
37	0xbd82c8c6	-0.06385951
38	0x3dccd312	0.10001196
39	0x3de075b1	0.10959948
40	0xbd83b1c3	-0.0643039
41	0x3e67bcc6	0.22630605
42	0xbd49ca3e	-0.04926514
43	0x3c432e39	0.011912876
44	0xbdc17169	-0.094454594
45	0x3e3175cb	0.1733009
46	0xbeb0f63c	-0.34562862
47	0xbe4581d5	-0.19287808
48	0x3ee3fcfe	0.44528955
49	0x3ed1f1ef	0.41004893
50	0x3e9dd1b8	0.30824065
51	0x3c7d62c3	0.015465441
52	0x3c39bb0c	0.011336099
53	0x3ec0d90e	0.376656
54	0xbdf8a32c	-0.121404976
55	0x3eba8e92	0.36436898
56	0x3dc04490	0.09388077
57	0x3e1da714	0.15395766
58	0x3e8a5432	0.2701736
59	0x3da3ac19	0.079918094
60	0xbcc8ae19	-0.024497079
61	0x3e9144a5	0.28372684
62	0x3d838a94	0.06422916
63	0x3becf65c	0.0072315168

downstream.full.weight f4 [6, 16]
0	0x3e5f3c7c	0.21800417
1	0xbe5be5d0	-0.21474385
2	0x3e34191e	0.17587706
3	0x3e56483f	0.20925997
4	0xbe044cb8	-0.12919891
5	0x3e925344	0.28579152
6	0x3e633f83	0.22192197
7	0xbf192f96	-0.59838235
8	0x3ea21960	0.31659985
9	0x3eca97f2	0.3956905
10	0xbe87c924	-0.26520646
11	0xbe1f9357	-0.1558355
12	0x3e010b7f	0.12602042
13	0x3e6a4283	0.22876935
14	0xbecdda94	-0.40205824
15	0x3f14a9b6	0.5807146
16	0x3e144c49	0.14482225
17	0xbf1a636e	-0.6030797
18	0xbe8f7d1d	-0.2802514
19	0x3e8ce8f9	0.27521494
20	0xbed08a58	-0.40730548
21	0x3e1fe5b3	0.15614967
22	0xbece086f	-0.4024081
23	0xbf011974	-0.50429463
24	0x3ea86b90	0.32894564
25	0x3dbbfb42	0.09178783
26	0xbf393cfd	-0.72358686
27	0xbeff7a47	-0.49897978
28	0xbe3106cd	-0.1728775
29	0x3f16aac9	0.5885435
30	0xbf040f61	-0.51585966
31	0x3ef16710	0.47148943
32	0xbd67e82d	-0.056617904
33	0x3f133a51	0.5751086
34	0x3f06bec0	0.5263481
35	0xbeb3f61d	-0.35148707
36	0xbe98483a	-0.29742604
37	0xbf16dab6	-0.58927476
38	0x3daf4f21	0.085600145
39	0x3f320d0e	0.6955117
40	0xbf32fe00	-0.69918823
41	0xbf89a9c8	-1.0754938
42	0x3e0c1acf	0.13682102
43	0x3ec3a7fa	0.38214093
44	0x3ea97855	0.3309962
45	0xbf05d258	-0.52274084
46	0x3f0b5892	0.5443202
47	0x3dc885ff	0.09791183
48	0xbe37defd	-0.17956157
49	0x3d09b924	0.03362383
50	0xbf3af5fa	-0.7303158
51	0xbf47d118	-0.78053427
52	0xbed37d7c	-0.41306674
53	0xbeccb677	-0.3998296
54	0x3f218afa	0.63102686
55	0x3f33a22b	0.70169324
56	0xbe3ef9b3	-0.1864994
57	0x3ec35244	0.381487
58	0x3f86f728	1.0544176
59	0x3e685c01	0.22691347
60	0x3f62368e	0.88364494
61	0xbf0de76c	-0.55431247
62	0xbdb4b52f	-0.088236205
63	0xbf2fbac9	-0.68644387
64	0x3f1c95a8	0.6116586
65	0x3eb2481c	0.3482064
66	0xbdb13921	-0.086534746
67	0x3dbe3ecf	0.092893235
68	0xbe88dc48	-0.2673056
69	0xbe7d7a63	-0.24753718
70	0x3e032805	0.12808235
71	0xbf549031	-0.8303252
72	0x3e227b58	0.15867364
73	0x3e296e26	0.16545925
74	0x3f014bc2	0.5050622
75	0xbec27d21	-0.3798609
76	0xbf0067c0	-0.5015831
77	0xbf13a27f	-0.57669824
78	0xbed64294	-0.4184767
79	0x3ea73929	0.32660797
80	0xbf30b80e	-0.69030845
81	0xbe38535f	-0.18000554
82	0x3c8c42bb	0.017121663
83	0xbe339e55	-0.17540868
84	0xbefd0752	-0.49419647
85	0x3ef2ddb4	0.4743477
86	0xbeb1e998	-0.3474853
87	0x3f0ab199	0.5417724
88	0xbe6edd8a	-0.23326698
89	0x3ed507ce	0.41607517
90	0xbf686382	-0.90776837
91	0x3e8c7efd	0.27440634
92	0xbb212a88	-0.0024592
93	0x3e3bde6e	0.18346569
94	0xbcd7c407	-0.02633859
95	0xbf254e4a	-0.64572585

downstream.full.bias f4 [6]
0	0x3e2214d7	0.15828262
1	0x3c9d960b	0.019236585
2	0x3e3a5276	0.18195519
3	0xbe309093	-0.1724265
4	0xbbc69738	-0.006060507
5	0xbcc77b90	-0.024350911

maxpooling.full.weight f4 [16, 16]
0	0x3ea70465	0.3262054
1	0x3d232b48	0.039836198
2	0x3ea81c6d	0.32834187
3	0x3e0137c6	0.12618932
4	0xbdf614b0	-0.120156646
5	0xbe44d394	-0.19221336
6	0x3d395388	0.045245677
7	0x3eb7aff5	0.35876432
8	0x3e1a75c6	0.1508399
9	0xbe106452	-0.14100769
10	0xbd8a9b04	-0.06767848
11	0x3eb711c9	0.35755756
12	0xbd0f63f0	-0.035007417
13	0x3e00f346	0.12592801
14	0x3ec1168f	0.37712523
15	0xbe9b8de0	-0.3038168
16	0x3e425d2a	0.18980852
17	0xbd543db0	-0.051816642
18	0xbebf30f8	-0.37342048
19	0x3edcd507	0.43131277
20	0xbe6243e1	-0.22096206
21	0x3ec4d207	0.38441488
22	0xbe73f62e	-0.23824379
23	0x3e9661c5	0.29371467
24	0x3eb0941d	0.34488
25	0xbd8a4acc	-0.067525476
26	0x3d7b88e0	0.06140983
27	0xbebdc045	-0.37060753
28	0xbd3098d0	-0.043114483
29	0x3e4cef86	0.20013246
30	0x3e12f186	0.14349946
31	0xbea98782	-0.33111197
32	0xbd95f594	-0.07322231
33	0xbe884518	-0.26615214
34	0xbe9ba1a0	-0.30396748
35	0xbeb309c0	-0.34968376
36	0x3ead9c37	0.33908245
37	0xbea52130	-0.32251883
38	0xbe94c958	-0.29059863
39	0x3e146732	0.14492491
40	0xbdd8233c	-0.105535954
41	0xbe5bc712	-0.21462658
42	0x3e8abcd5	0.27097192
43	0x3e90d589	0.28287914
44	0x3e940c79	0.28915766
45	0xbe823a3a	-0.25435048
46	0xbe9541a8	-0.29151654
47	0xbe94de2e	-0.2907576
48	0x3eaa9b13	0.33321437
49	0xbb98d4c0	-0.0046640337
50	0x3ea38b31	0.31942132
51	0xbebba117	-0.3664634
52	0x3ec66a29	0.3875287
53	0x3d722fd8	0.05912766
54	0xbe12dfb6	-0.14343151
55	0x3e3243da	0.17408696
56	0x3d840d10	0.06447804
57	0x3db6cf9c	0.08926317
58	0x3eb5cf87	0.35509893
59	0x3e0855f6	0.13314041
60	0xbd2f5638	-0.042806834
61	0x3e1587b2	0.14602545
62	0x3ea0e779	0.314266
63	0xbed4a8b2	-0.41534954
64	0x3d4318a8	0.047630936
65	0xbc713060	-0.014721006
66	0xbd9ce42c	-0.07660708
67	0xbe785484	-0.2425099
68	0x3e1b532e	0.1516845
69	0x3e06f7ce	0.13180467
70	0x3ebc4bd5	0.36776605
71	0xbe3f331b	-0.18671839
72	0xbd604a08	-0.0547581
73	0xbc768160	-0.015045494
74	0xbe3e6cc2	-0.18596175
75	0x3e79bbfe	0.2438812
76	0x3ec6eaa1	0.38850883
77	0xbe9a6b80	-0.3016014
78	0x3e49687a	0.19668761
79	0x3e549362	0.20759347
80	0x3e8d5d07	0.27610037
81	0x3e836bc9	0.2566817
82	0x3eb990c7	0.3624327
83	0xbe7c292b	-0.2462508
84	0x3c670c40	0.014102042
85	0xbec0a440	-0.37625313
86	0xbe281a1a	-0.16416207
87	0x3edb8547	0.4287512
88	0xba60e200	-0.00085785985
89	0xbe9994ec	-0.2999643
90	0x3d1a45e8	0.037664324
91	0xbe5f4ae6	-0.21805915
92	0x3e8712a5	0.26381412
93	0x3e81c393	0.25344524
94	0xbda4b700	-0.08042717
95	0xbdfc7704	-0.12327388
96	0x3e5500c2	0.2080107
97	0x3edaea13	0.4275671
98	0x3ea9841b	0.331086
99	0x3eb92ab7	0.361654
100	0xbed5814b	-0.41700205
101	0x3a157600	0.00057014823
102	0x3ed6f82d	0.41986218
103	0xbe92f92f	-0.28705737
104	0x3df2a8ec	0.118486255
105	0x3e0e9f4a	0.13927951
106	0xbe9b2f24	-0.30309403
107	0xbcc41900	-0.023937702
108	0xbe6f7051	-0.23382689
109	0x3e9219e1	0.2853537
110	0x3ebac88d	0.36481133
111	0xbe23e7ac	-0.16006345
112	0xbe5b3d9a	-0.21410218
113	0xbec0baa0	-0.37642384
114	0xbebc2b98	-0.3675201
115	0x3e9af7e7	0.3026726
116	0xbead9c2e	-0.33908218
117	0x3c8ab790	0.016933233
118	0x3d9de70c	0.07710084
119	0xbeaf910c	-0.3429035
120	0x3e09f9de	0.13474223
121	0xbe8fbd8e	-0.28074306
122	0xbe6ebff9	-0.2331542
123	0x3da7302c	0.08163485
124	0xbea53072	-0.32263523
125	0x3e31cf52	0.17364243
126	0x3eb9a22f	0.3625655
127	0xbeac6e75	-0.33678022
128	0xbecd8258	-0.40138507
129	0x3e9007bd	0.28130904
130	0xbe6c5976	-0.23081002
131	0x3e6730aa	0.22577158
132	0x3d47a578	0.048741788
133	0xbc742a80	-0.014902711
134	0x3eaa099b	0.33210453
135	0xbecf0ec6	-0.4044096
136	0xbd14d170	-0.036332548
137	0x3dc51d5c	0.096247405
138	0x3bd24500	0.006416917
139	0xbe8d0d90	-0.2754941
140	0xbeb9ae02	-0.3626557
141	0x3e4a7ab2	0.19773367
142	0xbe48a998	-0.19595945
143	0xbadd8c00	-0.0016902685
144	0xbeaaacfa	-0.33335096
145	0x3ebdff11	0.37108663
146	0x3e5c98ea	0.21542707
147	0x3d9478c4	0.07249597
148	0xbe35299c	-0.17691654
149	0x3ea17139	0.31531695
150	0xbe4e4cf6	-0.20146546
151	0x3d07c818	0.03314981
152	0xbd946650	-0.07246077
153	0xbdd69104	-0.10476878
154	0x3edd7573	0.4325367
155	0xbe0df846	-0.1386424
156	0x3e21cf86	0.1580182
157	0xbe821205	-0.25404373
158	0x3eb54375	0.35403028
159	0x3eb7bea7	0.35887644
160	0xbe9f05be	-0.31059068
161	0x3ed068b3	0.4070488
162	0x3e1374a6	0.14399967
163	0xbebe305a	-0.37146264
164	0xbd39c518	-0.04535398
165	0x3db1fde4	0.08691004
166	0xbea99561	-0.3312178
167	0xbe96e256	-0.29469556
168	0xbe16c678	-0.14724147
169	0x3ec8f643	0.39250383
170	0xbdb10398	-0.086432636
171	0x3e5cbf02	0.21557239
172	0x3df57194	0.11984554
173	0x3e434976	0.19070992
174	0xbe2ff16c	-0.17181939
175	0xbe4d43b7	-0.20045362
176	0xbe09d0bc	-0.13458532
177	0xbd926bd4	-0.07149473
178	0xbeb7e6b0	-0.35918188
179	0x3eaa5951	0.33271268
180	0x3e80a013	0.25122127
181	0xbec2c52b	-0.38041052
182	0x3ec81ae5	0.3908302
183	0x3d67d0e0	0.056595683
184	0x3e2d640a	0.16932693
185	0x3ec4c07b	0.384281
186	0x3ebae209	0.36500576
187	0x3c51f080	0.012813687
188	0x3b1bc400	0.0023767948
189	0x3e3ff112	0.18744305
190	0x3d6503f8	0.055911988
191	0xbea1976e	-0.31560844
192	0x3ea885f9	0.32914713
193	0x3ed9453b	0.4243563
194	0x3e58740a	0.21138015
195	0x3ebc5479	0.36783198
196	0x3e8c8253	0.2744318
197	0x3e9da1a3	0.30787382
198	0xbe8055ee	-0.2506556
199	0xbe9a4c8e	-0.30136532
200	0x3eda1c89	0.42599896
201	0x3e8453c7	0.25845167
202	0x3e37a9ee	0.17935917
203	0xbe2d3a58	-0.16916788
204	0x3e8602d9	0.26174048
205	0x3dcc6464	0.099800855
206	0xbe884575	-0.26615492
207	0xbe52fe35	-0.20604785
208	0x3eb65ce7	0.35617754
209	0x3cfedae0	0.031110227
210	0x3e89486b	0.26813063
211	0x3eac095d	0.33600894
212	0x3eb445c5	0.3520948
213	0x3e0abd46	0.13548765
214	0x3eb5f7fb	0.35540757
215	0xbe2d838a	-0.1694471
216	0xbeb8641f	-0.36013886
217	0x3e95da65	0.29268184
218	0x3e265afa	0.16245642
219	0x3eae85f3	0.3408657
220	0xbed6a30f	-0.4192128
221	0x3bbf5280	0.005838692
222	0x3c529080	0.012851834
223	0x3e2513e2	0.16120866
224	0xbdd13f98	-0.10217208
225	0x3ec37c35	0.381807
226	0xbec099fc	-0.3761748
227	0xbe27118e	-0.1631529
228	0xbdda9b80	-0.106741905
229	0x3ebd5f45	0.36986747
230	0x3e2ecf06	0.1707116
231	0xbe8425b8	-0.25810027
232	0xbe740976	-0.23831734
233	0x3c8d2010	0.017227203
234	0xbd9f99d4	-0.07793012
235	0xbd7c15e0	-0.0615443
236	0xbe150124	-0.14551216
237	0xbd8a9138	-0.067659795
238	0xbd7565e8	-0.05991164
239	0xbbc95740	-0.006144434
240	0x3e1d56de	0.15365168
241	0x3e195ff6	0.14978012
242	0xbeb743f7	-0.3579404
243	0xbdb71890	-0.08940232
244	0x3ed9474f	0.42437217
245	0x3e73db32	0.23814085
246	0xbd95ea84	-0.07320121
247	0xbdfde2e8	-0.123967946
248	0xbe8bb266	-0.27284545
249	0x3e2239ea	0.15842405
250	0x3eb1fa61	0.34761336
251	0xbe9e81c1	-0.3095837
252	0x3ed4d0db	0.41565594
253	0x3e6bf566	0.23042831
254	0x3cf0ec60	0.029409587
255	0x3d7d60e0	0.061859965

maxpooling.full.bias f4 [16]
0	0xbe3d2526	-0.18471202
1	0xbe668748	-0.22512543
2	0xbe48c332	-0.19605711
3	0x3c87c930	0.016575426
4	0xbd0ba378	-0.034091443
5	0xbe160a60	-0.14652395
6	0xbd50b9f8	-0.050958604
7	0x3d224628	0.039617687
8	0xbe262388	-0.16224492
9	0x3e48c532	0.19606474
10	0xbe32f6cc	-0.17476958
11	0x3e3933e6	0.18086204
12	0xbd602b90	-0.054729044
13	0xbddd1d38	-0.10796589
14	0xbe682a6a	-0.2267243
15	0xbd83d140	-0.06436396

mean.full.weight f4 [16, 16]
0	0xbe053012	-0.13006619
1	0xbe3c3768	-0.18380511
2	0x3db55b6c	0.08855328
3	0x3ea57e33	0.32322845
4	0xbe8304d2	-0.25589615
5	0xbebcfb0e	-0.3691029
6	0x3e2881aa	0.16455713
7	0xbe0e49a4	-0.13895279
8	0xbe99f75c	-0.30071533
9	0x3daffc4c	0.08593044
10	0xbec18048	-0.37793183
11	0x3dde0a64	0.108418256
12	0x3dbd2ecc	0.092374414
13	0x3d988314	0.07446876
14	0x3ea7f02f	0.32800433
15	0x3e3f78de	0.18698451
16	0x3e0d1dae	0.13780853
17	0x3ed0becf	0.40770575
18	0x3e91e40d	0.284943
19	0x3e307732	0.1723297
20	0xbe1a3f6a	-0.15063253
21	0xbe63c565	-0.22243269
22	0xbe425aeb	-0.18979995
23	0xbc38e460	-0.011284918
24	0xbe810518	-0.251992
25	0xbdf04808	-0.11732489
26	0x3df0d974	0.11760226
27	0xbbdc6580	-0.006725967
28	0x3bf8c780	0.0075921416
29	0xbdd287ec	-0.10279831
30	0xbeceb33a	-0.40371114
31	0x3eb38b3b	0.35067162
32	0xbe8f1352	-0.27944428
33	0xbec5fc97	-0.38669273
34	0xbdd54678	-0.104138315
35	0x3e77b5a6	0.24190387
36	0xbd92b310	-0.0716306
37	0xbe4991c5	-0.19684513
38	0xbeaf131a	-0.3419426
39	0x3e744c5a	0.23857251
40	0x3ec5db89	0.38644055
41	0x3d544aa0	0.05182898
42	0x3e80cfc1	0.25158504
43	0x3ed3c15f	0.41358468
44	0xbd161c18	-0.036647886
45	0x3ec47275	0.38368574
46	0x3e84b817	0.259217
47	0x3d8cc96c	0.06874356
48	0xbeae0a6e	-0.33992332
49	0xbe2d0678	-0.16896999
50	0xbd815f30	-0.06316984
51	0x3e92742f	0.28604266
52	0x3d3d4020	0.046203732
53	0x3eb009f7	0.34382603
54	0x3d721bc0	0.059108496
55	0xbe1f194c	-0.15536994
56	0x3e481702	0.19540027
57	0xbed1b0b3	-0.40955123
58	0x3e0b2a96	0.13590464
59	0x3e901dcd	0.28147736
60	0x3ea26f17	0.3172538
61	0x3d751e08	0.059843093
62	0x3dc00354	0.09375635
63	0x3e873c1d	0.2641305
64	0x3e8f555b	0.2799481
65	0x3cc66270	0.02421686
66	0xbeb52d66	-0.353862
67	0xbeb6c4b1	-0.3569694
68	0x3ea40487	0.32034704
69	0x3e4b70b6	0.19867215
70	0xbe28b394	-0.16474754
71	0x3ec3ae97	0.3821914
72	0x3e471b4a	0.19444004
73	0x3e9bef5d	0.30456057
74	0x3dfae014	0.12249771
75	0xbe9a1523	-0.3009425
76	0xbe608ae9	-0.2192799
77	0x3e8e43e7	0.2778618
78	0xbdfba618	-0.12287539
79	0xbed58244	-0.41700947
80	0x3e006eea	0.1254231
81	0xbeb7c5ac	-0.35893
82	0xbe2f4dc2	-0.17119506
83	0x3c4f1100	0.01263833
84	0x3ed065cd	0.40702668
85	0x3df8a08c	0.12139997
86	0xbe6329cb	-0.22183912
87	0x3dc6fbcc	0.09715995
88	0x3d901084	0.070344
89	0x3e83c125	0.25733295
90	0xbe573be1	-0.21018936
91	0x3e978b0d	0.29598275
92	0xbeb07af8	-0.34468818
93	0xbe9f270a	-0.31084472
94	0xbe2d2f46	-0.16912565
95	0xbea981e8	-0.33106923
96	0x3e82445f	0.25442788
97	0xbd67db80	-0.056605816
98	0x3ea68509	0.32523373
99	0x3df08e2c	0.11745867
100	0xbde599d8	-0.11210984
101	0x3e782646	0.2423335
102	0xbdca1b34	-0.0986847
103	0x3e9ac2e1	0.30226806
104	0x3b13f480	0.0022576153
105	0xbd654dd8	-0.05598244
106	0x3da70914	0.081560284
107	0xbe4f2f9a	-0.20233002
108	0xbd0cf1e0	-0.034410357
109	0x3e7737b2	0.2414234
110	0xbc04a620	-0.008096248
111	0x3e8a1aa1	0.2697344
112	0x3e2acec6	0.1668044
113	0xbe8dc52d	-0.27689496
114	0x3c9eea00	0.01939869
115	0xbecdd9a5	-0.40205112
116	0xbe9c63c2	-0.3054486
117	0x3dde113c	0.10843131
118	0x3e5df5a2	0.21675733
119	0xbeaf009e	-0.34180158
120	0xbdd4efac	-0.10397276
121	0x3ec3148b	0.3810161
122	0x3ddada6c	0.10686192
123	0xbdcd1994	-0.10014644
124	0xbd72ef58	-0.059310287
125	0xbde13d30	-0.10997999
126	0x3d254018	0.040344328
127	0xbe54d403	-0.20784001
128	0xbd660fe8	-0.056167513
129	0x3db55824	0.08854702
130	0xbed4bf29	-0.41552094
131	0xbe43c68e	-0.19118711
132	0x3c8c13a0	0.017099202
133	0x3d17ac30	0.037029445
134	0x3ece1e7d	0.40257636
135	0x3e90485d	0.2818021
136	0xbecb30bf	-0.39685628
137	0x3ed17be5	0.40914837
138	0x3e9677cb	0.2938827
139	0x3dd2a36c	0.102850765
140	0x3ea54b63	0.32284078
141	0xbb236c00	-0.00249362
142	0xbc17f200	-0.009274006
143	0x3ed31acf	0.4123139
144	0xbe5d7adf	-0.21628903
145	0x3e1ff71a	0.15621606
146	0x3e39916e	0.18121883
147	0xbebbc65d	-0.36674777
148	0xbea6bd29	-0.32566193
149	0x3dfba0ac	0.12286505
150	0x3e83688d	0.25665703
151	0xbe7e5c73	-0.24839954
152	0xbec1cf7d	-0.37853613
153	0x3edd1133	0.43177184
154	0x3e80f9a1	0.25190452
155	0x3ed74e09	0.42051724
156	0xbe069c2a	-0.1314551
157	0x3e9fd8c9	0.3122008
158	0xbea1a42b	-0.31570563
159	0x3e47ea1a	0.19522896
160	0xbe22ba84	-0.15891463
161	0xbeb6453a	-0.3559969
162	0xbc5e3ee0	-0.013564795
163	0xbea4230a	-0.32057983
164	0xbebbd9a4	-0.36689484
165	0xbd7b3af0	-0.061335504
166	0x3e87bbd1	0.2651048
167	0xbd7f4578	-0.06232211
168	0x3ec1e615	0.3787085
169	0xbeba9492	-0.36441475
170	0xbe9b2f39	-0.30309466
171	0xbed14502	-0.4087296
172	0xbce42ce0	-0.02785343
173	0x3e263a96	0.16233286
174	0x3eae47b5	0.34039083
175	0xbeca2ca8	-0.39487195
176	0x3ed21eab	0.41039023
177	0xbe6e653e	-0.23280808
178	0x3ed5caa5	0.41756168
179	0xbd95dbe0	-0.073173285
180	0xbe18fd86	-0.14940462
181	0xbeb426f0	-0.35185957
182	0xbd41ce48	-0.047315866
183	0xbd4e9978	-0.050439328
184	0xbea751af	-0.32679507
185	0xbe8a532d	-0.27016583
186	0x3ec56279	0.3855169
187	0x3d377550	0.044789612
188	0xbdb9162c	-0.09037432
189	0x3eb10819	0.3457649
190	0x3eb4b387	0.35293218
191	0x3eb2ea75	0.34944502
192	0x3eae7ff3	0.34081993
193	0x3d613788	0.0549846
194	0x3df3c46c	0.11902699
195	0xbe98ade6	-0.29820174
196	0x3c419200	0.011814594
197	0x3dca81ac	0.09888014
198	0x3d544988	0.051827937
199	0xbd080058	-0.033203453
200	0x3e913033	0.28357086
201	0x3e833a8b	0.25630602
202	0x3eb1dcef	0.3473887
203	0x3e5c96da	0.2154192
204	0xbcf19e00	-0.029494286
205	0xbc4c8580	-0.012483001
206	0x3edae84d	0.42755356
207	0xbdc876d4	-0.0978829
208	0xbd1a1e80	-0.037626743
209	0x3db5f78c	0.088851064
210	0x3e80e9c9	0.25178364
211	0xbe13a792	-0.14419392
212	0xbe3f0c03	-0.18656926
213	0x3d8ac4f4	0.06775847
214	0xbed208bb	-0.41022286
215	0xbdcb6278	-0.09930891
216	0x3dd4ca74	0.10390177
217	0xbe5d3864	-0.21603543
218	0x3e0ec146	0.13940915
219	0xbd94ee40	-0.07272005
220	0xbe9d329c	-0.30702674
221	0xbeac1f55	-0.33617654
222	0xbd9514c4	-0.07279351
223	0x3e27c4b6	0.16383633
224	0x3e109bde	0.14121959
225	0xbe730806	-0.2373353
226	0x3e412f3a	0.18865672
227	0x3e2210a2	0.15826657
228	0x3e6c42a2	0.23072293
229	0x3e5eee1e	0.21770522
230	0x3e81260f	0.2522435
231	0x3e671b0e	0.22568914
232	0xbebba837	-0.36651775
233	0xbcb046a0	-0.021518052
234	0x3e7f2942	0.24918082
235	0x3ed0802d	0.4072279
236	0x3e9cc099	0.3061569
237	0xbe8bcbda	-0.27303964
238	0x3d5af590	0.053456843
239	0x3ed4766f	0.41496608
240	0xbe028558	-0.12746179
241	0x3ddf3d1c	0.109003276
242	0xbd699ec0	-0.05703616
243	0x3ec0fb6f	0.3769183
244	0x3eb51a11	0.3537145
245	0xbec6c227	-0.3882
246	0xbeb487d3	-0.35259876
247	0x3eda750d	0.42667428
248	0xbd7555d8	-0.05989632
249	0x3dd661d4	0.10467878
250	0x3e878351	0.26467374
251	0xbec454d3	-0.38345966
252	0x3e8d572b	0.27605566
253	0xbe8784bf	-0.26468465
254	0xbe9f15a1	-0.3107119
255	0xbe83287a	-0.2561682

mean.full.bias f4 [16]
0	0x3cf43fa0	0.029815495
1	0xbd9e10a0	-0.07718015
2	0xbde882bc	-0.113530606
3	0xbe047f6c	-0.12939233
4	0x3e0216c6	0.12704
5	0xbd756d30	-0.059918582
6	0x3e6b2bbc	0.22965902
7	0xbe25939c	-0.1616959
8	0xbdab9e3c	-0.0837979
9	0x3e72e78a	0.23721138
10	0xbdcd2704	-0.10017207
11	0x3e3f7fd0	0.187011
12	0xbe642e72	-0.22283342
13	0xbdfd44d8	-0.123666465
14	0xbd9e4a0c	-0.07728967
15	0xbd5c66c0	-0.053808928
