best_model/loss/citee_dropout=0_wd=0_b=256_lr=0.01_walk=4_best_model.pt (torch_old, 488424 bytes, 12 tensors)

aggregator.full.weight f4 [16, 7406]
0	0x3f6b00b1	0.9179793
1	0xbe93c742	-0.2886296
2	0xbd725047	-0.05915859
3	0x3ece1360	0.40249157
4	0x3e46187b	0.19345276
5	0x3f193c5a	0.59857714
6	0x3f04d8f4	0.51893544
7	0xbe33858c	-0.17531413
8	0x3db3f602	0.08787157
9	0x3efcc104	0.4936601
10	0x3e7ad33d	0.24494644
11	0x3f0caf78	0.54955244
12	0x3eb23d49	0.34812382
13	0x3f522346	0.82085073
14	0xbf0d8c22	-0.5529195
15	0x3e9b7ed3	0.30370197
16	0x3eef366c	0.46721208
17	0xbcc0b66b	-0.023524484
18	0x3d78fe9a	0.060789682
19	0x3e98280c	0.29718053
20	0x3d8736f1	0.06602276
21	0x3e00cbe6	0.12577781
22	0x3db8a1c2	0.09015228
23	0xbd733c5a	-0.059383728
24	0x3f0fbb32	0.5614501
25	0x3f0e59a4	0.5560553
26	0x3e89287e	0.26788706
27	0xbedaabf3	-0.42709312
28	0xbf13fd9d	-0.5780886
29	0x3ea2e0dd	0.31812182
30	0x3e2e9dd6	0.17052397
31	0x3ea99a33	0.33125457
32	0x3e9bd592	0.3043638
33	0xbd9dafd0	-0.07699549
34	0x3e908735	0.28228155
35	0xbe76d9ce	-0.24106523
36	0x3f00ce84	0.5031512
37	0x3e62c550	0.22145581
38	0x3e41af29	0.18914475
39	0x3f4cbe0a	0.79977477
40	0xbdd1a24f	-0.10236036
41	0x3e92e74d	0.28692093
42	0xbecdaebf	-0.40172383
43	0x3e188245	0.14893444
44	0x3cf3ab2e	0.02974471
45	0x3d5cbfa9	0.05389372
46	0x3c3ed636	0.011647752
47	0x3d948f32	0.07253875
48	0xbcc0a67b	-0.023516884
49	0xbf357321	-0.708788
50	0x3eedb465	0.46426693
51	0x3ed4d374	0.41567576
52	0x3eca9c63	0.3957244
53	0x3d1a78ac	0.037712738
54	0x3e48a40c	0.19593829
55	0xbf309904	-0.68983483
56	0xbe7796c2	-0.24178603
57	0xbdcab0b3	-0.09896984
58	0xbf470941	-0.77748495
59	0xbf4aa5a6	-0.7915901
60	0x3f30ce71	0.69065005
61	0x3ec4a63a	0.3840807
62	0x3ec7c7ec	0.39019716
63	0xbda58e6b	-0.08083805
64	0x3dd33579	0.103129335
65	0x3f3fe89f	0.74964327
66	0x3e248ded	0.16069765
67	0xbe9c93d2	-0.30581528
68	0x3f072473	0.5278999
69	0x3ecf1565	0.4044601
70	0x3ddef47e	0.10886477
71	0x3ed9cea0	0.42540455
72	0xbe9a7383	-0.30166253
73	0xbf204fd0	-0.62621784
74	0xbf0b474c	-0.54405665
75	0x3f4c8689	0.79892784
76	0xbf30b2f3	-0.69023055
77	0xbda751e0	-0.08169913
78	0x3e8e9a71	0.27852204
79	0xbe924fe8	-0.2857659
80	0x3e97ad6a	0.29624492
81	0x3ebef337	0.37294933
82	0x3eab615d	0.3347272
83	0x3e2676c8	0.16256249
84	0xbd8f43f5	-0.06995384
85	0xbe6c519b	-0.23078005
86	0xbde7eeb2	-0.113248244
87	0xbd61daa1	-0.05514014
88	0xbd15b0f1	-0.036545698
89	0x3e64a01a	0.22326699
90	0x3bc3dce4	0.00597726
91	0xbf41e217	-0.7573561
92	0x3e0f0df6	0.1397017
93	0xbf031fce	-0.51220405
94	0x3e90cc41	0.28280833
95	0xbee7b4e4	-0.45255196
96	0x3e767d09	0.24071135
97	0x3ee81490	0.45328188
98	0xbd877e5c	-0.06615898
99	0x3f1f2470	0.62164974
100	0xbeff9258	-0.4991634
101	0x3dd0a3cd	0.101874925
102	0xbe9c91e2	-0.3058005
103	0x3dd654ee	0.10465418
104	0xbe5bee8f	-0.21477722
105	0xbf529999	-0.8226562
106	0x3efc2d9f	0.49253556
107	0xbeae6607	-0.34062216
108	0xbe52b15c	-0.2057547
109	0x3d8f6a60	0.07002711
110	0x3bf4f09e	0.007474973
111	0x3e7f7533	0.24947052
112	0x3e67a3e2	0.2262111
113	0x3dac94f9	0.08426852
114	0xbf42fe9a	-0.7616974
115	0x3e9b7bbe	0.30367845
116	0x3e9156ce	0.2838654
117	0xbeecc08a	-0.46240646
118	0xbe24e014	-0.16101104
119	0xbe5831d2	-0.21112755
120	0x3e500aca	0.20316616
121	0x3e44b7d8	0.19210756
122	0x3e104a55	0.14090855
123	0x3e9ad7ef	0.3024287
124	0x3e2e0523	0.16994147
125	0xbe20f7e6	-0.15719566
126	0x3df2a956	0.118487045
127	0x3e78a684	0.2428227
128	0xbe4fdcf4	-0.2029913
129	0xbf2b48ac	-0.66907763
130	0x3ee80475	0.453159
131	0x3eef83c2	0.4678021
132	0xbe509d56	-0.20372519
133	0x3e8f2657	0.27958938
134	0x3f1cb69c	0.6121614
135	0x3f0f4d86	0.55977666
136	0xbb8b5ddb	-0.004253132
137	0xbe46f848	-0.1943065
138	0xbe273533	-0.16328888
139	0x3e72193a	0.23642436
140	0x3cddeb80	0.027089834
141	0x3e184643	0.14870553
142	0xbe6a0dfa	-0.22856894
143	0xbd86338d	-0.06552801
144	0x3e8dddf8	0.2770841
145	0xbf02e0b8	-0.51124144
146	0x3e7c74de	0.24653956
147	0x3e76915a	0.24078885
148	0x3eb0746c	0.34463823
149	0x3e06c6ca	0.1316177
150	0xbdc15db5	-0.09441701
151	0x3ebd437e	0.36965555
152	0x3effe1a7	0.49976847
153	0x3d7cc2f3	0.061709356
154	0xbea2ff9f	-0.31835648
155	0xbf2b7156	-0.6696981
156	0xbefa4332	-0.4887939
157	0xbf3061db	-0.68899316
158	0x3f38c90a	0.7218176
159	0x3f0a260c	0.53964305
160	0x3ec91352	0.39272553
161	0x3e831fc9	0.25610188
162	0xbf2103cc	-0.6289642
163	0xbeaa6087	-0.3327677
164	0x3f2002c3	0.62504214
165	0x3e6450d2	0.22296456
166	0x3e0f81dc	0.14014381
167	0xbf8882cc	-1.0664916
168	0x3e41ca6d	0.18924876
169	0x3e8ed397	0.27895805
170	0xbece8253	-0.40333804
171	0xbe31cc3a	-0.17363063
172	0xbe34a6a4	-0.17641693
173	0x3ef854f0	0.48502302
174	0x3e3a4430	0.18190074
175	0xbf7ea770	-0.9947424
176	0x3e6a8039	0.22900476
177	0x3f0678bf	0.52527994
178	0x3d7a76d8	0.061148494
179	0x3f3077fa	0.6893307
180	0x3ce28d59	0.02765529
181	0x3b4e350b	0.0031464722
182	0xbd727e3f	-0.05920243
183	0xbf40cd68	-0.75313425
184	0x3f0ae345	0.54253036
185	0x3f0dfdb1	0.5546523
186	0x3e9eb4a3	0.3099719
187	0x3ddbf444	0.10739949
188	0xbeaf31ea	-0.3421777
189	0x3f263907	0.64930767
190	0x3ed6cd5c	0.41953552
191	0xbda0e6ca	-0.078565195
192	0xbec5d78f	-0.3864102
193	0xbe1aa7a4	-0.15103012
194	0x3da51889	0.0806132
195	0x3f0e4136	0.55568254
196	0x3d54d887	0.05196431
197	0x3ea20718	0.31646037
198	0xbea08ccf	-0.31357428
199	0x3d1979fd	0.037469853
200	0x3e45e071	0.19323899
201	0x3e9b1fda	0.30297738
202	0x3e1aae7e	0.15105626
203	0xbf03d335	-0.5149415
204	0x3ea06553	0.31327304
205	0xbe35431b	-0.1770138
206	0x3df1a7d6	0.1179959
207	0x3e82aa45	0.2552053
208	0xbd84f1a2	-0.064914
209	0x3f0fc22e	0.5615567
210	0x3dfe1b79	0.12407584
211	0x3eadebe4	0.33969033
212	0xbeaf6998	-0.3426025
213	0x3dbf15dc	0.09330341
214	0x3f38ec6e	0.72235763
215	0x3f03106d	0.5119694
216	0x3cc25565	0.02372236
217	0x3dee6a45	0.11641363
218	0xbf1c4c50	-0.61053944
219	0x3f029456	0.5100759
220	0xbe419ec7	-0.18908225
221	0x3ecb0d43	0.39658555
222	0x3e8b20c3	0.27173433
223	0xbe1210da	-0.14264241
224	0xbe5ca47b	-0.2154712
225	0x3ee7c299	0.45265654
226	0x3e816d0a	0.25278503
227	0x3ebdbfcf	0.370604
228	0xbda4b9b9	-0.08043236
229	0x3d932e62	0.07186581
230	0x3e0d7a6d	0.13816233
231	0xbd8c686a	-0.06855853
232	0x3f11da4b	0.56973714
233	0x3ee1b1e5	0.44081035
234	0xbeb85d57	-0.36008713
235	0x3e4e1fdf	0.20129345
236	0xbf7b0301	-0.9805146
237	0x3f156532	0.58357537
238	0xbd8191df	-0.06326651
239	0x3dfac77b	0.12245079
240	0xbf5e421c	-0.86819625
241	0xbd502fbe	-0.05082678
242	0x3dfbd3dd	0.12296269
243	0xbe649021	-0.22320606
244	0xbe15711f	-0.14593934
245	0x3e0dea22	0.13858846
246	0xbe829760	-0.25506115
247	0x3f097113	0.5368816
248	0x3ea6c30e	0.3257069
249	0x3e5d3a5e	0.21604297
250	0x3f500edc	0.81272674
251	0x3ec69fc1	0.38793758
252	0xbf0791f8	-0.52957106
253	0xbe4b76ec	-0.19869584
254	0xbf5d5ed0	-0.864728
255	0xbbb29f46	-0.005451116

aggregator.full.bias f4 [16]
0	0x3e0f0382	0.13966182
1	0x3e062366	0.13099441
2	0x3e5f87f5	0.21829207
3	0x3e58ea35	0.21183093
4	0x3e0d37b3	0.13790779
5	0x3e26cc12	0.16288784
6	0x3df219e1	0.11821342
7	0xbda0eb4c	-0.07857379
8	0x3e88b899	0.26703337
9	0x3e9f3cf5	0.31101194
10	0x3e616c11	0.2201388
11	0x3e312579	0.17299451
12	0x3e5c4f62	0.21514657
13	0x3e1fcbbc	0.15605062
14	0x3e66d721	0.22543003
15	0x3e8552d3	0.26039752

lstm.lstm.weight_ih_l0 f4 [64, 16]
0	0x3f2345cf	0.63778394
1	0x3ef65bac	0.48116815
2	0x3e317be0	0.17332411
3	0x3e5b77fa	0.21432486
4	0xbd52a554	-0.0514272
5	0x3f21c440	0.6319008
6	0x3e53ec3a	0.20695582
7	0xbd98a253	-0.07452836
8	0x3f05f4bc	0.5232656
9	0x3f4ec3fa	0.80767787
10	0x3ef3b6c6	0.47600383
11	0x3d99e838	0.07514995
12	0x3f3f0522	0.7461721
13	0x3f198f8e	0.5998467
14	0x3edab9c7	0.42719862
15	0x3f5aff31	0.8554564
16	0x3ef7aa44	0.4837209
17	0x3ee3f37e	0.44521707
18	0x3e6f69b9	0.23380174
19	0x3f0c096a	0.54701865
20	0x3e56653e	0.20937058
21	0x3ee2838d	0.4424099
22	0x3f0b8c65	0.545111
23	0xbe079c06	-0.13243112
24	0x3f10444c	0.5635421
25	0x3ebdd45c	0.3707608
26	0x3f525498	0.8216033
27	0x3f087d30	0.5331602
28	0x3e621dc0	0.22081661
29	0x3f1280c2	0.5722772
30	0x3f56ae6c	0.83859897
31	0x3f214505	0.6299594
32	0x3f272643	0.6529276
33	0x3e8490bc	0.25891674
34	0xbe157404	-0.14595038
35	0x3ec08a69	0.376056
36	0xbeed3eca	-0.46336967
37	0x3f2f70f4	0.6853173
38	0xbe6ea42c	-0.23304814
39	0xbea46fb8	-0.32116485
40	0x3e12570a	0.14291015
41	0x3f5058a7	0.8138527
42	0x3f0d0ff5	0.55102473
43	0x3e92b469	0.28653267
44	0xbf0c2e85	-0.54758483
45	0x3cb387a5	0.021915266
46	0x3f0f3f5e	0.55956066
47	0xbebedbcf	-0.37277076
48	0x3e9a9956	0.3019511
49	0x3e5d6b8e	0.2162306
50	0xbff0b4d6	-1.8805187
51	0x3cab04c6	0.0208763
52	0xbf3b7625	-0.7322715
53	0x3ecf2d11	0.4046407
54	0x3c12a654	0.0089507885
55	0xbe5eadbb	-0.2174596
56	0x3ee64223	0.44972333
57	0x3f01c5eb	0.50692624
58	0x3ea8f9a4	0.3300296
59	0xbba60383	-0.0050663366
60	0x3ea33612	0.3187719
61	0x3e3f4194	0.1867736
62	0xbcc5711f	-0.024101792
63	0x3f66cfb8	0.90160704
64	0x3ec75838	0.38934493
65	0x3ed304e6	0.41214675
66	0x3ecd802f	0.4013686
67	0xbe370b6c	-0.17875451
68	0xbe80eb56	-0.25179547
69	0x3eaaee51	0.33384946
70	0x3f001906	0.5003818
71	0xbaad594a	-0.0013225463
72	0x3f21e357	0.6323752
73	0x3e2b2842	0.16714576
74	0x3f374398	0.71587515
75	0x3e81a0d8	0.25318027
76	0x3ed8be42	0.42332655
77	0x3f1179b8	0.56826353
78	0x3ead49bf	0.33845326
79	0x3f1496a9	0.5804239
80	0x3f1b6b12	0.6071025
81	0x3e5db7fd	0.21652217
82	0x3e9969de	0.29963583
83	0x3f277cb7	0.65424675
84	0x3e84e118	0.25952983
85	0x3f2418b1	0.64100176
86	0x3f397df1	0.72457796
87	0xbf0a25b6	-0.5396379
88	0x3ee1fcd6	0.4413821
89	0x3e95d774	0.2926594
90	0x3ea62ba2	0.32455164
91	0x3f09a748	0.53770876
92	0x3f18b3de	0.59649456
93	0x3ecb5301	0.39711764
94	0x3f2a5bd8	0.6654639
95	0x3ee39dea	0.44456416
96	0x3e19250b	0.14955537
97	0x3e935280	0.2877388
98	0xbedf5480	-0.43619156
99	0xbf2b849b	-0.66999215
100	0xbf515bb2	-0.8178054
101	0x3ebbc578	0.36674094
102	0xbf58d53e	-0.8470038
103	0xbee9eac8	-0.45686936
104	0x3e098967	0.13431321
105	0x3ed1d306	0.4098131
106	0x3eea0c08	0.45712304
107	0xbed6dd3f	-0.41965672
108	0xbd6f6575	-0.058446366
109	0x3dd74086	0.10510354
110	0x3e567c7a	0.20945922
111	0xbe24a470	-0.16078353
112	0x3f0945cd	0.5362213
113	0x3f0b551b	0.54426736
114	0xbeea1ec3	-0.45726594
115	0xbf1719bf	-0.5902366
116	0xbf4a3830	-0.78991985
117	0x3e9248b5	0.28571096
118	0xbf510ef2	-0.8166343
119	0xbed612e4	-0.41811287
120	0x3f006c2c	0.5016506
121	0x3e1fab4b	0.15592687
122	0x3f096a59	0.536779
123	0xbee0e0c3	-0.4392148
124	0x3e17c81f	0.14822434
125	0x3f00d329	0.50322205
126	0x3e7c5afb	0.24644081
127	0x3e0aaa7b	0.13541596
128	0xbefcc2d8	-0.49367404
129	0xbebdab2d	-0.3704466
130	0x3db69dcd	0.08916817
131	0x3f17f48b	0.5935752
132	0x3ea3e987	0.32014105
133	0xbd7480c9	-0.05969313
134	0x3dc14c6d	0.09438405
135	0x3ee0b8fc	0.43891132
136	0xbf0d8237	-0.5527682
137	0x3e64457e	0.22292134
138	0xbeb31c38	-0.34982467
139	0x3f274948	0.65346193
140	0xbf30838b	-0.6895072
141	0xbf3b5c3a	-0.731876
142	0xbedc0562	-0.42972857
143	0xbeca8dfc	-0.3956145
144	0x3d90985f	0.070603125
145	0xbd477c0c	-0.048702285
146	0x3ee5fe94	0.4492079
147	0xbee2ed66	-0.44321746
148	0xbf495b9a	-0.786554
149	0xbe026eba	-0.12737551
150	0xbf200525	-0.6250785
151	0xbe293b32	-0.16526487
152	0xbd7ffb69	-0.062495623
153	0x3f02e457	0.5112967
154	0xbe5f3f09	-0.2180139
155	0xbec253d0	-0.3795457
156	0xbf2f5207	-0.6848454
157	0xbf24c283	-0.643593
158	0x3d908c44	0.070580035
159	0xbee2f24c	-0.44325483
160	0xbe8e90c2	-0.27844816
161	0xbed395da	-0.41325265
162	0x3ebfd04a	0.374636
163	0x3ee57a6f	0.44819972
164	0x3f033929	0.51259094
165	0xbd4de2c6	-0.050265096
166	0x3edeaaac	0.43489587
167	0xbe2fda12	-0.17173031
168	0xbec54baf	-0.38534304
169	0xbd8935f9	-0.066997476
170	0xbec0699a	-0.37580568
171	0x3ef207a1	0.47271445
172	0xbe4cfa35	-0.20017321
173	0xbe2f58e5	-0.17123754
174	0xbe885254	-0.2662531
175	0x3dadc5e4	0.0848501
176	0xbe9c93de	-0.30581564
177	0xbf1fcf21	-0.6242543
178	0x3e9bae04	0.304062
179	0x3ec2c5cc	0.38041532
180	0x3f678629	0.9043909
181	0xbe5c4073	-0.2150896
182	0x3ec8e323	0.39235792
183	0x3e76276a	0.24038473
184	0xbf3a9d78	-0.7289653
185	0xbd5cdf4c	-0.05392389
186	0xbecfa8ad	-0.40558377
187	0x3f300263	0.6875364
188	0xbecf735f	-0.4051771
189	0xbf0751d8	-0.5285926
190	0xbec107fc	-0.37701404
191	0xbf0713df	-0.52764696
192	0x3e6ce6d7	0.23134933
193	0x3f0dd6d6	0.5540594
194	0x3d968a2e	0.073505744
195	0xbf3a6ab4	-0.72819066
196	0xbf67ef5c	-0.9059961
197	0x3edc3f57	0.43017074
198	0xbf0c9373	-0.5491249
199	0xbd921827	-0.07133513
200	0x3ec320cf	0.38110968
201	0x3eceb8c1	0.4037533
202	0x3f0012a7	0.5002846
203	0xbf0f9d30	-0.56099224
204	0x3f232ff7	0.63745064
205	0x3ee68cf0	0.45029402
206	0x3d2d4cc1	0.042309526
207	0x3e3d9569	0.18514027
208	0x3ec93af6	0.39302796
209	0x3e0a8de7	0.13530694
210	0xbea7ecd0	-0.3279786
211	0xbed1ce9d	-0.40977946
212	0xbf0b6300	-0.54447937
213	0x3efb68fe	0.4910354
214	0xbf31d8c8	-0.69471407
215	0xbe4b57a4	-0.19857651
216	0x3e1fba4f	0.15598415
217	0x3de927af	0.11384522
218	0x3e1ed273	0.15509968
219	0xbecadb80	-0.3962059
220	0x3e19695e	0.149816
221	0x3eb4f3b1	0.35342172
222	0x3eb8988b	0.3605388
223	0x3e6a2eb8	0.22869384
224	0x3e6e8377	0.23292337
225	0x3e278f48	0.16363251
226	0x3d06463b	0.03278182
227	0xbf1c72c5	-0.61112624
228	0xbf2d1c41	-0.6762124
229	0x3df386e3	0.11890962
230	0xbf422a46	-0.75845754
231	0xbed96fd3	-0.42468128
232	0x3d6e9ea5	0.058256764
233	0x3eb70da3	0.35752591
234	0x3ef835b5	0.48478475
235	0xbf4f486d	-0.8096989
236	0x3d43b3ba	0.047778822
237	0x3ef4419d	0.4770631
238	0x3eeab8d0	0.45844126
239	0xbd2bded4	-0.041960552
240	0x3e66d170	0.22540832
241	0x3ec368df	0.38165948
242	0xbd90c97d	-0.07069681
243	0xbe86d3e9	-0.2633355
244	0xbf59fa68	-0.85147715
245	0x3f0255b0	0.50912
246	0xbf1e2045	-0.6176799
247	0xbe978ea2	-0.29601008
248	0x3ded6024	0.11590603
249	0x3e514998	0.2043823
250	0x3e0c6bb3	0.13712959
251	0xbf3ecd33	-0.7453186
252	0x3e35e781	0.17764093
253	0x3f0090d8	0.50221014
254	0x3ee78a56	0.4522273
255	0x3c4bd4f0	0.012440905

lstm.lstm.weight_hh_l0 f4 [64, 16]
0	0x3e9e3bfd	0.30905142
1	0x3ebb1b76	0.3654439
2	0xbe25ebe4	-0.16203266
3	0x3e62e2bc	0.22156805
4	0xbedd2121	-0.43189338
5	0x3c3160a2	0.010826262
6	0xbe1cb1e3	-0.15302233
7	0xbe4d9ede	-0.20080134
8	0xbf262878	-0.649055
9	0x3ef0ddcf	0.47044227
10	0xbe51e730	-0.20498347
11	0xbecec1bd	-0.40382186
12	0xbe3d42a4	-0.18482453
13	0xbf0a6a66	-0.540686
14	0xbe2215af	-0.15828584
15	0xbe7e3214	-0.24823791
16	0x3e643e91	0.22289492
17	0x3eb2a119	0.34888533
18	0xbe17c88e	-0.148226
19	0x3ee01df0	0.4377284
20	0xbeb99ce4	-0.3625251
21	0x3e7b51ce	0.24542925
22	0xbe9d3a7e	-0.30708688
23	0xbea0f213	-0.31434688
24	0xbeaa33b0	-0.3324256
25	0xbe7adcc6	-0.24498281
26	0xbf020b0b	-0.507981
27	0xbe9461b7	-0.289808
28	0xbe890ccb	-0.26767573
29	0xbbfbaad1	-0.007680275
30	0xbd11f7ac	-0.03563659
31	0xbe131b32	-0.14365843
32	0x3e2ddafc	0.16978067
33	0x3e36cf4c	0.17852515
34	0x3ecb0190	0.3964963
35	0x3ea6db70	0.32589293
36	0xbe9088fa	-0.28229505
37	0xbe865e5e	-0.2624387
38	0xbe8f92b9	-0.28041628
39	0xbec6a10e	-0.3879475
40	0xbe567e3e	-0.20946595
41	0xbe3d664e	-0.18496057
42	0xbe0afcec	-0.13573045
43	0xbe7d4cf7	-0.24736391
44	0xbea30891	-0.31842473
45	0xbe9527ed	-0.29132023
46	0xbe4528ab	-0.19253795
47	0xbecc1df3	-0.398666
48	0xbe94ba38	-0.29048324
49	0xbec22075	-0.37915388
50	0xbd5625d0	-0.052282155
51	0x3ef0809e	0.46973127
52	0x3ea86686	0.3289072
53	0xbe36e8bd	-0.1786222
54	0x3e2444e0	0.16041899
55	0xbd769664	-0.060202017
56	0x3c7c7640	0.015409052
57	0x3ea5fd00	0.32419586
58	0x3d3f74c8	0.04674223
59	0xbdaf9913	-0.085741185
60	0x3c5598f4	0.013036955
61	0x3d7a1271	0.061052743
62	0xbe79504b	-0.24347036
63	0xbce2d6b1	-0.027690263
64	0xbdd5ce72	-0.10439767
65	0x3e654e9b	0.22393267
66	0x3ec81f83	0.39086542
67	0x3eac5bfd	0.3366393
68	0x3d801c4c	0.06255397
69	0xbcaac19a	-0.02084427
70	0x3dd266f7	0.10273545
71	0xbe98ca32	-0.29841763
72	0xbeb4a1fd	-0.35279837
73	0xbd82bda3	-0.063838266
74	0xbf12b4d7	-0.5730719
75	0xbf1a5ca2	-0.60297596
76	0xbed681e4	-0.41895974
77	0xbdcb1b70	-0.09917343
78	0xbe5ac375	-0.21363623
79	0xbd683226	-0.05668845
80	0x3e8d1e17	0.2756202
81	0x3ddb7748	0.107161105
82	0xbe209eed	-0.15685625
83	0x3e4f3ba3	0.20237593
84	0xbef3e6a5	-0.47636905
85	0x3d9e1521	0.07718874
86	0xbebbea99	-0.3670242
87	0xbef952a3	-0.4869586
88	0xbef95dae	-0.48704284
89	0x3d34f531	0.044179145
90	0xbec00963	-0.37507161
91	0xbf38c8ac	-0.721812
92	0xbb99fd98	-0.00469942
93	0x3c7fb89d	0.01560798
94	0xbe867842	-0.26263624
95	0xbeff7db7	-0.499006
96	0xbea544c0	-0.32279015
97	0xbe02336d	-0.1271493
98	0x3f2d7adb	0.6776559
99	0xbe5c17b1	-0.21493413
100	0x3ef2c088	0.47412515
101	0xbe822c00	-0.25424194
102	0xbe6b3e9b	-0.22973101
103	0xbee7d826	-0.45282096
104	0x3e55289b	0.20816271
105	0x3e47cb08	0.19511044
106	0x3ec97e1a	0.3935402
107	0x3ebed0ea	0.37268764
108	0xbf0cf978	-0.5506816
109	0xbdda9648	-0.10673195
110	0xbe8c8ca4	-0.2745105
111	0xbdadf710	-0.08494389
112	0xbe9a694a	-0.30158454
113	0xbe7e3ee6	-0.24828681
114	0x3eee2f7d	0.46520606
115	0x3e3ccd39	0.18437661
116	0x3d68cf3e	0.056838267
117	0xbe96893a	-0.2940157
118	0xbf05ee7a	-0.5231701
119	0xbe779785	-0.24178894
120	0xbe1b883b	-0.15188687
121	0x3ed4dd9a	0.4157532
122	0x3e928d8b	0.28623614
123	0x3eeb9128	0.46009183
124	0xbec4ef35	-0.3846375
125	0xbe7d6354	-0.24744922
126	0xbda9e6a0	-0.08295941
127	0xbee2e8d5	-0.44318262
128	0xbdebbc12	-0.11510481
129	0x3eaccd9b	0.33750615
130	0xbee24cce	-0.44199222
131	0xbe51a471	-0.20472886
132	0xbf6a1967	-0.9144501
133	0x3e0d39a5	0.13791521
134	0x3dd355e6	0.10319118
135	0x3e88d789	0.2672694
136	0xbf0dfd53	-0.5546467
137	0xbd06b00b	-0.03288273
138	0xbee59428	-0.44839597
139	0xbebb1ade	-0.36543936
140	0x3f00d5d5	0.5032628
141	0x3f058c5f	0.52167314
142	0x3ebb3776	0.3656575
143	0x3eba267a	0.3635748
144	0xbeee95c9	-0.46598652
145	0xbf5015f5	-0.81283504
146	0x3f4b4fa4	0.79418397
147	0x3f6e3685	0.9305194
148	0xbdd016d3	-0.101606034
149	0xbe8fef1c	-0.28112113
150	0xbed3c6b7	-0.41362545
151	0xbe6548a4	-0.22390991
152	0xbd5b0f95	-0.053481657
153	0xbedad3cf	-0.42739722
154	0x3ecee5ee	0.40409797
155	0x3e8f52e3	0.27992925
156	0x3df2dc31	0.118584044
157	0xbdb8e4cf	-0.09028017
158	0xbdfd8655	-0.123791374
159	0x3d41b64d	0.047292996
160	0x3f07244b	0.52789754
161	0x3eb5c764	0.35503685
162	0xbeb9d3f1	-0.3629451
163	0xbcbbca98	-0.022923753
164	0xbc536efe	-0.012904881
165	0x3e605548	0.21907532
166	0xbd9e0c60	-0.07717204
167	0xbda4bd11	-0.08043874
168	0xbe72987f	-0.23690985
169	0xbd237502	-0.03990651
170	0xbf016aee	-0.50553787
171	0xbf186a99	-0.59537655
172	0x3e9a18c9	0.30097035
173	0x38af3645	8.354759e-05
174	0x3de283dd	0.11060307
175	0xbe4e6755	-0.20156606
176	0x3b151a1a	0.0022751153
177	0x3f10e3cc	0.5659759
178	0xbde425d5	-0.111400284
179	0x3d5ca542	0.05386854
180	0xbf1bb038	-0.60815763
181	0x3d13072d	0.035895515
182	0x3ddb7b6b	0.107168995
183	0x3e780245	0.24219616
184	0xbeab8395	-0.33498827
185	0xbee9d6c3	-0.45671663
186	0xbed39ec0	-0.41332054
187	0xbf09c9a7	-0.5382332
188	0x3ee5e62e	0.44902176
189	0x3dd2cb8c	0.1029273
190	0x3e135af2	0.14390162
191	0xbc8729c2	-0.016499404
192	0xbf35be4c	-0.70993495
193	0xbe3dae53	-0.1852353
194	0x3d852489	0.06501109
195	0x3e2a5196	0.16632685
196	0x3eb79203	0.35853586
197	0xbe75a68e	-0.23989317
198	0xbe1e42a4	-0.15455109
199	0xbe87abdb	-0.26498303
200	0xbb47312e	-0.0030394304
201	0x3eaae584	0.33378232
202	0x3eeb73e3	0.45986852
203	0x3f13358e	0.5750359
204	0x3beb045a	0.0071721496
205	0xbd1fd1ab	-0.039018314
206	0xbec067d0	-0.37579203
207	0x3da934e9	0.08262045
208	0xbf3aa6f6	-0.7291101
209	0xbec0e5f0	-0.37675428
210	0x3e742cb2	0.23845175
211	0x3e8af44f	0.27139518
212	0x3eae21fb	0.340103
213	0xbe1cd24e	-0.153146
214	0xbe7c0675	-0.24611838
215	0x3c5b1cb5	0.0133735435
216	0x3e9c5d23	0.30539808
217	0xbc6d5e36	-0.014487794
218	0x3ee25b5d	0.4421033
219	0x3f487929	0.78309876
220	0xbe2a306c	-0.16620034
221	0xbec07b7d	-0.37594214
222	0xbe4a4604	-0.19753271
223	0xbe67f88c	-0.22653407
224	0xbe936fea	-0.2879632
225	0xbf03dad2	-0.5150577
226	0x3eb8cf19	0.36095503
227	0x3eb35518	0.3502586
228	0x3e9f02ad	0.3105673
229	0xbec82f5d	-0.39098635
230	0xbf193780	-0.5985031
231	0xbdda66b9	-0.10664124
232	0xbd5f7c29	-0.054561768
233	0xbe4b7fe5	-0.19873007
234	0x3ea63bcb	0.32467493
235	0x3e7a5aff	0.24448775
236	0xbe204df8	-0.15654743
237	0xbec0fd1d	-0.3769311
238	0xbd889323	-0.06668689
239	0xbeaadfaf	-0.33373782
240	0xbe9850b0	-0.2974906
241	0xbe4964ce	-0.1966736
242	0x3dc0231c	0.093816966
243	0x3e8bc62c	0.2729963
244	0xbd42cd68	-0.047559172
245	0xbec0db72	-0.37667423
246	0xbed54e93	-0.4166151
247	0xbedcc6e6	-0.43120497
248	0x3e2fe4ab	0.17177074
249	0xbba33d98	-0.004981708
250	0x3eadd202	0.33949286
251	0x3ee4e876	0.44708604
252	0xbdd5cd98	-0.104396045
253	0xbda49dbf	-0.080379
254	0xbec6faac	-0.38863122
255	0xba82d54d	-0.0009981781

lstm.lstm.bias_ih_l0 f4 [64]
0	0x3eb470db	0.35242352
1	0x3eeeff48	0.4667914
2	0x3ed19241	0.40931895
3	0x3d8666db	0.06562587
4	0x3edfa38c	0.43679464
5	0x3f100a3b	0.5626561
6	0x3bfaa9a6	0.007649618
7	0x3e34f8d2	0.17673042
8	0x3e2ae463	0.16688685
9	0x3d4f6834	0.050636485
10	0x3db3cd10	0.08779347
11	0xbe397a64	-0.18113095
12	0x3b92d0d8	0.0044804625
13	0x3dcbe731	0.09956206
14	0x3d98dcd6	0.07463996
15	0x3e3ffc75	0.18748648
16	0x3f2a207a	0.66455805
17	0x3f31334b	0.6921889
18	0x3e3b648f	0.18300079
19	0x3e152117	0.14563404
20	0x3f0ea74f	0.5572404
21	0x3f0e4f39	0.55589634
22	0xbda6435b	-0.08118316
23	0x3ec92211	0.39283803
24	0x3e910175	0.28321424
25	0xbed74ffe	-0.42053217
26	0xbd920c46	-0.07131247
27	0x3da84ecc	0.08218154
28	0x3ebb70a5	0.36609378
29	0x3dc3e454	0.095650345
30	0xbd61f750	-0.055167496
31	0x3ed39c1a	0.41330034
32	0x3de3a52b	0.11115488
33	0xbd4656db	-0.048422676
34	0x3e640770	0.22268462
35	0x3e73848f	0.23781036
36	0x3e3d8fc6	0.18511876
37	0xbe8f8bbc	-0.28036296
38	0xbe2762b8	-0.16346252
39	0xbee8b6ef	-0.45452067
40	0x3d565d95	0.05233534
41	0xbe0187fa	-0.12649527
42	0xbdbac596	-0.09119718
43	0xbe217430	-0.15766978
44	0xbea84089	-0.32861736
45	0xbe3b55ab	-0.18294398
46	0xbe8cdc5e	-0.27511877
47	0xbea6199a	-0.32441407
48	0x3e582c02	0.21110538
49	0x3eb4d681	0.35319903
50	0x3f261c51	0.6488696
51	0x3ec464ba	0.38358098
52	0x3e7e13e6	0.24812278
53	0x3f4855a5	0.78255683
54	0x3da37146	0.079805896
55	0x3ee0c7f6	0.43902558
56	0x3e3d3632	0.18477705
57	0x3a9b4959	0.0011847421
58	0x3e45d689	0.1932012
59	0xbdd909b6	-0.10597555
60	0xbcf4966f	-0.029856889
61	0x3eaf7c9d	0.3427476
62	0xbc5f54fc	-0.013631102
63	0x3ece995e	0.40351385

lstm.lstm.bias_hh_l0 f4 [64]
0	0x3ecc949a	0.39957124
1	0x3f3fc564	0.7491057
2	0x3e97591b	0.2956017
3	0x3e18eab2	0.14933279
4	0x3f01ab1a	0.50651705
5	0x3f2d315e	0.67653453
6	0x3d88339e	0.0665047
7	0x3eb26e48	0.34849763
8	0x3e49cbc1	0.19706632
9	0xbe09d308	-0.13459408
10	0x3d2c8f88	0.04212907
11	0xbdd3602f	-0.1032108
12	0xbdca3afb	-0.09874531
13	0xbdf81043	-0.12112477
14	0x3ea777c5	0.32708564
15	0x3e8e1f42	0.27758223
16	0x3ee96f6b	0.45592818
17	0x3f61192f	0.8792905
18	0x3e725f01	0.23669054
19	0x3ee2fb07	0.44332144
20	0x3f0a93f6	0.5413202
21	0x3f076b0f	0.52897733
22	0x3db2a04b	0.0872198
23	0x3ed95bad	0.42452756
24	0x3c5a84d3	0.013337332
25	0xbea1f3db	-0.3163136
26	0xbd22ad36	-0.039715968
27	0xbd9db8f6	-0.07701294
28	0x3e799f0f	0.24377082
29	0x3ea23553	0.31681308
30	0xbc1eaff3	-0.009685504
31	0xbd097f70	-0.0335688
32	0xbdddfecb	-0.108396135
33	0xbdaa71e7	-0.083225064
34	0x3c975e73	0.018477654
35	0x3ecf1d09	0.4045184
36	0x3dfddf31	0.12396086
37	0xbecb91d5	-0.397597
38	0x3dac50d0	0.08413851
39	0xbeb8eb2e	-0.36116928
40	0xbd7e9c2c	-0.062160656
41	0xbe2efde2	-0.17089036
42	0xbd450dc1	-0.04810882
43	0x3e232409	0.15931715
44	0xbe87ed14	-0.26548064
45	0xbe4fbb8e	-0.2028639
46	0xbde301d8	-0.11084336
47	0xbe8a9d1f	-0.27073
48	0x3e8fd711	0.2809377
49	0x3ef343d7	0.47512695
50	0x3eed037a	0.46291715
51	0x3ef26e76	0.473499
52	0xbd763e77	-0.060118165
53	0x3f6c3034	0.9226105
54	0xbd13f9af	-0.03612679
55	0x3e9e1e7a	0.30882627
56	0x3c3d7c30	0.011565253
57	0x3cdcef3a	0.02696954
58	0x3d8e7901	0.069566734
59	0xbdc198f2	-0.09453
60	0x3db0bad1	0.086293824
61	0xbdc79160	-0.09744525
62	0x3ce8a0dd	0.028397018
63	0x3edca03d	0.43091002

downstream.full.weight f4 [6, 16]
0	0x3ed63798	0.4183929
1	0xbcdcfa00	-0.026974678
2	0xbed41646	-0.41423243
3	0x3efa5936	0.48896188
4	0xbf036863	-0.51331156
5	0xbb47bb00	-0.003047645
6	0x3e9c1350	0.30483484
7	0xbd049a30	-0.032373607
8	0x3ce3f8a0	0.027828515
9	0x3e4d3e94	0.20043403
10	0x3ebcba4a	0.36860877
11	0x3eede62e	0.46464676
12	0xbec82dc8	-0.39097428
13	0x3ef2d956	0.4743144
14	0xbe3a7afe	-0.1821098
15	0xbee77942	-0.452097
16	0x3da686e8	0.081312
17	0x3f03f0c3	0.5153925
18	0xbe7de0f4	-0.24792844
19	0xbe676e90	-0.2260077
20	0xbce2e8c0	-0.027698874
21	0xbed54173	-0.41651496
22	0xbe3c6584	-0.183981
23	0xbe9b855c	-0.30375183
24	0x3d3adbe0	0.045619845
25	0x3e197688	0.14986622
26	0x3d983c68	0.074333966
27	0x3ec4972e	0.3839659
28	0xbd995790	-0.07487404
29	0xbe59e9b0	-0.21280551
30	0x3e3c1d50	0.18370557
31	0xbed410d3	-0.41419086
32	0x3c80aca0	0.015707314
33	0xbeb4a73a	-0.35283834
34	0x3e099f6c	0.13439721
35	0x3e731998	0.23740232
36	0x3d48c110	0.049012244
37	0x3ea54b82	0.3228417
38	0x3eea91d0	0.4581437
39	0x3eaee690	0.3416028
40	0xbee8a20f	-0.4543614
41	0xbdcbcce8	-0.09951192
42	0x3eb5636e	0.3542742
43	0xbdefc0cc	-0.11706695
44	0x3ea3a4bc	0.3196162
45	0xbd4707f8	-0.048591584
46	0xbe933493	-0.28751048
47	0x3e96b22c	0.2943281
48	0x3e5895e8	0.21150935
49	0x3efc296e	0.49250358
50	0xbe880cbe	-0.26572222
51	0x3dfaf258	0.12253255
52	0xbcde2f60	-0.0271222
53	0xbead744d	-0.33877793
54	0xbe5182c2	-0.20460036
55	0x3eee9bae	0.4660315
56	0x3ee3d5cc	0.44499052
57	0xbde5f304	-0.11227992
58	0xbeaac2d7	-0.33351776
59	0xbea0b394	-0.31387007
60	0x3ef0814c	0.46973646
61	0xbf0144fc	-0.50495887
62	0x3eab69d2	0.33479172
63	0xbeaeda42	-0.34150892
64	0xbe4b67c8	-0.19863808
65	0x3eda1b9a	0.42599183
66	0xbeb4c7b8	-0.35308623
67	0x3e36e8ec	0.1786229
68	0x3e39a168	0.18127978
69	0xbe6a0680	-0.22854042
70	0x3d5baa80	0.0536294
71	0x3e37c1f0	0.17945075
72	0x3dd847b0	0.10560548
73	0xbdd890d8	-0.10574502
74	0x3e087b00	0.13328171
75	0xbe56679c	-0.20937961
76	0xbeac5ab8	-0.33662963
77	0x3e927f6a	0.28612834
78	0xbea6d279	-0.32582453
79	0x3ec4b4bc	0.3841914
80	0x3e966e2a	0.29380924
81	0xbebf0114	-0.3730551
82	0x3e9a5be0	0.3014822
83	0x3e3b4b30	0.182904
84	0xbefb10f5	-0.49036375
85	0xbed199bb	-0.409376
86	0xbe9027e7	-0.28155443
87	0xbe8c0a70	-0.27351713
88	0x3c96a6e0	0.01839012
89	0xbe5487a6	-0.20754871
90	0xbe2adad6	-0.16685042
91	0x3f027395	0.50957614
92	0xbeb20f98	-0.34777522
93	0xbe6a4f38	-0.22881782
94	0xbe852e88	-0.26012063
95	0xbe496fd4	-0.19671565

downstream.full.bias f4 [6]
0	0x3ddc45a8	0.107554734
1	0x3e056b22	0.13029149
2	0x3e3acb6e	0.18241665
3	0x3dcb7224	0.0993388
4	0x3d060808	0.032722503
5	0xbd0009c8	-0.031259328

maxpooling.full.weight f4 [16, 16]
0	0x3ea4805f	0.3212919
1	0xbe58eaac	-0.2118327
2	0xbeb95873	-0.36200294
3	0xbecd3323	-0.40078077
4	0x3d768858	0.06018862
5	0x3ebe5e5f	0.37181374
6	0x3d858c78	0.06520933
7	0xbc0b9380	-0.008519053
8	0xbe9271da	-0.28602487
9	0x3ccd78e0	0.025082052
10	0xbe4a245f	-0.19740437
11	0x3e705c4a	0.23472705
12	0xbe847a7a	-0.25874692
13	0xbedbb9af	-0.42915103
14	0xbed493f6	-0.41519135
15	0x3e3fbb16	0.18723711
16	0xbed1b670	-0.409595
17	0xbd595d50	-0.053067505
18	0x3ed171a5	0.40907016
19	0xbd51db70	-0.051234663
20	0x3e61183e	0.21981904
21	0x3e819a73	0.25313148
22	0x3e3ca68a	0.18422905
23	0x3e94e08b	0.29077563
24	0xbec090d5	-0.37610498
25	0xbe72240e	-0.23646566
26	0x3ecf48eb	0.4048532
27	0xbed510a0	-0.41614246
28	0xbe0e191c	-0.13876766
29	0x3d3aabf0	0.04557413
30	0x3a246c00	0.0006272197
31	0x3e7a8b02	0.2446709
32	0xbecff688	-0.40617776
33	0x3d501d38	0.050809115
34	0xbecc0512	-0.39847618
35	0xbec5404f	-0.38525626
36	0xbe59450d	-0.21217747
37	0x3dfac194	0.12243953
38	0xbe9f2f7b	-0.31090912
39	0x3d21c6c0	0.039496183
40	0xbd0fb018	-0.035080045
41	0xbe7dd196	-0.24786982
42	0xbdf7ee98	-0.12106055
43	0xbd78d988	-0.06075433
44	0x3d34b618	0.04411897
45	0x3eac8a6d	0.3369936
46	0x3e304ae6	0.17216071
47	0x3da37dac	0.079829544
48	0x3e138426	0.1440588
49	0xbd07f098	-0.033188432
50	0x3eda18eb	0.42597136
51	0x3da6abec	0.0813826
52	0xbd7ca038	-0.061676234
53	0x3e81e68d	0.2537121
54	0xbea82733	-0.32842407
55	0xbed2e728	-0.41191983
56	0x3e286446	0.16444501
57	0x3ed736af	0.42033908
58	0x3e662c6a	0.2247788
59	0x3eb02a97	0.34407493
60	0x3e83f199	0.25770262
61	0x3ec0cfd7	0.3765857
62	0x3dd86274	0.105656534
63	0x3ece99e7	0.40351793
64	0x3d34eef0	0.04417318
65	0x3d88e2c0	0.06683874
66	0x3ec983e1	0.39358428
67	0x3cf653a0	0.030069172
68	0x3ea46649	0.32109287
69	0x3ebfdb25	0.37471882
70	0x3e255552	0.16145828
71	0x3ec7bea9	0.3901265
72	0x3e7db5fa	0.2477645
73	0x3ecb0475	0.39651838
74	0xbe652805	-0.22378547
75	0xbcb5f6a0	-0.022212327
76	0xbecdfe06	-0.40232867
77	0x3e1b912e	0.151921
78	0xbdeea530	-0.11652601
79	0x3e0e1306	0.13874444
80	0xbe86d0ea	-0.26331264
81	0xbea1f31b	-0.31630787
82	0x3dafb40c	0.08579263
83	0xbecccfda	-0.40002328
84	0x3e1335ea	0.14376035
85	0xbe0cae58	-0.13738382
86	0x3e957723	0.29192457
87	0xbdd4d524	-0.10392216
88	0x3e88e3eb	0.26736388
89	0xbbd4bac0	-0.006491989
90	0xbe6ee050	-0.23327756
91	0x3e12c112	0.14331463
92	0xbe5a8752	-0.21340683
93	0xbea92a39	-0.33040026
94	0xbe821298	-0.2540481
95	0xbeba86d4	-0.3643099
96	0x3edac853	0.4273096
97	0x3e91fc45	0.2851278
98	0x3e371f8a	0.17883125
99	0x3edbb381	0.42910388
100	0x3e31cf42	0.17364219
101	0x3cf07f80	0.029357672
102	0xbec15a34	-0.37764132
103	0xbea80b02	-0.32820898
104	0x3ec482ff	0.38381192
105	0xbec804ba	-0.39066106
106	0xbea513b3	-0.32241592
107	0x3e83935f	0.25698373
108	0x3deda66c	0.11604008
109	0xbe6b6bce	-0.22990343
110	0xbe78e991	-0.24307849
111	0xbdd9a66c	-0.106274456
112	0xbe852f6a	-0.26012737
113	0x3e9df1a9	0.30848435
114	0x3dd6ae44	0.10482457
115	0xbe64784f	-0.22311519
116	0xbddb25d4	-0.107005745
117	0x3ed66a77	0.418781
118	0xbe49a899	-0.19693221
119	0xbe0e2254	-0.13880283
120	0xbddc4998	-0.107562244
121	0x3e1300d6	0.14355788
122	0xbedc4417	-0.43020698
123	0x3eb9720b	0.3621982
124	0x3ecd85d7	0.40141174
125	0x3ac22900	0.0014813244
126	0xbe8aa292	-0.27077156
127	0x3ec9d451	0.39419797
128	0x3db326fc	0.0874767
129	0xbc21e280	-0.009880662
130	0x3eb4870b	0.3525928
131	0x3e5d80ce	0.21631166
132	0xbe296f26	-0.16546306
133	0xbd9956e8	-0.07487279
134	0xbe979c78	-0.29611564
135	0x3ebb5499	0.3658798
136	0xbd2af120	-0.04173386
137	0x3ec45945	0.38349357
138	0x3e5d879a	0.21633759
139	0x3d233898	0.039848894
140	0x3ca215e0	0.019785821
141	0xbc439b20	-0.01193884
142	0xbe64afc7	-0.22332679
143	0xbca86680	-0.020556688
144	0xbeb41cda	-0.35178262
145	0xbe416b04	-0.1888848
146	0xbe8d8305	-0.27639022
147	0x3ed6146b	0.41812453
148	0x3c9e0e70	0.019293994
149	0xbdf7c158	-0.12097424
150	0x3ec33e4b	0.38133463
151	0xbed448c7	-0.41461775
152	0xbe39a0fe	-0.1812782
153	0xbed4be97	-0.4155166
154	0x3eac25df	0.33622643
155	0xbe0a03e4	-0.13478047
156	0xbe6f2286	-0.23353013
157	0xbe965ee4	-0.2936927
158	0x3e00c04a	0.12573352
159	0xbd1d8f48	-0.03846672
160	0x3ebf6803	0.37384042
161	0x3bbf6040	0.0058403313
162	0x3e3e5446	0.18586835
163	0x3e94f5cb	0.29093775
164	0xbed085ff	-0.4072723
165	0x3eb68089	0.3564494
166	0x3eb5eca5	0.35532108
167	0xbeba1713	-0.3634573
168	0xbeb4bc1e	-0.35299772
169	0xbe1077b2	-0.1410816
170	0xbe43b183	-0.19110684
171	0xbe37d144	-0.17950922
172	0x3de9c62c	0.114147514
173	0xbbdcf940	-0.00674358
174	0xbe238ae6	-0.15970954
175	0x3eda472b	0.42632422
176	0xbea245a2	-0.3169375
177	0x3e8679d3	0.2626482
178	0xbbf44b40	-0.0074552596
179	0x3e79055e	0.24318454
180	0xbd6ddc90	-0.058071673
181	0xbc8b3b00	-0.016995907
182	0xbe4d0b01	-0.20023729
183	0x3eda9ad1	0.4269624
184	0xbcd5c1e0	-0.026093423
185	0xbe34fc2e	-0.17674324
186	0xbe187e34	-0.14891893
187	0x3dbbed1c	0.091760844
188	0xbe3856c8	-0.18001854
189	0x3ed1fcad	0.4101309
190	0x3eafde9b	0.34349522
191	0xbeb8b3fe	-0.36074823
192	0xbe83fea2	-0.25780207
193	0xbed6b7f3	-0.41937217
194	0x3d7d96e0	0.061911464
195	0x3e9d0c19	0.30673292
196	0xbed74406	-0.42044085
197	0x3ea951bd	0.33070174
198	0xbdcc282c	-0.099686
199	0x3dbe8074	0.09301844
200	0x3eb21265	0.3477966
201	0xbe8756bc	-0.2643336
202	0xbeacc954	-0.3374735
203	0xbd81daa0	-0.063405275
204	0x3ec93107	0.39295217
205	0xbe842f63	-0.25817403
206	0xbeb5ff86	-0.3554651
207	0x3dc3c3dc	0.095588416
208	0xbe1d8a1a	-0.15384713
209	0x3daf8d1c	0.08571836
210	0x3b231000	0.0024881363
211	0x3cf306a0	0.029666245
212	0xbe72f18c	-0.23724955
213	0x3e83e089	0.25757244
214	0xbd5ec370	-0.054385602
215	0x3e956a13	0.2918249
216	0xbeb5d9c0	-0.35517693
217	0xbb657f00	-0.0035018325
218	0xbdaebd40	-0.0853219
219	0x3e868415	0.26272646
220	0xbcd73610	-0.026270896
221	0xbec62d8e	-0.3870663
222	0xbe802b81	-0.2503319
223	0x3de22be4	0.11043528
224	0x3d368c78	0.044567555
225	0x3eb94d5b	0.3619183
226	0x3e4ed55e	0.2019858
227	0x3ebcbd43	0.36863145
228	0x3eba7e45	0.3642446
229	0x3e71f27e	0.2362766
230	0x3e3ff3ce	0.18745348
231	0xbe9f8326	-0.31154746
232	0x3e3584d2	0.17726448
233	0xbecf8283	-0.4052926
234	0xbe119092	-0.14215305
235	0xbd375780	-0.04476118
236	0x3dfa8eac	0.12234244
237	0x3ea23083	0.31677637
238	0xbe5686d6	-0.20949873
239	0xbd881154	-0.0664393
240	0x3e89dcc7	0.26926252
241	0x3ec134df	0.3773565
242	0x39cea800	0.00039416552
243	0xbc9a0eb0	-0.018805832
244	0xbe5bdce9	-0.2147099
245	0x3e91ef05	0.2850267
246	0x3daea0f4	0.08526793
247	0x3c2ea160	0.010658592
248	0xbe9d71eb	-0.30750975
249	0x3e3e48ca	0.18582454
250	0x3e589c16	0.21153292
251	0xbe101b4a	-0.1407291
252	0x3e7adb26	0.24497661
253	0x3e310f6a	0.17291036
254	0xbeb0e8c4	-0.34552586
255	0xbea41189	-0.32044628

maxpooling.full.bias f4 [16]
0	0xbdcc0808	-0.09962469
1	0x3e252568	0.1612755
2	0x3e38a7bc	0.18032736
3	0x3db6c9b8	0.089251935
4	0x3cdf8ce0	0.027288854
5	0xbe5167ca	-0.20449749
6	0x3e3240be	0.1740751
7	0xbdb9a4f0	-0.090646625
8	0x3e3642ec	0.17798966
9	0x3e75e598	0.24013364
10	0x3e2b43ca	0.16725078
11	0xbe0926ca	-0.13393703
12	0x3dc94220	0.098270655
13	0x3e7f8a8a	0.24955192
14	0x3e3180ac	0.1733424
15	0xbe64ecac	-0.22355908

mean.full.weight f4 [16, 32]
0	0x3cbc1fa0	0.022964299
1	0xbe3d0bd3	-0.18461542
2	0x3d604e10	0.054761946
3	0xbc4d0480	-0.01251328
4	0xbe8535cf	-0.26017615
5	0xbe1f9fe3	-0.15588336
6	0xbe45ef95	-0.19329675
7	0xbd77f4d0	-0.060536206
8	0x3d1d2498	0.038364977
9	0x3e5b155a	0.21394864
10	0x3d0b4358	0.03399977
11	0xbdaac184	-0.083376914
12	0xbe4cf82c	-0.20016545
13	0x3e869acd	0.2628998
14	0xbd8d4368	-0.06897622
15	0xbe9ccfb7	-0.30627224
16	0xbe8b7ef5	-0.27245298
17	0x3e96623f	0.2937183
18	0xbe8f726a	-0.28016979
19	0x3e0564d0	0.13026738
20	0xbd9054a8	-0.07047397
21	0x3e279ec2	0.16369155
22	0x3e3220c6	0.17395315
23	0x3deb8da4	0.11501625
24	0xbd2a8ad8	-0.041636318
25	0xbe12c03b	-0.14331143
26	0xbe0347c8	-0.12820351
27	0x3e933a8d	0.28755608
28	0x3e9b6ad3	0.30354938
29	0x3dc2aa98	0.095051944
30	0x3decfd9c	0.1157181
31	0xbe8a028c	-0.26955068
32	0xbe81c343	-0.25344285
33	0xbe0abf00	-0.13549423
34	0xbe873e44	-0.26414692
35	0xbe33c62d	-0.17556067
36	0x3d1c6f88	0.038192302
37	0x3dc0b0bc	0.094087094
38	0xbe5934c1	-0.2121153
39	0xbe182259	-0.14856853
40	0x3d3bc340	0.0458405
41	0x3e21dc6a	0.15806738
42	0xbea198c6	-0.3156187
43	0x3d9bc844	0.07606557
44	0x3e9bb8d5	0.30414453
45	0xbe807030	-0.25085592
46	0xbe81750e	-0.25284618
47	0xbe90f865	-0.2831451
48	0x3e9e6c51	0.30942014
49	0x3e8a26db	0.2698277
50	0x3db5788c	0.08860883
51	0xbe2e6b4e	-0.17033121
52	0xbe605e29	-0.21910919
53	0xbcfc3810	-0.030788451
54	0x3c8f1230	0.017464727
55	0xbe0465f5	-0.12929519
56	0xbdc9ad0c	-0.09847459
57	0x3c29ac80	0.010356069
58	0xbe8aed66	-0.27134246
59	0x3e1a715a	0.15082303
60	0xbda72f6c	-0.08163342
61	0x3ce66330	0.028123468
62	0xbe881a73	-0.2658268
63	0xbe49b01c	-0.19696087
64	0x3e92b1e7	0.28651354
65	0xbe9fd3fd	-0.31216422
66	0x3e5509e6	0.20804557
67	0x3c8b6960	0.01701802
68	0xbd9b9864	-0.075974256
69	0x3e9f8fdb	0.3116444
70	0x3dc20bbc	0.094748944
71	0x3e1af022	0.15130666
72	0x3e50ca02	0.2038956
73	0xbea6da51	-0.32588437
74	0xbda2999c	-0.07939455
75	0xbeb304e9	-0.34964684
76	0x3e8fedf9	0.28111246
77	0xbe4f2d2c	-0.20232075
78	0x3e95b487	0.29239294
79	0x3ea4d879	0.32196406
80	0xbe6ee53e	-0.23329636
81	0x3ded4b68	0.11586648
82	0xbd8b4514	-0.06800285
83	0x3e7f4a16	0.24930605
84	0xbe06acb1	-0.13151814
85	0x3d5083c0	0.050906897
86	0x3e4f96c2	0.20272353
87	0x3ea4a999	0.32160643
88	0x3e37f35a	0.17963925
89	0xbeb1c97f	-0.34724042
90	0x3e8d8c37	0.27646038
91	0xbccdbee0	-0.02511543
92	0xbe6e8347	-0.23292266
93	0xbd97f37c	-0.07419488
94	0xbe57d3aa	-0.21076837
95	0xbead8b7f	-0.3389549
96	0xbeaf4f62	-0.34240252
97	0xbe9f01cb	-0.31056055
98	0xbe1a7e43	-0.15087228
99	0x3e836573	0.25663337
100	0x3d2bce00	0.041944504
101	0x3e8d7681	0.27629474
102	0x3eaf0677	0.3418462
103	0xbe882044	-0.26587117
104	0xbc6e8860	-0.0145588815
105	0x3c7fd360	0.015614361
106	0x3e8d4f2b	0.27599463
107	0x3e70a3de	0.2350001
108	0xbe0952a7	-0.13410436
109	0x3e182762	0.14858773
110	0xbea25ec6	-0.3171293
111	0xbe3f40c5	-0.18677051
112	0xbe46a365	-0.19398268
113	0x3b097c00	0.002097845
114	0x3d515b08	0.051112205
115	0xbea9c4be	-0.33157915
116	0x3dbd9b9c	0.09258196
117	0x3ead63f3	0.33865318
118	0x3c23c6a0	0.009996086
119	0x3e8e1363	0.27749166
120	0x3db89aa8	0.09013873
121	0x3c28a920	0.010294229
122	0xbe6e8bba	-0.23295489
123	0x3d93ce08	0.07217032
124	0xbe1d7dc5	-0.15380009
125	0xbeb049dd	-0.34431353
126	0x3e97a585	0.2961847
127	0xbddd3286	-0.10800652
128	0xbe0f3711	-0.1398585
129	0xbd1becb8	-0.03806755
130	0x3e80c6b5	0.251516
131	0xbe1ea5fe	-0.15493008
132	0xbe9c6e94	-0.30553114
133	0x3ccf70c0	0.025322318
134	0x3e977c9f	0.29587266
135	0xbde17cae	-0.11010109
136	0x3d18f988	0.037347347
137	0x3e91ef5d	0.28502932
138	0xbda83410	-0.08213055
139	0xbeb05efe	-0.34447473
140	0x3e7b1966	0.24521407
141	0xbea369d6	-0.31916684
142	0xbe661b05	-0.22471245
143	0xbea6aad5	-0.3255221
144	0xbe8f9ddb	-0.28050122
145	0x3e51e6ce	0.20498201
146	0xbe3a09f9	-0.18167867
147	0xbe862042	-0.26196486
148	0x3e2bee1a	0.16790047
149	0xbe80ccdc	-0.25156295
150	0xbbb8e0c0	-0.0056420267
151	0x3d9dc798	0.07704085
152	0xbe4df9d6	-0.20114836
153	0xbe8101c5	-0.25196663
154	0xbcd5d2a0	-0.02610141
155	0xbd9dac8c	-0.07698926
156	0xbe5b4f76	-0.2141703
157	0xbd1b8600	-0.03796959
158	0x3dbf4fc4	0.09341386
159	0x3dc7a344	0.09747937
160	0xbb17c580	-0.002315849
161	0x3e6cde06	0.2313157
162	0xbe784070	-0.24243331
163	0xbdef0270	-0.11670387
164	0xbe62f598	-0.22163999
165	0xbe3f3470	-0.18672347
166	0x3d7683b0	0.06018418
167	0x3e7b8592	0.24562672
168	0xbe1a0cbd	-0.15043922
169	0x3e950ed5	0.29112878
170	0x3ea692fd	0.32534018
171	0xbc8e7ae0	-0.017392576
172	0x3e1c5aea	0.15269056
173	0x3c12c6a0	0.008958489
174	0x3ea66b41	0.32503703
175	0xbdab2468	-0.08356553
176	0x3e698682	0.22805217
177	0x3e5dd0d2	0.2166169
178	0x3eb42207	0.3518221
179	0xbe90cce0	-0.28281307
180	0xbe67a451	-0.22621275
181	0x3e332aa2	0.17496732
182	0xbe362f23	-0.17791419
183	0xbea4b049	-0.32165745
184	0x3e242d32	0.16032866
185	0x3e13f1e8	0.14447749
186	0xbe7cc757	-0.24685417
187	0xbea73f82	-0.3266564
188	0x3e933177	0.28748676
189	0x3e82809f	0.25488755
190	0xbe0ef559	-0.1396078
191	0xbd7dca40	-0.06196046
192	0x3eb0220f	0.34400985
193	0x3e8b2c45	0.27182212
194	0x3e6aacfe	0.22917554
195	0xbead2733	-0.3381897
196	0x3ea5f975	0.32416883
197	0xbcca0690	-0.024661332
198	0x3e776556	0.2415975
199	0x3e732df6	0.23748001
200	0x3e8fa507	0.28055593
201	0x3d23ea60	0.04001844
202	0xbea9f1f8	-0.3319242
203	0x3d97454c	0.07386264
204	0xbdc639b8	-0.09678978
205	0xbdb17ed4	-0.08666769
206	0xbd31b208	-0.043382674
207	0x3df83e1c	0.121212214
208	0x3e33a98e	0.17545149
209	0xbe280524	-0.16408211
210	0xbe4e69b1	-0.20157506
211	0x3e5dded2	0.2166703
212	0xbc7e59a0	-0.015524298
213	0xbd91184c	-0.070847124
214	0xbd47f998	-0.048822016
215	0x3da80d58	0.0820567
216	0x3e513f06	0.20434198
217	0x3e3e8c16	0.18608126
218	0xbe496a9a	-0.19669572
219	0xbeacae7e	-0.33726877
220	0x3de4443c	0.11145827
221	0xbe765c09	-0.24058546
222	0x3e4abcba	0.19798556
223	0xbe19ed07	-0.15031825
224	0x3e597ba2	0.21238568
225	0xbe2afc38	-0.16697776
226	0x3e27624e	0.16346094
227	0x3d9f9238	0.07791561
228	0xbdbf5304	-0.09342006
229	0xbea6b0bc	-0.32556713
230	0x3e7997b6	0.2437428
231	0xbbb4d580	-0.0055186152
232	0xbd87c680	-0.06629658
233	0x3e0f2f46	0.13982877
234	0xbea07cc2	-0.31345183
235	0xbdd209ec	-0.10255799
236	0x3e9d49f3	0.3072048
237	0x3d73b538	0.059498996
238	0x3e320eaa	0.17388406
239	0xbc53ef20	-0.01293543
240	0xbe805fd6	-0.25073117
241	0xbeb39942	-0.35077864
242	0xbe9cfdd8	-0.30662417
243	0x3d82a9c8	0.063800395
244	0xbe5c1a63	-0.2149444
245	0x3de1d770	0.110274196
246	0xbb7ddd80	-0.003873676
247	0x3d0a3908	0.033745795
248	0xbdba1e78	-0.09087843
249	0xbe2af3ef	-0.16694616
250	0xbe932c1c	-0.2874459
251	0x3eaaece5	0.3338386
252	0xbd7997e8	-0.060935885
253	0x3e5895c6	0.21150884
254	0xbe82943c	-0.2550372
255	0xbdf7face	-0.12108384

mean.full.bias f4 [16]
0	0x3d001a98	0.03127536
1	0xbe0173f9	-0.12641896
2	0xbdbc6788	-0.091994345
3	0x3d1d0ce4	0.03834237
4	0x3e089c4f	0.13340877
5	0x3cbb3158	0.022850677
6	0x3c5e8690	0.013581887
7	0x3c3a8470	0.011384115
8	0x3d0491e0	0.03236568
9	0x3da6cbce	0.081443414
10	0xbdc678e1	-0.096910246
11	0xbbb67b80	-0.0055689216
12	0xbc9abb08	-0.018888012
13	0x3e2b912f	0.16754602
14	0xbe168c91	-0.1470206
15	0x3bbc5b60	0.0057481974
