best_model/loss/citeseer-b-h_dropout=0_wd=0_b=256_lr=0.01_walk=3_best_model.pt (torch_old, 725205 bytes, 15 tensors)

embedding.full.weight f4 [16, 3703]
0	0x3cc4d152	0.024025593
1	0x3d065ca3	0.03280319
2	0x3c8f260c	0.017474197
3	0x3d220d73	0.039563607
4	0x3c9d627c	0.019212
5	0xbba11e08	-0.00491691
6	0x3d135963	0.035973918
7	0x3d091363	0.033465754
8	0x3c2fc678	0.010728471
9	0x3c5721bc	0.0131306015
10	0xbc2584e2	-0.0101024825
11	0xbc9c4c8f	-0.019079475
12	0xbbfb9b30	-0.007678412
13	0xbd1aba18	-0.03777513
14	0x3b3cf4a0	0.0028832331
15	0x3cadc9ce	0.021214392
16	0x3ab40c40	0.0013736561
17	0x3cc0b5ee	0.02352425
18	0x3d127fc3	0.035766374
19	0x3adaa740	0.0016681924
20	0x3cadbe8a	0.02120902
21	0xbc6d709c	-0.01449218
22	0x3c43fe98	0.011962555
23	0x3cc95bfa	0.02457999
24	0xbba11890	-0.004916258
25	0xbc357a8c	-0.011076581
26	0xbc367c22	-0.011137994
27	0xbca018f3	-0.019543147
28	0x38e8c800	0.00011099875
29	0xbce39fc0	-0.027786136
30	0xbcb3c89d	-0.021946246
31	0x3c9b4e68	0.018958285
32	0xbc43a29e	-0.011940626
33	0xbcf3eacc	-0.029775046
34	0x3d01358f	0.031545218
35	0x3cf0e77a	0.029407252
36	0xbc7d69c8	-0.015467115
37	0x3d147c63	0.036251437
38	0x3d0ed8a7	0.034874585
39	0xbcb8aac0	-0.022542357
40	0xbc96e552	-0.018419895
41	0x3bbd8e10	0.0057847574
42	0x3d21a4a9	0.039463673
43	0xbcc5111b	-0.024056008
44	0x3c86c2d2	0.01645032
45	0x3c1bf33c	0.009518441
46	0x3d0ed2e5	0.034869093
47	0xbb8b5968	-0.0042526014
48	0xbd12949f	-0.035786267
49	0xbc96b660	-0.01839751
50	0x3c805d5c	0.015669517
51	0x3bc67958	0.006056946
52	0xbd0b9d08	-0.034085304
53	0x3d23def9	0.040007565
54	0x3c72fbf0	0.014830574
55	0xbc2fe41a	-0.010735536
56	0x3b9ac960	0.004723713
57	0x3ce9718e	0.02849653
58	0x3d245975	0.040124375
59	0x3d13f50d	0.03612237
60	0x3ba8b488	0.005148474
61	0x3c88c1be	0.016693946
62	0xbb83ea50	-0.004025735
63	0x3bdc0640	0.0067146122
64	0xbbc021f8	-0.0058634244
65	0xbccfe10e	-0.02537587
66	0xbd11104b	-0.03541593
67	0xb94e9200	-0.0001970008
68	0x3c726c34	0.014796305
69	0x3cb51190	0.022103101
70	0x3c2f1cd0	0.010688022
71	0x3d02f5c1	0.03197265
72	0xbc1e210c	-0.009651434
73	0x3c021208	0.007938869
74	0x3c87e3d2	0.016588125
75	0xbd04ccad	-0.032421757
76	0xbc8cec04	-0.017202385
77	0xbcce5dba	-0.025191177
78	0xbd0efd39	-0.03490946
79	0x3c99747c	0.018732302
80	0x3c7db254	0.015484411
81	0x3a6174c0	0.0008600466
82	0xbbac4090	-0.00525672
83	0xbcaba6a3	-0.020953482
84	0x3cd25b4a	0.025678296
85	0xbcc31a6d	-0.023816312
86	0xbc02c2f4	-0.007981051
87	0x3b137c50	0.0022504516
88	0x3bbf22f0	0.0058330223
89	0xbcb96a5a	-0.02263372
90	0x3c9a06c6	0.018802058
91	0x3d0481e9	0.032350454
92	0x3c387750	0.011258915
93	0x3bfc6ba8	0.0077032633
94	0x3d19efa5	0.03758206
95	0x3cc6af2e	0.024253454
96	0xbcd2debe	-0.025740977
97	0x3ceaeaaa	0.02867635
98	0x3d205ed3	0.03915293
99	0xbc16fb5a	-0.0092152
100	0x3d18ab0b	0.037272494
101	0x3c26cbe8	0.010180451
102	0xbb38c090	-0.0028190948
103	0xbcd6eab2	-0.026234958
104	0xbb638990	-0.0034719445
105	0x3d1ba693	0.038000654
106	0xbc84a681	-0.016192676
107	0x3cf0e2de	0.029405054
108	0x3d067441	0.032825712
109	0xbc3fce00	-0.011706829
110	0x3c179f08	0.009254225
111	0xbc77f610	-0.015134349
112	0xbca9ab56	-0.020711582
113	0x3d14db27	0.036341812
114	0x3cd46ed2	0.02593175
115	0xbc853c4e	-0.016264107
116	0x3a57e680	0.00082359463
117	0xba8750e0	-0.0010323785
118	0x3b029350	0.001992423
119	0x3cc59b5a	0.024121929
120	0x3b6b26f0	0.0035881363
121	0xbc7f3e20	-0.015578777
122	0x3c9b61aa	0.018967468
123	0x3ce47ada	0.027890611
124	0xbc99efc6	-0.01879109
125	0xbc8c3bba	-0.017118324
126	0xbbad20d0	-0.0052834526
127	0x3d03ba97	0.032160368
128	0xbc80a9ff	-0.01570606
129	0xbcbccdaa	-0.023047287
130	0x3cf2f4ee	0.029657807
131	0x3ca50c96	0.020147603
132	0xbce29c90	-0.027662545
133	0x3c912da6	0.017721962
134	0xbc677f1a	-0.0141294245
135	0xbd0da212	-0.03457839
136	0x3c05d030	0.008167312
137	0x3d16dc3d	0.03683113
138	0x3ced905a	0.028999496
139	0xbcd22938	-0.02565442
140	0x3d1ef42f	0.03880709
141	0xbcb40b61	-0.021978082
142	0xbc3edf9c	-0.011649992
143	0x3baa9da8	0.0052067824
144	0x3c617a24	0.013762031
145	0xbce50d6a	-0.027960498
146	0xbb8e4a50	-0.004342355
147	0x3cfa1fb6	0.0305327
148	0x3c6a1d5c	0.014289226
149	0x3d0cbceb	0.034359854
150	0x3c5e5fac	0.013572615
151	0xbcf18328	-0.029481485
152	0x3cc9ee76	0.02464984
153	0xba008d00	-0.0004903823
154	0xbc598fe8	-0.013278939
155	0x3cb25dcc	0.021773241
156	0xbc26e45c	-0.010186281
157	0x3c8860f0	0.016647786
158	0xbc0859dc	-0.008322205
159	0x3c0b8f38	0.008518033
160	0xbd202406	-0.039096855
161	0x3d1e8121	0.038697366
162	0xbc048d0c	-0.008090269
163	0x3cc884f2	0.024477456
164	0xbbf54fc8	-0.0074863173
165	0x3ce1262e	0.027484026
166	0xbb5e2420	-0.0033896044
167	0x3cccbf92	0.024993692
168	0xbc7a66a6	-0.015283262
169	0x3d17a5db	0.037023406
170	0x3d01753b	0.03160594
171	0xbb869528	-0.0041071363
172	0xbcdf86da	-0.027285982
173	0x3c3488e8	0.011018969
174	0x3cbc615e	0.022995647
175	0xbc910336	-0.017701726
176	0xbcd8c595	-0.026461402
177	0xbd0cca45	-0.034372587
178	0x3bb73df0	0.0055921003
179	0xbc744978	-0.014910094
180	0x3b377350	0.0027992316
181	0xbcf811c0	-0.030281901
182	0xbcfbb758	-0.030727074
183	0xbd17b67b	-0.03703926
184	0xbc9faf02	-0.01949263
185	0x3c55f590	0.013059035
186	0xbd0c59b2	-0.034265228
187	0x3c9b521a	0.018960048
188	0xbc846654	-0.016162075
189	0x3b83fcd8	0.004027944
190	0x3ca55f6c	0.020187102
191	0xbd15ccb4	-0.036572173
192	0x3a3b31c0	0.0007140897
193	0x3d1805f7	0.037115064
194	0xbd165ca2	-0.036709435
195	0xbc4ddb00	-0.012564421
196	0x3c631494	0.013859887
197	0xbc3e7940	-0.011625588
198	0x3d0f796f	0.035027917
199	0xbcc0024b	-0.023438593
200	0xbc493a16	-0.012281915
201	0xbd1acc89	-0.037792716
202	0xbc52c164	-0.012863491
203	0x3d101dbd	0.03518461
204	0x3c1bdd48	0.009513207
205	0x3c9e749c	0.019342713
206	0xbbdaf0c0	-0.0066815317
207	0xbc4a446e	-0.0123454165
208	0xbc77a9a0	-0.015116125
209	0xbd066f78	-0.03282115
210	0xbd21a739	-0.039466117
211	0xbcb95544	-0.022623666
212	0x3d0c50f3	0.034256887
213	0x3c5c91a8	0.0134624615
214	0x3c4815dc	0.012212243
215	0xbc98403a	-0.018585313
216	0xbd045fe6	-0.03231802
217	0x3c0cbfe8	0.008590676
218	0x3b981550	0.0046412125
219	0x3c12fad4	0.008970935
220	0x3c11cff8	0.008899681
221	0xbaa0cd20	-0.0012268163
222	0x3cba51b2	0.022744033
223	0xbca528bf	-0.02016103
224	0xbcd6add5	-0.026205936
225	0xbc2b376e	-0.010450227
226	0xbc76cddc	-0.015063729
227	0xbcc757b6	-0.024333816
228	0xbcf75183	-0.030190235
229	0x3cc87dda	0.024474073
230	0x3ca3e65e	0.020007309
231	0x3c8f8e32	0.017523859
232	0x3d0fe887	0.035133865
233	0x3bde8530	0.0067907795
234	0xbb2f0a40	-0.002670899
235	0x3c703b54	0.014662582
236	0x3c15e9a4	0.009149943
237	0xbb50f4f0	-0.0031884275
238	0x3d1f50a1	0.038895253
239	0x3c9aa7b8	0.018878803
240	0xbcb9dd59	-0.022688555
241	0xbcc20209	-0.023682611
242	0xbc8fa1b3	-0.017533159
243	0xbd093f6e	-0.033507757
244	0x3c244dcc	0.010028314
245	0x3cf0c8fe	0.029392716
246	0xbc2b2412	-0.010445612
247	0xbb8dc130	-0.0043260083
248	0xb9874d80	-0.00025806949
249	0x3cea3102	0.028587822
250	0xbca4ac2e	-0.020101633
251	0x3c9b8554	0.018984474
252	0xbc650432	-0.013978051
253	0xbc909dd3	-0.017653381
254	0xbabf6840	-0.0014603212
255	0xbc47bd60	-0.012191147

embedding.full.bias f4 [16]
0	0x3bc6b04c	0.0060634967
1	0xbb8f2790	-0.00436873
2	0xbc807e34	-0.015685178
3	0xbc344c02	-0.01100445
4	0xbb404f74	-0.0029344233
5	0xbc29a244	-0.010353629
6	0x3c44ad12	0.012004154
7	0xbb5d00d8	-0.0033722427
8	0x3c3aa112	0.011390941
9	0xb94b2680	-0.00019373931
10	0x3c850d9d	0.016241843
11	0x3bc35158	0.0059606247
12	0x3c1f9b3a	0.009741599
13	0xbb64cf6c	-0.0034913672
14	0x3c33d356	0.010975679
15	0x3c029ea0	0.007972389

aggregator.full.weight f4 [16, 7406]
0	0xbecc9ea1	-0.39964774
1	0xbf1e593e	-0.6185492
2	0x3d9e465b	0.07728263
3	0xbefcf0c6	-0.49402446
4	0xbf40bf60	-0.75292015
5	0xbf35d1ac	-0.7102306
6	0xbf3f3ee9	-0.7470537
7	0xbe917a32	-0.2841354
8	0x3f248049	0.6425825
9	0x3ed92d43	0.42417344
10	0x3d8bbc35	0.06823007
11	0x3ec04c15	0.37558046
12	0x3f0ff026	0.5622581
13	0x3de4c41f	0.1117022
14	0x3ec40c44	0.38290608
15	0x3eccdd9f	0.40012833
16	0xbcc0caf8	-0.023534283
17	0x3e78110e	0.24225256
18	0x3e751836	0.23935017
19	0xbdd7a90d	-0.10530291
20	0xbf38f467	-0.7224793
21	0xbee35d2b	-0.4440702
22	0x3f0124f9	0.5044704
23	0x3e7e8069	0.24853672
24	0x3e7936bc	0.24337286
25	0x3f399a2b	0.72500867
26	0x3d35bfb0	0.04437226
27	0xbeaec886	-0.34137362
28	0xbed1afd2	-0.40954453
29	0x3e1b837f	0.1518688
30	0xbecf9d08	-0.40549493
31	0xbeee01a0	-0.46485615
32	0x3ee04354	0.43801367
33	0xbe82005b	-0.25390896
34	0xbe336627	-0.17519437
35	0xbf3b1ce3	-0.7309095
36	0xbf3715a2	-0.71517384
37	0xbdc016c2	-0.09379341
38	0x3e45ae21	0.19304706
39	0xbe913a52	-0.28364807
40	0x3ef71711	0.48259786
41	0x3e0d8e37	0.13823782
42	0xbf1dd05a	-0.61646044
43	0x3d64059c	0.055669412
44	0xbe8c6b7a	-0.27425748
45	0xbe65b95b	-0.22433989
46	0x3d09be96	0.033629023
47	0xbe746811	-0.23867823
48	0x3ed6fef2	0.41991383
49	0xbf1b9780	-0.60778046
50	0xbd3f4926	-0.04670062
51	0xbe8ce9ce	-0.2752213
52	0x3e645d60	0.22301245
53	0x3eb5ca09	0.35505703
54	0xbefaa11c	-0.48951042
55	0xbefe2ec6	-0.4964506
56	0x3ec94e36	0.39317483
57	0xbf91bc82	-1.1385653
58	0xbf0652af	-0.52469915
59	0x3ed754b2	0.42056805
60	0xbedbf028	-0.42956662
61	0x3da7b482	0.08188726
62	0x3f177c5b	0.59174126
63	0x3f508455	0.8145192
64	0xbf0e616b	-0.556174
65	0xbf816acf	-1.011072
66	0xbf603ef7	-0.87596077
67	0xbed7e616	-0.4216773
68	0xbf6296d5	-0.885114
69	0x3edadec1	0.42748073
70	0x3f3e12ad	0.74247247
71	0xbdfd3153	-0.123629235
72	0xbd074c97	-0.033032026
73	0xbf3d27fd	-0.7388914
74	0xbf0aa73c	-0.5416143
75	0xbefffabb	-0.4999598
76	0xbf1d20e8	-0.61378336
77	0xbee04b49	-0.43807438
78	0x3eeb9d99	0.46018675
79	0xbde9c80c	-0.11415109
80	0x3ecbc35a	0.3979748
81	0xbee6baf6	-0.45064515
82	0x3ca440ee	0.020050492
83	0xbd863d08	-0.065546095
84	0xbeed8af7	-0.46395084
85	0xbf010bd6	-0.50408685
86	0xbf53fe44	-0.82809854
87	0xbe950d65	-0.29111782
88	0xbf2536ac	-0.6453655
89	0x3e7508ed	0.23929186
90	0x3ebb2d70	0.36558104
91	0xbcfed6ea	-0.031108338
92	0x3ef31dcb	0.47483668
93	0x3f07b0f3	0.5300438
94	0x3d3aa787	0.045569923
95	0xbf2149b2	-0.63003075
96	0x3ef73919	0.4828575
97	0x3ec3c00f	0.38232467
98	0xbf0b028f	-0.5430078
99	0x3f2c4226	0.67288435
100	0x3d62a656	0.05533441
101	0x3f2f596b	0.68495816
102	0xbf03c514	-0.5147259
103	0x3d7e86b7	0.062140193
104	0x3e2b1a5b	0.16709273
105	0xbe8a2ed1	-0.26988843
106	0x3f3ad752	0.729848
107	0xbe0fadd2	-0.14031151
108	0x3f19089a	0.5977875
109	0x3c7bdc18	0.015372299
110	0x3d810031	0.06298865
111	0x3e557521	0.20845462
112	0x3f1caaee	0.6119832
113	0x3f119bea	0.5687853
114	0x3e7e21ed	0.24817629
115	0x3f384c7c	0.71991706
116	0x3ed9aeeb	0.42516264
117	0xbef1bdc6	-0.47215098
118	0x3dd41769	0.10356028
119	0xbd574f06	-0.052565597
120	0xbe917b90	-0.28414583
121	0x3ea54cc9	0.32285145
122	0xbf0c43f8	-0.5479121
123	0xbea02991	-0.31281713
124	0x3dc3e0a9	0.09564335
125	0x3ed2a3fc	0.41140735
126	0x3f0d199f	0.5511722
127	0x3df54ea0	0.11977887
128	0x3e56d875	0.2098101
129	0xbf733972	-0.9500953
130	0xbeb4cad6	-0.35311002
131	0xbc2f9ee9	-0.0107190395
132	0x3dc4b6b0	0.096051574
133	0xbd050666	-0.032476805
134	0xbf4bb22b	-0.7956874
135	0x3f0919f2	0.53555214
136	0x3edec3f6	0.4350888
137	0x3e1bd905	0.15219505
138	0xbed48577	-0.41508076
139	0xbf0750e8	-0.5285783
140	0xbf5794bd	-0.8421133
141	0x3f427555	0.75960284
142	0xbddf02b8	-0.108891904
143	0x3dc8d228	0.09805709
144	0x3ee272d4	0.44228232
145	0xbd80a2ca	-0.062810495
146	0x3d996e6d	0.07491765
147	0x3f010425	0.5039695
148	0xbe84f3af	-0.25967166
149	0x3e786b27	0.24259625
150	0xbf2fccd5	-0.68671924
151	0x3ef5667f	0.4792976
152	0xbd9703d0	-0.07373774
153	0x3e0c51b0	0.13703036
154	0xbf471323	-0.77763575
155	0xbf16a683	-0.58847827
156	0xbe74a8db	-0.23892538
157	0xbe0b91cf	-0.1362984
158	0xbd59f814	-0.0532151
159	0xbf5f9048	-0.8732953
160	0xbf2c64ed	-0.673415
161	0x3e97bfa2	0.29638392
162	0x3e79c6a6	0.24392185
163	0xbeef52c1	-0.46742824
164	0x3f1d108e	0.61353385
165	0xbe9e6ea3	-0.30943784
166	0xbeadcf17	-0.3394706
167	0x3f27c418	0.6553359
168	0x3dbc55ad	0.09196029
169	0xbe93637e	-0.28786844
170	0xbf0f9204	-0.5608218
171	0xbf271f4f	-0.6528215
172	0xbda720f2	-0.08160581
173	0xbe8f1c98	-0.27951503
174	0x3ee91d76	0.4553029
175	0xbf2f115e	-0.68385875
176	0x3e937981	0.28803638
177	0xbebdb827	-0.3705456
178	0xbd2f0a1c	-0.04273425
179	0x3ebf56e4	0.3737098
180	0xbe6c31d9	-0.2306589
181	0x3e26e451	0.16298033
182	0xbe87584d	-0.26434556
183	0xbeac6804	-0.33673108
184	0x3f5fc61a	0.87411654
185	0xbebca580	-0.36845016
186	0xbde83b48	-0.11339432
187	0x3ecead90	0.40366793
188	0xbf0a8eeb	-0.54124326
189	0xbe47593c	-0.19467634
190	0x3edd5c5e	0.43234533
191	0xbf11d389	-0.569634
192	0xbf101660	-0.5628414
193	0xbe6c5a83	-0.23081402
194	0x3e839898	0.25702357
195	0xbc43d81e	-0.011953382
196	0x3e3530da	0.17694417
197	0xbe1a6040	-0.15075779
198	0xbec3cd71	-0.38242677
199	0xbf291bbf	-0.6605796
200	0xbf00c561	-0.50301176
201	0xbf09e5d8	-0.5386634
202	0xbb7f9f8f	-0.0039005016
203	0xbf3ccb34	-0.73747563
204	0xbf5095ce	-0.81478584
205	0xbec3711b	-0.3817223
206	0x3eb9d481	0.3629494
207	0xbe621334	-0.22077638
208	0x3f130aa4	0.5743811
209	0xbee98fe8	-0.45617604
210	0xbe4adf8c	-0.19811839
211	0x3e8536a7	0.2601826
212	0xbf4b8b7d	-0.7950972
213	0x3e326b0a	0.17423645
214	0xbea85620	-0.32878208
215	0xbec5c798	-0.3862884
216	0x3d38d69c	0.045126542
217	0xbe32c651	-0.17458464
218	0x3f02e0f9	0.5112453
219	0x3d8e7dc0	0.06957579
220	0x3f031497	0.5120329
221	0xbe06b1d4	-0.13153774
222	0x3ea147e9	0.31500176
223	0x3d99b9aa	0.07506116
224	0xbe85a9b2	-0.2610603
225	0x3e8c8dd1	0.27451947
226	0xbe8503ea	-0.2597955
227	0xbeeb8d64	-0.4600631
228	0xbe9137f7	-0.2836301
229	0xbd9e07db	-0.07716342
230	0xbd312302	-0.043246277
231	0x3ed03427	0.4066479
232	0xbf4ee6ae	-0.8082074
233	0xbf20ab7d	-0.6276167
234	0x3dcc8a8f	0.099873655
235	0x3ce55b43	0.027997619
236	0x3e472155	0.19446309
237	0x3edc4d79	0.43027857
238	0xbec3d0d8	-0.38245273
239	0x3e466bd8	0.19377077
240	0x3ed4f585	0.41593567
241	0x3d67c157	0.056580868
242	0xbdcb4be6	-0.09926586
243	0x3e6961ed	0.22791262
244	0xbf04a886	-0.51819646
245	0x3e569d53	0.20958452
246	0xbea9cba3	-0.33163175
247	0xbf68d35b	-0.909475
248	0xbf063659	-0.5242668
249	0x3ee3149c	0.4435166
250	0xbf93012b	-1.1484731
251	0xbec9f527	-0.3944485
252	0xbd37092a	-0.044686474
253	0x3de71b8f	0.11284553
254	0x3e80a0d2	0.25122696
255	0x3f2556b9	0.64585453

aggregator.full.bias f4 [16]
0	0xbd341bbe	-0.04397177
1	0xbd7e6d1d	-0.062115777
2	0xbdbf7006	-0.09347539
3	0xbdaf6ace	-0.08565293
4	0xbd11d799	-0.035606
5	0x39494b88	0.00019196991
6	0xbc2374c7	-0.009976572
7	0xbe2671b8	-0.16254318
8	0xbdc29448	-0.09500939
9	0xbe47f716	-0.1952785
10	0x3c047aa8	0.008085884
11	0xbcca8efd	-0.024726385
12	0xbdd0f4c7	-0.102029376
13	0xbdd3996b	-0.103319965
14	0xbdb6a0ba	-0.08917375
15	0xbce75954	-0.028240837

step.full.weight f4 [1, 32]
0	0x3e11ef53	0.14251451
1	0xbe329b9b	-0.17442171
2	0x3e2d29b7	0.16910444
3	0xbd67004a	-0.05639676
4	0xbd5539f8	-0.052057236
5	0xbd4f2e68	-0.050581366
6	0x3e2f22cf	0.17103122
7	0xbd0502d0	-0.032473385
8	0x3dbf5f9a	0.093444064
9	0xbe0178db	-0.12643759
10	0xbdb3f1aa	-0.08786328
11	0xb90c3c00	-0.00013373792
12	0xbd6c93fc	-0.057758316
13	0xbdb36107	-0.08758741
14	0x3dc121b6	0.09430258
15	0x3de0b5da	0.109721854
16	0x3e330f6d	0.17486353
17	0xbe24df63	-0.1610084
18	0xbe0459e3	-0.12924914
19	0xbdc50412	-0.09619917
20	0x3e324f99	0.17413177
21	0x3e05ae9d	0.13054891
22	0x3e251e1f	0.16124772
23	0xbc20d370	-0.009816036
24	0xbd13f860	-0.03612554
25	0xbda251f5	-0.07925788
26	0xbc0fc130	-0.008774087
27	0xbc8fa250	-0.017533451
28	0x3e26e56f	0.1629846
29	0xbe17761f	-0.14791153
30	0x3d4c8bf0	0.049938142
31	0x3da876ee	0.08225809

lstm.lstm.weight_ih_l0 f4 [64, 16]
0	0xbdc399a2	-0.095507875
1	0x3e10e93d	0.14151473
2	0x3e7abf45	0.24487026
3	0x3cd76b6b	0.026296338
4	0x3dafc37d	0.08582208
5	0x3e1e5c72	0.15464953
6	0xbd581b12	-0.05276019
7	0x3e7f384d	0.24923821
8	0x3eba99fa	0.364456
9	0xbd6ce37e	-0.05783414
10	0xbe2faa91	-0.1715491
11	0x3c9e9ab3	0.019360876
12	0x3d17c3f4	0.03705211
13	0x3edc0429	0.42971924
14	0x3e87e2e8	0.26540303
15	0xbcc5f9a5	-0.024166891
16	0xbdefed37	-0.11715167
17	0x3ef090d8	0.46985507
18	0x3e0fcb5b	0.14042418
19	0x3d8f741f	0.0700457
20	0x3eb29ee6	0.34886855
21	0x3f0c74d8	0.5486579
22	0x3dca2ade	0.098714575
23	0xbd911811	-0.070846684
24	0x3da4f945	0.08055357
25	0x3e3c09ee	0.18363163
26	0xbe142440	-0.14466953
27	0xbddad061	-0.10684276
28	0xbd4b12d8	-0.049578518
29	0x3dcc0c27	0.099632554
30	0x3e6515a3	0.22371535
31	0x3e7f9bb4	0.2496174
32	0x3e807808	0.25091577
33	0x3cc7e6d4	0.02440206
34	0x3e1c7c04	0.15281683
35	0x3e8f9d88	0.28049874
36	0xbd924048	-0.07141167
37	0xbd7e6684	-0.062109485
38	0x3e4b5c2b	0.19859378
39	0x3ed671d4	0.4188372
40	0xbe3bc92c	-0.1833846
41	0x3e3f0c0e	0.18656942
42	0x3ef26e44	0.4734975
43	0x3de2bf5f	0.110716574
44	0xbcc87e68	-0.024474338
45	0x3c913aca	0.017728228
46	0x3d957b01	0.07298852
47	0xbdb94581	-0.0904646
48	0x3ea89226	0.32924002
49	0xbd2a7f77	-0.041625466
50	0x3dbf674a	0.09345873
51	0x3ddca407	0.10773473
52	0x3ed53f70	0.4164996
53	0xbe9069a4	-0.28205597
54	0x3df6656f	0.12031066
55	0x3e03beb1	0.12865712
56	0x3c387580	0.011258483
57	0x3e5f8fe5	0.21832235
58	0x3e5bce17	0.21465336
59	0x3e0d700a	0.13812271
60	0x3e8ebcfa	0.27878553
61	0xbe76e5b5	-0.24111064
62	0xbcc62376	-0.024186831
63	0x3db9062b	0.090343796
64	0x3e28f5af	0.16499971
65	0x3e578e7f	0.21050452
66	0x3e580eb5	0.2109936
67	0xbe3051fa	-0.17218772
68	0xbb9cec5a	-0.0047889175
69	0x3e1a8c64	0.15092617
70	0xbdaa169f	-0.08305096
71	0xbda3d20a	-0.07999046
72	0xbda6b671	-0.08140267
73	0x3dc049ba	0.09389062
74	0x3d1d24c7	0.03836515
75	0x3e9ac3f7	0.30227634
76	0xbe29434b	-0.16529576
77	0x3eb50955	0.35358682
78	0x3d7c153b	0.061543684
79	0x3e55041d	0.2080235
80	0x3ef0e37b	0.47048554
81	0x3f09c8bc	0.5382192
82	0x3d5bb711	0.053641383
83	0x3e39b0c4	0.18133837
84	0x3ea98c0b	0.33114657
85	0x3f092a98	0.5358062
86	0x3ec59ce9	0.38596275
87	0x3f24ce8d	0.6437767
88	0x3ec0ff6c	0.3769487
89	0x3f27d381	0.65557104
90	0x3e4fe741	0.2030306
91	0x3e773c0d	0.24144001
92	0x3e987244	0.29774678
93	0x3ee6e544	0.4509679
94	0x3f179083	0.5920488
95	0x3e6cd874	0.23129445
96	0xbe291fae	-0.16515991
97	0xbea837dc	-0.32855117
98	0x3e901f6e	0.2814898
99	0xbec0c07b	-0.3764685
100	0x3d2722e4	0.04080476
101	0x3da17bd4	0.078849465
102	0x3d9f8f47	0.07791
103	0xbe8fd5ed	-0.280929
104	0xbdf9b40e	-0.12192546
105	0xbdb6f053	-0.08932557
106	0x3d08cdea	0.0333995
107	0x3e2aebc6	0.16691503
108	0x3e01596f	0.12631772
109	0xbe5a1d4e	-0.21300241
110	0xbb2100c7	-0.0024567114
111	0xbd6cc55e	-0.05780541
112	0x3eb2c478	0.3491552
113	0x3f00a7ea	0.50256217
114	0x3e294740	0.16531086
115	0x3ed5c60d	0.41752663
116	0x3ec8f6ff	0.39250943
117	0x3ec26c54	0.37973273
118	0x3ec649d6	0.38728207
119	0x3e8541d5	0.26026788
120	0x3e32eec7	0.17473899
121	0x3e882955	0.26594034
122	0x3f2f0660	0.683691
123	0x3e5d9840	0.2164011
124	0x3e8ba033	0.2727066
125	0x3ec14897	0.37750694
126	0x3e866102	0.26245886
127	0x3e12c4a1	0.1433282
128	0x3e5df56b	0.21675651
129	0xbe252f00	-0.1613121
130	0xbc26deb1	-0.01018493
131	0xbea43400	-0.32070923
132	0x3ec4a81c	0.38409507
133	0x3e6e404f	0.2326672
134	0xbe3bd907	-0.18344508
135	0x3e88e367	0.26735994
136	0xbe21e1a0	-0.15808725
137	0x3e1c86ea	0.1528584
138	0x3f078ce1	0.5294934
139	0x3e1f2102	0.15539935
140	0x3e848e02	0.25889593
141	0xbe60f111	-0.2196696
142	0x3b85f426	0.0040879427
143	0x3b700a94	0.0036627399
144	0x3e2a33a3	0.1662126
145	0x3e224d98	0.15849912
146	0x3bf4bcad	0.007468781
147	0x3e253b86	0.16135988
148	0x3e543b8f	0.20725845
149	0x3eb113cf	0.34585425
150	0x3eaed93b	0.3415011
151	0x3e32a98f	0.17447494
152	0x3d49561a	0.04915438
153	0x3ee9ef78	0.45690513
154	0x3f1663b7	0.587459
155	0x3d60c95c	0.05487953
156	0x3e83deed	0.25756016
157	0x3ec9c478	0.39407706
158	0x3eafcf75	0.34337965
159	0x3ec94ea3	0.39317808
160	0x3ef55457	0.4791591
161	0x3e9de0ba	0.30835515
162	0x3eccff7d	0.40038672
163	0x3f0e2134	0.55519414
164	0x3f070d06	0.5275425
165	0x3e9a36f3	0.30120048
166	0x3f17f738	0.593616
167	0x3ee23c19	0.44186476
168	0x3e0088e0	0.12552214
169	0x3f076183	0.52883166
170	0x3e03d96a	0.12875906
171	0x3ec28385	0.37990966
172	0x3eedfd5d	0.46482363
173	0x3eaa53f4	0.33267176
174	0x3ea9d3be	0.3316936
175	0x3df4b95b	0.11949416
176	0x3c0708df	0.008241861
177	0xbdfebb06	-0.12438016
178	0xbe236132	-0.15955046
179	0xbe06ca2d	-0.13163061
180	0xbd2ea1f4	-0.04263492
181	0xbe2cbf4d	-0.1686985
182	0x3bb4b3ef	0.005514614
183	0x3d55777d	0.052115906
184	0x3e9b5127	0.30335352
185	0xbe8b79e8	-0.27241445
186	0xbee3f9b1	-0.44526437
187	0x3dbb82a9	0.09155781
188	0xbeea4558	-0.4575603
189	0x3e11494c	0.14188117
190	0x3e31d0b8	0.17364776
191	0x3e54fd68	0.20799792
192	0x3ca9ce58	0.020728275
193	0xbeb4c242	-0.35304457
194	0x3eb90f06	0.36144274
195	0xbe80f433	-0.2518631
196	0xbe9fdff6	-0.31225556
197	0xbdca41b9	-0.09875817
198	0xbe8c1565	-0.27360073
199	0xbe670c33	-0.22563247
200	0x3e8f52fd	0.27993003
201	0xbeb89e30	-0.36058187
202	0xbe9d20d2	-0.30689102
203	0x3e017b09	0.1264459
204	0xbdebfba1	-0.11522604
205	0x3e8487f9	0.2588499
206	0x3db31c3d	0.087456204
207	0x3d0f93b0	0.035052955
208	0xbd2dc8bd	-0.042427767
209	0x3f0736a5	0.52817756
210	0x3ea9d3bb	0.3316935
211	0x3d16fe58	0.036863655
212	0x3e8a5b21	0.2702265
213	0x3ea32e6b	0.31871352
214	0x3f003eec	0.5009601
215	0xbcd51728	-0.026012018
216	0x3e5166df	0.20449398
217	0x3eac9142	0.33704573
218	0x3d0fb33d	0.035083044
219	0x3e25556d	0.16145869
220	0x3d02e60a	0.031957664
221	0x3eb68a29	0.35652283
222	0x3deac3ee	0.11463152
223	0x3e4f79c4	0.20261294
224	0x3d0aa65b	0.033850055
225	0x3dade348	0.08490616
226	0x3e867141	0.2625828
227	0x3e821150	0.25403833
228	0xbeca67f0	-0.39532423
229	0xbe95a7e8	-0.29229665
230	0x3d16b9f0	0.036798418
231	0xbe48ec28	-0.19621336
232	0x3e879d8f	0.26487395
233	0xbe918db7	-0.28428432
234	0xbedea292	-0.43483406
235	0x3e68786a	0.22702184
236	0xbe894d6c	-0.2681688
237	0x3e5747d0	0.21023488
238	0x3dc4878e	0.095961675
239	0xbe8e8d33	-0.278421
240	0x3e61e2b8	0.22059143
241	0xbdf8a214	-0.12140289
242	0xbe556283	-0.2083836
243	0xbda15100	-0.07876778
244	0x3ea09608	0.31364465
245	0xbeaeac15	-0.34115663
246	0x3eb05cf8	0.3444593
247	0xbdcb5cca	-0.099298075
248	0xbebbcfd0	-0.36681986
249	0x3da82074	0.08209315
250	0x3e673f3e	0.22582719
251	0x3d7ffca9	0.062496815
252	0x3e9d639f	0.30740067
253	0xbeaa0783	-0.33208856
254	0x3e7311dd	0.23737283
255	0xbe89fb36	-0.2694947

lstm.lstm.weight_hh_l0 f4 [64, 16]
0	0x3c9b4ac4	0.01895655
1	0x3e21e9eb	0.15811889
2	0xbe24225c	-0.16028732
3	0x3df2f05f	0.118622534
4	0xbe5e715c	-0.2172293
5	0xbb109ae1	-0.0022064971
6	0x3de0cc4e	0.10976468
7	0xbf2f815d	-0.6855677
8	0xbeada3ed	-0.33914128
9	0x3f2959ba	0.66152537
10	0xbe6d6af7	-0.23185335
11	0xbebc0e23	-0.36729535
12	0xbde228ce	-0.11042939
13	0xbed5923a	-0.41713125
14	0xbcf98461	-0.030458631
15	0xbe12ee42	-0.143487
16	0x3f428f98	0.76000357
17	0xbd4ac903	-0.049508106
18	0x3eb5d049	0.3551047
19	0x3e927bfb	0.28610215
20	0xbe060770	-0.13088775
21	0x3e34918f	0.17633651
22	0xbeccf6e8	-0.40032125
23	0xbe5ce2bb	-0.21570866
24	0xbea9960a	-0.33122283
25	0xbcdeecfc	-0.027212612
26	0xbf1c1dd8	-0.6098304
27	0xbf269b1e	-0.6508044
28	0xbe3747f5	-0.17898543
29	0xbdb4ced2	-0.0882851
30	0xbedd5709	-0.43230465
31	0xbba4d3e1	-0.0050301407
32	0xbf1393c7	-0.57647365
33	0x3e51bef8	0.20483005
34	0xbe7d886b	-0.2475907
35	0xbf04caee	-0.51872146
36	0xbe292010	-0.16516137
37	0xbe992d7e	-0.2991752
38	0x3e9ca8b2	0.30597454
39	0x3f704d32	0.9386779
40	0xbeb4d837	-0.3532121
41	0xbe2a7664	-0.16646725
42	0x3f25c354	0.6475117
43	0x3e74e463	0.23915248
44	0x3d99569c	0.074872226
45	0xbe4a760e	-0.19771597
46	0x3e2c9e12	0.16857174
47	0xbe81dc0e	-0.253632
48	0x3e5fca9b	0.21854632
49	0x3e41482e	0.1887519
50	0xbe1d430d	-0.15357609
51	0x3e482dd5	0.19548734
52	0x3d4fdd5f	0.050748225
53	0x3e81aff3	0.2532955
54	0x3d693beb	0.056941908
55	0x3e5020a2	0.20324948
56	0x3cb668f7	0.022266848
57	0x3e254feb	0.16143768
58	0x3dbd5024	0.09243801
59	0xbdc12e41	-0.0943265
60	0xbe553187	-0.20819674
61	0xbdeaea56	-0.11470477
62	0xbda8396a	-0.08214076
63	0xbe8d276c	-0.2756914
64	0x3c8105eb	0.015749892
65	0xbab4049c	-0.0013734284
66	0x3e49a344	0.19691187
67	0xbdefaf6f	-0.11703383
68	0xbe60cb7e	-0.21952626
69	0x3ce92e00	0.028464317
70	0xbeb7e0d4	-0.35913718
71	0x3e6ecb78	0.23319805
72	0x3e2b3339	0.16718759
73	0xbe01d828	-0.12680113
74	0xbeb88cad	-0.36044827
75	0xbe62396d	-0.22092219
76	0x3d94d185	0.07266525
77	0x3cf31867	0.029674722
78	0x3bcfa28f	0.006336517
79	0xbdd2a78b	-0.102858625
80	0x3d3331ab	0.04374854
81	0x3f309458	0.68976355
82	0xbef6ed1c	-0.48227775
83	0xbf0e29c0	-0.55532455
84	0xbea3e1a7	-0.32008097
85	0xbe98d3cc	-0.29849088
86	0xbf09823f	-0.53714365
87	0x3eaa5752	0.33269745
88	0xbefbea8a	-0.49202377
89	0x3e5a8f0d	0.21343632
90	0xbe089fee	-0.13342258
91	0xbeb4bf0b	-0.35302004
92	0xbea2f24c	-0.31825483
93	0xbe0f4f49	-0.13995089
94	0xbedc388a	-0.43011886
95	0xbf0b3561	-0.54378325
96	0xbee0ec24	-0.4393016
97	0xbc735edc	-0.014854159
98	0x3e3a5cc8	0.18199456
99	0x3e912b21	0.28353217
100	0x3db3c7cb	0.08778342
101	0x3f2af99e	0.66787136
102	0xbdf0ab2e	-0.117514
103	0xbc43c4dc	-0.01194879
104	0xbe868c1a	-0.26278764
105	0x3d505f1a	0.050871946
106	0xbf6e517c	-0.93093085
107	0x3e49c133	0.19702606
108	0xbeed5e79	-0.4636114
109	0x3d543840	0.051811457
110	0x3e0e0165	0.1386772
111	0xbe0e2674	-0.13881856
112	0x3e337de7	0.17528497
113	0x3e828839	0.25494555
114	0xbec40363	-0.38283834
115	0xbe4c1da4	-0.19933182
116	0xbf197b46	-0.59953725
117	0xbea83f0e	-0.32860607
118	0xbeeaf627	-0.45890924
119	0x3df95488	0.12174326
120	0xbf1f7cd7	-0.62299865
121	0xbe9f8c52	-0.31161743
122	0x3edaa631	0.4270492
123	0xbeb19fa3	-0.34692106
124	0xbf05692e	-0.52113616
125	0xbee78557	-0.45218918
126	0xbe36d0bb	-0.17853062
127	0xbed3dcfc	-0.41379535
128	0xbdd8eb71	-0.10591782
129	0xbd4948c4	-0.04914166
130	0xbe3551c9	-0.1770698
131	0x3da5b77c	0.080916375
132	0x3d3b5fbc	0.045745596
133	0xbd197159	-0.037461612
134	0xbeb2e719	-0.3494194
135	0x3ef01a29	0.4689496
136	0xbec921af	-0.3928351
137	0xbcdccfb2	-0.026954506
138	0x3dddcf5f	0.108305685
139	0xbe646230	-0.2230308
140	0x3d3961f2	0.045259424
141	0xbe29ce55	-0.16582616
142	0xbe582ea7	-0.21111546
143	0xbec48a85	-0.38386932
144	0x3e84dd64	0.25950158
145	0x3f406e32	0.75168145
146	0xbdbfd579	-0.093668886
147	0xbf0a6385	-0.54058105
148	0xbedd693a	-0.43244344
149	0xbe92a482	-0.28641135
150	0xbd59755e	-0.053090446
151	0x3ed619b2	0.4181648
152	0xbe912a88	-0.2835276
153	0xbe1fa595	-0.15590508
154	0x3e98cb9d	0.29842845
155	0xbecec71b	-0.4038628
156	0xbecc0241	-0.3984547
157	0xbf352039	-0.7075229
158	0xbe67bc0f	-0.22630332
159	0xbe2efe56	-0.17089209
160	0xbd9c4293	-0.076298855
161	0xbc2fa39b	-0.010720159
162	0xbd233753	-0.039847683
163	0xbe20c29a	-0.15699235
164	0xbec789ae	-0.3897223
165	0xbeb1233c	-0.34597194
166	0xbeb6d257	-0.35707352
167	0x3f18f70b	0.5975196
168	0xbe83349c	-0.25626075
169	0xbc4f20c9	-0.012642094
170	0x3e74e4fa	0.23915473
171	0xbee3aef4	-0.44469416
172	0xbf12e527	-0.5738091
173	0x3e005e40	0.12535954
174	0xbe2a348f	-0.16621612
175	0xbee0684a	-0.43829566
176	0xbcb0b553	-0.021570837
177	0xbe07c226	-0.13257656
178	0x3e87905a	0.2647732
179	0x3b926a04	0.0044682045
180	0x3c9e9005	0.019355783
181	0x3ebbc8ef	0.36676738
182	0x3e2331f8	0.1593703
183	0xbf5132fe	-0.8171843
184	0x3e885639	0.26628283
185	0x3ea9f127	0.33191797
186	0xbe8dc203	-0.27687082
187	0xbddd7757	-0.10813778
188	0x3ddc40d6	0.10754554
189	0x3d20b49a	0.039234735
190	0xbe3b5cba	-0.18297091
191	0x3e812e48	0.25230622
192	0x3a4efe6e	0.00078961893
193	0x3d62ad10	0.055340827
194	0x3e38e112	0.18054608
195	0x3e937c82	0.2880593
196	0xbe1de93d	-0.15421005
197	0x3e643d4d	0.2228901
198	0xbd98e1ce	-0.07464944
199	0xbf26b576	-0.6512064
200	0xbbffa270	-0.0078013465
201	0x3e8271c6	0.25477427
202	0xbf47a90f	-0.7799234
203	0xbd3fe969	-0.046853457
204	0xbdaf2749	-0.08552415
205	0xbdbbafaf	-0.09164368
206	0xbe8077ac	-0.25091302
207	0x3e9cd9b5	0.30634847
208	0x3e2c3ad4	0.16819316
209	0x3ea47adc	0.32124984
210	0xbeacf846	-0.33783168
211	0xbe079744	-0.13241297
212	0xbd767076	-0.060165845
213	0xbe6e0a78	-0.23246181
214	0xbeb1ef76	-0.34753007
215	0x3e112d74	0.14177495
216	0xbec5a0ef	-0.38599345
217	0x3ea9a32d	0.33132306
218	0xbd26c785	-0.04071762
219	0xbea362e8	-0.31911397
220	0xbf0aa5a9	-0.5415903
221	0xbe6dec50	-0.23234677
222	0xbec94773	-0.39312324
223	0x3c91934a	0.017770428
224	0x3e03a9c5	0.1285773
225	0xbdaa9ffa	-0.08331294
226	0xbe339efc	-0.17541116
227	0xbdf479bb	-0.11937281
228	0x3decc0c9	0.11560208
229	0xbe6d3fea	-0.23168913
230	0x3e3494b3	0.17634849
231	0xbf67b476	-0.90509737
232	0xbe01886a	-0.12649694
233	0x3f45e322	0.772997
234	0x3e0a10ca	0.13482967
235	0xbe1a28f6	-0.15054688
236	0xbe5ab270	-0.21357131
237	0xbc598f0a	-0.013278732
238	0xbd5ebf7e	-0.05438184
239	0x3eb28c3b	0.34872612
240	0xbc62eb73	-0.013850081
241	0x3cdf0835	0.027225593
242	0xbe8d4c8e	-0.2759747
243	0xbdad2c15	-0.084556736
244	0xbe3e465d	-0.18581529
245	0x3f3e0c32	0.7423736
246	0x3e417973	0.18893985
247	0x3f0e6821	0.5562764
248	0x3e101634	0.1407097
249	0x3dec3440	0.115334034
250	0x3e0c6664	0.13710934
251	0x3d5ded23	0.05418123
252	0x3e13cc89	0.14433493
253	0x3ed3ce90	0.41368532
254	0x3cfbe5a8	0.030749157
255	0xbeb73a04	-0.3578645

lstm.lstm.bias_ih_l0 f4 [64]
0	0x3bb9b68d	0.0056675137
1	0x3e1345f0	0.14382148
2	0x3e0d1788	0.13778508
3	0x3dcf8e3e	0.101345524
4	0x3ea06d83	0.3133355
5	0x3f1283da	0.5723244
6	0x3e597db3	0.21239357
7	0x3eae008c	0.33984792
8	0xbdcc1818	-0.09965533
9	0x3e2fe80c	0.17178363
10	0x3f071cff	0.5277862
11	0x3d8b6288	0.06805903
12	0x3d642cff	0.055706974
13	0x3e78eb27	0.24308454
14	0xbdb4562a	-0.08805497
15	0xbe2a5fde	-0.16638133
16	0xbd8acd4b	-0.06777438
17	0x3e37ef8e	0.17962477
18	0x3e8840e8	0.2661202
19	0x3e0b1e9d	0.13585897
20	0x3d3b4e30	0.045728862
21	0x3f095a49	0.5365339
22	0xbe2d5b55	-0.16929372
23	0x3e874661	0.26420882
24	0x3da13ab0	0.07872522
25	0x3e871f4f	0.26391074
26	0x3ee24f66	0.442012
27	0x3d2298eb	0.039696615
28	0x3dcaffd4	0.099120766
29	0x3ed035cf	0.40666053
30	0xbc9646bc	-0.018344276
31	0x3dfebbbd	0.12438152
32	0x3e545cb5	0.2073849
33	0x3d81dc0b	0.06340798
34	0xbdf5225f	-0.119694464
35	0x3e384b04	0.17997366
36	0xbe873ec4	-0.26415074
37	0x3e92a7f3	0.2864376
38	0xbe28efd6	-0.1649774
39	0xbd83ec47	-0.06441551
40	0xbd1735f2	-0.03691668
41	0xbd77dac8	-0.06051138
42	0x3ba205d0	0.0049445406
43	0x3e8af807	0.27142355
44	0xbe2f7e3f	-0.17138003
45	0x3e7cd669	0.24691166
46	0x3cfc1b40	0.030774713
47	0x3cfe5ec8	0.031051055
48	0x3eebb29e	0.46034712
49	0x3de198f5	0.11015502
50	0x3eb1edad	0.34751645
51	0x3e66bfd4	0.22534114
52	0xbdc0c5da	-0.09412737
53	0x3e14706e	0.14496014
54	0x3e0560c0	0.13025188
55	0x3ea4cf17	0.32189247
56	0x3df7c71e	0.120985255
57	0x3e8ecb35	0.2788941
58	0x3f2bec57	0.671575
59	0x3e4b8882	0.19876292
60	0x3d3bb6a9	0.045828495
61	0x3edd7c45	0.43258873
62	0x3d5cf497	0.053944197
63	0x3d591fe6	0.053008936

lstm.lstm.bias_hh_l0 f4 [64]
0	0xbd2e9b9c	-0.04262887
1	0x3d84db57	0.06487148
2	0x3dc73e4c	0.09728679
3	0xbdd29706	-0.10282712
4	0xbcb287d0	-0.021793276
5	0x3e591325	0.2119871
6	0xbe3bdf1a	-0.18346825
7	0x3f1f1a0a	0.6214911
8	0xbe155d91	-0.14586474
9	0x3f0c10e7	0.5471329
10	0x3eb6f12f	0.35730883
11	0xbe63ad17	-0.22233997
12	0x3d6ab995	0.05730589
13	0x3ebeb77e	0.37249368
14	0xbdf94cf4	-0.12172881
15	0x3dd04ecb	0.101712786
16	0x3e57ce57	0.21074806
17	0x3d7657c8	0.06014231
18	0xbe3f9554	-0.18709308
19	0x3e1a50a1	0.1506982
20	0x3e47184b	0.19442861
21	0x3f0b203f	0.5434608
22	0x3de9547a	0.11393066
23	0x3f1998f3	0.59999007
24	0x3daac0c5	0.08337549
25	0x3e575c8f	0.21031402
26	0x3e57117f	0.21002768
27	0xbe06cc22	-0.13163808
28	0x3e2b76e0	0.16744566
29	0x3ae327d6	0.0017330598
30	0xbdb7768c	-0.08958158
31	0x3d9e6c0a	0.077354506
32	0x3dae793a	0.08519216
33	0xbd5ecb5d	-0.05439316
34	0xbdd5422b	-0.10413011
35	0x3d742544	0.05960585
36	0xbe900acc	-0.28133237
37	0xbd6ec2e8	-0.058291346
38	0x3e39a129	0.18127884
39	0x3df26fd8	0.11837739
40	0xbd5b48da	-0.053536274
41	0x3e57cbe2	0.21073869
42	0xbd4063c2	-0.046970136
43	0x3ca2eb7c	0.019887678
44	0xbdc41b02	-0.09575464
45	0x3e39bf42	0.18139365
46	0xbea96391	-0.33083776
47	0xbe477666	-0.19478759
48	0x3ec31423	0.381013
49	0x3ecc1469	0.39859322
50	0x3e8c561c	0.27409446
51	0xbddc6c7d	-0.1076288
52	0xbd9d8b75	-0.07692615
53	0x3eeea8b8	0.46613097
54	0xbe38d6a0	-0.18050623
55	0x3eaaea9b	0.33382115
56	0x3d05edd7	0.032697525
57	0x3da8c91d	0.08241484
58	0x3eaef838	0.3417375
59	0xbd468f02	-0.048476227
60	0xbdc2e84d	-0.09516964
61	0x3ec44773	0.3833576
62	0xbc8c8b2f	-0.017156212
63	0xbd9d65a0	-0.07685399

downstream.full.weight f4 [6, 16]
0	0x3e8803a2	0.26565272
1	0xbe6edf85	-0.23327453
2	0x3cb33474	0.021875598
3	0x3e148e9f	0.1450753
4	0xbe30ec59	-0.1727766
5	0x3ec92313	0.39284572
6	0x3e9a75c6	0.3016798
7	0xbf0caf65	-0.5495513
8	0x3f0303f2	0.51177895
9	0x3f0ed1c8	0.5578885
10	0x3ce9d47b	0.028543701
11	0xbe401ee1	-0.1876178
12	0x3db84e69	0.089993306
13	0x3e8fe15f	0.28101632
14	0xbef60f8d	-0.4805874
15	0x3f080aa4	0.53141236
16	0x3cc73979	0.024319397
17	0xbf2836fc	-0.657089
18	0xbd66fae6	-0.05639162
19	0x3e628a25	0.2212301
20	0xbf04f1d1	-0.5193148
21	0x3dc8eb2e	0.09810482
22	0xbf24470a	-0.64170897
23	0xbed191b0	-0.40931463
24	0x3d858e2e	0.06521259
25	0xbe215120	-0.15753603
26	0xbf8c87fb	-1.0978998
27	0xbf00505a	-0.50122607
28	0xbe6a256e	-0.22865841
29	0x3f3704bb	0.71491593
30	0xbf0f5dc9	-0.5600248
31	0x3f006f2b	0.5016963
32	0x3c336ade	0.010950772
33	0x3f1f49cc	0.6222198
34	0x3f1ef249	0.6208845
35	0xbe9d7bb7	-0.3075845
36	0xbea4c600	-0.32182312
37	0xbf30683a	-0.6890904
38	0x3d87cadd	0.0663049
39	0x3f189372	0.59599984
40	0xbf32db21	-0.69865614
41	0xbf95116b	-1.164594
42	0xbd4603e4	-0.048343554
43	0x3e71f03f	0.23626803
44	0x3e854374	0.26028025
45	0xbf044032	-0.51660454
46	0x3eed34b4	0.46329272
47	0x3e225313	0.15852003
48	0xbe5c3753	-0.2150548
49	0x3d56542a	0.05232636
50	0xbf5f2dd4	-0.87179303
51	0xbf4c0341	-0.79692465
52	0xbed1c13d	-0.40967742
53	0xbee793c2	-0.45229918
54	0x3f2feced	0.68720895
55	0x3f31da90	0.69474125
56	0xbe13c7dc	-0.14431709
57	0x3eef94f9	0.46793345
58	0x3f9dc4dd	1.2325703
59	0x3e574256	0.21021399
60	0x3f62e47f	0.8862991
61	0xbf2669aa	-0.6500498
62	0xbdea31ca	-0.11435278
63	0xbf32e66c	-0.69882846
64	0x3f0883dc	0.533262
65	0x3f198474	0.5996773
66	0xbd946862	-0.07246472
67	0x3dedcfd3	0.11611905
68	0xbe30e42d	-0.17274542
69	0xbeef838b	-0.46780047
70	0x3ea9f701	0.33196262
71	0xbf5667ef	-0.8375234
72	0x3e4095e4	0.18807179
73	0x3e0fbfef	0.1403806
74	0x3f0ab4cb	0.5418212
75	0xbea200cd	-0.31641236
76	0xbec31b43	-0.38106737
77	0xbf7678d5	-0.96278125
78	0xbe96895a	-0.29401666
79	0x3e95523a	0.29164296
80	0xbf438d68	-0.76387644
81	0xbee3d330	-0.4449706
82	0x3da2768e	0.07932769
83	0xbe061ae3	-0.13096194
84	0xbeddb283	-0.43300256
85	0x3f453f2a	0.77049506
86	0xbebd5c72	-0.36984593
87	0x3f122ec9	0.5710264
88	0xbe398667	-0.18117677
89	0x3eee4cae	0.46542877
90	0xbf74b448	-0.9558759
91	0x3ed240df	0.41065118
92	0x3d7a12f7	0.061053243
93	0x3ee06b50	0.43831873
94	0x3eb3aa20	0.35090733
95	0xbf251c2d	-0.6449612

downstream.full.bias f4 [6]
0	0x3e7f4384	0.24928099
1	0x3d986469	0.07441027
2	0x3e4861aa	0.19568506
3	0xbe1948e8	-0.14969218
4	0xbdb2865a	-0.08717032
5	0xbdf9112a	-0.12161477

maxpooling.full.weight f4 [16, 16]
0	0x3ea70465	0.3262054
1	0x3d232b48	0.039836198
2	0x3ea81c6d	0.32834187
3	0x3e0137c6	0.12618932
4	0xbdf614b0	-0.120156646
5	0xbe44d394	-0.19221336
6	0x3d395388	0.045245677
7	0x3eb7aff5	0.35876432
8	0x3e1a75c6	0.1508399
9	0xbe106452	-0.14100769
10	0xbd8a9b04	-0.06767848
11	0x3eb711c9	0.35755756
12	0xbd0f63f0	-0.035007417
13	0x3e00f346	0.12592801
14	0x3ec1168f	0.37712523
15	0xbe9b8de0	-0.3038168
16	0x3e425d2a	0.18980852
17	0xbd543db0	-0.051816642
18	0xbebf30f8	-0.37342048
19	0x3edcd507	0.43131277
20	0xbe6243e1	-0.22096206
21	0x3ec4d207	0.38441488
22	0xbe73f62e	-0.23824379
23	0x3e9661c5	0.29371467
24	0x3eb0941d	0.34488
25	0xbd8a4acc	-0.067525476
26	0x3d7b88e0	0.06140983
27	0xbebdc045	-0.37060753
28	0xbd3098d0	-0.043114483
29	0x3e4cef86	0.20013246
30	0x3e12f186	0.14349946
31	0xbea98782	-0.33111197
32	0xbd95f594	-0.07322231
33	0xbe884518	-0.26615214
34	0xbe9ba1a0	-0.30396748
35	0xbeb309c0	-0.34968376
36	0x3ead9c37	0.33908245
37	0xbea52130	-0.32251883
38	0xbe94c958	-0.29059863
39	0x3e146732	0.14492491
40	0xbdd8233c	-0.105535954
41	0xbe5bc712	-0.21462658
42	0x3e8abcd5	0.27097192
43	0x3e90d589	0.28287914
44	0x3e940c79	0.28915766
45	0xbe823a3a	-0.25435048
46	0xbe9541a8	-0.29151654
47	0xbe94de2e	-0.2907576
48	0x3eaa9b13	0.33321437
49	0xbb98d4c0	-0.0046640337
50	0x3ea38b31	0.31942132
51	0xbebba117	-0.3664634
52	0x3ec66a29	0.3875287
53	0x3d722fd8	0.05912766
54	0xbe12dfb6	-0.14343151
55	0x3e3243da	0.17408696
56	0x3d840d10	0.06447804
57	0x3db6cf9c	0.08926317
58	0x3eb5cf87	0.35509893
59	0x3e0855f6	0.13314041
60	0xbd2f5638	-0.042806834
61	0x3e1587b2	0.14602545
62	0x3ea0e779	0.314266
63	0xbed4a8b2	-0.41534954
64	0x3d4318a8	0.047630936
65	0xbc713060	-0.014721006
66	0xbd9ce42c	-0.07660708
67	0xbe785484	-0.2425099
68	0x3e1b532e	0.1516845
69	0x3e06f7ce	0.13180467
70	0x3ebc4bd5	0.36776605
71	0xbe3f331b	-0.18671839
72	0xbd604a08	-0.0547581
73	0xbc768160	-0.015045494
74	0xbe3e6cc2	-0.18596175
75	0x3e79bbfe	0.2438812
76	0x3ec6eaa1	0.38850883
77	0xbe9a6b80	-0.3016014
78	0x3e49687a	0.19668761
79	0x3e549362	0.20759347
80	0x3e8d5d07	0.27610037
81	0x3e836bc9	0.2566817
82	0x3eb990c7	0.3624327
83	0xbe7c292b	-0.2462508
84	0x3c670c40	0.014102042
85	0xbec0a440	-0.37625313
86	0xbe281a1a	-0.16416207
87	0x3edb8547	0.4287512
88	0xba60e200	-0.00085785985
89	0xbe9994ec	-0.2999643
90	0x3d1a45e8	0.037664324
91	0xbe5f4ae6	-0.21805915
92	0x3e8712a5	0.26381412
93	0x3e81c393	0.25344524
94	0xbda4b700	-0.08042717
95	0xbdfc7704	-0.12327388
96	0x3e5500c2	0.2080107
97	0x3edaea13	0.4275671
98	0x3ea9841b	0.331086
99	0x3eb92ab7	0.361654
100	0xbed5814b	-0.41700205
101	0x3a157600	0.00057014823
102	0x3ed6f82d	0.41986218
103	0xbe92f92f	-0.28705737
104	0x3df2a8ec	0.118486255
105	0x3e0e9f4a	0.13927951
106	0xbe9b2f24	-0.30309403
107	0xbcc41900	-0.023937702
108	0xbe6f7051	-0.23382689
109	0x3e9219e1	0.2853537
110	0x3ebac88d	0.36481133
111	0xbe23e7ac	-0.16006345
112	0xbe5b3d9a	-0.21410218
113	0xbec0baa0	-0.37642384
114	0xbebc2b98	-0.3675201
115	0x3e9af7e7	0.3026726
116	0xbead9c2e	-0.33908218
117	0x3c8ab790	0.016933233
118	0x3d9de70c	0.07710084
119	0xbeaf910c	-0.3429035
120	0x3e09f9de	0.13474223
121	0xbe8fbd8e	-0.28074306
122	0xbe6ebff9	-0.2331542
123	0x3da7302c	0.08163485
124	0xbea53072	-0.32263523
125	0x3e31cf52	0.17364243
126	0x3eb9a22f	0.3625655
127	0xbeac6e75	-0.33678022
128	0xbecd8258	-0.40138507
129	0x3e9007bd	0.28130904
130	0xbe6c5976	-0.23081002
131	0x3e6730aa	0.22577158
132	0x3d47a578	0.048741788
133	0xbc742a80	-0.014902711
134	0x3eaa099b	0.33210453
135	0xbecf0ec6	-0.4044096
136	0xbd14d170	-0.036332548
137	0x3dc51d5c	0.096247405
138	0x3bd24500	0.006416917
139	0xbe8d0d90	-0.2754941
140	0xbeb9ae02	-0.3626557
141	0x3e4a7ab2	0.19773367
142	0xbe48a998	-0.19595945
143	0xbadd8c00	-0.0016902685
144	0xbeaaacfa	-0.33335096
145	0x3ebdff11	0.37108663
146	0x3e5c98ea	0.21542707
147	0x3d9478c4	0.07249597
148	0xbe35299c	-0.17691654
149	0x3ea17139	0.31531695
150	0xbe4e4cf6	-0.20146546
151	0x3d07c818	0.03314981
152	0xbd946650	-0.07246077
153	0xbdd69104	-0.10476878
154	0x3edd7573	0.4325367
155	0xbe0df846	-0.1386424
156	0x3e21cf86	0.1580182
157	0xbe821205	-0.25404373
158	0x3eb54375	0.35403028
159	0x3eb7bea7	0.35887644
160	0xbe9f05be	-0.31059068
161	0x3ed068b3	0.4070488
162	0x3e1374a6	0.14399967
163	0xbebe305a	-0.37146264
164	0xbd39c518	-0.04535398
165	0x3db1fde4	0.08691004
166	0xbea99561	-0.3312178
167	0xbe96e256	-0.29469556
168	0xbe16c678	-0.14724147
169	0x3ec8f643	0.39250383
170	0xbdb10398	-0.086432636
171	0x3e5cbf02	0.21557239
172	0x3df57194	0.11984554
173	0x3e434976	0.19070992
174	0xbe2ff16c	-0.17181939
175	0xbe4d43b7	-0.20045362
176	0xbe09d0bc	-0.13458532
177	0xbd926bd4	-0.07149473
178	0xbeb7e6b0	-0.35918188
179	0x3eaa5951	0.33271268
180	0x3e80a013	0.25122127
181	0xbec2c52b	-0.38041052
182	0x3ec81ae5	0.3908302
183	0x3d67d0e0	0.056595683
184	0x3e2d640a	0.16932693
185	0x3ec4c07b	0.384281
186	0x3ebae209	0.36500576
187	0x3c51f080	0.012813687
188	0x3b1bc400	0.0023767948
189	0x3e3ff112	0.18744305
190	0x3d6503f8	0.055911988
191	0xbea1976e	-0.31560844
192	0x3ea885f9	0.32914713
193	0x3ed9453b	0.4243563
194	0x3e58740a	0.21138015
195	0x3ebc5479	0.36783198
196	0x3e8c8253	0.2744318
197	0x3e9da1a3	0.30787382
198	0xbe8055ee	-0.2506556
199	0xbe9a4c8e	-0.30136532
200	0x3eda1c89	0.42599896
201	0x3e8453c7	0.25845167
202	0x3e37a9ee	0.17935917
203	0xbe2d3a58	-0.16916788
204	0x3e8602d9	0.26174048
205	0x3dcc6464	0.099800855
206	0xbe884575	-0.26615492
207	0xbe52fe35	-0.20604785
208	0x3eb65ce7	0.35617754
209	0x3cfedae0	0.031110227
210	0x3e89486b	0.26813063
211	0x3eac095d	0.33600894
212	0x3eb445c5	0.3520948
213	0x3e0abd46	0.13548765
214	0x3eb5f7fb	0.35540757
215	0xbe2d838a	-0.1694471
216	0xbeb8641f	-0.36013886
217	0x3e95da65	0.29268184
218	0x3e265afa	0.16245642
219	0x3eae85f3	0.3408657
220	0xbed6a30f	-0.4192128
221	0x3bbf5280	0.005838692
222	0x3c529080	0.012851834
223	0x3e2513e2	0.16120866
224	0xbdd13f98	-0.10217208
225	0x3ec37c35	0.381807
226	0xbec099fc	-0.3761748
227	0xbe27118e	-0.1631529
228	0xbdda9b80	-0.106741905
229	0x3ebd5f45	0.36986747
230	0x3e2ecf06	0.1707116
231	0xbe8425b8	-0.25810027
232	0xbe740976	-0.23831734
233	0x3c8d2010	0.017227203
234	0xbd9f99d4	-0.07793012
235	0xbd7c15e0	-0.0615443
236	0xbe150124	-0.14551216
237	0xbd8a9138	-0.067659795
238	0xbd7565e8	-0.05991164
239	0xbbc95740	-0.006144434
240	0x3e1d56de	0.15365168
241	0x3e195ff6	0.14978012
242	0xbeb743f7	-0.3579404
243	0xbdb71890	-0.08940232
244	0x3ed9474f	0.42437217
245	0x3e73db32	0.23814085
246	0xbd95ea84	-0.07320121
247	0xbdfde2e8	-0.123967946
248	0xbe8bb266	-0.27284545
249	0x3e2239ea	0.15842405
250	0x3eb1fa61	0.34761336
251	0xbe9e81c1	-0.3095837
252	0x3ed4d0db	0.41565594
253	0x3e6bf566	0.23042831
254	0x3cf0ec60	0.029409587
255	0x3d7d60e0	0.061859965

maxpooling.full.bias f4 [16]
0	0xbe3d2526	-0.18471202
1	0xbe668748	-0.22512543
2	0xbe48c332	-0.19605711
3	0x3c87c930	0.016575426
4	0xbd0ba378	-0.034091443
5	0xbe160a60	-0.14652395
6	0xbd50b9f8	-0.050958604
7	0x3d224628	0.039617687
8	0xbe262388	-0.16224492
9	0x3e48c532	0.19606474
10	0xbe32f6cc	-0.17476958
11	0x3e3933e6	0.18086204
12	0xbd602b90	-0.054729044
13	0xbddd1d38	-0.10796589
14	0xbe682a6a	-0.2267243
15	0xbd83d140	-0.06436396

mean.full.weight f4 [16, 16]
0	0xbe053012	-0.13006619
1	0xbe3c3768	-0.18380511
2	0x3db55b6c	0.08855328
3	0x3ea57e33	0.32322845
4	0xbe8304d2	-0.25589615
5	0xbebcfb0e	-0.3691029
6	0x3e2881aa	0.16455713
7	0xbe0e49a4	-0.13895279
8	0xbe99f75c	-0.30071533
9	0x3daffc4c	0.08593044
10	0xbec18048	-0.37793183
11	0x3dde0a64	0.108418256
12	0x3dbd2ecc	0.092374414
13	0x3d988314	0.07446876
14	0x3ea7f02f	0.32800433
15	0x3e3f78de	0.18698451
16	0x3e0d1dae	0.13780853
17	0x3ed0becf	0.40770575
18	0x3e91e40d	0.284943
19	0x3e307732	0.1723297
20	0xbe1a3f6a	-0.15063253
21	0xbe63c565	-0.22243269
22	0xbe425aeb	-0.18979995
23	0xbc38e460	-0.011284918
24	0xbe810518	-0.251992
25	0xbdf04808	-0.11732489
26	0x3df0d974	0.11760226
27	0xbbdc6580	-0.006725967
28	0x3bf8c780	0.0075921416
29	0xbdd287ec	-0.10279831
30	0xbeceb33a	-0.40371114
31	0x3eb38b3b	0.35067162
32	0xbe8f1352	-0.27944428
33	0xbec5fc97	-0.38669273
34	0xbdd54678	-0.104138315
35	0x3e77b5a6	0.24190387
36	0xbd92b310	-0.0716306
37	0xbe4991c5	-0.19684513
38	0xbeaf131a	-0.3419426
39	0x3e744c5a	0.23857251
40	0x3ec5db89	0.38644055
41	0x3d544aa0	0.05182898
42	0x3e80cfc1	0.25158504
43	0x3ed3c15f	0.41358468
44	0xbd161c18	-0.036647886
45	0x3ec47275	0.38368574
46	0x3e84b817	0.259217
47	0x3d8cc96c	0.06874356
48	0xbeae0a6e	-0.33992332
49	0xbe2d0678	-0.16896999
50	0xbd815f30	-0.06316984
51	0x3e92742f	0.28604266
52	0x3d3d4020	0.046203732
53	0x3eb009f7	0.34382603
54	0x3d721bc0	0.059108496
55	0xbe1f194c	-0.15536994
56	0x3e481702	0.19540027
57	0xbed1b0b3	-0.40955123
58	0x3e0b2a96	0.13590464
59	0x3e901dcd	0.28147736
60	0x3ea26f17	0.3172538
61	0x3d751e08	0.059843093
62	0x3dc00354	0.09375635
63	0x3e873c1d	0.2641305
64	0x3e8f555b	0.2799481
65	0x3cc66270	0.02421686
66	0xbeb52d66	-0.353862
67	0xbeb6c4b1	-0.3569694
68	0x3ea40487	0.32034704
69	0x3e4b70b6	0.19867215
70	0xbe28b394	-0.16474754
71	0x3ec3ae97	0.3821914
72	0x3e471b4a	0.19444004
73	0x3e9bef5d	0.30456057
74	0x3dfae014	0.12249771
75	0xbe9a1523	-0.3009425
76	0xbe608ae9	-0.2192799
77	0x3e8e43e7	0.2778618
78	0xbdfba618	-0.12287539
79	0xbed58244	-0.41700947
80	0x3e006eea	0.1254231
81	0xbeb7c5ac	-0.35893
82	0xbe2f4dc2	-0.17119506
83	0x3c4f1100	0.01263833
84	0x3ed065cd	0.40702668
85	0x3df8a08c	0.12139997
86	0xbe6329cb	-0.22183912
87	0x3dc6fbcc	0.09715995
88	0x3d901084	0.070344
89	0x3e83c125	0.25733295
90	0xbe573be1	-0.21018936
91	0x3e978b0d	0.29598275
92	0xbeb07af8	-0.34468818
93	0xbe9f270a	-0.31084472
94	0xbe2d2f46	-0.16912565
95	0xbea981e8	-0.33106923
96	0x3e82445f	0.25442788
97	0xbd67db80	-0.056605816
98	0x3ea68509	0.32523373
99	0x3df08e2c	0.11745867
100	0xbde599d8	-0.11210984
101	0x3e782646	0.2423335
102	0xbdca1b34	-0.0986847
103	0x3e9ac2e1	0.30226806
104	0x3b13f480	0.0022576153
105	0xbd654dd8	-0.05598244
106	0x3da70914	0.081560284
107	0xbe4f2f9a	-0.20233002
108	0xbd0cf1e0	-0.034410357
109	0x3e7737b2	0.2414234
110	0xbc04a620	-0.008096248
111	0x3e8a1aa1	0.2697344
112	0x3e2acec6	0.1668044
113	0xbe8dc52d	-0.27689496
114	0x3c9eea00	0.01939869
115	0xbecdd9a5	-0.40205112
116	0xbe9c63c2	-0.3054486
117	0x3dde113c	0.10843131
118	0x3e5df5a2	0.21675733
119	0xbeaf009e	-0.34180158
120	0xbdd4efac	-0.10397276
121	0x3ec3148b	0.3810161
122	0x3ddada6c	0.10686192
123	0xbdcd1994	-0.10014644
124	0xbd72ef58	-0.059310287
125	0xbde13d30	-0.10997999
126	0x3d254018	0.040344328
127	0xbe54d403	-0.20784001
128	0xbd660fe8	-0.056167513
129	0x3db55824	0.08854702
130	0xbed4bf29	-0.41552094
131	0xbe43c68e	-0.19118711
132	0x3c8c13a0	0.017099202
133	0x3d17ac30	0.037029445
134	0x3ece1e7d	0.40257636
135	0x3e90485d	0.2818021
136	0xbecb30bf	-0.39685628
137	0x3ed17be5	0.40914837
138	0x3e9677cb	0.2938827
139	0x3dd2a36c	0.102850765
140	0x3ea54b63	0.32284078
141	0xbb236c00	-0.00249362
142	0xbc17f200	-0.009274006
143	0x3ed31acf	0.4123139
144	0xbe5d7adf	-0.21628903
145	0x3e1ff71a	0.15621606
146	0x3e39916e	0.18121883
147	0xbebbc65d	-0.36674777
148	0xbea6bd29	-0.32566193
149	0x3dfba0ac	0.12286505
150	0x3e83688d	0.25665703
151	0xbe7e5c73	-0.24839954
152	0xbec1cf7d	-0.37853613
153	0x3edd1133	0.43177184
154	0x3e80f9a1	0.25190452
155	0x3ed74e09	0.42051724
156	0xbe069c2a	-0.1314551
157	0x3e9fd8c9	0.3122008
158	0xbea1a42b	-0.31570563
159	0x3e47ea1a	0.19522896
160	0xbe22ba84	-0.15891463
161	0xbeb6453a	-0.3559969
162	0xbc5e3ee0	-0.013564795
163	0xbea4230a	-0.32057983
164	0xbebbd9a4	-0.36689484
165	0xbd7b3af0	-0.061335504
166	0x3e87bbd1	0.2651048
167	0xbd7f4578	-0.06232211
168	0x3ec1e615	0.3787085
169	0xbeba9492	-0.36441475
170	0xbe9b2f39	-0.30309466
171	0xbed14502	-0.4087296
172	0xbce42ce0	-0.02785343
173	0x3e263a96	0.16233286
174	0x3eae47b5	0.34039083
175	0xbeca2ca8	-0.39487195
176	0x3ed21eab	0.41039023
177	0xbe6e653e	-0.23280808
178	0x3ed5caa5	0.41756168
179	0xbd95dbe0	-0.073173285
180	0xbe18fd86	-0.14940462
181	0xbeb426f0	-0.35185957
182	0xbd41ce48	-0.047315866
183	0xbd4e9978	-0.050439328
184	0xbea751af	-0.32679507
185	0xbe8a532d	-0.27016583
186	0x3ec56279	0.3855169
187	0x3d377550	0.044789612
188	0xbdb9162c	-0.09037432
189	0x3eb10819	0.3457649
190	0x3eb4b387	0.35293218
191	0x3eb2ea75	0.34944502
192	0x3eae7ff3	0.34081993
193	0x3d613788	0.0549846
194	0x3df3c46c	0.11902699
195	0xbe98ade6	-0.29820174
196	0x3c419200	0.011814594
197	0x3dca81ac	0.09888014
198	0x3d544988	0.051827937
199	0xbd080058	-0.033203453
200	0x3e913033	0.28357086
201	0x3e833a8b	0.25630602
202	0x3eb1dcef	0.3473887
203	0x3e5c96da	0.2154192
204	0xbcf19e00	-0.029494286
205	0xbc4c8580	-0.012483001
206	0x3edae84d	0.42755356
207	0xbdc876d4	-0.0978829
208	0xbd1a1e80	-0.037626743
209	0x3db5f78c	0.088851064
210	0x3e80e9c9	0.25178364
211	0xbe13a792	-0.14419392
212	0xbe3f0c03	-0.18656926
213	0x3d8ac4f4	0.06775847
214	0xbed208bb	-0.41022286
215	0xbdcb6278	-0.09930891
216	0x3dd4ca74	0.10390177
217	0xbe5d3864	-0.21603543
218	0x3e0ec146	0.13940915
219	0xbd94ee40	-0.07272005
220	0xbe9d329c	-0.30702674
221	0xbeac1f55	-0.33617654
222	0xbd9514c4	-0.07279351
223	0x3e27c4b6	0.16383633
224	0x3e109bde	0.14121959
225	0xbe730806	-0.2373353
226	0x3e412f3a	0.18865672
227	0x3e2210a2	0.15826657
228	0x3e6c42a2	0.23072293
229	0x3e5eee1e	0.21770522
230	0x3e81260f	0.2522435
231	0x3e671b0e	0.22568914
232	0xbebba837	-0.36651775
233	0xbcb046a0	-0.021518052
234	0x3e7f2942	0.24918082
235	0x3ed0802d	0.4072279
236	0x3e9cc099	0.3061569
237	0xbe8bcbda	-0.27303964
238	0x3d5af590	0.053456843
239	0x3ed4766f	0.41496608
240	0xbe028558	-0.12746179
241	0x3ddf3d1c	0.109003276
242	0xbd699ec0	-0.05703616
243	0x3ec0fb6f	0.3769183
244	0x3eb51a11	0.3537145
245	0xbec6c227	-0.3882
246	0xbeb487d3	-0.35259876
247	0x3eda750d	0.42667428
248	0xbd7555d8	-0.05989632
249	0x3dd661d4	0.10467878
250	0x3e878351	0.26467374
251	0xbec454d3	-0.38345966
252	0x3e8d572b	0.27605566
253	0xbe8784bf	-0.26468465
254	0xbe9f15a1	-0.3107119
255	0xbe83287a	-0.2561682

mean.full.bias f4 [16]
0	0x3cf43fa0	0.029815495
1	0xbd9e10a0	-0.07718015
2	0xbde882bc	-0.113530606
3	0xbe047f6c	-0.12939233
4	0x3e0216c6	0.12704
5	0xbd756d30	-0.059918582
6	0x3e6b2bbc	0.22965902
7	0xbe25939c	-0.1616959
8	0xbdab9e3c	-0.0837979
9	0x3e72e78a	0.23721138
10	0xbdcd2704	-0.10017207
11	0x3e3f7fd0	0.187011
12	0xbe642e72	-0.22283342
13	0xbdfd44d8	-0.123666465
14	0xbd9e4a0c	-0.07728967
15	0xbd5c66c0	-0.053808928
