best_model/loss/citeseer-b-h_dropout=0_wd=0_b=256_lr=0.01_walk=4_best_model.pt (torch_old, 725205 bytes, 15 tensors)

embedding.full.weight f4 [16, 3703]
0.024025593 0.03280319 0.017474197 0.039563607 0.019212 -0.00491691 0.035973918 0.033465754
0.010728471 0.0131306015 -0.0101024825 -0.019079475 -0.007678412 -0.03777513 0.0028832331 0.021214392
0.0013736561 0.02352425 0.035766374 0.0016681924 0.02120902 -0.01449218 0.011962555 0.02457999
-0.004916258 -0.011076581 -0.011137994 -0.019543147 0.00011099875 -0.027786136 -0.021946246 0.018958285
-0.011940626 -0.029775046 0.031545218 0.029407252 -0.015467115 0.036251437 0.034874585 -0.022542357
-0.018419895 0.0057847574 0.039463673 -0.024056008 0.01645032 0.009518441 0.034869093 -0.0042526014
-0.035786267 -0.01839751 0.015669517 0.006056946 -0.034085304 0.040007565 0.014830574 -0.010735536
0.004723713 0.02849653 0.040124375 0.03612237 0.005148474 0.016693946 -0.004025735 0.0067146122
-0.0058634244 -0.02537587 -0.03541593 -0.0001970008 0.014796305 0.022103101 0.010688022 0.03197265
-0.009651434 0.007938869 0.016588125 -0.032421757 -0.017202385 -0.025191177 -0.03490946 0.018732302
0.015484411 0.0008600466 -0.00525672 -0.020953482 0.025678296 -0.023816312 -0.007981051 0.0022504516
0.0058330223 -0.02263372 0.018802058 0.032350454 0.011258915 0.0077032633 0.03758206 0.024253454
-0.025740977 0.02867635 0.03915293 -0.0092152 0.037272494 0.010180451 -0.0028190948 -0.026234958
-0.0034719445 0.038000654 -0.016192676 0.029405054 0.032825712 -0.011706829 0.009254225 -0.015134349
-0.020711582 0.036341812 0.02593175 -0.016264107 0.00082359463 -0.0010323785 0.001992423 0.024121929
0.0035881363 -0.015578777 0.018967468 0.027890611 -0.01879109 -0.017118324 -0.0052834526 0.032160368
-0.01570606 -0.023047287 0.029657807 0.020147603 -0.027662545 0.017721962 -0.0141294245 -0.03457839
0.008167312 0.03683113 0.028999496 -0.02565442 0.03880709 -0.021978082 -0.011649992 0.0052067824
0.013762031 -0.027960498 -0.004342355 0.0305327 0.014289226 0.034359854 0.013572615 -0.029481485
0.02464984 -0.0004903823 -0.013278939 0.021773241 -0.010186281 0.016647786 -0.008322205 0.008518033
-0.039096855 0.038697366 -0.008090269 0.024477456 -0.0074863173 0.027484026 -0.0033896044 0.024993692
-0.015283262 0.037023406 0.03160594 -0.0041071363 -0.027285982 0.011018969 0.022995647 -0.017701726
-0.026461402 -0.034372587 0.0055921003 -0.014910094 0.0027992316 -0.030281901 -0.030727074 -0.03703926
-0.01949263 0.013059035 -0.034265228 0.018960048 -0.016162075 0.004027944 0.020187102 -0.036572173
0.0007140897 0.037115064 -0.036709435 -0.012564421 0.013859887 -0.011625588 0.035027917 -0.023438593
-0.012281915 -0.037792716 -0.012863491 0.03518461 0.009513207 0.019342713 -0.0066815317 -0.0123454165
-0.015116125 -0.03282115 -0.039466117 -0.022623666 0.034256887 0.0134624615 0.012212243 -0.018585313
-0.03231802 0.008590676 0.0046412125 0.008970935 0.008899681 -0.0012268163 0.022744033 -0.02016103
-0.026205936 -0.010450227 -0.015063729 -0.024333816 -0.030190235 0.024474073 0.020007309 0.017523859
0.035133865 0.0067907795 -0.002670899 0.014662582 0.009149943 -0.0031884275 0.038895253 0.018878803
-0.022688555 -0.023682611 -0.017533159 -0.033507757 0.010028314 0.029392716 -0.010445612 -0.0043260083
-0.00025806949 0.028587822 -0.020101633 0.018984474 -0.013978051 -0.017653381 -0.0014603212 -0.012191147
00000000: 52d1 c43c a35c 063d 0c26 8f3c 730d 223d
00000010: 7c62 9d3c 081e a1bb 6359 133d 6313 093d
00000020: 78c6 2f3c bc21 573c e284 25bc 8f4c 9cbc
00000030: 309b fbbb 18ba 1abd a0f4 3c3b cec9 ad3c
00000040: 400c b43a eeb5 c03c c37f 123d 40a7 da3a
00000050: 8abe ad3c 9c70 6dbc 98fe 433c fa5b c93c
00000060: 9018 a1bb 8c7a 35bc 227c 36bc f318 a0bc
00000070: 00c8 e838 c09f e3bc 9dc8 b3bc 684e 9b3c
00000080: 9ea2 43bc ccea f3bc 8f35 013d 7ae7 f03c
00000090: c869 7dbc 637c 143d a7d8 0e3d c0aa b8bc
000000a0: 52e5 96bc 108e bd3b a9a4 213d 1b11 c5bc
000000b0: d2c2 863c 3cf3 1b3c e5d2 0e3d 6859 8bbb
000000c0: 9f94 12bd 60b6 96bc 5c5d 803c 5879 c63b
000000d0: 089d 0bbd f9de 233d f0fb 723c 1ae4 2fbc
000000e0: 60c9 9a3b 8e71 e93c 7559 243d 0df5 133d
000000f0: 88b4 a83b bec1 883c 50ea 83bb 4006 dc3b
00000100: f821 c0bb 0ee1 cfbc 4b10 11bd 0092 4eb9
00000110: 346c 723c 9011 b53c d01c 2f3c c1f5 023d
00000120: 0c21 1ebc 0812 023c d2e3 873c adcc 04bd
00000130: 04ec 8cbc ba5d cebc 39fd 0ebd 7c74 993c
00000140: 54b2 7d3c c074 613a 9040 acbb a3a6 abbc
00000150: 4a5b d23c 6d1a c3bc f4c2 02bc 507c 133b
00000160: f022 bf3b 5a6a b9bc c606 9a3c e981 043d
00000170: 5077 383c a86b fc3b a5ef 193d 2eaf c63c
00000180: bede d2bc aaea ea3c d35e 203d 5afb 16bc
00000190: 0bab 183d e8cb 263c 90c0 38bb b2ea d6bc
000001a0: 9089 63bb 93a6 1b3d 81a6 84bc dee2 f03c
000001b0: 4174 063d 00ce 3fbc 089f 173c 10f6 77bc
000001c0: 56ab a9bc 27db 143d d26e d43c 4e3c 85bc
000001d0: 80e6 573a e050 87ba 5093 023b 5a9b c53c
000001e0: f026 6b3b 203e 7fbc aa61 9b3c da7a e43c
000001f0: c6ef 99bc ba3b 8cbc d020 adbb 97ba 033d
00000200: ffa9 80bc aacd bcbc eef4 f23c 960c a53c
00000210: 909c e2bc a62d 913c 1a7f 67bc 12a2 0dbd
00000220: 30d0 053c 3ddc 163d 5a90 ed3c 3829 d2bc
00000230: 2ff4 1e3d 610b b4bc 9cdf 3ebc a89d aa3b
00000240: 247a 613c 6a0d e5bc 504a 8ebb b61f fa3c
00000250: 5c1d 6a3c ebbc 0c3d ac5f 5e3c 2883 f1bc
00000260: 76ee c93c 008d 00ba e88f 59bc cc5d b23c
00000270: 5ce4 26bc f060 883c dc59 08bc 388f 0b3c
00000280: 0624 20bd 2181 1e3d 0c8d 04bc f284 c83c
00000290: c84f f5bb 2e26 e13c 2024 5ebb 92bf cc3c
000002a0: a666 7abc dba5 173d 3b75 013d 2895 86bb
000002b0: da86 dfbc e888 343c 5e61 bc3c 3603 91bc
000002c0: 95c5 d8bc 45ca 0cbd f03d b73b 7849 74bc
000002d0: 5073 373b c011 f8bc 58b7 fbbc 7bb6 17bd
000002e0: 02af 9fbc 90f5 553c b259 0cbd 1a52 9b3c
000002f0: 5466 84bc d8fc 833b 6c5f a53c b4cc 15bd
00000300: c031 3b3a f705 183d a25c 16bd 00db 4dbc
00000310: 9414 633c 4079 3ebc 6f79 0f3d 4b02 c0bc
00000320: 163a 49bc 89cc 1abd 64c1 52bc bd1d 103d
00000330: 48dd 1b3c 9c74 9e3c c0f0 dabb 6e44 4abc
00000340: a0a9 77bc 786f 06bd 39a7 21bd 4455 b9bc
00000350: f350 0c3d a891 5c3c dc15 483c 3a40 98bc
00000360: e65f 04bd e8bf 0c3c 5015 983b d4fa 123c
00000370: f8cf 113c 20cd a0ba b251 ba3c bf28 a5bc
00000380: d5ad d6bc 6e37 2bbc dccd 76bc b657 c7bc
00000390: 8351 f7bc da7d c83c 5ee6 a33c 328e 8f3c
000003a0: 87e8 0f3d 3085 de3b 400a 2fbb 543b 703c
000003b0: a4e9 153c f0f4 50bb a150 1f3d b8a7 9a3c
000003c0: 59dd b9bc 0902 c2bc b3a1 8fbc 6e3f 09bd
000003d0: cc4d 243c fec8 f03c 1224 2bbc 30c1 8dbb
000003e0: 804d 87b9 0231 ea3c 2eac a4bc 5485 9b3c
000003f0: 3204 65bc d39d 90bc 4068 bfba 60bd 47bc

embedding.full.bias f4 [16]
0.0060634967 -0.00436873 -0.015685178 -0.01100445 -0.0029344233 -0.010353629 0.012004154 -0.0033722427
0.011390941 -0.00019373931 0.016241843 0.0059606247 0.009741599 -0.0034913672 0.010975679 0.007972389
00000000: 4cb0 c63b 9027 8fbb 347e 80bc 024c 34bc
00000010: 744f 40bb 44a2 29bc 12ad 443c d800 5dbb
00000020: 12a1 3a3c 8026 4bb9 9d0d 853c 5851 c33b
00000030: 3a9b 1f3c 6ccf 64bb 56d3 333c a09e 023c

aggregator.full.weight f4 [16, 7406]
-0.37208065 -0.68294185 0.006704541 -0.25305858 -0.69700485 -0.7558708 -0.62618476 -0.38549015
0.41138512 0.44454092 0.34376583 0.30421376 0.5753032 -0.10446805 0.24321726 0.23596591
-0.14925312 0.08120669 0.15559128 -0.16673297 -0.24310008 -0.32609504 0.34947306 0.087553926
0.21892728 0.471931 -0.058769256 -0.50534856 -0.5833762 0.24591918 -0.21253122 -0.50340354
0.54916227 -0.34505415 0.07647948 -0.4462462 -0.47976053 -0.30410144 0.21836467 -0.031858772
0.22354901 0.1182058 -0.49776012 0.35976353 -0.27606747 -0.21111704 -0.17729518 -0.11502939
0.211821 -0.2614963 0.12291528 -0.116687566 -0.1623777 0.4014587 -0.20728077 -0.32819536
0.2869747 -0.6988218 -0.5115128 0.21380919 -0.44418657 0.1286901 0.46181777 0.5288222
-0.4436019 -0.8023215 -0.5276591 -0.3966134 -0.581399 0.46834332 0.5787375 -0.039534915
0.10263397 -0.5999149 -0.1235993 -0.38891283 -0.4586529 -0.24493845 0.53265184 -0.18490566
0.4642556 -0.25294596 -0.01845292 0.016213724 -0.28053764 -0.34165445 -0.5913286 -0.20774455
-0.5980697 0.23445651 0.23982085 -0.26249075 0.4531511 0.4986973 0.13325764 -0.49000815
0.4289431 0.41852155 -0.55058724 0.5186459 -0.11133028 0.5839845 -0.408504 0.117127374
0.268082 -0.33907333 0.5551071 -0.07568939 0.44281965 -0.18264718 -0.11840434 0.37084782
0.5556689 0.5676177 0.2600571 0.4694638 0.22619063 -0.358452 -0.020061597 -0.22634941
-0.48710337 0.22890876 -0.61401093 -0.46954077 0.37213835 0.47440252 0.36146832 0.20969796
0.070936635 -0.695582 -0.13120167 0.13511771 -0.1090198 -0.050278723 -0.68408114 0.38811088
0.39108366 0.10329786 -0.24387 -0.24680164 -0.6871258 0.5465428 -0.080588676 -0.039675776
0.34113201 -0.10264035 -0.013642032 0.63907665 -0.1813288 0.21207574 -0.5363385 0.2587196
-0.10633671 0.18361433 -0.67453325 -0.37698522 -0.478056 -0.4304663 -0.14324005 -0.6661125
-0.54595584 0.2129869 -0.023447048 -0.20506845 0.5236212 -0.26769894 -0.2500933 0.37676808
0.15481211 -0.30945587 -0.36162224 -0.52837396 0.13567531 -0.43471292 0.34796634 -0.6882823
0.251777 -0.33504704 0.15373829 0.39016938 -0.2393662 0.13098958 -0.05676636 -0.3463903
0.49570924 -0.3432163 -0.022851262 0.42928618 -0.44745794 -0.46928906 0.39267033 -0.47387698
-0.0058661704 -0.2833173 0.102466 0.18926437 -0.051501065 -0.04023444 0.3886736 -0.3565664
-0.60445935 -0.5787371 -0.10604144 -0.32992738 -0.32944986 -0.40195367 0.12244053 -0.036910158
0.4374774 -0.3268425 0.009391827 0.2840739 -0.37015748 0.32318497 -0.2490106 -0.44838884
0.4734398 0.10504541 0.4729606 -0.113390885 0.36099094 -0.10308702 0.40886286 -0.06903177
-0.3348666 0.29476812 -0.45555332 -0.32264626 -0.26075754 0.12950487 -0.34497327 0.36880618
-0.6468973 -0.40593395 0.0144204255 -0.20722745 0.07010827 0.44151756 -0.13981563 0.20835586
0.09277585 -0.008168516 -0.04613125 -0.098745085 -0.30031458 0.30959916 -0.13468236 -0.74337554
-0.606372 0.41855156 -0.88094527 -0.25550103 -0.24159347 -0.038894795 0.1815873 0.5618802
00000000: 5b81 bebe 47d5 2ebf c4b1 db3b e590 81be
00000010: e96e 32bf c080 41bf a54d 20bf f75e c5be
00000020: 12a1 d23e de9a e33e 1302 b03e e8c1 9b3e
00000030: 1247 133f 58f3 d5bd f20d 793e 0ca1 713e
00000040: cfd5 18be b14f a63d 5253 1f3e 0cbc 2abe
00000050: 3aef 78be eef5 a6be 22ee b23e 794f b33d
00000060: 792e 603e f1a0 f13e 08b8 70bd 865e 01bf
00000070: 2558 15bf 3dd2 7b3e c9a1 59be 0edf 00bf
00000080: e695 0c3f f0aa b0be 46a1 9c3d 627a e4be
00000090: 2ca3 f5be 2fb3 9bbe fd9a 5f3e 587e 02bd
000000a0: 08ea 643e e215 f23d 6ada febe ed32 b83e
000000b0: b758 8dbe 112f 58be de8c 35be 8794 ebbd
000000c0: 9be7 583e d8e2 85be 02bb fb3d e4f9 eebd
000000d0: 5746 26be ff8b cd3e 6941 54be 3909 a8be
000000e0: 59ee 923e fce5 32bf 81f2 02bf ccf0 5a3e
000000f0: 6c6c e3be 56c7 033e 6173 ec3e e460 073f
00000100: ca1f e3be f164 4dbf ab14 07bf e910 cbbe
00000110: 91d6 14bf b2ca ef3e 2428 143f 5def 21bd
00000120: c231 d23d 0694 19bf a121 fdbd 951f c7be
00000130: 8ed4 eabe 25d1 7abe df5b 083f e957 3dbe
00000140: e9b2 ed3e 2282 81be 942a 97bc a5d2 843c
00000150: a1a2 8fbe 55ed aebe 5061 17bf fdba 54be
00000160: 191b 19bf 5e15 703e 9993 753e 3065 86be
00000170: 6c03 e83e 4155 ff3e b174 083e 59e2 fabe
00000180: 6e9e db3e 7548 d63e 49f3 0cbf fac5 043f
00000190: 2101 e4bd 0280 153f 7027 d1be 7ae0 ef3d
000001a0: 0b42 893e 059b adbe 801b 0e3f 0a03 9bbd
000001b0: 42b9 e23e dd07 3bbe fa7d f2bd c4df bd3e
000001c0: 5140 0e3f 654f 113f 3426 853e 8f5d f03e
000001d0: 849e 673e 0587 b7be 3858 a4bc 24c8 67be
000001e0: 9d65 f9be 0f67 6a3e d22f 1dbf a667 f0be
000001f0: eb88 be3e e3e4 f23e 6012 b93e 10bb 563e
00000200: 3a47 913d a911 32bf bb59 06be 4c5c 0a3e
00000210: c645 dfbd 10f1 4dbd f11f 2fbf 78b6 c63e
00000220: 1e3c c83e d48d d33d 0fb9 79be 92b9 7cbe
00000230: 7ae7 2fbf 3bea 0b3f ad0b a5bd 1183 22bd
00000240: dba8 ae3e 1b35 d2bd d482 5fbc 879a 233f
00000250: 42ae 39be 622a 593e 7b4d 09bf e576 843e
00000260: 10c7 d9bd 6505 3c3e 36ae 2cbf 3504 c1be
00000270: c2c3 f4be 1466 dcbe 85ad 12be 5986 2abf
00000280: c3c3 0bbf 3d19 5a3e 0614 c0bc 77fd 51be
00000290: 0a0c 063f d60f 89be 3b0c 80be bfe7 c03e
000002a0: 1187 1e3e 0071 9ebe 8d26 b9be 8443 07bf
000002b0: 78ee 0a3e b192 debe a528 b23e 4533 30bf
000002c0: eae8 803e 498b abbe 926d 1d3e 48c4 c73e
000002d0: 6a1c 75be 2222 063e d883 68bd 125a b1be
000002e0: 9acd fd3e 0cba afbe 9232 bbbc 66cb db3e
000002f0: 3519 e5be a846 f0be 160c c93e 01a0 f2be
00000300: 0139 c0bb f70e 91be b2d9 d13d 85ce 413e
00000310: c8f2 52bd decc 24bd 3a00 c73e df8f b6be
00000320: d9bd 1abf 1d28 14bf 412c d9bd 3eec a8be
00000330: a7ad a8be dfcc cdbe 1ac2 fa3d 1b2f 17bd
00000340: 0afd df3e e657 a7be 2de0 193c 2272 913e
00000350: 4885 bdbe 8078 a53e a2fc 7ebe 3993 e5be
00000360: b466 f23e 0c22 d73d e427 f23e 7b39 e8bd
00000370: ced3 b83e 4a1f d3bd 7956 d13e 8760 8dbd
00000380: a373 abbe d9eb 963e 493e e9be e431 a5be
00000390: 0382 85be ed9c 043e 56a0 b0be 2ad4 bc3e
000003a0: 109b 25bf 93d6 cfbe a643 6c3c 6f33 54be
000003b0: ed94 8f3d 970e e23e d42b 0fbe 3d5b 553e
000003c0: 4401 be3d 3dd5 05bc 1ff4 3cbd dd3a cabd
000003d0: d5c2 99be c883 9e3e 2cea 09be dc4d 3ebf
000003e0: 323b 1bbf 644c d63e a185 61bf 08d1 82be
000003f0: 4764 77be 2650 1fbd 05f2 393e 61d7 0f3f

aggregator.full.bias f4 [16]
-0.025539553 -0.045226626 -0.08604716 -0.1126782 -0.011638455 0.01027762 0.0070940577 -0.14134833
-0.09242356 -0.20205525 0.02700654 -0.021577585 -0.085271545 -0.10007817 -0.08082578 0.008647844
00000000: 5338 d1bc 8e3f 39bd 7e39 b0bd d4c3 e6bd
00000010: 38af 3ebc 7663 283c 4575 e83b 9ebd 10be
00000020: 9048 bdbd 92e7 4ebe d23c dd3c 7ac3 b0bc
00000030: d9a2 aebd c9f5 ccbd fd87 a5bd b0af 0d3c

step.full.weight f4 [1, 32]
0.14251451 -0.17442171 0.16910444 -0.05639676 -0.052057236 -0.050581366 0.17103122 -0.032473385
0.093444064 -0.12643759 -0.08786328 -0.00013373792 -0.057758316 -0.08758741 0.09430258 0.109721854
0.17486353 -0.1610084 -0.12924914 -0.09619917 0.17413177 0.13054891 0.16124772 -0.009816036
-0.03612554 -0.07925788 -0.008774087 -0.017533451 0.1629846 -0.14791153 0.049938142 0.08225809
00000000: 53ef 113e 9b9b 32be b729 2d3e 4a00 67bd
00000010: f839 55bd 682e 4fbd cf22 2f3e d002 05bd
00000020: 9a5f bf3d db78 01be aaf1 b3bd 003c 0cb9
00000030: fc93 6cbd 0761 b3bd b621 c13d dab5 e03d
00000040: 6d0f 333e 63df 24be e359 04be 1204 c5bd
00000050: 994f 323e 9dae 053e 1f1e 253e 70d3 20bc
00000060: 60f8 13bd f551 a2bd 30c1 0fbc 50a2 8fbc
00000070: 6fe5 263e 1f76 17be f08b 4c3d ee76 a83d

lstm.lstm.weight_ih_l0 f4 [64, 16]
-0.11586513 0.12245467 0.23350713 0.014229936 0.05228623 0.14242402 -0.07013292 0.25081062
0.36155444 -0.079825915 -0.19826657 0.018448513 0.004287245 0.43517637 0.26646367 -0.046799593
-0.12994179 0.37015325 0.07487488 0.023374258 0.2906781 0.4289136 0.028740278 -0.10871854
-0.023464188 0.09630137 -0.16427454 -0.12761874 -0.085268654 0.0019607274 0.1663363 0.15712343
0.087907515 -0.1304707 0.071013756 0.154223 -0.22360489 -0.17063569 0.039265636 0.24787916
-0.26690677 0.034761526 0.31897768 0.013400721 -0.1724785 -0.108711496 -0.06222087 -0.20845193
0.33444118 -0.007563726 0.10984308 0.13202947 0.4285516 -0.24101056 0.14274396 0.13784833
0.06295398 0.25041172 0.21337576 0.13120821 0.28315115 -0.23103598 -0.02169973 0.12616445
0.21164174 0.24152072 0.21165448 -0.12761506 0.03569483 0.13884358 -0.038154483 -0.029432755
-0.082715906 0.13125007 0.07050441 0.3111391 -0.12519056 0.36017042 0.088277094 0.19264227
0.42271182 0.48204753 -0.0058817356 0.128245 0.2705821 0.47490165 0.33131385 0.59447443
0.31941003 0.6024911 0.14923143 0.18680628 0.24266624 0.3880057 0.53393257 0.17447254
-0.17310475 -0.3597024 0.26132938 -0.36309657 0.027791923 0.0113325 0.058105595 -0.30941108
-0.15993293 -0.10923202 0.02239907 0.16354054 0.11353837 -0.23986483 -0.0073636123 -0.12566578
0.2967252 0.45775488 0.11128121 0.36657125 0.34118757 0.33326706 0.33967447 0.20815805
0.13049869 0.22179416 0.62858564 0.15968496 0.2182284 0.3294348 0.21157709 0.094881795
0.22273502 -0.15752126 0.04081667 -0.3104213 0.39265513 0.24678811 -0.1757395 0.252307
-0.11529027 0.14933231 0.54408824 0.19431865 0.2548549 -0.17623089 0.031909134 0.043758962
0.037856996 0.037134532 -0.09879201 0.038595937 0.07358609 0.23407668 0.21623239 0.040766183
-0.05632381 0.33496726 0.45731232 -0.057670526 0.121411346 0.29368672 0.22988312 0.28850845
0.38883317 0.18248394 0.2656439 0.42849684 0.42455718 0.1672786 0.48176086 0.34175745
-0.014542393 0.41828054 0.03825845 0.25724512 0.37669447 0.18113391 0.20073506 -0.009251187
0.06166476 -0.08376711 -0.12243484 -0.08371996 0.004061603 -0.13340703 0.05107 0.11334265
0.33158195 -0.22502142 -0.3905536 0.14332514 -0.40138552 0.17798139 0.2193001 0.23165067
0.057331964 -0.32587698 0.3633562 -0.22003005 -0.27960205 -0.104403734 -0.24094808 -0.17747633
0.27523008 -0.33044448 -0.2767292 0.14245617 -0.0849061 0.28084838 0.10915591 0.020012002
-0.18291304 0.33967143 0.19985028 -0.12490625 0.11402966 0.13950607 0.3275003 -0.18085584
0.050200175 0.1547396 -0.09943816 0.042869348 -0.10800682 0.18471809 -0.05818066 0.04881531
0.06455514 0.100843206 0.25430325 0.23547943 -0.35588336 -0.27580413 0.056211248 -0.1613497
0.24313188 -0.25868058 -0.3897251 0.22266865 -0.21826184 0.18579064 0.07031565 -0.2642984
0.19599734 -0.09704485 -0.2370784 -0.113449335 0.30218527 -0.29622337 0.34694755 -0.09713767
-0.34535262 0.11086922 0.19988 0.015953634 0.28492254 -0.34421512 0.19244058 -0.2534122
00000000: b34a edbd 84c9 fa3d 7e1c 6f3e ad24 693c
00000010: 162a 563d 9ad7 113e d9a1 8fbd 406a 803e
00000020: aa1d b93e c57b a3bd 6406 4bbe 5621 973c
00000030: 057c 8c3b 70cf de3e ed6d 883e eeb0 3fbd
00000040: 760f 05be ba84 bd3e 0058 993d 5f7b bf3c
00000050: c3d3 943e 909a db3e bb70 eb3c d3a7 debd
00000060: f837 c0bc a739 c53d 9637 28be 7dae 02be
00000070: 55a1 aebd 8c7f 003b 1054 2a3e f7e4 203e
00000080: db08 b43d 1c9a 05be a96f 913d a2ec 1d3e
00000090: aef8 64be 1fbb 2ebe 01d5 203d 09d4 7d3e
000000a0: 01a8 88be 1a62 0e3d 0b51 a33e b38e 5b3c
000000b0: 349e 30be 22a4 debd 50db 7ebd 6c74 55be
000000c0: e03b ab3e 22d9 f7bb 69f5 e03d bc32 073e
000000d0: 1e6b db3e 79cb 76be 792b 123e 1d28 0d3e
000000e0: 04ee 803d f735 803e 2d7f 5a3e 725b 063e
000000f0: 30f9 903e b294 6cbe a2c3 b1bc 4131 013e
00000100: 9db8 583e 3551 773e f4bb 583e 86ad 02be
00000110: be34 123d 032d 0e3e e047 1cbd f61c f1bc
00000120: f566 a9bd 6b66 063e 9e64 903d a04d 9f3e
00000130: f431 00be 4268 b83e 9fca b43d 0444 453e
00000140: af6d d83e efce f63e 93bb c0bb a852 033e
00000150: bd89 8a3e 4f26 f33e f8a1 a93e 7a2f 183f
00000160: b689 a33e db3c 1a3f 20d0 183e 254a 3f3e
00000170: 807d 783e afa8 c63e ceaf 083f eea8 323e
00000180: 5f42 31be ea2a b8be f7cc 853e cbe7 b9be
00000190: e3ab e33c f3ab 393c 2200 6e3d 216b 9ebe
000001a0: 75c5 23be 0ab5 dfbd 417e b73c 2c77 273e
000001b0: ce86 e83d 209f 75be 754a f1bb 88ae 00be
000001c0: 5eec 973e d95e ea3e 67e7 e33d 3aaf bb3e
000001d0: 23b0 ae3e fba1 aa3e d0e9 ad3e 6227 553e
000001e0: 73a1 053e 021e 633e fdea 203f 7484 233e
000001f0: 4477 5f3e aeab a83e aaa7 583e 6351 c23d
00000200: a614 643e 414d 21be 612f 273d 8aef 9ebe
00000210: 180a c93e 06b6 7c3e 0ef5 33be 622e 813e
00000220: 4e1d ecbd 92ea 183e 5e49 0b3f 78fb 463e
00000230: 577c 823e df75 34be 27b3 023d 993c 333d
00000240: f00f 1b3d 611a 183d 7753 cabd c616 1e3d
00000250: 4eb4 963d ccb1 6f3e 066c 5d3e 71fa 263d
00000260: ccb3 66bd d480 ab3e d724 ea3e ee37 6cbd
00000270: 83a6 f83d 1b5e 963e 7b66 6b3e 61b7 933e
00000280: 2415 c73e 12dd 3a3e 7a02 883e f063 db3e
00000290: 8f5f d93e 154b 2b3e 5ca9 f63e d5fa ae3e
000002a0: 3843 6ebc de28 d63e e4b4 1c3d a2b5 833e
000002b0: 19de c03e 2b7b 393e 7e8d 4d3e 4a92 17bc
000002c0: 3094 7c3d 178e abbd 1ebf fabd 5f75 abbd
000002d0: 3217 853b da9b 08be c72e 513d 3120 e83d
000002e0: 1cc5 a93e 046c 66be a4f6 c7be d3c3 123e
000002f0: 6782 cdbe c140 363e 3590 603e d535 6d3e
00000300: ecd4 6a3d 59d9 a6be d309 ba3e 8f4f 61be
00000310: 0028 8fbe a0d1 d5bd 18bb 76be 5bbc 35be
00000320: f5ea 8c3e 0530 a9be 73af 8dbe 08e0 113e
00000330: 40e3 adbd 5ccb 8f3e 228d df3d 36f0 a33c
00000340: 8e4d 3bbe 6ae9 ad3e 8da5 4c3e d9ce ffbd
00000350: 6288 e93d aeda 0e3e 1fae a73e 4632 39be
00000360: b39e 4d3d 0f74 1e3e 3ca6 cbbd c597 2f3d
00000370: ae32 ddbd bd26 3d3e d84e 6ebd 90f2 473d
00000380: 7c35 843d e286 ce3d 0934 823e 8521 713e
00000390: 5836 b6be 3336 8dbe c43d 663d db38 25be
000003a0: 90f7 783e c871 84be 0c8a c7be 4003 643e
000003b0: 0880 5fbe e73f 3e3e a701 903d 1f52 87be
000003c0: 87b3 483e 73bf c6bd aec4 72be 2058 e8bd
000003d0: 07b8 9a3e 97aa 97be 1ca3 b13e 1df0 c6bd
000003e0: 0fd2 b0be 670f e33d 58ad 4c3e 32b1 823c
000003f0: 5ee1 913e f73c b0be 250f 453e 3ebf 81be

lstm.lstm.weight_hh_l0 f4 [64, 16]
-0.102415375 0.09396293 -0.029903851 0.072290376 -0.22759458 -0.07316506 0.07519656 -0.5078185
-0.27116874 0.47501755 -0.33077934 -0.31900936 -0.083680585 -0.14748001 -0.012502361 -0.08867575
0.6969759 -0.11297157 0.26796022 0.28127542 -0.044746153 0.19854721 -0.2498795 -0.13009267
-0.21007483 0.048573773 -0.5053136 -0.60839236 -0.06306797 -0.17302212 -0.3448851 -0.053197134
-0.53188026 -0.073789306 -0.22748184 -0.39926767 -0.026466576 -0.06495975 0.41636536 0.63820225
-0.10131337 0.029610438 0.6617187 0.26534358 0.17594844 0.165761 0.17052923 -0.084777296
0.2346084 0.21286625 -0.04351327 0.16422556 0.10906509 0.022456067 0.12802441 0.18135184
0.12602112 -0.0847707 0.34055188 -0.071125746 -0.12347564 0.08054745 -0.08203148 -0.13718267
0.0866976 0.114882655 0.16844602 -0.13844737 -0.24595119 -0.06841895 -0.32074007 0.2971108
0.18028803 -0.12961829 -0.08937067 -0.2363916 0.07112048 -0.02945588 -0.04101552 -0.123631045
-0.058138523 0.56197 -0.46225455 -0.54999816 -0.27095407 -0.2767097 -0.49025682 0.39354464
-0.35472435 0.114144005 -0.23541892 -0.2649925 -0.21811736 -0.14523774 -0.2311164 -0.57175285
-0.41425842 0.056445904 0.048096694 0.29142928 0.14897104 0.6514061 -0.029287921 0.07896791
-0.121371455 0.19907136 -0.61455524 0.26915154 -0.39717802 -0.013678388 0.20061746 -0.10335681
0.17094825 0.13319317 -0.3294677 -0.16623352 -0.57447773 -0.31588206 -0.43679523 0.093667686
-0.56001836 -0.31762215 0.41299412 -0.31450877 -0.5022003 -0.3559553 -0.2077796 -0.3596637
-0.14689462 -0.13468881 -0.16743855 0.086953394 0.027533308 -0.027126173 -0.40742254 0.49885112
-0.35610434 -0.08291559 0.0027549367 -0.18231684 0.0053441473 -0.15084673 -0.17128924 -0.36551484
0.25929376 0.45602414 0.0069749304 -0.42757112 -0.31254664 -0.23150422 0.06696156 0.23341163
-0.07807866 -0.20120308 0.18801858 -0.3239223 -0.24319641 -0.36529532 -0.07656346 -0.06455353
-0.3142888 -0.10227522 0.013594678 -0.1960377 -0.29428676 -0.33256596 -0.23826845 0.7679486
-0.15822773 -0.23410892 0.2960644 -0.28520954 -0.333295 0.11501427 0.21456447 -0.45487937
0.08803698 -0.0072739306 0.28380635 -0.006223738 -0.022399243 0.055011217 0.17898592 -0.8656197
0.28850254 0.18938094 -0.050637096 -0.15371382 0.06528229 0.11857074 -0.276198 0.3609399
-0.086193256 0.016297886 0.13633555 0.29574433 -0.18587574 0.24845028 -0.061146222 -0.50563365
-0.0145599 0.28012797 -0.7698292 -0.052964 -0.11159362 -0.08283536 -0.28596202 0.29694858
0.12967284 0.32163003 -0.27673444 -0.06375877 0.057570577 -0.24896537 -0.24492916 0.13068242
-0.21578574 0.36927143 -0.2417012 -0.26626435 -0.43988544 -0.2544957 -0.25482634 -0.0923766
0.13045006 -0.14465865 -0.059007976 -0.045344096 0.13256593 -0.2801278 0.22192787 -0.8201827
-0.17411305 0.5761243 -0.015692892 -0.14825019 -0.1641454 0.021790793 -0.0014310232 0.35259646
-0.06697367 0.15908961 -0.14114566 -0.12120853 -0.16210026 0.6400254 0.2681246 0.5727489
0.121109076 -0.09730526 0.28616074 0.13782032 0.20690343 0.34145394 0.14017233 -0.29841372
00000000: 27bf d1bd a36f c03d ecf8 f4bc fa0c 943d
00000010: 8e0e 69be 90d7 95bd a700 9a3d 6500 02bf
00000020: a1d6 8abe 8035 f33e e95b a9be 3255 a3be
00000030: ba60 abbd 0005 17be b4d6 4cbc a29b b5bd
00000040: 036d 323f a35d e7bd 1532 893e 5503 903e
00000050: be47 37bd f64f 4b3e 69e0 7fbe 0337 05be
00000060: db1d 57be 4bf5 463d 3b5c 01bf 9abf 1bbf
00000070: c829 81bd b62c 31be c894 b0be 3de5 59bd
00000080: 4e29 08bf d91e 97bd 00f1 68be d06c ccbe
00000090: 6fd0 d8bc 9e09 85bd d72d d53e 3961 233f
000000a0: 627d cfbd 9791 f23c 6666 293f 1ddb 873e
000000b0: d42b 343e 40bd 293e 379f 2e3e b89f adbd
000000c0: 2f3d 703e 9cf9 593e f83a 32bd bf2a 283e
000000d0: 855d df3d c9f5 b73c d518 033e 4cb4 393e
000000e0: ae0b 013e 439c adbd d15c ae3e 60aa 91bd
000000f0: cce0 fcbd 10f6 a43d 1f00 a8bd 9d79 0cbe
00000100: 838e b13d 9947 eb3d 1d7d 2c3e 26c5 0dbe
00000110: a1da 7bbe 3c1f 8cbd 0b38 a4be e81e 983e
00000120: 6d9d 383e a8ba 04be f807 b7bd a410 72be
00000130: 9da7 913d 754d f1bc e4ff 27bd 4632 fdbd
00000140: a922 6ebd 44dd 0f3f a1ac ecbe aecc 0cbf
00000150: 7eba 8abe e5ac 8dbe f102 fbbe af7e c93e
00000160: 6e9e b5be 55c4 e93d a811 71be 19ad 87be
00000170: 285a 5fbe 34b9 14be c7a9 6cbe 655e 12bf
00000180: ae19 d4be d233 673d 0a01 453d 3836 953e
00000190: dd8b 183e 8dc2 263f 39ed efbc edb9 a13d
000001a0: 9991 f8bd 5dd9 4b3e 7e53 1dbf 3bce 893e
000001b0: eb5a cbbe 511b 60bc aa6e 4d3e bcac d3bd
000001c0: 0f0d 2f3e ca63 083e feaf a8be 1f39 2abe
000001d0: f910 13bf 4bbb a1be a0a3 dfbe d8d4 bf3d
000001e0: 5d5d 0fbf 5f9f a2be f773 d33e 4b07 a1be
000001f0: 3390 00bf c63f b6be 2dc4 54be d725 b8be
00000200: 8b6b 16be ddeb 09be 0375 2bbe 9f14 b23d
00000210: 888d e13c b537 debc b099 d0be 6a69 ff3e
00000220: 4f53 b6be a6cf a9bd 2b8c 343b 44b1 3abe
00000230: f51d af3b 9177 1abe 7266 2fbe c324 bbbe
00000240: 27c2 843e ff7b e93e f58d e43b 9aea dabe
00000250: 1d06 a0be 710f 6dbe 2423 893d 7503 6f3e
00000260: b4e7 9fbd 2e08 4ebe f187 403e 25d9 a5be
00000270: 7b08 79be fd07 bbbe 4ecd 9cbd a434 84bd
00000280: 76ea a0be ac75 d1bd 36bc 5e3c 1bbe 48be
00000290: c1ac 96be 1646 aabe a5fc 73be 4898 443f
000002a0: 7306 22be 40ba 6fbe c195 973e fc06 92be
000002b0: a4a5 aabe 9a8c eb3d cab6 5b3e f3e5 e8be
000002c0: bb4c b43d 275a eebb 114f 913e 80f0 cbbb
000002d0: 9e7e b7bc 7153 613d 1648 373e 4199 5dbf
000002e0: 9bb6 933e 14ed 413e d868 4fbd 2867 1dbe
000002f0: b9b2 853d 37d5 f23d d369 8dbe 1dcd b83e
00000300: 1786 b0bd 2583 853c 8c9b 0b3e cd6b 973e
00000310: 3656 3ebe c069 7e3e 7674 7abd 3571 01bf
00000320: a68c 6ebc ef6c 8f3e 8713 45bf c7f0 58bd
00000330: 328b e4bd 96a5 a9bd 9d69 92be a509 983e
00000340: f5c8 043e b1ac a43e 23b0 8dbe f593 82bd
00000350: 20cf 6b3d c7f0 7ebe b6ce 7abe 9dd1 053e
00000360: f0f6 5cbe 2511 bd3e 8580 77be cd53 88be
00000370: aa38 e1be 434d 82be 9978 82be f12f bdbd
00000380: b394 053e 6621 14be 59b2 71bd bbba 39bd
00000390: 5dbf 073e e96c 8fbe 0f41 633e 7ef7 51bf
000003a0: b14a 32be e27c 133f 618e 80bc e6ce 17be
000003b0: bb15 28be 9b82 b23c 2c91 bbba 8687 b43e
000003c0: 7e29 89bd 63e8 223e 7d88 10be 2e3c f8bd
000003d0: 9cfd 25be b4d8 233f a147 893e ac9f 123f
000003e0: 0908 f83d fb47 c7bd a983 923e c520 0d3e
000003f0: 7ede 533e 0dd3 ae3e 5689 0f3e afc9 98be

lstm.lstm.bias_ih_l0 f4 [64]
-0.010162023 0.07680566 0.021888535 0.12279409 0.33796644 0.5130754 0.197924 0.29007295
-0.07983467 0.048362195 0.41006148 0.11493132 0.074145555 0.09054676 -0.07341438 -0.17041178
-0.08712463 0.119637854 0.24131128 0.1876493 0.07340428 0.5204014 -0.18309994 0.22312655
0.11428781 0.20646241 0.37591565 0.07333415 0.13758993 0.32736644 -0.06259071 0.12877628
0.21086256 0.07111732 -0.1594899 0.17128716 -0.25655428 0.2770181 -0.23701984 -0.060149163
-0.043509565 -0.05319596 0.008550301 0.26003444 -0.18063086 0.2274127 0.05865351 0.0019848675
0.38544402 -0.003982806 0.27684253 0.23255056 -0.04723864 0.102165826 0.14076473 0.29178864
0.11688901 0.1661286 0.5936337 0.24050762 0.06864261 0.21740101 0.057272978 0.024007283
00000000: 9d7e 26bc 494c 9d3d 964f b33c 787b fb3d
00000010: f009 ad3e e958 033f 97ac 4a3e 7184 943e
00000020: 5c80 a3bd 7017 463d 94f3 d13e 1d61 eb3d
00000030: a0d9 973d 9470 b93d 475a 96bd 6d80 2ebe
00000040: 666e b2bd b104 f53d 4e1a 773e 2327 403e
00000050: fc54 963d 0739 053f 8d7e 3bbe 497b 643e
00000060: ba0f ea3d e26a 533e 0478 c03e 3730 963d
00000070: 60e4 0c3e 939c a73e 8f2f 80bd eedd 033e
00000080: 5bec 573e f5a5 913d 5251 23be e765 2f3e
00000090: 155b 83be 51d5 8d3e 54b5 72be f85e 76bd
000000a0: 1637 32bd 02e4 59bd 9016 0c3c 3c23 853e
000000b0: 4cf7 38be e0de 683e aa3e 703d 8d14 023b
000000c0: eb58 c53e 3382 82bb 4ebe 8d3e bc21 6e3e
000000d0: 4e7d 41bd 513c d13d a124 103e 5265 953e
000000e0: 8163 ef3d 9e1d 2a3e 61f8 173f a147 763e
000000f0: 7f94 8c3d 5f9e 5e3e 1297 6a3d ecaa c43c

lstm.lstm.bias_hh_l0 f4 [64]
-0.05845845 -0.0021443008 -0.018609775 -0.081378534 0.002837648 0.1527384 -0.19793783 0.57171553
-0.126044 0.4237112 0.23958413 -0.17546774 0.07574448 0.21995583 -0.10708822 0.09768232
0.19139767 0.00015543042 -0.21190214 0.20248853 0.22210403 0.52732825 0.10012441 0.5589078
0.11893806 0.15286578 0.14393142 -0.09800052 0.20591484 -0.07756105 -0.13382795 0.081749275
0.08866977 -0.046683796 -0.14392558 0.05091943 -0.2737359 -0.06771088 0.109236434 0.12264376
-0.060129166 0.21805415 -0.04336436 0.008498672 -0.105005555 0.1618948 -0.30295888 -0.22385368
0.30610985 0.28445545 0.20342065 -0.100419305 -0.030037403 0.42333665 -0.16999336 0.30371732
0.028601328 -0.030350626 0.2637964 -0.006731446 -0.072355464 0.16816993 -0.013827439 -0.10585555
00000000: 2172 6fbd 6687 0cbb 8773 98bc caa9 a6bd
00000010: d5f7 393b 7567 1c3e 37b0 4abe f35b 123f
00000020: ae11 01be adf0 d83e 8b55 753e d1ad 33be
00000030: ec1f 9b3d 1a3c 613e 1251 dbbd ab0d c83d
00000040: c0fd 433e 09fb 2239 e0fc 58be 2759 4f3e
00000050: 3d6f 633e fcfe 063f 070e cd3d 9514 0f3f
00000060: cc95 f33d d988 1c3e c262 133e 7fb4 c8bd
00000070: 57db 523e 54d8 9ebd 320a 09be 2a6c a73d
00000080: 7f98 b53d 8237 3fbd 3a61 13be e490 503d
00000090: 1d27 8cbe 00ac 8abd 5ab7 df3d a72c fb3d
000000a0: 004a 76bd 9649 5f3e d49e 31bd 043e 0b3c
000000b0: 270d d7bd c0c7 253e 6d1d 9bbe e639 65be
000000c0: 6eba 9c3e 25a4 913e 814d 503e a3a8 cdbd
000000d0: 0011 f6bc 95bf d83e bd12 2ebe d680 9b3e
000000e0: 554d ea3c e0a1 f8bc 5210 873e 7693 dcbb
000000f0: 1a2f 94bd bd34 2c3e 7c8c 62bc cbca d8bd

downstream.full.weight f4 [6, 16]
0.24562028 -0.2865881 0.11120943 0.16555005 -0.16920877 0.2538784 0.16185524 -0.54421484
0.3835155 0.43981048 -0.22045419 -0.1838138 0.10215325 0.25259584 -0.42583832 0.54135317
0.06114434 -0.55119354 -0.3084574 0.1266444 -0.46347207 0.13277192 -0.4677439 -0.40424648
0.19740357 -0.020203853 -0.66540265 -0.47508982 -0.16799787 0.5625625 -0.5154422 0.41237485
0.08774029 0.5450404 0.42474142 -0.3309006 -0.34503466 -0.6180763 0.039640777 0.6220264
-0.634622 -1.013511 -0.088528715 0.25067908 0.20655401 -0.54348767 0.34783885 0.11450784
-0.085404895 0.03320981 -0.71779114 -0.7718647 -0.42157832 -0.40764558 0.6750028 0.616148
-0.21861498 0.30317512 1.2117475 0.20858848 0.89688504 -0.5763588 -0.14487182 -0.68010974
0.49335325 0.47263983 0.030706719 0.17453028 -0.2199215 -0.36899132 0.30732813 -0.8117224
0.14355753 0.16282931 0.4102966 -0.33899003 -0.44718271 -0.677813 -0.40825438 0.3061084
-0.77408856 -0.3277903 0.09940353 -0.1437719 -0.38616654 0.6513204 -0.35491216 0.54104006
-0.12166806 0.34372783 -0.82920986 0.37219122 0.10113745 0.3898066 0.3536247 -0.54319566
00000000: e283 7b3e adbb 92be c5c1 e33d f485 293e
00000010: 1045 2dbe 5afc 813e 61bd 253e aa51 0bbf
00000020: 255c c43e d72e e13e bebe 61be af39 3cbe
00000030: b935 d13d 3e54 813e 7b07 dabe 1f96 0a3f
00000040: 7d72 7a3d 051b 0dbf 21ee 9dbe 12af 013e
00000050: 364c edbe 5df5 073e 217c efbe 65f9 cebe
00000060: 2924 4a3e 8d82 a5bc d457 2abf f93e f3be
00000070: a207 2cbe 1904 103f 05f4 03bf cc22 d33e
00000080: 2eb1 b33d c587 0b3f b577 d93e ce6b a9be
00000090: 62a8 b0be 403a 1ebf 5e5e 223d 1f3d 1f3f
000000a0: 9676 22bf baba 81bf 8b4e b5bd 0259 803e
000000b0: e582 533e 0222 0bbf ef17 b23e 1683 ea3d
000000c0: c3e8 aebd 0207 083d 29c1 37bf ed98 45bf
000000d0: 1dd9 d7be ecb6 d0be fccc 2c3f e0bb 1d3f
000000e0: 9bdc 5fbe c539 9b3e 8b1a 9b3f 3898 553e
000000f0: 429a 653f 408c 13bf 4759 14be ac1b 2ebf
00000100: cc98 fc3e d9fd f13e a88c fb3c 11b8 323e
00000110: 1a33 61be 6eec bcbe 1d5a 9d3e 0acd 4fbf
00000120: bf00 133e babc 263e 6512 d23e 1a90 adbe
00000130: 22f5 e4be 2785 2dbf b806 d1be 3dba 9c3e
00000140: ab2a 46bf 21d4 a7be 1494 cb3d f138 13be
00000150: 9fb7 c5be efbc 263f 0cb7 b5be 9a81 0a3f
00000160: 1b2d f9bd 18fd af3e 1947 54bf d98f be3e
00000170: 2721 cf3d bb94 c73e 4c0e b53e df0e 0bbf

downstream.full.bias f4 [6]
0.20639303 0.06828567 0.21979766 -0.14850172 -0.06203282 -0.11992677
00000000: b258 533e 5bd9 8b3d a312 613e d610 18be
00000010: 2016 7ebd 2b9c f5bd

maxpooling.full.weight f4 [16, 16]
0.3262054 0.039836198 0.32834187 0.12618932 -0.120156646 -0.19221336 0.045245677 0.35876432
0.1508399 -0.14100769 -0.06767848 0.35755756 -0.035007417 0.12592801 0.37712523 -0.3038168
0.18980852 -0.051816642 -0.37342048 0.43131277 -0.22096206 0.38441488 -0.23824379 0.29371467
0.34488 -0.067525476 0.06140983 -0.37060753 -0.043114483 0.20013246 0.14349946 -0.33111197
-0.07322231 -0.26615214 -0.30396748 -0.34968376 0.33908245 -0.32251883 -0.29059863 0.14492491
-0.105535954 -0.21462658 0.27097192 0.28287914 0.28915766 -0.25435048 -0.29151654 -0.2907576
0.33321437 -0.0046640337 0.31942132 -0.3664634 0.3875287 0.05912766 -0.14343151 0.17408696
0.06447804 0.08926317 0.35509893 0.13314041 -0.042806834 0.14602545 0.314266 -0.41534954
0.047630936 -0.014721006 -0.07660708 -0.2425099 0.1516845 0.13180467 0.36776605 -0.18671839
-0.0547581 -0.015045494 -0.18596175 0.2438812 0.38850883 -0.3016014 0.19668761 0.20759347
0.27610037 0.2566817 0.3624327 -0.2462508 0.014102042 -0.37625313 -0.16416207 0.4287512
-0.00085785985 -0.2999643 0.037664324 -0.21805915 0.26381412 0.25344524 -0.08042717 -0.12327388
0.2080107 0.4275671 0.331086 0.361654 -0.41700205 0.00057014823 0.41986218 -0.28705737
0.118486255 0.13927951 -0.30309403 -0.023937702 -0.23382689 0.2853537 0.36481133 -0.16006345
-0.21410218 -0.37642384 -0.3675201 0.3026726 -0.33908218 0.016933233 0.07710084 -0.3429035
0.13474223 -0.28074306 -0.2331542 0.08163485 -0.32263523 0.17364243 0.3625655 -0.33678022
-0.40138507 0.28130904 -0.23081002 0.22577158 0.048741788 -0.014902711 0.33210453 -0.4044096
-0.036332548 0.096247405 0.006416917 -0.2754941 -0.3626557 0.19773367 -0.19595945 -0.0016902685
-0.33335096 0.37108663 0.21542707 0.07249597 -0.17691654 0.31531695 -0.20146546 0.03314981
-0.07246077 -0.10476878 0.4325367 -0.1386424 0.1580182 -0.25404373 0.35403028 0.35887644
-0.31059068 0.4070488 0.14399967 -0.37146264 -0.04535398 0.08691004 -0.3312178 -0.29469556
-0.14724147 0.39250383 -0.086432636 0.21557239 0.11984554 0.19070992 -0.17181939 -0.20045362
-0.13458532 -0.07149473 -0.35918188 0.33271268 0.25122127 -0.38041052 0.3908302 0.056595683
0.16932693 0.384281 0.36500576 0.012813687 0.0023767948 0.18744305 0.055911988 -0.31560844
0.32914713 0.4243563 0.21138015 0.36783198 0.2744318 0.30787382 -0.2506556 -0.30136532
0.42599896 0.25845167 0.17935917 -0.16916788 0.26174048 0.099800855 -0.26615492 -0.20604785
0.35617754 0.031110227 0.26813063 0.33600894 0.3520948 0.13548765 0.35540757 -0.1694471
-0.36013886 0.29268184 0.16245642 0.3408657 -0.4192128 0.005838692 0.012851834 0.16120866
-0.10217208 0.381807 -0.3761748 -0.1631529 -0.106741905 0.36986747 0.1707116 -0.25810027
-0.23831734 0.017227203 -0.07793012 -0.0615443 -0.14551216 -0.067659795 -0.05991164 -0.006144434
0.15365168 0.14978012 -0.3579404 -0.08940232 0.42437217 0.23814085 -0.07320121 -0.123967946
-0.27284545 0.15842405 0.34761336 -0.3095837 0.41565594 0.23042831 0.029409587 0.061859965
00000000: 6504 a73e 482b 233d 6d1c a83e c637 013e
00000010: b014 f6bd 94d3 44be 8853 393d f5af b73e
00000020: c675 1a3e 5264 10be 049b 8abd c911 b73e
00000030: f063 0fbd 46f3 003e 8f16 c13e e08d 9bbe
00000040: 2a5d 423e b03d 54bd f830 bfbe 07d5 dc3e
00000050: e143 62be 07d2 c43e 2ef6 73be c561 963e
00000060: 1d94 b03e cc4a 8abd e088 7b3d 45c0 bdbe
00000070: d098 30bd 86ef 4c3e 86f1 123e 8287 a9be
00000080: 94f5 95bd 1845 88be a0a1 9bbe c009 b3be
00000090: 379c ad3e 3021 a5be 58c9 94be 3267 143e
000000a0: 3c23 d8bd 12c7 5bbe d5bc 8a3e 89d5 903e
000000b0: 790c 943e 3a3a 82be a841 95be 2ede 94be
000000c0: 139b aa3e c0d4 98bb 318b a33e 17a1 bbbe
000000d0: 296a c63e d82f 723d b6df 12be da43 323e
000000e0: 100d 843d 9ccf b63d 87cf b53e f655 083e
000000f0: 3856 2fbd b287 153e 79e7 a03e b2a8 d4be
00000100: a818 433d 6030 71bc 2ce4 9cbd 8454 78be
00000110: 2e53 1b3e cef7 063e d54b bc3e 1b33 3fbe
00000120: 084a 60bd 6081 76bc c26c 3ebe febb 793e
00000130: a1ea c63e 806b 9abe 7a68 493e 6293 543e
00000140: 075d 8d3e c96b 833e c790 b93e 2b29 7cbe
00000150: 400c 673c 40a4 c0be 1a1a 28be 4785 db3e
00000160: 00e2 60ba ec94 99be e845 1a3d e64a 5fbe
00000170: a512 873e 93c3 813e 00b7 a4bd 0477 fcbd
00000180: c200 553e 13ea da3e 1b84 a93e b72a b93e
00000190: 4b81 d5be 0076 153a 2df8 d63e 2ff9 92be
000001a0: eca8 f23d 4a9f 0e3e 242f 9bbe 0019 c4bc
000001b0: 5170 6fbe e119 923e 8dc8 ba3e ace7 23be
000001c0: 9a3d 5bbe a0ba c0be 982b bcbe e7f7 9a3e
000001d0: 2e9c adbe 90b7 8a3c 0ce7 9d3d 0c91 afbe
000001e0: def9 093e 8ebd 8fbe f9bf 6ebe 2c30 a73d
000001f0: 7230 a5be 52cf 313e 2fa2 b93e 756e acbe
00000200: 5882 cdbe bd07 903e 7659 6cbe aa30 673e
00000210: 78a5 473d 802a 74bc 9b09 aa3e c60e cfbe
00000220: 70d1 14bd 5c1d c53d 0045 d23b 900d 8dbe
00000230: 02ae b9be b27a 4a3e 98a9 48be 008c ddba
00000240: faac aabe 11ff bd3e ea98 5c3e c478 943d
00000250: 9c29 35be 3971 a13e f64c 4ebe 18c8 073d
00000260: 5066 94bd 0491 d6bd 7375 dd3e 46f8 0dbe
00000270: 86cf 213e 0512 82be 7543 b53e a7be b73e
00000280: be05 9fbe b368 d03e a674 133e 5a30 bebe
00000290: 18c5 39bd e4fd b13d 6195 a9be 56e2 96be
000002a0: 78c6 16be 43f6 c83e 9803 b1bd 02bf 5c3e
000002b0: 9471 f53d 7649 433e 6cf1 2fbe b743 4dbe
000002c0: bcd0 09be d46b 92bd b0e6 b7be 5159 aa3e
000002d0: 13a0 803e 2bc5 c2be e51a c83e e0d0 673d
000002e0: 0a64 2d3e 7bc0 c43e 09e2 ba3e 80f0 513c
000002f0: 00c4 1b3b 12f1 3f3e f803 653d 6e97 a1be
00000300: f985 a83e 3b45 d93e 0a74 583e 7954 bc3e
00000310: 5382 8c3e a3a1 9d3e ee55 80be 8e4c 9abe
00000320: 891c da3e c753 843e eea9 373e 583a 2dbe
00000330: d902 863e 6464 cc3d 7545 88be 35fe 52be
00000340: e75c b63e e0da fe3c 6b48 893e 5d09 ac3e
00000350: c545 b43e 46bd 0a3e fbf7 b53e 8a83 2dbe
00000360: 1f64 b8be 65da 953e fa5a 263e f385 ae3e
00000370: 0fa3 d6be 8052 bf3b 8090 523c e213 253e
00000380: 983f d1bd 357c c33e fc99 c0be 8e11 27be
00000390: 809b dabd 455f bd3e 06cf 2e3e b825 84be
000003a0: 7609 74be 1020 8d3c d499 9fbd e015 7cbd
000003b0: 2401 15be 3891 8abd e865 75bd 4057 c9bb
000003c0: de56 1d3e f65f 193e f743 b7be 9018 b7bd
000003d0: 4f47 d93e 32db 733e 84ea 95bd e8e2 fdbd
000003e0: 66b2 8bbe ea39 223e 61fa b13e c181 9ebe
000003f0: dbd0 d43e 66f5 6b3e 60ec f03c e060 7d3d

maxpooling.full.bias f4 [16]
-0.18471202 -0.22512543 -0.19605711 0.016575426 -0.034091443 -0.14652395 -0.050958604 0.039617687
-0.16224492 0.19606474 -0.17476958 0.18086204 -0.054729044 -0.10796589 -0.2267243 -0.06436396
00000000: 2625 3dbe 4887 66be 32c3 48be 30c9 873c
00000010: 78a3 0bbd 600a 16be f8b9 50bd 2846 223d
00000020: 8823 26be 32c5 483e ccf6 32be e633 393e
00000030: 902b 60bd 381d ddbd 6a2a 68be 40d1 83bd

mean.full.weight f4 [16, 16]
-0.13006619 -0.18380511 0.08855328 0.32322845 -0.25589615 -0.3691029 0.16455713 -0.13895279
-0.30071533 0.08593044 -0.37793183 0.108418256 0.092374414 0.07446876 0.32800433 0.18698451
0.13780853 0.40770575 0.284943 0.1723297 -0.15063253 -0.22243269 -0.18979995 -0.011284918
-0.251992 -0.11732489 0.11760226 -0.006725967 0.0075921416 -0.10279831 -0.40371114 0.35067162
-0.27944428 -0.38669273 -0.104138315 0.24190387 -0.0716306 -0.19684513 -0.3419426 0.23857251
0.38644055 0.05182898 0.25158504 0.41358468 -0.036647886 0.38368574 0.259217 0.06874356
-0.33992332 -0.16896999 -0.06316984 0.28604266 0.046203732 0.34382603 0.059108496 -0.15536994
0.19540027 -0.40955123 0.13590464 0.28147736 0.3172538 0.059843093 0.09375635 0.2641305
0.2799481 0.02421686 -0.353862 -0.3569694 0.32034704 0.19867215 -0.16474754 0.3821914
0.19444004 0.30456057 0.12249771 -0.3009425 -0.2192799 0.2778618 -0.12287539 -0.41700947
0.1254231 -0.35893 -0.17119506 0.01263833 0.40702668 0.12139997 -0.22183912 0.09715995
0.070344 0.25733295 -0.21018936 0.29598275 -0.34468818 -0.31084472 -0.16912565 -0.33106923
0.25442788 -0.056605816 0.32523373 0.11745867 -0.11210984 0.2423335 -0.0986847 0.30226806
0.0022576153 -0.05598244 0.081560284 -0.20233002 -0.034410357 0.2414234 -0.008096248 0.2697344
0.1668044 -0.27689496 0.01939869 -0.40205112 -0.3054486 0.10843131 0.21675733 -0.34180158
-0.10397276 0.3810161 0.10686192 -0.10014644 -0.059310287 -0.10997999 0.040344328 -0.20784001
-0.056167513 0.08854702 -0.41552094 -0.19118711 0.017099202 0.037029445 0.40257636 0.2818021
-0.39685628 0.40914837 0.2938827 0.102850765 0.32284078 -0.00249362 -0.009274006 0.4123139
-0.21628903 0.15621606 0.18121883 -0.36674777 -0.32566193 0.12286505 0.25665703 -0.24839954
-0.37853613 0.43177184 0.25190452 0.42051724 -0.1314551 0.3122008 -0.31570563 0.19522896
-0.15891463 -0.3559969 -0.013564795 -0.32057983 -0.36689484 -0.061335504 0.2651048 -0.06232211
0.3787085 -0.36441475 -0.30309466 -0.4087296 -0.02785343 0.16233286 0.34039083 -0.39487195
0.41039023 -0.23280808 0.41756168 -0.073173285 -0.14940462 -0.35185957 -0.047315866 -0.050439328
-0.32679507 -0.27016583 0.3855169 0.044789612 -0.09037432 0.3457649 0.35293218 0.34944502
0.34081993 0.0549846 0.11902699 -0.29820174 0.011814594 0.09888014 0.051827937 -0.033203453
0.28357086 0.25630602 0.3473887 0.2154192 -0.029494286 -0.012483001 0.42755356 -0.0978829
-0.037626743 0.088851064 0.25178364 -0.14419392 -0.18656926 0.06775847 -0.41022286 -0.09930891
0.10390177 -0.21603543 0.13940915 -0.07272005 -0.30702674 -0.33617654 -0.07279351 0.16383633
0.14121959 -0.2373353 0.18865672 0.15826657 0.23072293 0.21770522 0.2522435 0.22568914
-0.36651775 -0.021518052 0.24918082 0.4072279 0.3061569 -0.27303964 0.053456843 0.41496608
-0.12746179 0.109003276 -0.05703616 0.3769183 0.3537145 -0.3882 -0.35259876 0.42667428
-0.05989632 0.10467878 0.26467374 -0.38345966 0.27605566 -0.26468465 -0.3107119 -0.2561682
00000000: 1230 05be 6837 3cbe 6c5b b53d 337e a53e
00000010: d204 83be 0efb bcbe aa81 283e a449 0ebe
00000020: 5cf7 99be 4cfc af3d 4880 c1be 640a de3d
00000030: cc2e bd3d 1483 983d 2ff0 a73e de78 3f3e
00000040: ae1d 0d3e cfbe d03e 0de4 913e 3277 303e
00000050: 6a3f 1abe 65c5 63be eb5a 42be 60e4 38bc
00000060: 1805 81be 0848 f0bd 74d9 f03d 8065 dcbb
00000070: 80c7 f83b ec87 d2bd 3ab3 cebe 3b8b b33e
00000080: 5213 8fbe 97fc c5be 7846 d5bd a6b5 773e
00000090: 10b3 92bd c591 49be 1a13 afbe 5a4c 743e
000000a0: 89db c53e a04a 543d c1cf 803e 5fc1 d33e
000000b0: 181c 16bd 7572 c43e 17b8 843e 6cc9 8c3d
000000c0: 6e0a aebe 7806 2dbe 305f 81bd 2f74 923e
000000d0: 2040 3d3d f709 b03e c01b 723d 4c19 1fbe
000000e0: 0217 483e b3b0 d1be 962a 0b3e cd1d 903e
000000f0: 176f a23e 081e 753d 5403 c03d 1d3c 873e
00000100: 5b55 8f3e 7062 c63c 662d b5be b1c4 b6be
00000110: 8704 a43e b670 4b3e 94b3 28be 97ae c33e
00000120: 4a1b 473e 5def 9b3e 14e0 fa3d 2315 9abe
00000130: e98a 60be e743 8e3e 18a6 fbbd 4482 d5be
00000140: ea6e 003e acc5 b7be c24d 2fbe 0011 4f3c
00000150: cd65 d03e 8ca0 f83d cb29 63be ccfb c63d
00000160: 8410 903d 25c1 833e e13b 57be 0d8b 973e
00000170: f87a b0be 0a27 9fbe 462f 2dbe e881 a9be
00000180: 5f44 823e 80db 67bd 0985 a63e 2c8e f03d
00000190: d899 e5bd 4626 783e 341b cabd e1c2 9a3e
000001a0: 80f4 133b d84d 65bd 1409 a73d 9a2f 4fbe
000001b0: e0f1 0cbd b237 773e 20a6 04bc a11a 8a3e
000001c0: c6ce 2a3e 2dc5 8dbe 00ea 9e3c a5d9 cdbe
000001d0: c263 9cbe 3c11 de3d a2f5 5d3e 9e00 afbe
000001e0: acef d4bd 8b14 c33e 6cda da3d 9419 cdbd
000001f0: 58ef 72bd 303d e1bd 1840 253d 03d4 54be
00000200: e80f 66bd 2458 b53d 29bf d4be 8ec6 43be
00000210: a013 8c3c 30ac 173d 7d1e ce3e 5d48 903e
00000220: bf30 cbbe e57b d13e cb77 963e 6ca3 d23d
00000230: 634b a53e 006c 23bb 00f2 17bc cf1a d33e
00000240: df7a 5dbe 1af7 1f3e 6e91 393e 5dc6 bbbe
00000250: 29bd a6be aca0 fb3d 8d68 833e 735c 7ebe
00000260: 7dcf c1be 3311 dd3e a1f9 803e 094e d73e
00000270: 2a9c 06be c9d8 9f3e 2ba4 a1be 1aea 473e
00000280: 84ba 22be 3a45 b6be e03e 5ebc 0a23 a4be
00000290: a4d9 bbbe f03a 7bbd d1bb 873e 7845 7fbd
000002a0: 15e6 c13e 9294 babe 392f 9bbe 0245 d1be
000002b0: e02c e4bc 963a 263e b547 ae3e a82c cabe
000002c0: ab1e d23e 3e65 6ebe a5ca d53e e0db 95bd
000002d0: 86fd 18be f026 b4be 48ce 41bd 7899 4ebd
000002e0: af51 a7be 2d53 8abe 7962 c53e 5075 373d
000002f0: 2c16 b9bd 1908 b13e 87b3 b43e 75ea b23e
00000300: f37f ae3e 8837 613d 6cc4 f33d e6ad 98be
00000310: 0092 413c ac81 ca3d 8849 543d 5800 08bd
00000320: 3330 913e 8b3a 833e efdc b13e da96 5c3e
00000330: 009e f1bc 8085 4cbc 4de8 da3e d476 c8bd
00000340: 801e 1abd 8cf7 b53d c9e9 803e 92a7 13be
00000350: 030c 3fbe f4c4 8a3d bb08 d2be 7862 cbbd
00000360: 74ca d43d 6438 5dbe 46c1 0e3e 40ee 94bd
00000370: 9c32 9dbe 551f acbe c414 95bd b6c4 273e
00000380: de9b 103e 0608 73be 3a2f 413e a210 223e
00000390: a242 6c3e 1eee 5e3e 0f26 813e 0e1b 673e
000003a0: 37a8 bbbe a046 b0bc 4229 7f3e 2d80 d03e
000003b0: 99c0 9c3e dacb 8bbe 90f5 5a3d 6f76 d43e
000003c0: 5885 02be 1c3d df3d c09e 69bd 6ffb c03e
000003d0: 111a b53e 27c2 c6be d387 b4be 0d75 da3e
000003e0: d855 75bd d461 d63d 5183 873e d354 c4be
000003f0: 2b57 8d3e bf84 87be a115 9fbe 7a28 83be

mean.full.bias f4 [16]
0.029815495 -0.07718015 -0.113530606 -0.12939233 0.12704 -0.059918582 0.22965902 -0.1616959
-0.0837979 0.23721138 -0.10017207 0.187011 -0.22283342 -0.123666465 -0.07728967 -0.053808928
00000000: a03f f43c a010 9ebd bc82 e8bd 6c7f 04be
00000010: c616 023e 306d 75bd bc2b 6b3e 9c93 25be
00000020: 3c9e abbd 8ae7 723e 0427 cdbd d07f 3f3e
00000030: 722e 64be d844 fdbd 0c4a 9ebd c066 5cbd
