best_model/loss/citee_dropout=0_wd=0_b=256_lr=0.01_walk=3_best_model.pt (torch_old, 488424 bytes, 12 tensors)

aggregator.full.weight f4 [16, 7406]
0.6450312 -0.06089131 -0.0051621553 0.38343975 -0.023295186 0.46568495 0.272245 -0.1834521
0.27327693 0.7380447 0.22117499 0.51183087 0.29828623 0.24842648 -0.7433481 0.2944815
0.28217617 -0.37188303 0.25636268 0.3066623 0.46735898 0.12377467 0.13043329 0.3790977
0.6330195 0.47077256 0.61844766 -0.44374067 -0.40071553 0.27651724 -0.013612346 0.09959139
0.09063607 -0.12382648 0.47912607 -0.32122734 0.30041963 0.19961648 0.14043832 0.5682963
-0.706959 0.23776987 -0.41073558 0.09166738 0.14385 0.018628616 0.16437715 -0.0132571785
-0.24891035 -1.0309728 0.45238847 0.2990136 -0.64730793 -0.060375586 0.5523851 -0.210421
-0.14915913 -0.3810434 -0.6144609 -0.524113 0.22207846 0.41007143 0.444151 -0.17404827
0.18388945 0.7216095 0.2779748 0.3434228 0.46832788 0.38441214 0.03657654 0.36801282
-0.18168035 -0.69724596 -0.3762843 0.62959206 -0.7650921 0.17842445 0.22291246 -0.42316785
0.210764 0.26312345 -0.12931578 -0.3656277 -0.41558066 -0.1713271 0.46026254 -0.045227505
0.08229221 0.20259741 -0.2631565 0.17219603 0.1861035 -0.48591536 0.36373618 -0.7702703
0.29875916 0.3933868 -0.26724535 0.35419706 -0.7808909 0.34343758 -0.162873 0.18341316
-0.14886731 -0.5661491 -0.032036547 -0.24835712 -0.6264691 0.3553415 0.0076495204 0.11134544
0.51108956 0.2850204 -0.10375896 0.38714826 0.1485033 -0.6395507 -0.2933289 -0.27707675
0.37647098 0.36157376 0.31696534 0.53335637 0.12874971 0.14684556 0.30765834 -0.47565642
-0.22380376 -0.5418665 0.56640255 0.2997739 0.16213791 0.4403178 0.44132903 0.44494948
-0.27823287 -0.085458845 -0.01902682 0.67661387 0.084247544 0.0038219413 -0.16081248 -0.001527544
0.19822945 0.10938256 -0.10905353 0.41306806 0.06433688 0.06700177 0.0705255 0.46836677
0.6937681 -0.0121274 -0.17197824 -0.32819438 -0.080814965 -0.8857462 0.5026195 0.44468355
0.4715887 -0.06534648 -0.6331516 -0.06977715 0.5742079 0.04685532 0.4286285 -0.8990775
0.3685962 0.2220723 -0.13842262 -0.8430812 -0.22131534 0.6118659 -0.40957582 -1.1066754
0.47889236 0.41566145 0.11263405 0.6004598 -0.37920383 0.31877387 0.29341587 -0.56281346
0.46232846 0.36055198 0.39900583 0.31155732 -0.08387104 0.6378804 0.29446492 0.23369108
-0.56785256 0.099692225 0.07470228 0.5964742 -0.06579182 0.26603585 -0.31733906 0.17008166
0.11728132 0.32190377 0.39828905 -0.7323229 -0.017105902 -0.22418426 -0.009615439 0.13907325
-0.24552722 0.14379701 -0.009203312 0.21667747 -0.23878849 0.27231318 0.43094888 0.50853664
0.061353788 0.23776817 -0.61924326 0.24812025 -0.22718298 0.2001443 0.17692557 -0.87319
-0.08699824 0.28623262 0.27327204 0.14426863 0.003471198 0.23504952 0.14277402 0.26095816
0.54863864 0.4388043 -0.2749373 0.019445747 -0.92565745 0.45507815 -0.22513083 0.064465396
-0.89710075 -0.05307801 -0.065995745 0.024471713 0.28627315 0.31795427 -0.2786552 0.41314527
-0.1593129 0.20683934 0.77321565 0.28736994 -0.060282044 -0.3770601 -0.39424223 0.11692017
00000000: c420 253f 2b69 79bd 4c27 a9bb 3752 c43e
00000010: 8cd5 bebc 426e ee3e b263 8b3e deda 3bbe
00000020: f4ea 8b3e 7ff0 3c3f b27b 623e 5907 033f
00000030: f9b8 983e 8363 7e3e 104c 3ebf 47c6 963e
00000040: 6579 903e 7467 bebe f841 833e d702 9d3e
00000050: ad49 ef3e 937d fd3d 4e90 053e 1819 c23e
00000060: 910d 223f 1a09 f13e 9652 1e3f fa31 e3be
00000070: 962a cdbe ab93 8d3e 5106 5fbc 92f6 cb3d
00000080: 679f b93d bd98 fdbd 0350 f53e e977 a4be
00000090: 9ad0 993e 4368 4c3e 10cf 0f3e de7b 113f
000000a0: 44fb 34bf f279 733e ef4b d2be 1bbc bb3d
000000b0: 6a4d 133e 0a9b 983c 7c52 283e a334 59bc
000000c0: 5be2 7ebe ebf6 83bf 769f e73e 5018 993e
000000d0: f9b5 25bf 644c 77bd 1c69 0d3f 9a78 57be
000000e0: 2cbd 18be 1f18 c3be 4f4d 1dbf 452c 06bf
000000f0: 8968 633e e2f4 d13e c367 e33e b639 32be
00000100: 844d 3c3e 66bb 383f b752 8e3e 1dd5 af3e
00000110: acc8 ef3e abd1 c43e 48d1 153d 2d6c bc3e
00000120: 6a0a 3abe b67e 32bf 56a8 c0be f22c 213f
00000130: 13dd 43bf e6b4 363e 2a43 643e 75a9 d8be
00000140: 85d2 573e 1eb8 863e 5b6b 04be 8e33 bbbe
00000150: fdc6 d4be 5f70 2fbe 88a7 eb3e 7a40 39bd
00000160: d188 a83d b275 4f3e 73bc 86be 2854 303e
00000170: ea91 3e3e e6c9 f8be a13b ba3e 6f30 45bf
00000180: f6f6 983e ff69 c93e 62d4 88be 5159 b53e
00000190: 77e8 47bf 0dd7 af3e 2ec8 26be a9d0 3b3e
000001a0: ac70 18be 26ef 10bf c138 03bd 5451 7ebe
000001b0: 4760 20bf 52ef b53e d4a8 fa3b 1409 e43d
000001c0: c4d6 023f 32ee 913e 947f d4bd 4c38 c63e
000001d0: 4011 183e 98b9 23bf 352f 96be 01dd 8dbe
000001e0: cec0 c03e 3220 b93e 4849 a23e 0b8a 083f
000001f0: f7d6 033e af5e 163e 6585 9d3e 3d89 f3be
00000200: d02c 65be c3b7 0abf c2ff 103f f77b 993e
00000210: 7b07 263e 5671 e13e e1f5 e13e 6bd0 e33e
00000220: 8a74 8ebe 0c05 afbd 22de 9bbc 9136 2d3f
00000230: fa89 ac3d 8979 7a3b 07ac 24be df37 c8ba
00000240: a9fc 4a3e f703 e03d 7557 dfbd a87d d33e
00000250: 0ec3 833d 3938 893d ac6f 903d c5cd ef3e
00000260: c99a 313f 01b2 46bc 101b 30be 1809 a8be
00000270: 5182 a5bd 43c0 62bf acab 003f 90ad e33e
00000280: 1374 f13e 60d4 85bd 3916 22bf 53e7 8ebd
00000290: 4aff 123f 5deb 3f3d 3275 db3e f129 66bf
000002a0: a4b8 bc3e ec66 633e a9be 0dbe 2bd4 57bf
000002b0: 7da0 62be 3ea3 1c3f ecb3 d1be 8aa7 8dbf
000002c0: 6131 f53e 94d1 d43e aeac e63d bcb7 193f
000002d0: 0127 c2be 5436 a33e 9b3a 963e 8b14 10bf
000002e0: 51b6 ec3e 459a b83e 7e4a cc3e 7184 9f3e
000002f0: 94c4 abbd 214c 233f 1bc4 963e b74c 6f3e
00000300: c95e 11bf 702b cc3d 82fd 983d 88b2 183f
00000310: ddbd 86bd da35 883e 447a a2be e329 2e3e
00000320: 3031 f03d 92d0 a43e 8bec cb3e 8379 3bbf
00000330: ad21 8cbc 8f90 65be 138a 1dbc 3869 0e3e
00000340: 7d6b 7bbe 863f 133e 7dc9 16bc b3e0 5d3e
00000350: f884 74be a26c 8b3e 55a5 dc3e 752f 023f
00000360: 1c4e 7b3d 8079 733e ba86 1ebf 3c13 7e3e
00000370: a8a2 68be a1f2 4c3e fa2b 353e 6189 5fbf
00000380: 222c b2bd 158d 923e 50ea 8b3e 28bb 133e
00000390: 0a7d 633b d2b0 703e 5a33 123e 4f9c 853e
000003a0: 9573 0c3f f5aa e03e 95c4 8cbe b04c 9f3c
000003b0: e3f7 6cbf 0100 e93e b288 66be 6f06 843d
000003c0: 65a8 65bf 5468 59bd c728 87bd e778 c83c
000003d0: 6592 923e e7ca a23e e5ab 8ebe c787 d33e
000003e0: ec22 23be b1cd 533e 76f1 453f 2722 933e
000003f0: 4eea 76bd 050e c1be 1eda c9be d873 ef3d

aggregator.full.bias f4 [16]
0.18683892 0.109633364 0.28032106 0.35567528 0.30563846 0.11567369 0.117098905 -0.011739555
0.26998824 0.25502703 0.21557564 0.14140606 0.21322729 0.20520894 0.15197328 0.44277042
00000000: b452 3f3e 7587 e03d 3e86 8f3e 121b b63e
00000010: a57c 9c3e 54e6 ec3d 8dd1 ef3d 4357 40bc
00000020: e63b 8a3e e792 823e dcbf 5c3e c0cc 103e
00000030: 4158 5a3e 4b22 523e e29e 1b3e ceb2 e23e

lstm.lstm.weight_ih_l0 f4 [64, 16]
0.6572176 0.5150677 0.20543659 0.367767 0.66637695 0.55370003 0.22384493 0.03580902
0.48237458 0.86622375 0.44955504 -0.264606 0.81551254 0.52948594 0.25585544 0.9595335
0.71038425 0.6383154 -0.019505944 0.7054235 0.57537436 0.44712734 0.46021867 -0.1916647
0.74850184 0.48243585 0.86081165 0.055316743 0.31301206 0.6610492 0.7990225 0.70477945
0.35458726 0.18313102 -0.50851315 0.8441203 -0.4274482 0.5650683 -0.25049254 -0.014061624
-0.08794871 0.8782588 0.32258302 0.13804324 -1.0011908 -0.44690362 0.42813396 -0.91444075
0.49979603 0.3820316 -1.1044128 0.40193462 -0.13649257 0.60998195 0.94819725 -0.08414649
0.6690336 0.7119863 0.5129788 0.118231446 0.5871393 0.4113271 0.121205315 1.3674484
0.22524466 0.12405208 1.1651906 -1.4560097 0.84136707 0.06172082 1.2001008 0.1759313
0.20235568 -0.47597113 0.49290258 0.70914036 0.57653874 0.46153438 0.09932878 1.0519109
0.5516098 0.23077203 0.07366611 0.9160575 0.46557418 0.52698 0.80738336 -0.35467777
0.25177157 0.48640445 0.18922472 0.34803632 0.7936493 0.2504644 0.5086293 0.63399935
0.096289285 0.2576293 -0.3122237 -0.023093574 0.2868103 0.42349267 -0.9170625 -0.5210711
0.181702 0.24490324 0.43872452 -0.58193314 0.009797808 0.14005198 0.21519572 -0.23863831
0.49576077 0.56890845 -0.5009919 -0.4126445 -0.098440446 0.33372927 -0.9231871 -0.54489213
0.5354792 0.07161109 0.5403177 -0.6270539 -0.03551045 0.39902353 0.29158735 0.34524277
-0.3064737 -0.25407773 0.0025793966 0.07265242 -0.4630632 -0.003100017 -0.05190343 0.44925413
-0.47837716 0.09283317 -0.32506037 0.24072395 -0.25841546 -0.54077494 -0.48276347 -0.31191933
0.40158316 0.1522387 0.25555858 0.45017064 0.13224423 0.23577483 -0.554897 -0.36718458
0.2400956 0.38622534 0.09374486 -0.23456623 -0.5093359 -0.20870054 0.37585413 -0.7361179
-0.23812816 -0.36193156 0.80712926 0.7098019 -0.038372997 -0.03047136 0.41101184 -0.46880868
-0.57445824 0.15693288 -0.3561814 0.75176483 -0.02112916 -0.03893544 -0.24862412 -0.22736052
-0.110419005 -0.4294171 0.21363688 -0.04593385 -0.23777121 -0.11715578 0.56285876 0.4742045
-0.5923418 0.056705363 -0.29896006 0.68024766 0.036339216 -0.46039915 -0.3639623 -0.23867513
0.24293295 0.67359304 0.0766786 -0.2178336 0.09180861 0.57969934 -0.6594487 -0.2949283
0.43125206 0.6254858 0.6071096 -0.61256593 0.25223023 0.25124416 0.22853567 0.17269038
0.34600705 0.21433884 -0.44591615 -0.055198338 -0.002976716 0.57050496 -0.84176654 -0.37599853
0.23678939 0.19108652 0.19889931 -0.63027227 -0.287027 0.1645399 0.47220287 0.14170997
0.21007289 0.22614007 0.090852916 -0.19816497 0.3584504 0.1994931 -0.9467185 -0.64474005
0.056860603 0.4138253 0.5146449 -0.96168846 -0.2282234 0.37536263 0.5349721 -0.08106395
0.22870201 0.48000112 -0.13953328 -0.115467824 0.0030091978 0.63237005 -0.822788 -0.498818
0.15595397 0.2266052 0.19752297 -1.021573 -0.07437276 0.41203442 0.57928294 0.027400238
00000000: 6a3f 283f 7adb 033f f85d 523e f54b bc3e
00000010: ae97 2a3f 49bf 0d3f 9b37 653e 7bac 123d
00000020: cdf9 f63e d7c0 5d3f 142c e63e 707a 87be
00000030: 6ec5 503f 648c 073f 7cff 823e fda3 753f
00000040: bedb 353f a368 233f eeca 9fbc a296 343f
00000050: bc4b 133f e0ed e43e c8a1 eb3e c043 44be
00000060: d19d 3f3f d501 f73e 275e 5c3f cf93 623d
00000070: 1e43 a03e 853a 293f bd8c 4c3f 6d6c 343f
00000080: 768c b53e b386 3b3e eb2d 02bf 4518 583f
00000090: 7eda dabe 51a8 103f 8f40 80be ba62 66bc
000000a0: 741e b4bd 92d5 603f 9a29 a53e 355b 0d3e
000000b0: 0527 80bf 8dd0 e4be 6034 db3e ca18 6abf
000000c0: 44e5 ff3e a599 c33e 665d 8dbf 60ca cd3e
000000d0: b5c4 0bbe c727 1c3f 0ebd 723f ff54 acbd
000000e0: c945 2b3f bc44 363f 9452 033f 5423 f23d
000000f0: c34e 163f 7799 d23e 7e3a f83d 8d08 af3f
00000100: 89a6 663e 040f fe3d f724 953f 875e babf
00000110: d563 573f f8ce 7c3d e79c 993f 5627 343e
00000120: 5436 4f3e 7db2 f3be ba5d fc3e 398a 353f
00000130: 0b98 133f 3c4e ec3e e36c cb3d 04a5 863f
00000140: 4d36 0d3f 814f 6c3e 42de 963d bf82 6a3f
00000150: bd5f ee3e 29e8 063f adb0 4e3f 5398 b5be
00000160: 34e8 803e 010a f93e 20c4 413e d131 b23e
00000170: 9a2c 4b3f df3c 803e 8835 023f c84d 223f
00000180: 5133 c53d fde7 833e c9db 9fbe bc2e bdbc
00000190: cdd8 923e 08d4 d83e 9cc4 6abf ea64 05bf
000001a0: 1710 3a3e eac7 7a3e 80a0 e03e 92f9 14bf
000001b0: fc86 203c c969 0f3e 445c 5c3e 9a5d 74be
000001c0: 5bd4 fd3e fca3 113f 0141 00bf 2446 d3be
000001d0: 259b c9bd 90de aa3e fd55 6cbf 0d7e 0bbf
000001e0: 2a15 093f d6a8 923d 4352 0a3f 9b86 20bf
000001f0: 6873 11bd d04c cc3e f04a 953e a9c3 b03e
00000200: 1fea 9cbe 7a16 82be 180b 293b cbca 943d
00000210: 9f16 edbe a829 4bbb b198 54bd a304 e63e
00000220: daed f4be 511f be3d 506e a6be 5780 763e
00000230: 084f 84be 3a70 0abf c62c f7be e4b3 9fbe
00000240: 4f9c cd3e 76e4 1b3e 93d8 823e c47c e63e
00000250: 086b 073e f56e 713e bb0d 0ebf 9eff bbbe
00000260: 9fdb 753e 54bf c53e 4efd bf3d 2132 70be
00000270: d663 02bf 98b5 55be f46f c03e 3972 3cbf
00000280: ded7 73be 184f b9be 06a0 4e3f 94b5 353f
00000290: 012d 1dbd 139f f9bc 2570 d23e b107 f0be
000002a0: b20f 13bf 03b3 203e 695d b6be a973 403f
000002b0: 0f17 adbc c57a 1fbd 5297 7ebe 32d1 68be
000002c0: 5c23 e2bd 8fdc dbbe a0c3 5a3e 2225 3cbd
000002d0: 4c7a 73be 5fef efbd 8317 103f efca f23e
000002e0: b6a3 17bf e243 683d 4b11 99be b624 2e3f
000002f0: 6ed8 143d 70b9 ebbe 4459 babe 4167 74be
00000300: 6ac3 783e 9870 2c3f ab09 9d3d c50f 5fbe
00000310: 2706 bc3d 2d67 143f a1d1 28bf d800 97be
00000320: 12cd dc3e d61f 203f 896b 1b3f 1fd1 1cbf
00000330: 5224 813e 13a3 803e 4105 6a3e bfd5 303e
00000340: d627 b13e a47b 5b3e 1f4f e4be a717 62bd
00000350: 0215 43bb 9d0c 123f 037e 57bf e182 c0be
00000360: eb78 723e 2fac 433e 43ac 4b3e 8659 21bf
00000370: 34f5 92be 267d 283e 93c4 f13e 6b1c 113e
00000380: 591d 573e 4391 673e 1811 ba3d c2eb 4abe
00000390: d086 b73e eb47 4c3e 255c 72bf af0d 25bf
000003a0: aae6 683d e9e0 d33e c5bf 033f 3731 76bf
000003b0: 65b3 69be 882f c03e eef3 083f db04 a6bd
000003c0: dc30 6a3e b5c2 f53e d0e1 0ebe 657a ecbd
000003d0: f635 453b 01e3 213f 3ca2 52bf 1365 ffbe
000003e0: 66b2 1f3e 320b 683e 7643 4a3e e7c2 82bf
000003f0: bf50 98bd 2df6 d23e e34b 143f 7776 e03c

lstm.lstm.weight_hh_l0 f4 [64, 16]
0.3942212 0.19684736 -0.32348707 -0.082232915 -0.4381656 0.08080883 0.57536685 -0.32360026
-0.5973761 -0.15612066 0.043813203 -0.37764725 -0.17872034 -0.501225 -0.09318071 -0.3547113
0.42075437 0.32598484 -0.488766 0.016907167 -0.40198487 0.37771633 0.4104611 -0.6653557
-0.14187826 -0.48835832 -0.29305926 -0.26518807 -0.4525877 -0.1438942 0.09943961 -0.3558008
0.27906898 0.0419327 0.25404283 0.13783331 -0.55136496 -0.09896795 -0.028379895 -0.27504045
-0.2695308 -0.20670876 -0.2976683 -0.6278631 -0.14302269 -0.18999104 -0.017292261 -0.30369338
-0.19195469 -0.3244704 -0.042606164 0.41853955 0.32955754 -0.11832764 -8.6662774e-05 -0.13535629
-0.07043137 0.18338937 -0.21763846 -0.33053374 -0.14249553 -0.04092347 -0.37792423 -0.12681389
-0.0752378 0.00820484 0.10088668 -0.009729764 0.35371923 -0.020094357 0.7655957 -0.127715
-0.15414977 0.4774135 -0.20406489 -0.72184265 -0.08375146 0.25687763 0.106662884 0.13078871
0.16207877 -0.41551638 -0.6073327 -0.41289297 -0.5429378 0.15265696 -0.11247986 -0.51042855
-0.41709593 -0.33736017 -0.39789099 -0.76641756 -0.070131734 -0.019277306 -0.23827554 -0.61891633
-0.110322334 -0.029375104 0.66464955 0.06079413 0.861306 -0.33920926 0.07987781 -0.41921026
0.22801295 0.1363446 0.6270784 0.37693462 -0.48316172 -0.03072001 -0.25286803 -0.040648643
-0.13090524 -0.17864032 0.5854826 0.13696784 0.22499885 -0.3226789 -0.32199162 -0.26793057
-0.18946299 0.59285927 0.39528552 0.22728418 -0.4372829 -0.25775236 -0.044888187 -0.4995611
0.16954817 0.3152661 -0.800794 -0.7103186 -0.9150138 0.36796105 0.40837044 0.08725247
-0.5481944 -0.2596782 -0.33276904 -0.19476518 0.352029 0.35844508 0.24130107 0.2142082
-0.32501078 -0.6741849 0.7317304 0.57710373 0.42767468 -0.6469534 -0.5285108 -0.38203377
-0.053808052 -0.20706119 0.53858966 0.5858231 -0.15423019 -0.3022155 -0.47732866 -0.038803574
-0.17579046 -0.32182446 0.15393052 0.2235851 0.084638454 -0.2807724 -0.45921287 -0.25042766
0.322302 -0.65110815 -0.3859059 0.08826387 0.007839466 -0.38168204 -0.24840279 -0.40206766
0.28676596 0.62690914 -0.60845935 -0.5418018 -1.0137833 0.63714683 0.5127619 0.16855823
-0.56212616 -0.42238015 -0.76511884 -0.61219525 0.43568492 0.04867343 0.15183122 -0.066831365
-0.31416237 -0.01805286 0.42117617 0.2819928 0.6361383 -0.2879849 -0.35392192 -0.43257597
-0.08300858 0.55828494 0.51837826 0.4983499 -0.22880214 -0.2476261 -0.60664123 -0.1196677
-0.38399687 -0.17756423 0.40562585 0.37983242 0.46535712 -0.22343963 -0.34030685 -0.07010793
0.2143458 0.239743 0.66686124 0.693354 -0.2833845 -0.467226 -0.28933606 -0.33691818
-0.114836946 -0.5252671 0.47374403 0.3896283 0.69622713 -0.47229102 -0.5290957 -0.15256207
0.11923077 0.0960949 0.6004143 0.40058035 -0.21854077 -0.43301648 -0.110887736 -0.40701935
-0.16171946 -0.1897278 0.4461468 0.38002312 0.38519344 -0.5428799 -0.3289407 -0.5107505
0.44601703 0.4187761 0.7721277 0.6002307 -0.23485315 -0.19530012 -0.4678352 -0.11035211
00000000: 5cd7 c93e 5b92 493e 19a0 a5be bb69 a8bd
00000010: 3e57 e0be 1a7f a53d 3e4b 133f efae a5be
00000020: a4ed 18bf 18de 1fbe 7975 333d fb5a c1be
00000030: 7702 37be 4850 00bf 87d5 bebd b89c b5be
00000040: 1e6d d73e 7ce7 a63e 8a3f fabe e680 8a3c
00000050: f6d0 cdbe 0964 c13e f527 d23e c054 2abf
00000060: 8948 11be 1a0a fabe dd0b 96be bbc6 87be
00000070: 93b9 e7be 0059 13be ffa6 cb3d 862b b6be
00000080: 21e2 8e3e 9fc1 2b3d e711 823e 2d24 0d3e
00000090: 4126 0dbf b5af cabd f47c e8bc 1ad2 8cbe
000000a0: f1ff 89be 76ab 53be fb67 98be a3bb 20bf
000000b0: 8a74 12be 038d 42be 80a8 8dbc b37d 9bbe
000000c0: c58f 44be fc20 a6be cd83 2ebd d14a d63e
000000d0: c4bb a83e c355 f2bd b9be b5b8 d79a 0abe
000000e0: 523e 90bd 6cca 3b3e 9edc 5ebe b83b a9be
000000f0: 59ea 11be 5e9f 27bd 497f c1be 80db 01be
00000100: 4716 9abd 986d 063c ad9d ce3d 9769 1fbc
00000110: b01a b53e ec9c a4bc 14fe 433f b9c7 02be
00000120: 70d9 1dbe 8b6f f43e 63f6 50be aeca 38bf
00000130: e385 abbd 7785 833e 1272 da3d 7aed 053e
00000140: faf7 253e 90be d4be 287a 1bbf b566 d3be
00000150: f9fd 0abf 1b52 1c3e d75b e6bd 72ab 02bf
00000160: 998d d5be 79ba acbe 5eb8 cbbe f133 44bf
00000170: 3aa1 8fbd 71eb 9dbc 81fe 73be 4d71 1ebf
00000180: adf0 e1bd 0fa4 f0bc 7926 2a3f 4403 793d
00000190: 8d7e 5c3f d6ac adbe fa96 a33d baa2 d6be
000001a0: 3a7c 693e eb9d 0b3e 3688 203f 93fd c03e
000001b0: f960 f7be 88a8 fbbc eb77 81be 317f 26bd
000001c0: 060c 06be 7ded 36be 30e2 153f 4c41 0c3e
000001d0: 1966 663e 2b36 a5be 16dc a4be 322e 89be
000001e0: 9602 42be a0c5 173f dd62 ca3e 2fbd 683e
000001f0: 8be3 dfbe 1ef8 83be addc 37bd 79c6 ffbe
00000200: 099e 2d3e 8f6a a13e d600 4dbf 71d7 35bf
00000210: 583e 6abf 6465 bc3e ee15 d13e 6cb1 b23d
00000220: 7856 0cbf 8bf4 84be b460 aabe 8670 47be
00000230: 253d b43e 1d86 b73e a117 773e 6559 5b3e
00000240: d067 a6be 6297 2cbf af52 3b3f 12bd 133f
00000250: 2df8 da3e bd9e 25bf 7c4c 07bf ee99 c3be
00000260: d565 5cbd d907 54be 03e1 093f 81f8 153f
00000270: 85ee 1dbe fdbb 9abe 6c64 f4be 7ff0 1ebd
00000280: 6a02 34be 2dc6 a4be f69f 1d3e 7ef3 643e
00000290: ed56 ad3d 66c1 8fbe f31d ebbe 0e38 80be
000002a0: c504 a53e 06af 26bf 7595 c5be b0c3 b43d
000002b0: 1b71 003c d46b c3be 4d5d 7ebe d0db cdbe
000002c0: fdd2 923e 1e7d 203f fec3 1bbf 86b3 0abf
000002d0: a7c3 81bf 0e1c 233f 5d44 033f 879a 2c3e
000002e0: 80e7 0fbf 3642 d8be d4de 43bf d4b8 1cbf
000002f0: 1812 df3e ca5d 473d a579 1b3e e2de 88bd
00000300: e4d9 a0be 97e3 93bc 67a4 d73e 5c61 903e
00000310: f6d9 223f c272 93be 4135 b5be 997a ddbe
00000320: 6700 aabd c3eb 0e3f 70b4 043f b827 ff3e
00000330: 1c4b 6abe b291 7dbe d74c 1bbf 5714 f5bd
00000340: 3d9b c4be 66d3 35be 31ae cf3e 6579 c23e
00000350: 4a43 ee3e 5ccd 64be b33c aebe bf94 8fbd
00000360: 777d 5b3e 307f 753e 6bb7 2a3f a67f 313f
00000370: c617 91be 3f38 efbe db23 94be 8a80 acbe
00000380: a22f ebbd e877 06bf 948e f23e 5c7d c73e
00000390: f13b 323f 21d0 f1be d172 07bf 3b39 1cbe
000003a0: 432f f43d 67cd c43d c0b4 193f de18 cd3e
000003b0: 27c9 5fbe 56b4 ddbe 1c19 e3bd d764 d0be
000003c0: c999 25be 0148 42be 5a6d e43e 6492 c23e
000003d0: 1338 c53e 2dfa 0abf ea6a a8be 8bc0 02bf
000003e0: 585c e43e d269 d63e 29aa 453f b8a8 193f
000003f0: 587d 70be c1fc 47be 1888 efbe 4900 e2bd

lstm.lstm.bias_ih_l0 f4 [64]
0.30910367 0.4675017 0.4341452 0.16243835 0.2977456 0.57706785 -0.0093746465 0.17673737
0.1754642 0.003687001 0.21015392 -0.054198306 0.042278394 0.075759284 0.04952354 0.14793704
0.7009676 0.64459777 0.18853743 0.21966629 0.4325651 0.35616088 -0.1840141 0.42717382
0.17442347 -0.54033613 -0.38267213 0.09202134 0.3874077 0.08739583 -0.07144728 0.4205746
0.13411036 0.15453194 0.20533891 0.2144469 0.17588049 -0.17994638 -0.1408289 -0.44292054
0.07070474 0.044393256 -0.076524906 -0.18377265 -0.32008904 -0.16602796 -0.26697788 -0.305143
0.066064626 0.20250559 0.6486823 0.50216705 0.2419653 0.74153703 0.16422789 0.43652064
0.13450578 -0.1727784 0.044149462 -0.058326885 -0.02817394 0.30903596 -0.035690065 0.3599917
00000000: d642 9e3e 625c ef3e 4848 de3e 3d56 263e
00000010: 1c72 983e b8ba 133f 1e98 19bc a4fa 343e
00000020: e3ac 333e 9da1 713b 9732 573e 0bff 5dbd
00000030: 1c2c 2d3d af27 9b3d 32d9 4a3d cf7c 173e
00000040: 9d72 333f 5c04 253f f50f 413e 33f0 603e
00000050: 2c79 dd3e b85a b63e 316e 3cbe 87b6 da3e
00000060: 119c 323e 7853 0abf 9aed c3be af75 bc3d
00000070: 4d5a c63e 96fc b23d f452 92bd 8e55 d73e
00000080: 3a54 093e 9f3d 1e3e 5d44 523e f897 5b3e
00000090: 041a 343e dd43 38be 7335 10be 7bc6 e2be
000000a0: a6cd 903d b4d5 353d 17b9 9cbd e62e 3cbe
000000b0: b6e2 a3be 3c03 2abe 53b1 88be b43b 9cbe
000000c0: e44c 873d a05d 4f3e 0b10 263f 058e 003f
000000d0: c0c5 773e 5fd5 3d3f 5b2b 283e a27f df3e
000000e0: e2bb 093e d2ec 30be 11d6 343d 2ce8 6ebd
000000f0: 09cd e6bc f639 9e3e bf2f 12bd d550 b83e

lstm.lstm.bias_hh_l0 f4 [64]
0.3562514 0.7498154 0.32042795 0.24614519 0.36746815 0.6909464 0.04948085 0.34850428
0.20564367 -0.1815435 0.16448946 0.023721548 -0.060947344 -0.14492768 0.301969 0.23803267
0.49233735 0.8317001 0.24222712 0.5173538 0.41664493 0.3292419 -0.015611004 0.45886335
-0.09545362 -0.43611762 -0.35107562 -0.06717317 0.2650848 0.30855897 -0.025965279 -0.026294732
-0.085440695 0.119729534 0.0011318221 0.38115484 0.11472264 -0.29718032 0.10677212 -0.34956914
-0.043791227 -1.8919973e-06 -0.03343652 0.13321432 -0.25695232 -0.18594787 -0.10270269 -0.25145882
0.13589707 0.32443377 0.46273008 0.5920848 -0.06627564 0.88159066 0.048295215 0.30632132
-0.03870601 -0.14699359 -0.07948499 -0.04688126 0.08797675 -0.13115655 0.0063380757 0.3873882
00000000: 9566 b63e e7f3 3f3f 220f a43e 7c0d 7c3e
00000010: c924 bc3e dde1 303f 6fac 4a3d 276f b23e
00000020: 4194 523e 8ae6 39be ed6f 283e b153 c23c
00000030: eca3 79bd ec67 14be ae9b 9a3e d6be 733e
00000040: a413 fc3e 4cea 543f 630a 783e 4c71 043f
00000050: 7c52 d53e 6592 a83e 4cc5 7fbc 23f0 ea3e
00000060: 307d c3bd cf4a dfbe 2fc0 b3be 1692 89bd
00000070: 32b9 873e 71fb 9d3e 23b5 d4bc 0d68 d7bc
00000080: 88fb aebd c234 f53d a659 943a ba26 c33e
00000090: b4f3 ea3d 0528 98be 57ab da3d bafa b2be
000000a0: 6e5e 33bd 88f0 fdb5 bbf4 08bd 5669 083e
000000b0: 418f 83be 1e69 3ebe ca55 d2bd 36bf 80be
000000c0: 9a28 0b3e 2f1c a63e f5ea ec3e df92 173f
000000d0: 86bb 87bd edaf 613f 34d1 453d 26d6 9c3e
000000e0: 318a 1ebd 7d85 16be 07c9 a2bd 9006 40bd
000000f0: 282d b43d e74d 06be a2af cf3b bf57 c63e

downstream.full.weight f4 [6, 16]
0.4183929 -0.026974678 -0.41423243 0.48896188 -0.51331156 -0.003047645 0.30483484 -0.032373607
0.027828515 0.20043403 0.36860877 0.46464676 -0.39097428 0.4743144 -0.1821098 -0.452097
0.081312 0.5153925 -0.24792844 -0.2260077 -0.027698874 -0.41651496 -0.183981 -0.30375183
0.045619845 0.14986622 0.074333966 0.3839659 -0.07487404 -0.21280551 0.18370557 -0.41419086
0.015707314 -0.35283834 0.13439721 0.23740232 0.049012244 0.3228417 0.4581437 0.3416028
-0.4543614 -0.09951192 0.3542742 -0.11706695 0.3196162 -0.048591584 -0.28751048 0.2943281
0.21150935 0.49250358 -0.26572222 0.12253255 -0.0271222 -0.33877793 -0.20460036 0.4660315
0.44499052 -0.11227992 -0.33351776 -0.31387007 0.46973646 -0.50495887 0.33479172 -0.34150892
-0.19863808 0.42599183 -0.35308623 0.1786229 0.18127978 -0.22854042 0.0536294 0.17945075
0.10560548 -0.10574502 0.13328171 -0.20937961 -0.33662963 0.28612834 -0.32582453 0.3841914
0.29380924 -0.3730551 0.3014822 0.182904 -0.49036375 -0.409376 -0.28155443 -0.27351713
0.01839012 -0.20754871 -0.16685042 0.50957614 -0.34777522 -0.22881782 -0.26012063 -0.19671565
00000000: 9837 d63e 00fa dcbc 4616 d4be 3659 fa3e
00000010: 6368 03bf 00bb 47bb 5013 9c3e 309a 04bd
00000020: a0f8 e33c 943e 4d3e 4aba bc3e 2ee6 ed3e
00000030: c82d c8be 56d9 f23e fe7a 3abe 4279 e7be
00000040: e886 a63d c3f0 033f f4e0 7dbe 906e 67be
00000050: c0e8 e2bc 7341 d5be 8465 3cbe 5c85 9bbe
00000060: e0db 3a3d 8876 193e 683c 983d 2e97 c43e
00000070: 9057 99bd b0e9 59be 501d 3c3e d310 d4be
00000080: a0ac 803c 3aa7 b4be 6c9f 093e 9819 733e
00000090: 10c1 483d 824b a53e d091 ea3e 90e6 ae3e
000000a0: 0fa2 e8be e8cc cbbd 6e63 b53e ccc0 efbd
000000b0: bca4 a33e f807 47bd 9334 93be 2cb2 963e
000000c0: e895 583e 6e29 fc3e be0c 88be 58f2 fa3d
000000d0: 602f debc 4d74 adbe c282 51be ae9b ee3e
000000e0: ccd5 e33e 04f3 e5bd d7c2 aabe 94b3 a0be
000000f0: 4c81 f03e fc44 01bf d269 ab3e 42da aebe
00000100: c867 4bbe 9a1b da3e b8c7 b4be ece8 363e
00000110: 68a1 393e 8006 6abe 80aa 5b3d f0c1 373e
00000120: b047 d83d d890 d8bd 007b 083e 9c67 56be
00000130: b85a acbe 6a7f 923e 79d2 a6be bcb4 c43e
00000140: 2a6e 963e 1401 bfbe e05b 9a3e 304b 3b3e
00000150: f510 fbbe bb99 d1be e727 90be 700a 8cbe
00000160: e0a6 963c a687 54be d6da 2abe 9573 023f
00000170: 980f b2be 384f 6abe 882e 85be d46f 49be

downstream.full.bias f4 [6]
0.107554734 0.13029149 0.18241665 0.0993388 0.032722503 -0.031259328
00000000: a845 dc3d 226b 053e 6ecb 3a3e 2472 cb3d
00000010: 0808 063d c809 00bd

maxpooling.full.weight f4 [16, 16]
0.3212919 -0.2118327 -0.36200294 -0.40078077 0.06018862 0.37181374 0.06520933 -0.008519053
-0.28602487 0.025082052 -0.19740437 0.23472705 -0.25874692 -0.42915103 -0.41519135 0.18723711
-0.409595 -0.053067505 0.40907016 -0.051234663 0.21981904 0.25313148 0.18422905 0.29077563
-0.37610498 -0.23646566 0.4048532 -0.41614246 -0.13876766 0.04557413 0.0006272197 0.2446709
-0.40617776 0.050809115 -0.39847618 -0.38525626 -0.21217747 0.12243953 -0.31090912 0.039496183
-0.035080045 -0.24786982 -0.12106055 -0.06075433 0.04411897 0.3369936 0.17216071 0.079829544
0.1440588 -0.033188432 0.42597136 0.0813826 -0.061676234 0.2537121 -0.32842407 -0.41191983
0.16444501 0.42033908 0.2247788 0.34407493 0.25770262 0.3765857 0.105656534 0.40351793
0.04417318 0.06683874 0.39358428 0.030069172 0.32109287 0.37471882 0.16145828 0.3901265
0.2477645 0.39651838 -0.22378547 -0.022212327 -0.40232867 0.151921 -0.11652601 0.13874444
-0.26331264 -0.31630787 0.08579263 -0.40002328 0.14376035 -0.13738382 0.29192457 -0.10392216
0.26736388 -0.006491989 -0.23327756 0.14331463 -0.21340683 -0.33040026 -0.2540481 -0.3643099
0.4273096 0.2851278 0.17883125 0.42910388 0.17364219 0.029357672 -0.37764132 -0.32820898
0.38381192 -0.39066106 -0.32241592 0.25698373 0.11604008 -0.22990343 -0.24307849 -0.106274456
-0.26012737 0.30848435 0.10482457 -0.22311519 -0.107005745 0.418781 -0.19693221 -0.13880283
-0.107562244 0.14355788 -0.43020698 0.3621982 0.40141174 0.0014813244 -0.27077156 0.39419797
0.0874767 -0.009880662 0.3525928 0.21631166 -0.16546306 -0.07487279 -0.29611564 0.3658798
-0.04173386 0.38349357 0.21633759 0.039848894 0.019785821 -0.01193884 -0.22332679 -0.020556688
-0.35178262 -0.1888848 -0.27639022 0.41812453 0.019293994 -0.12097424 0.38133463 -0.41461775
-0.1812782 -0.4155166 0.33622643 -0.13478047 -0.23353013 -0.2936927 0.12573352 -0.03846672
0.37384042 0.0058403313 0.18586835 0.29093775 -0.4072723 0.3564494 0.35532108 -0.3634573
-0.35299772 -0.1410816 -0.19110684 -0.17950922 0.114147514 -0.00674358 -0.15970954 0.42632422
-0.3169375 0.2626482 -0.0074552596 0.24318454 -0.058071673 -0.016995907 -0.20023729 0.4269624
-0.026093423 -0.17674324 -0.14891893 0.091760844 -0.18001854 0.4101309 0.34349522 -0.36074823
-0.25780207 -0.41937217 0.061911464 0.30673292 -0.42044085 0.33070174 -0.099686 0.09301844
0.3477966 -0.2643336 -0.3374735 -0.063405275 0.39295217 -0.25817403 -0.3554651 0.095588416
-0.15384713 0.08571836 0.0024881363 0.029666245 -0.23724955 0.25757244 -0.054385602 0.2918249
-0.35517693 -0.0035018325 -0.0853219 0.26272646 -0.026270896 -0.3870663 -0.2503319 0.11043528
0.044567555 0.3619183 0.2019858 0.36863145 0.3642446 0.2362766 0.18745348 -0.31154746
0.17726448 -0.4052926 -0.14215305 -0.04476118 0.12234244 0.31677637 -0.20949873 -0.0664393
0.26926252 0.3773565 0.00039416552 -0.018805832 -0.2147099 0.2850267 0.08526793 0.010658592
-0.30750975 0.18582454 0.21153292 -0.1407291 0.24497661 0.17291036 -0.34552586 -0.32044628
00000000: 5f80 a43e acea 58be 7358 b9be 2333 cdbe
00000010: 5888 763d 5f5e be3e 788c 853d 8093 0bbc
00000020: da71 92be e078 cd3c 5f24 4abe 4a5c 703e
00000030: 7a7a 84be afb9 dbbe f693 d4be 16bb 3f3e
00000040: 70b6 d1be 505d 59bd a571 d13e 70db 51bd
00000050: 3e18 613e 739a 813e 8aa6 3c3e 8be0 943e
00000060: d590 c0be 0e24 72be eb48 cf3e a010 d5be
00000070: 1c19 0ebe f0ab 3a3d 006c 243a 028b 7a3e
00000080: 88f6 cfbe 381d 503d 1205 ccbe 4f40 c5be
00000090: 0d45 59be 94c1 fa3d 7b2f 9fbe c0c6 213d
000000a0: 18b0 0fbd 96d1 7dbe 98ee f7bd 88d9 78bd
000000b0: 18b6 343d 6d8a ac3e e64a 303e ac7d a33d
000000c0: 2684 133e 98f0 07bd eb18 da3e ecab a63d
000000d0: 38a0 7cbd 8de6 813e 3327 a8be 28e7 d2be
000000e0: 4664 283e af36 d73e 6a2c 663e 972a b03e
000000f0: 99f1 833e d7cf c03e 7462 d83d e799 ce3e
00000100: f0ee 343d c0e2 883d e183 c93e a053 f63c
00000110: 4966 a43e 25db bf3e 5255 253e a9be c73e
00000120: fab5 7d3e 7504 cb3e 0528 65be a0f6 b5bc
00000130: 06fe cdbe 2e91 1b3e 30a5 eebd 0613 0e3e
00000140: ead0 86be 1bf3 a1be 0cb4 af3d dacf ccbe
00000150: ea35 133e 58ae 0cbe 2377 953e 24d5 d4bd
00000160: ebe3 883e c0ba d4bb 50e0 6ebe 12c1 123e
00000170: 5287 5abe 392a a9be 9812 82be d486 babe
00000180: 53c8 da3e 45fc 913e 8a1f 373e 81b3 db3e
00000190: 42cf 313e 807f f03c 345a c1be 020b a8be
000001a0: ff82 c43e ba04 c8be b313 a5be 5f93 833e
000001b0: 6ca6 ed3d ce6b 6bbe 91e9 78be 6ca6 d9bd
000001c0: 6a2f 85be a9f1 9d3e 44ae d63d 4f78 64be
000001d0: d425 dbbd 776a d63e 99a8 49be 5422 0ebe
000001e0: 9849 dcbd d600 133e 1744 dcbe 0b72 b93e
000001f0: d785 cd3e 0029 c23a 92a2 8abe 51d4 c93e
00000200: fc26 b33d 80e2 21bc 0b87 b43e ce80 5d3e
00000210: 266f 29be e856 99bd 789c 97be 9954 bb3e
00000220: 20f1 2abd 4559 c43e 9a87 5d3e 9838 233d
00000230: e015 a23c 209b 43bc c7af 64be 8066 a8bc
00000240: da1c b4be 046b 41be 0583 8dbe 6b14 d63e
00000250: 700e 9e3c 58c1 f7bd 4b3e c33e c748 d4be
00000260: fea0 39be 97be d4be df25 ac3e e403 0abe
00000270: 8622 6fbe e45e 96be 4ac0 003e 488f 1dbd
00000280: 0368 bf3e 4060 bf3b 4654 3e3e cbf5 943e
00000290: ff85 d0be 8980 b63e a5ec b53e 1317 babe
000002a0: 1ebc b4be b277 10be 83b1 43be 44d1 37be
000002b0: 2cc6 e93d 40f9 dcbb e68a 23be 2b47 da3e
000002c0: a245 a2be d379 863e 404b f4bb 5e05 793e
000002d0: 90dc 6dbd 003b 8bbc 010b 4dbe d19a da3e
000002e0: e0c1 d5bc 2efc 34be 347e 18be 1ced bb3d
000002f0: c856 38be adfc d13e 9bde af3e feb3 b8be
00000300: a2fe 83be f3b7 d6be e096 7d3d 190c 9d3e
00000310: 0644 d7be bd51 a93e 2c28 ccbd 7480 be3d
00000320: 6512 b23e bc56 87be 54c9 acbe a0da 81bd
00000330: 0731 c93e 632f 84be 86ff b5be dcc3 c33d
00000340: 1a8a 1dbe 1c8d af3d 0010 233b a006 f33c
00000350: 8cf1 72be 89e0 833e 70c3 5ebd 136a 953e
00000360: c0d9 b5be 007f 65bb 40bd aebd 1584 863e
00000370: 1036 d7bc 8e2d c6be 812b 80be e42b e23d
00000380: 788c 363d 5b4d b93e 5ed5 4e3e 43bd bc3e
00000390: 457e ba3e 7ef2 713e cef3 3f3e 2683 9fbe
000003a0: d284 353e 8382 cfbe 9290 11be 8057 37bd
000003b0: ac8e fa3d 8330 a23e d686 56be 5411 88bd
000003c0: c7dc 893e df34 c13e 00a8 ce39 b00e 9abc
000003d0: e9dc 5bbe 05ef 913e f4a0 ae3d 60a1 2e3c
000003e0: eb71 9dbe ca48 3e3e 169c 583e 4a1b 10be
000003f0: 26db 7a3e 6a0f 313e c4e8 b0be 8911 a4be

maxpooling.full.bias f4 [16]
-0.09962469 0.1612755 0.18032736 0.089251935 0.027288854 -0.20449749 0.1740751 -0.090646625
0.17798966 0.24013364 0.16725078 -0.13393703 0.098270655 0.24955192 0.1733424 -0.22355908
00000000: 0808 ccbd 6825 253e bca7 383e b8c9 b63d
00000010: e08c df3c ca67 51be be40 323e f0a4 b9bd
00000020: ec42 363e 98e5 753e ca43 2b3e ca26 09be
00000030: 2042 c93d 8a8a 7f3e ac80 313e acec 64be

mean.full.weight f4 [16, 32]
0.022964299 -0.18461542 0.054761946 -0.01251328 -0.26017615 -0.15588336 -0.19329675 -0.060536206
0.038364977 0.21394864 0.03399977 -0.083376914 -0.20016545 0.2628998 -0.06897622 -0.30627224
-0.27245298 0.2937183 -0.28016979 0.13026738 -0.07047397 0.16369155 0.17395315 0.11501625
-0.041636318 -0.14331143 -0.12820351 0.28755608 0.30354938 0.095051944 0.1157181 -0.26955068
-0.25344285 -0.13549423 -0.26414692 -0.17556067 0.038192302 0.094087094 -0.2121153 -0.14856853
0.0458405 0.15806738 -0.3156187 0.07606557 0.30414453 -0.25085592 -0.25284618 -0.2831451
0.30942014 0.2698277 0.08860883 -0.17033121 -0.21910919 -0.030788451 0.017464727 -0.12929519
-0.09847459 0.010356069 -0.27134246 0.15082303 -0.08163342 0.028123468 -0.2658268 -0.19696087
0.28651354 -0.31216422 0.20804557 0.01701802 -0.075974256 0.3116444 0.094748944 0.15130666
0.2038956 -0.32588437 -0.07939455 -0.34964684 0.28111246 -0.20232075 0.29239294 0.32196406
-0.23329636 0.11586648 -0.06800285 0.24930605 -0.13151814 0.050906897 0.20272353 0.32160643
0.17963925 -0.34724042 0.27646038 -0.02511543 -0.23292266 -0.07419488 -0.21076837 -0.3389549
-0.34240252 -0.31056055 -0.15087228 0.25663337 0.041944504 0.27629474 0.3418462 -0.26587117
-0.0145588815 0.015614361 0.27599463 0.2350001 -0.13410436 0.14858773 -0.3171293 -0.18677051
-0.19398268 0.002097845 0.051112205 -0.33157915 0.09258196 0.33865318 0.009996086 0.27749166
0.09013873 0.010294229 -0.23295489 0.07217032 -0.15380009 -0.34431353 0.2961847 -0.10800652
-0.1398585 -0.03806755 0.251516 -0.15493008 -0.30553114 0.025322318 0.29587266 -0.11010109
0.037347347 0.28502932 -0.08213055 -0.34447473 0.24521407 -0.31916684 -0.22471245 -0.3255221
-0.28050122 0.20498201 -0.18167867 -0.26196486 0.16790047 -0.25156295 -0.0056420267 0.07704085
-0.20114836 -0.25196663 -0.02610141 -0.07698926 -0.2141703 -0.03796959 0.09341386 0.09747937
-0.002315849 0.2313157 -0.24243331 -0.11670387 -0.22163999 -0.18672347 0.06018418 0.24562672
-0.15043922 0.29112878 0.32534018 -0.017392576 0.15269056 0.008958489 0.32503703 -0.08356553
0.22805217 0.2166169 0.3518221 -0.28281307 -0.22621275 0.17496732 -0.17791419 -0.32165745
0.16032866 0.14447749 -0.24685417 -0.3266564 0.28748676 0.25488755 -0.1396078 -0.06196046
0.34400985 0.27182212 0.22917554 -0.3381897 0.32416883 -0.024661332 0.2415975 0.23748001
0.28055593 0.04001844 -0.3319242 0.07386264 -0.09678978 -0.08666769 -0.043382674 0.121212214
0.17545149 -0.16408211 -0.20157506 0.2166703 -0.015524298 -0.070847124 -0.048822016 0.0820567
0.20434198 0.18608126 -0.19669572 -0.33726877 0.11145827 -0.24058546 0.19798556 -0.15031825
0.21238568 -0.16697776 0.16346094 0.07791561 -0.09342006 -0.32556713 0.2437428 -0.0055186152
-0.06629658 0.13982877 -0.31345183 -0.10255799 0.3072048 0.059498996 0.17388406 -0.01293543
-0.25073117 -0.35077864 -0.30662417 0.063800395 -0.2149444 0.110274196 -0.003873676 0.033745795
-0.09087843 -0.16694616 -0.2874459 0.3338386 -0.060935885 0.21150884 -0.2550372 -0.12108384
00000000: a01f bc3c d30b 3dbe 104e 603d 8004 4dbc
00000010: cf35 85be e39f 1fbe 95ef 45be d0f4 77bd
00000020: 9824 1d3d 5a15 5b3e 5843 0b3d 84c1 aabd
00000030: 2cf8 4cbe cd9a 863e 6843 8dbd b7cf 9cbe
00000040: f57e 8bbe 3f62 963e 6a72 8fbe d064 053e
00000050: a854 90bd c29e 273e c620 323e a48d eb3d
00000060: d88a 2abd 3bc0 12be c847 03be 8d3a 933e
00000070: d36a 9b3e 98aa c23d 9cfd ec3d 8c02 8abe
00000080: 43c3 81be 00bf 0abe 443e 87be 2dc6 33be
00000090: 886f 1c3d bcb0 c03d c134 59be 5922 18be
000000a0: 40c3 3b3d 6adc 213e c698 a1be 44c8 9b3d
000000b0: d5b8 9b3e 3070 80be 0e75 81be 65f8 90be
000000c0: 516c 9e3e db26 8a3e 8c78 b53d 4e6b 2ebe
000000d0: 295e 60be 1038 fcbc 3012 8f3c f565 04be
000000e0: 0cad c9bd 80ac 293c 66ed 8abe 5a71 1a3e
000000f0: 6c2f a7bd 3063 e63c 731a 88be 1cb0 49be
00000100: e7b1 923e fdd3 9fbe e609 553e 6069 8b3c
00000110: 6498 9bbd db8f 9f3e bc0b c23d 22f0 1a3e
00000120: 02ca 503e 51da a6be 9c99 a2bd e904 b3be
00000130: f9ed 8f3e 2c2d 4fbe 87b4 953e 79d8 a43e
00000140: 3ee5 6ebe 684b ed3d 1445 8bbd 164a 7f3e
00000150: b1ac 06be c083 503d c296 4f3e 99a9 a43e
00000160: 5af3 373e 7fc9 b1be 378c 8d3e e0be cdbc
00000170: 4783 6ebe 7cf3 97bd aad3 57be 7f8b adbe
00000180: 624f afbe cb01 9fbe 437e 1abe 7365 833e
00000190: 00ce 2b3d 8176 8d3e 7706 af3e 4420 88be
000001a0: 6088 6ebc 60d3 7f3c 2b4f 8d3e dea3 703e
000001b0: a752 09be 6227 183e c65e a2be c540 3fbe
000001c0: 65a3 46be 007c 093b 085b 513d bec4 a9be
000001d0: 9c9b bd3d f363 ad3e a0c6 233c 6313 8e3e
000001e0: a89a b83d 20a9 283c ba8b 6ebe 08ce 933d
000001f0: c57d 1dbe dd49 b0be 85a5 973e 8632 ddbd
00000200: 1137 0fbe b8ec 1bbd b5c6 803e fea5 1ebe
00000210: 946e 9cbe c070 cf3c 9f7c 973e ae7c e1bd
00000220: 88f9 183d 5def 913e 1034 a8bd fe5e b0be
00000230: 6619 7b3e d669 a3be 051b 66be d5aa a6be
00000240: db9d 8fbe cee6 513e f909 3abe 4220 86be
00000250: 1aee 2b3e dccc 80be c0e0 b8bb 98c7 9d3d
00000260: d6f9 4dbe c501 81be a0d2 d5bc 8cac 9dbd
00000270: 764f 5bbe 0086 1bbd c44f bf3d 44a3 c73d
00000280: 80c5 17bb 06de 6c3e 7040 78be 7002 efbd
00000290: 98f5 62be 7034 3fbe b083 763d 9285 7b3e
000002a0: bd0c 1abe d50e 953e fd92 a63e e07a 8ebc
000002b0: ea5a 1c3e a0c6 123c 416b a63e 6824 abbd
000002c0: 8286 693e d2d0 5d3e 0722 b43e e0cc 90be
000002d0: 51a4 67be a22a 333e 232f 36be 49b0 a4be
000002e0: 322d 243e e8f1 133e 57c7 7cbe 823f a7be
000002f0: 7731 933e 9f80 823e 59f5 0ebe 40ca 7dbd
00000300: 0f22 b03e 452c 8b3e feac 6a3e 3327 adbe
00000310: 75f9 a53e 9006 cabc 5665 773e f62d 733e
00000320: 07a5 8f3e 60ea 233d f8f1 a9be 4c45 973d
00000330: b839 c6bd d47e b1bd 08b2 31bd 1c3e f83d
00000340: 8ea9 333e 2405 28be b169 4ebe d2de 5d3e
00000350: a059 7ebc 4c18 91bd 98f9 47bd 580d a83d
00000360: 063f 513e 168c 3e3e 9a6a 49be 7eae acbe
00000370: 3c44 e43d 095c 76be babc 4a3e 07ed 19be
00000380: a27b 593e 38fc 2abe 4e62 273e 3892 9f3d
00000390: 0453 bfbd bcb0 a6be b697 793e 80d5 b4bb
000003a0: 80c6 87bd 462f 0f3e c27c a0be ec09 d2bd
000003b0: f349 9d3e 38b5 733d aa0e 323e 20ef 53bc
000003c0: d65f 80be 4299 b3be d8fd 9cbe c8a9 823d
000003d0: 631a 5cbe 70d7 e13d 80dd 7dbb 0839 0a3d
000003e0: 781e babd eff3 2abe 1c2c 93be e5ec aa3e
000003f0: e897 79bd c695 583e 3c94 82be cefa f7bd

mean.full.bias f4 [16]
0.03127536 -0.12641896 -0.091994345 0.03834237 0.13340877 0.022850677 0.013581887 0.011384115
0.03236568 0.081443414 -0.096910246 -0.0055689216 -0.018888012 0.16754602 -0.1470206 0.0057481974
00000000: 981a 003d f973 01be 8867 bcbd e40c 1d3d
00000010: 4f9c 083e 5831 bb3c 9086 5e3c 7084 3a3c
00000020: e091 043d cecb a63d e178 c6bd 807b b6bb
00000030: 08bb 9abc 2f91 2b3e 918c 16be 605b bc3b
