best_model/loss/citee_dropout=0_wd=0_b=256_lr=0.01_walk=6_best_model.pt (torch_old, 488424 bytes, 12 tensors)

aggregator.full.weight f4 [16, 7406]
0.9844611 0.049885657 -0.113452874 0.4232185 0.6963277 0.87812775 0.8435251 -0.20970877
0.30614012 0.5114577 0.39942816 0.9485653 0.24721946 0.12304053 -0.9076166 -0.11655867
0.28315544 0.23247589 0.04910041 0.19751246 0.25879708 -0.2715878 -0.12321042 0.49386466
0.88029957 0.20183852 0.08347383 -0.4770061 -0.31605005 0.6922654 0.21245465 0.2367216
0.117600605 -0.20482446 0.16076049 -0.20323117 0.678807 0.2863628 0.3717764 0.31690222
-0.84461397 -0.15659222 -0.5452774 -0.098315336 0.053524524 0.031724047 0.1649991 -0.053221818
-0.16344987 -0.22381389 0.0991004 0.48262268 -0.69114035 0.2850117 0.44087687 -0.23016396
-0.45451832 -0.3392875 -0.78292584 -1.132502 0.29500568 0.30508298 0.26254153 -0.45361462
0.6726228 0.9326965 0.50470495 0.55656415 0.53354365 0.611734 0.40343338 0.76715046
-0.92277235 -0.54432034 -0.24057984 0.7300554 -0.7279392 0.11879924 0.14450209 -0.47525677
-0.27312553 0.4853821 0.06547957 -0.24868107 -0.1485165 -0.14406997 0.31735134 0.12013492
-0.28744784 0.4120614 -0.048415303 -0.7396904 0.16950403 -0.3708078 0.25945455 -0.3700641
-0.04904245 0.46577424 0.048298463 0.5003531 -0.5380083 0.29423004 -0.4786847 0.102867104
-0.5470517 -0.7824938 -0.09334506 -0.4460933 -0.8119712 0.6608644 0.042390663 0.52085733
0.053498253 0.18272264 -0.7049001 0.39520493 0.29281238 -0.75129557 -0.25356144 -0.40964034
0.49578562 0.28242704 -0.007011245 0.8063184 0.24988894 -0.041371454 0.31589147 0.1322871
-0.20834146 -1.0107805 0.5886861 0.44920474 0.01620952 0.17989726 0.9276599 0.3407939
-0.052639257 0.20387962 -0.20676295 -0.21318024 0.31540924 -0.17180885 0.35891753 -0.49683523
0.84060055 -0.37827918 -0.12835182 0.294975 0.5664298 0.35352197 0.12907828 0.5748991
0.4590958 -0.16986062 -0.23281679 0.19018973 -0.63847077 -1.1049984 0.66518605 0.74097186
0.69210625 0.12326674 -0.2699027 -0.45323306 0.7136735 0.14399445 0.50940156 -0.9203389
0.44743317 0.2992991 -0.072886825 -0.44397333 -0.39310217 0.67493886 -0.31676587 -1.291038
0.49975547 0.41342074 0.25713843 0.66792244 0.32131183 0.115862645 0.46130103 -0.6168191
0.023583116 0.51902556 0.20766097 0.29636326 -0.9681869 0.6648239 0.3572935 0.1007458
-0.7199765 -0.22219187 0.2895194 0.44565648 -0.0523776 0.3761721 -0.6540445 0.2085669
0.16698341 0.42763627 0.37635875 -0.72387314 -0.12945852 -0.5135861 0.3579995 0.09315887
-0.26096177 0.38990244 0.11235373 0.085168324 -0.11084156 0.28776643 0.75909805 0.76538855
0.25995505 0.2925833 -0.5342486 0.46656287 0.34713423 0.16909109 0.031816144 -0.5373742
-0.49812743 0.44692776 0.8226051 0.8047373 -0.2895478 0.25919792 0.5467502 0.14044462
1.081397 0.512773 -0.4232214 0.44623575 -0.9048047 0.31003055 0.032772966 0.12946798
0.24985667 -0.1804234 0.00500705 -0.52560467 0.18410465 0.21126421 -0.31645137 0.3602921
0.74968725 0.06613243 1.1839961 0.02464621 0.65056545 -0.12994441 -0.46691185 0.027142266
00000000: a505 7c3f e754 4c3d fb59 e8bd 18b0 d83e
00000010: 8842 323f fbcc 603f 43f1 573f e5bd 56be
00000020: 66be 9c3e e4ee 023f d981 cc3e 2dd5 723f
00000030: 1927 7d3e acfc fb3d 9059 68bf 50b6 eebd
00000040: c0f9 903e 290e 6e3e 831d 493d b540 4a3e
00000050: 0d81 843e 8e0d 8bbe bf55 fcbd d4db fc3e
00000060: 505b 613f c2ae 4e3e 54f4 aa3d 253a f4be
00000070: 50d1 a1be 4e38 313f b68d 593e 2667 723e
00000080: 96d8 f03d 81bd 51be 669e 243e d51b 50be
00000090: 4cc6 2d3f 259e 923e 7a59 be3e 0241 a23e
000000a0: 9f38 58bf b659 20be 4d97 0bbf 8d59 c9bd
000000b0: 883c 5b3d 13f1 013d 86f5 283e 1fff 59bd
000000c0: 675f 27be 782f 65be 27f5 ca3d 521a f73e
000000d0: 93ee 30bf 0eed 913e 9dba e13e 1ab0 6bbe
000000e0: a0b6 e8be 17b7 adbe d46d 48bf d3f5 90bf
000000f0: fc0a 973e d633 9c3e d86b 863e 2d40 e8be
00000100: 0231 2c3f 33c5 6e3f 5834 013f fd7a 0e3f
00000110: 5196 083f 999a 1c3f d28e ce3e f963 443f
00000120: cf3a 6cbf 9458 0bbf 905a 76be e9e4 3a3f
00000130: 395a 3abf 044d f33d 5bf8 133e db54 f3be
00000140: 1cd7 8bbe 0184 f83e 271a 863d 40a6 7ebe
00000150: b614 18be 1487 13be e07b a23e 4c09 f63d
00000160: 5d2c 93be b6f9 d23e 204f 46bd 5a5c 3dbf
00000170: 7792 2d3e 85da bdbe 3ad7 843e 0b79 bdbe
00000180: bce0 48bd f679 ee3e 9cd4 453d 2417 003f
00000190: e9ba 09bf 52a5 963e 2916 f5be fdab d23d
000001a0: 950b 0cbf 8451 48bf b22b bfbd 5766 e4be
000001b0: 58dd 4fbf 692e 293f d5a1 2d3d e856 053f
000001c0: fc20 5b3d a51b 3b3e 5574 34bf 4d58 ca3e
000001d0: 81eb 953e e854 40bf ced2 81be 61bc d1be
000001e0: 9dd7 fd3e 479a 903e 96be e5bb e26a 4e3f
000001f0: e3e2 7f3e 1d75 29bd 87bc a13e 4576 073e
00000200: 7757 55be 4161 81bf 22b4 163f 2afe e53e
00000210: d4c9 843c fd36 383e 1f7b 6d3f 8a7c ae3e
00000220: 439c 57bd d2c5 503e abb9 53be ec4b 5abe
00000230: 527d a13e a9ee 2fbe 0ac4 b73e 3061 febe
00000240: 9931 573f cfad c1be a96e 03be f706 973e
00000250: 8b01 113f d500 b53e 192d 043e 962c 133f
00000260: 9b0e eb3e f1ef 2dbe 8667 6ebe 19c1 423e
00000270: d272 23bf 9670 8dbf a249 2a3f 55b0 3d3f
00000280: e02d 313f 4673 fc3d b030 8abe 2a0e e8be
00000290: 4eb3 363f 4873 133e 2468 023f 559b 6bbf
000002a0: f615 e53e bb3d 993e b045 95bd 7950 e3be
000002b0: b044 c9be cbc8 2c3f 232f a2be bc40 a5bf
000002c0: f3df ff3e e2ab d33e a6a7 833e f7fc 2a3f
000002d0: fc82 a43e 6549 ed3d a62f ec3e dbe7 1dbf
000002e0: 6131 c13c dcde 043f 14a5 543e edbc 973e
000002f0: 19db 77bf e631 2a3f 2cef b63e d053 ce3d
00000300: 6150 38bf 4486 63be e33b 943e 162d e43e
00000310: e589 56bd a199 c03e 766f 27bf 9092 553e
00000320: b3fd 2a3e 24f3 da3e 18b2 c03e c04f 39bf
00000330: c690 04be 617a 03bf b64b b73e 14ca be3d
00000340: c89c 85be 4ba1 c73e b619 e63d bb6c ae3d
00000350: e600 e3bd 1f56 933e 4054 423f 81f0 433f
00000360: d418 853e 7acd 953e 84c4 08bf 54e1 ee3e
00000370: 94bb b13e 3726 2d3e a551 023d 5b91 09bf
00000380: 8f0a ffbe b7d3 e43e 3f96 523f 4403 4e3f
00000390: 9c3f 94be 97b5 843e d2f7 0b3f b7d0 0f3e
000003a0: 386b 8a3f 1745 033f 7ab0 d8be 0379 e43e
000003b0: 48a1 67bf 53bc 9e3e f23c 063d 4193 043e
000003c0: 6dda 7f3e e9c0 38be 2e12 a43b 078e 06bf
000003d0: ee85 3c3e a555 583e ea05 a2be 3578 b83e
000003e0: 81eb 3f3f 7170 873d 2f8d 973f d9e6 c93c
000003f0: 758b 263f 2610 05be 120f efbe 7559 de3c

aggregator.full.bias f4 [16]
0.1919149 0.12490015 0.17422663 0.16388379 0.13318163 0.18866366 0.05868373 -0.07306027
0.2565165 0.30594513 0.23904051 0.12361423 0.28416342 0.26898578 0.23468934 0.23369937
00000000: 5785 443e a6cb ff3d 7768 323e 27d1 273e
00000010: c460 083e 0c31 413e 5a5e 703d 9fa0 95bd
00000020: 2156 833e d7a4 9c3e 09c7 743e 7529 fd3d
00000030: de7d 913e 81b8 893e 6752 703e e34e 6f3e

lstm.lstm.weight_ih_l0 f4 [64, 16]
0.47819546 0.35977647 0.13648403 0.15158743 0.31100518 0.54455686 0.19675192 -0.67926997
0.23782484 0.6452548 0.36621937 0.11327606 0.6318187 0.46342173 0.29281434 -0.062366128
0.44256476 0.53894705 0.37433833 0.41369382 0.5606288 0.3660756 0.49080548 -0.12741147
0.42250514 0.26300344 0.70814526 0.56292725 0.14067796 0.40973648 0.6813331 0.45751724
0.12817648 -0.041873697 -0.6490402 0.24178225 -0.557303 0.3531113 -0.42129678 -0.07065272
-0.46974686 0.4944045 0.15436323 0.5369258 -1.607627 -0.3524052 0.285267 -1.1253346
0.6124192 0.48317605 -0.5660309 -0.053045392 0.07412297 0.7087814 0.32029396 -0.3266967
0.7619773 0.8890623 0.61479694 0.042393025 0.40731525 0.37755066 0.20811759 0.18604988
0.25845712 -0.14898197 0.6904758 -0.63917196 0.21010932 -0.072906494 0.58049387 0.06810364
0.32132202 -0.7816266 0.37580535 -0.3004427 0.44419867 0.6101876 -0.17025425 -1.9939942
0.59356517 0.40645882 0.2516998 0.38114747 0.58307475 0.73213524 0.618246 -0.65594274
0.23133335 0.30825838 0.35103267 0.4797263 0.70899624 0.3361888 0.7203687 0.099304676
0.2476175 0.3908348 -0.51679015 -0.39669752 -0.4697954 0.45643625 -0.4921385 -0.45280293
0.4299068 0.42488033 0.58992326 -0.2052797 0.011246392 0.29313007 0.31520236 -0.41196075
0.27352792 0.40600786 -0.7482772 -0.30324578 -0.70456946 0.13083404 -0.6878095 -0.23371436
0.35668972 0.09196129 0.36480176 -0.28907105 -0.7963462 0.14803773 0.15375575 -0.5227807
-0.6989255 -0.3368313 0.3736791 0.5656798 0.13033687 -0.11239616 0.015731055 0.25868368
-0.84816617 0.12637822 -0.48419517 0.7413178 -0.7266775 -0.91606057 -0.4971609 -0.111952975
0.33265468 0.18924452 -0.62776625 -0.344025 -1.0776175 0.12297313 -0.90584856 -0.2746845
0.15914811 0.4516976 0.031808265 -0.33477202 -0.92264396 -0.2966996 0.3572679 -0.5987363
0.5104602 0.3528949 -0.501751 -0.70939255 -0.4726015 0.51088774 -0.6397421 -0.14314038
0.15910362 0.650006 0.22346182 -0.780017 1.0939726 0.8641865 0.16947734 0.5865039
-0.29013643 -0.52163726 0.6594724 -0.02605664 0.73985463 -0.16389968 0.25533974 0.23738277
-0.8984075 -0.28172123 -0.38687083 0.55195665 -0.038205884 -0.3703678 -0.4044376 0.20806202
0.10336685 0.47355467 0.08403752 -0.47128868 -0.5460541 0.3607666 -0.19971384 -0.018612854
0.2636371 0.4828455 0.4602464 -0.2720637 -0.25861487 0.36445963 0.051597875 -0.9229955
0.47435194 0.33302385 -0.45785335 -0.44858772 -0.3344716 0.64266646 -0.50785553 -0.33331513
0.40910763 0.3894753 0.3261253 -0.12386734 -0.20413622 0.17180462 0.57593274 -0.25658327
-0.0831147 0.029491136 -0.35866502 0.0507984 -0.61131203 -0.062041555 -0.6670454 -0.2523605
-0.1673709 0.41351166 0.30379698 -0.39091817 -1.0099086 0.13536863 0.39688098 -1.0991983
-0.14355956 0.27422854 -0.44169715 0.2593153 -0.83374697 0.34358916 -0.558105 -0.048320938
-0.06742987 0.30352062 -0.06903652 -0.4920859 -0.862285 0.05403472 0.38675398 -0.8103474
00000000: 09d6 f43e 9f34 b83e 78c2 0b3e bc39 1b3e
00000010: 123c 9f3e 1468 0b3f 5679 493e a3e4 2dbf
00000020: 5b88 733e 6b2f 253f 1b81 bb3e 47fd e73d
00000030: dfbe 213f 9d45 ed3e c3eb 953e a073 7fbd
00000040: d997 e23e 6ff8 093f 46a9 bf3e adcf d33e
00000050: 5e85 0f3f 436e bb3e db4a fb3e 2778 02be
00000060: 9852 d83e 63a8 863e 0249 353f 001c 103f
00000070: e20d 103e fbc8 d13e d96b 2e3f b33f ea3e
00000080: b240 033e c183 2bbd 8027 26bf c495 773e
00000090: 69ab 0ebf 01cb b43e 36b4 d7be 60b2 90bd
000000a0: a982 f0be 9622 fd3e 6511 1e3e f873 093f
000000b0: b9c6 cdbf 746e b4be 840e 923e f70a 90bf
000000c0: 81c7 1c3f da62 f73e 67e7 10bf 2046 59bd
000000d0: c9cd 973d b372 353f 92fd a33e ca44 a7be
000000e0: f210 433f 9699 633f 5563 1d3f 4fa4 2d3d
000000f0: a08b d03e 524e c13e c71c 553e dc83 3e3e
00000100: 7e54 843e bb8e 18be 06c3 303f c6a0 23bf
00000110: e626 573e 0050 95bd 3f9b 143f ec79 8b3d
00000120: 5284 a43e ae18 48bf 8f69 c03e a0d3 99be
00000130: 026e e33e 4135 1c3f 2157 2ebe 343b ffbf
00000140: e3f3 173f 5f1b d03e ccde 803e c325 c33e
00000150: 6344 153f 376d 3b3f 5f45 1e3f ddeb 27bf
00000160: a6e2 6c3e 0bd4 9d3e 8eba b33e b09e f53e
00000170: c780 353f f020 ac3e 156a 383f 4060 cb3d
00000180: 718f 7d3e 801b c83e 5c4c 04bf f01b cbbe
00000190: 0689 f0be 03b2 e93e 94f9 fbbe c9d5 e7be
000001a0: be1c dc3e ea89 d93e 3605 173f d734 52be
000001b0: c942 383c 2515 963e 3462 a13e 85ec d2be
000001c0: da0b 8c3e 43e0 cf3e 188f 3fbf 0843 9bbe
000001d0: aa5e 34bf 5cf9 053e 4914 30bf d152 6fbe
000001e0: 09a0 b63e 3356 bc3d 4cc7 ba3e 1f01 94be
000001f0: 58dd 4bbf 3497 173e 2672 1d3e f5d4 05bf
00000200: c8ec 32bf 2775 acbe de52 bf3e 64d0 103f
00000210: 0777 053e f52f e6bd 6ade 803c 3072 843e
00000220: 6b21 59bf 4b69 013e 6ee8 f7be 01c7 3d3f
00000230: 8907 3abf f282 6abf e08b febe 9a47 e5bd
00000240: b751 aa3e 51c9 413e 4ab5 20bf 0b24 b0be
00000250: 5fef 89bf 56d9 fb3d b1e5 67bf 72a3 8cbe
00000260: b9f7 223e e844 e73e 6249 023d 3d67 abbe
00000270: 6532 6cbf 03e9 97be d1eb b63e c846 19bf
00000280: 85ad 023f a4ae b43e c172 00bf c09a 35bf
00000290: d3f8 f1be 8ac9 023f 23c6 23bf 6493 12be
000002a0: 0fec 223e cb66 263f 2dd3 643e 32af 47bf
000002b0: 4b07 8c3f 543b 5d3f 788b 2d3e 1f25 163f
000002c0: c38c 94be 058a 05bf 2fd3 283f bc74 d5bc
000002d0: 1d67 3d3f 51d5 27be e4bb 823e 7814 733e
000002e0: 09fe 65bf c43d 90be ef13 c6be 084d 0d3f
000002f0: c67d 1cbd d9a0 bdbe 7212 cfbe 360e 553e
00000300: 00b2 d33d c275 f23e dd1b ac3d c04c f1be
00000310: 34ca 0bbf 66b6 b83e c981 4cbe fc79 98bc
00000320: 71fb 863e 8637 f73e 6ba5 eb3e ef4b 8bbe
00000330: 2b69 84be 749a ba3e 4b58 533d 6f49 6cbf
00000340: 42de f23e 1a82 aa3e c16b eabe 4aad e5be
00000350: dd3f abbe ca85 243f d202 02bf 48a8 aabe
00000360: 8e76 d13e 4e69 c73e e5f9 a63e 29ae fdbd
00000370: 1609 51be 8ded 2f3e 5470 133f e25e 83be
00000380: 0a38 aabd 6597 f13c f1a2 b7be fc11 503d
00000390: f27e 1cbf 491f 7ebd 7dc3 2abf 6535 81be
000003a0: 4763 2bbe cdb7 d33e 478b 9b3e 6d26 c8be
000003b0: af44 81bf 139e 0a3e fc33 cb3e 88b2 8cbf
000003c0: 4701 13be af67 8c3e 2126 e2be fac4 843e
000003d0: 7170 55bf ebea af3e f8df 0ebf 2dec 45bd
000003e0: ac18 8abd 0e67 9b3e 0563 8dbd aff2 fbbe
000003f0: b6be 5cbf 8353 5d3d 9e04 c63e ed72 4fbf

lstm.lstm.weight_hh_l0 f4 [64, 16]
0.3525706 0.36389652 -0.015215438 0.008062672 0.16443865 -0.005066729 -0.1900178 -0.05077626
-0.6078142 0.28433898 0.5116831 -0.37585297 -0.13458392 -0.3986521 0.13899112 -0.03051879
0.24544032 0.20280078 -0.018950196 0.28519443 0.0049031847 0.2670926 -0.2580294 -0.26101607
-0.23405357 0.06977504 -0.33416152 -0.3368004 -0.263994 -0.04314394 -0.00717372 0.059175517
0.07181251 0.043331884 0.4730584 0.12610613 -0.11172243 -0.2898629 -0.1851223 -0.3510986
-0.03919167 -0.2594547 0.8187479 0.09268511 -0.4000902 -0.10060489 -0.3011574 -0.45281488
-0.11969366 -0.19033667 0.03317036 0.3727774 0.3717975 -0.056478277 -0.6244546 -0.089562885
-0.2943216 -0.22638349 0.08086601 -0.3240801 -0.11856921 -0.3496783 -0.32274556 -0.056700934
-0.0931714 0.14907378 -0.05166006 -0.010349569 0.5967849 0.008932734 0.6078156 0.05005568
-0.08384842 0.5229303 0.14126037 -0.41669697 -0.053617973 0.42637908 0.21798037 0.33456016
0.25533435 0.038424682 0.03441966 -0.15989986 0.032015126 0.12824045 -0.23046643 -0.44918606
-0.5098896 0.2102544 -0.16265836 -0.7322154 0.0692465 0.31562126 -0.16081773 -0.30562356
-0.17112732 0.014700956 0.37706602 0.037640683 0.39305124 -0.20665191 -0.24784237 -0.28282645
0.2184821 -0.41567987 -0.1424767 0.21432163 -0.46163136 -0.15782921 -0.1271788 0.022666698
-0.21865387 -0.27749932 0.6132161 0.05107675 -0.039787363 -0.3117509 -0.34687293 -0.1546901
-0.22644104 0.002923467 0.6365819 0.52663696 -0.269897 -0.107065395 -0.018559953 -0.42235526
0.19615099 0.34015402 0.059526257 -0.5879451 -0.81384057 0.13902956 0.10336643 -0.03978003
-0.6318156 -0.22309686 0.5343556 -0.22389285 0.33113897 0.4882339 -0.06521377 -0.0054537454
-0.21166752 -0.665676 0.17715165 0.10791576 -0.219578 -0.28416365 -0.29599383 -0.21893567
-0.022838218 -0.45634884 -0.06599359 0.57823247 0.13277704 -0.047863096 -0.23611236 0.053908493
-0.6906402 -0.63970095 -0.108058184 0.21536621 0.3395371 -0.7299701 -0.5546232 -0.004913676
0.74843466 -0.6783295 -1.0904894 0.35574105 -0.05744128 -0.39432046 -0.2273094 -0.2509628
0.0786162 0.51956564 0.011020307 -0.065796964 -0.36827424 0.13132022 0.22852689 0.10538697
-0.3637861 0.033287175 -0.19154857 -0.4537686 0.29532248 0.09550419 -0.2442768 -0.21891499
-0.3739601 0.0051257196 0.18640344 0.09088754 0.63626933 -0.1681281 -0.10038365 -0.23232102
-0.21872637 0.016618572 0.3836053 0.44237152 -0.015290902 -0.034193825 -0.4098571 0.043107525
-0.5302524 -0.33888125 0.16211009 0.47757372 0.096006185 -0.029362954 -0.54592294 -0.06130075
0.011359054 -0.55239195 -0.0049936124 0.4239728 -0.09683075 -0.61273223 -0.118470006 -0.30707756
0.06343393 -0.28241953 0.52166903 0.27131528 0.16876645 -0.2988503 -0.5065311 -0.10220892
-0.27529314 -0.37510228 0.50230783 0.41569266 -0.1696391 -0.32514438 -0.08182091 -0.35820103
-0.10972119 -0.105416045 0.3662118 0.17529008 -0.36236942 -0.39619958 -0.29293656 -0.4061592
0.044674657 -0.2609466 0.76255304 0.5737129 -0.05268104 0.0195761 -0.42581168 -0.048457183
00000000: 2284 b43e a550 ba3e 2c4a 79bc 4c19 043c
00000010: 9b62 283e ce06 a6bb 0794 42be c5fa 4fbd
00000020: b699 1bbf e194 913e aafd 023f cd6f c0be
00000030: 5ed0 09be 211c ccbe b053 0e3e 8b02 fabc
00000040: b554 7b3e 02ab 4f3e 713d 9bbc 0105 923e
00000050: e5aa a03b 5cc0 883e 6e1c 84be e6a3 85be
00000060: bdab 6fbe 37e6 8e3d 3817 abbe 1a71 acbe
00000070: 392a 87be b3b7 30bd 8611 ebbb 0762 723d
00000080: 7012 933d c67c 313d b634 f23e f721 013e
00000090: bbce e4bd e968 94be b390 3dbe 32c3 b3be
000000a0: 7287 20bd 3fd7 84be 7699 513f b1d1 bd3d
000000b0: 9fd8 ccbe f009 cebd 4d31 9abe 5ad7 e7be
000000c0: f321 f5bd 9ee7 42be a5dd 073d aedc be3e
000000d0: 3e5c be3e c455 67bd 42dc 1fbf bf6c b7bd
000000e0: 52b1 96be 13d1 67be 149d a53d d4ed a5be
000000f0: 6ad4 f2bd 0909 b3be e83e a5be 3d3f 68bd
00000100: a6d0 bebd cca6 183e 8099 53bd 3d91 29bc
00000110: e5c6 183f 9a5a 123c ce99 1b3f 2f07 4d3d
00000120: b8b8 abbd c3de 053f 8fa6 103e 4e59 d5be
00000130: 859e 5bbd 5c4e da3e 3f36 5f3e 784b ab3e
00000140: 2fbb 823e 3363 1d3d a1fb 0c3d cabc 23be
00000150: 4b22 033d 7751 033e 64ff 6bbe b7fb e5be
00000160: 2088 02bf ee4c 573e ea8f 26be 7872 3bbf
00000170: 1cd1 8d3d 1c99 a13e 67ad 24be b17a 9cbe
00000180: 003c 2fbe 47dc 703c cc0e c13e 1e2d 1a3d
00000190: 033e c93e 8f9c 53be 64ca 7dbe a1ce 90be
000001a0: c6b9 5f3e fed3 d4be 69e5 11be 2177 5b3e
000001b0: f25a ecbe fb9d 21be 293b 02be 83af b93c
000001c0: cde6 5fbe 6414 8ebe bbfb 1c3f db35 513d
000001d0: 13f8 22bd d09d 9fbe 5499 b1be 1567 1ebe
000001e0: 29e0 67be a397 3f3b 08f7 223f aed1 063f
000001f0: f12f 8abe 1a45 dbbd 0b0b 98bc f33e d8be
00000200: cedb 483e ab28 ae3e ced1 733d 9283 16bf
00000210: db57 50bf c45d 0e3e c7b1 d33d 62f0 22bd
00000220: abbe 21bf 8173 64be 87cb 083f 2b44 65be
00000230: 0c8b a93e cbf9 f93e cc8e 85bd 55b5 b2bb
00000240: 5fbf 58be be69 2abf 3e67 353e f002 dd3d
00000250: 0ed9 60be e67d 91be 818c 97be ac30 60be
00000260: 3717 bbbc 8ea6 e9be a627 87bd 0b07 143f
00000270: b4f6 073e 180c 44bd 70c7 71be 27cf 5c3d
00000280: cccd 30bf 71c3 23bf 9c4d ddbd f688 5c3e
00000290: cfd7 ad3e 52df 3abf c9fb 0dbf e702 a1bb
000002a0: 6a99 3f3f 01a7 2dbf 2895 8bbf b123 b63e
000002b0: 8c47 6bbd 5fe4 c9be ccc3 68be 327e 80be
000002c0: 8801 a13d 4102 053f 858e 343c 8fc0 86bd
000002d0: 718e bcbe cf78 063e f402 6a3e 20d5 d73d
000002e0: 2c42 babe 2258 083d 4f25 44be 5c54 e8be
000002f0: 8234 973e b397 c33d b323 7abe 402b 60be
00000300: b377 bfbe a7f5 a73b 8be0 3e3e 3f23 ba3d
00000310: 8ce2 223f c629 2cbe f195 cdbd 90e5 6dbe
00000320: cef9 5fbe ac23 883c ea67 c43e 857e e23e
00000330: b186 7abc d30e 0cbd cad8 d1be 8491 303d
00000340: 9fbe 07bf d881 adbe 3000 263e 8b84 f43e
00000350: e49e c43d 948a f0bc 9bc1 0bbf 7f16 7bbd
00000360: 531b 3a3c 8f69 0dbf 75a1 a3bb f612 d93e
00000370: 334f c6bd 05dc 1cbf 67a0 f2bd 4539 9dbe
00000380: a6e9 813d 4b99 90be 1a8c 053f d6e9 8a3e
00000390: 1dd1 2c3e e802 99be 06ac 01bf e952 d1bd
000003a0: 39f3 8cbe 680d c0be 3f97 003f abd5 d43e
000003b0: dfb5 2dbe 5379 a6be b991 a7bd 2066 b7be
000003c0: 81b5 e0bd 5ee4 d7bd 1d80 bb3e 3e7f 333e
000003d0: 7c88 b9be acda cabe c8fb 95be 19f4 cfbe
000003e0: c6fc 363d cb9a 85be ad36 433f d9de 123f
000003f0: 13c8 57bd 0f5e a03c fd03 dabe 0a7b 46bd

lstm.lstm.bias_ih_l0 f4 [64]
0.34110585 0.33605543 0.23109715 0.12289727 0.16615653 0.5759735 0.18474215 0.09375784
0.09235936 0.119838245 -0.15215684 -0.2587607 -0.03847266 0.1992513 0.021297557 0.029235428
0.7368698 0.60527307 0.08854461 0.2464931 0.39157614 0.5677124 0.07226652 0.29694685
0.29604536 -0.17367834 -0.52754056 -0.0012015632 0.32167575 0.15903291 -0.013749192 0.3775148
0.06751285 -0.01870767 0.27989995 0.31218314 0.20051424 -0.21195596 -0.23991671 -0.39233905
0.0355386 -0.049915373 0.08391171 -0.18878147 -0.31953955 -0.24458036 -0.26284027 -0.24580967
0.19945137 0.32706967 0.59806937 0.41296843 0.19362614 0.5437729 0.22587365 0.3299203
0.25160694 0.10976513 -0.11504927 -0.20526622 -0.031139556 0.3876354 -0.020789163 0.28838682
00000000: 6da5 ae3e 750f ac3e bba4 6c3e 90b1 fb3d
00000010: f024 2a3e 0073 133f 0c2d 3d3e 1c04 c03d
00000020: e726 bd3d c16d f53d 01cf 1bbe 487c 84be
00000030: 8295 1dbd 8808 4c3e 3778 ae3c 237f ef3c
00000040: 80a3 3c3f 2df3 1a3f e056 b53d b068 7c3e
00000050: ab7c c83e 9a55 113f 7800 943d 6b09 983e
00000060: 4293 973e bcd8 31be e60c 07bf c57d 9dba
00000070: afb2 a43e 86d9 223e 4a44 61bc 9f49 c13e
00000080: 2d44 8a3d d440 99bc 0c4f 8f3e 78d6 9f3e
00000090: 9b53 4d3e fc0a 59be baac 75be aae0 c8be
000000a0: ec90 113d 1074 4cbd e7d9 ab3d ee4f 41be
000000b0: b09a a3be 4673 7abe 0093 86be 88b5 7bbe
000000c0: fb3c 4c3e ad75 a73e 131b 193f 9970 d33e
000000d0: ee45 463e b334 0b3f 6c4b 673e 50eb a83e
000000e0: a0d2 803e 8acc e03d f49e ebbd 4f31 52be
000000f0: 6218 ffbc 2678 c63e 094e aabc 70a7 933e

lstm.lstm.bias_hh_l0 f4 [64]
0.38825357 0.6183696 0.11737999 0.20660415 0.2358791 0.6898517 0.24359731 0.2655246
0.1225388 -0.06539219 -0.1978213 -0.18084075 -0.14169839 -0.021435581 0.27374318 0.119331196
0.5282399 0.79237497 0.14223433 0.5441805 0.37565598 0.5407934 0.24066944 0.3286364
0.02616821 -0.06945991 -0.4959442 -0.16039607 0.19935283 0.38019586 0.031732805 -0.06935415
-0.15203822 -0.05351008 0.0756927 0.47889116 0.13935636 -0.32919 0.0076842923 -0.29898763
-0.07895731 -0.09431047 0.12700006 0.1282055 -0.25640276 -0.26450038 -0.09856485 -0.19212575
0.26928374 0.44899794 0.41211683 0.50288624 -0.11461472 0.68382657 0.10994103 0.19972101
0.07839512 0.13554986 -0.2386838 -0.19382069 0.08501129 -0.05255737 0.021238998 0.315783
00000000: 2cc9 c63e 784d 1e3f ec64 f03d 0a90 533e
00000010: 4a8a 713e 1f9a 303f 9371 793e d7f2 873e
00000020: 9ff5 fa3d 57ec 85bd ab91 4abe 512e 39be
00000030: 6219 11be ac99 afbc 1128 8c3e ea63 f43d
00000040: bb3a 073f 16d9 4a3f e0a5 113e 6a4f 0b3f
00000050: fb55 c03e 7071 0a3f 0d72 763e 0843 a83e
00000060: b75e d63c ff40 8ebd 66ec fdbe de3e 24be
00000070: 2623 4c3e 08a9 c23e 42fa 013d 8c09 8ebd
00000080: e8af 1bbe 632d 5bbd c604 9b3d 3931 f53e
00000090: 6fb3 0e3e 978b a8be 84cc fb3b e814 99be
000000a0: 5fb4 a1bd d925 c1bd 4e0c 023e 4d48 033e
000000b0: 3947 83be 986c 87be 5edc c9bd 9dbc 44be
000000c0: 8fdf 893e 0fe3 e53e fa00 d33e 27bd 003f
000000d0: 1fbb eabd 420f 2f3f c328 e13d aa83 4c3e
000000e0: 9f8d a03d 95cd 0a3e 8769 74be ee78 46be
000000f0: 661a ae3d 6646 57bd 68fd ad3c 4fae a13e

downstream.full.weight f4 [6, 16]
0.4183929 -0.026974678 -0.41423243 0.48896188 -0.51331156 -0.003047645 0.30483484 -0.032373607
0.027828515 0.20043403 0.36860877 0.46464676 -0.39097428 0.4743144 -0.1821098 -0.452097
0.081312 0.5153925 -0.24792844 -0.2260077 -0.027698874 -0.41651496 -0.183981 -0.30375183
0.045619845 0.14986622 0.074333966 0.3839659 -0.07487404 -0.21280551 0.18370557 -0.41419086
0.015707314 -0.35283834 0.13439721 0.23740232 0.049012244 0.3228417 0.4581437 0.3416028
-0.4543614 -0.09951192 0.3542742 -0.11706695 0.3196162 -0.048591584 -0.28751048 0.2943281
0.21150935 0.49250358 -0.26572222 0.12253255 -0.0271222 -0.33877793 -0.20460036 0.4660315
0.44499052 -0.11227992 -0.33351776 -0.31387007 0.46973646 -0.50495887 0.33479172 -0.34150892
-0.19863808 0.42599183 -0.35308623 0.1786229 0.18127978 -0.22854042 0.0536294 0.17945075
0.10560548 -0.10574502 0.13328171 -0.20937961 -0.33662963 0.28612834 -0.32582453 0.3841914
0.29380924 -0.3730551 0.3014822 0.182904 -0.49036375 -0.409376 -0.28155443 -0.27351713
0.01839012 -0.20754871 -0.16685042 0.50957614 -0.34777522 -0.22881782 -0.26012063 -0.19671565
00000000: 9837 d63e 00fa dcbc 4616 d4be 3659 fa3e
00000010: 6368 03bf 00bb 47bb 5013 9c3e 309a 04bd
00000020: a0f8 e33c 943e 4d3e 4aba bc3e 2ee6 ed3e
00000030: c82d c8be 56d9 f23e fe7a 3abe 4279 e7be
00000040: e886 a63d c3f0 033f f4e0 7dbe 906e 67be
00000050: c0e8 e2bc 7341 d5be 8465 3cbe 5c85 9bbe
00000060: e0db 3a3d 8876 193e 683c 983d 2e97 c43e
00000070: 9057 99bd b0e9 59be 501d 3c3e d310 d4be
00000080: a0ac 803c 3aa7 b4be 6c9f 093e 9819 733e
00000090: 10c1 483d 824b a53e d091 ea3e 90e6 ae3e
000000a0: 0fa2 e8be e8cc cbbd 6e63 b53e ccc0 efbd
000000b0: bca4 a33e f807 47bd 9334 93be 2cb2 963e
000000c0: e895 583e 6e29 fc3e be0c 88be 58f2 fa3d
000000d0: 602f debc 4d74 adbe c282 51be ae9b ee3e
000000e0: ccd5 e33e 04f3 e5bd d7c2 aabe 94b3 a0be
000000f0: 4c81 f03e fc44 01bf d269 ab3e 42da aebe
00000100: c867 4bbe 9a1b da3e b8c7 b4be ece8 363e
00000110: 68a1 393e 8006 6abe 80aa 5b3d f0c1 373e
00000120: b047 d83d d890 d8bd 007b 083e 9c67 56be
00000130: b85a acbe 6a7f 923e 79d2 a6be bcb4 c43e
00000140: 2a6e 963e 1401 bfbe e05b 9a3e 304b 3b3e
00000150: f510 fbbe bb99 d1be e727 90be 700a 8cbe
00000160: e0a6 963c a687 54be d6da 2abe 9573 023f
00000170: 980f b2be 384f 6abe 882e 85be d46f 49be

downstream.full.bias f4 [6]
0.107554734 0.13029149 0.18241665 0.0993388 0.032722503 -0.031259328
00000000: a845 dc3d 226b 053e 6ecb 3a3e 2472 cb3d
00000010: 0808 063d c809 00bd

maxpooling.full.weight f4 [16, 16]
0.3212919 -0.2118327 -0.36200294 -0.40078077 0.06018862 0.37181374 0.06520933 -0.008519053
-0.28602487 0.025082052 -0.19740437 0.23472705 -0.25874692 -0.42915103 -0.41519135 0.18723711
-0.409595 -0.053067505 0.40907016 -0.051234663 0.21981904 0.25313148 0.18422905 0.29077563
-0.37610498 -0.23646566 0.4048532 -0.41614246 -0.13876766 0.04557413 0.0006272197 0.2446709
-0.40617776 0.050809115 -0.39847618 -0.38525626 -0.21217747 0.12243953 -0.31090912 0.039496183
-0.035080045 -0.24786982 -0.12106055 -0.06075433 0.04411897 0.3369936 0.17216071 0.079829544
0.1440588 -0.033188432 0.42597136 0.0813826 -0.061676234 0.2537121 -0.32842407 -0.41191983
0.16444501 0.42033908 0.2247788 0.34407493 0.25770262 0.3765857 0.105656534 0.40351793
0.04417318 0.06683874 0.39358428 0.030069172 0.32109287 0.37471882 0.16145828 0.3901265
0.2477645 0.39651838 -0.22378547 -0.022212327 -0.40232867 0.151921 -0.11652601 0.13874444
-0.26331264 -0.31630787 0.08579263 -0.40002328 0.14376035 -0.13738382 0.29192457 -0.10392216
0.26736388 -0.006491989 -0.23327756 0.14331463 -0.21340683 -0.33040026 -0.2540481 -0.3643099
0.4273096 0.2851278 0.17883125 0.42910388 0.17364219 0.029357672 -0.37764132 -0.32820898
0.38381192 -0.39066106 -0.32241592 0.25698373 0.11604008 -0.22990343 -0.24307849 -0.106274456
-0.26012737 0.30848435 0.10482457 -0.22311519 -0.107005745 0.418781 -0.19693221 -0.13880283
-0.107562244 0.14355788 -0.43020698 0.3621982 0.40141174 0.0014813244 -0.27077156 0.39419797
0.0874767 -0.009880662 0.3525928 0.21631166 -0.16546306 -0.07487279 -0.29611564 0.3658798
-0.04173386 0.38349357 0.21633759 0.039848894 0.019785821 -0.01193884 -0.22332679 -0.020556688
-0.35178262 -0.1888848 -0.27639022 0.41812453 0.019293994 -0.12097424 0.38133463 -0.41461775
-0.1812782 -0.4155166 0.33622643 -0.13478047 -0.23353013 -0.2936927 0.12573352 -0.03846672
0.37384042 0.0058403313 0.18586835 0.29093775 -0.4072723 0.3564494 0.35532108 -0.3634573
-0.35299772 -0.1410816 -0.19110684 -0.17950922 0.114147514 -0.00674358 -0.15970954 0.42632422
-0.3169375 0.2626482 -0.0074552596 0.24318454 -0.058071673 -0.016995907 -0.20023729 0.4269624
-0.026093423 -0.17674324 -0.14891893 0.091760844 -0.18001854 0.4101309 0.34349522 -0.36074823
-0.25780207 -0.41937217 0.061911464 0.30673292 -0.42044085 0.33070174 -0.099686 0.09301844
0.3477966 -0.2643336 -0.3374735 -0.063405275 0.39295217 -0.25817403 -0.3554651 0.095588416
-0.15384713 0.08571836 0.0024881363 0.029666245 -0.23724955 0.25757244 -0.054385602 0.2918249
-0.35517693 -0.0035018325 -0.0853219 0.26272646 -0.026270896 -0.3870663 -0.2503319 0.11043528
0.044567555 0.3619183 0.2019858 0.36863145 0.3642446 0.2362766 0.18745348 -0.31154746
0.17726448 -0.4052926 -0.14215305 -0.04476118 0.12234244 0.31677637 -0.20949873 -0.0664393
0.26926252 0.3773565 0.00039416552 -0.018805832 -0.2147099 0.2850267 0.08526793 0.010658592
-0.30750975 0.18582454 0.21153292 -0.1407291 0.24497661 0.17291036 -0.34552586 -0.32044628
00000000: 5f80 a43e acea 58be 7358 b9be 2333 cdbe
00000010: 5888 763d 5f5e be3e 788c 853d 8093 0bbc
00000020: da71 92be e078 cd3c 5f24 4abe 4a5c 703e
00000030: 7a7a 84be afb9 dbbe f693 d4be 16bb 3f3e
00000040: 70b6 d1be 505d 59bd a571 d13e 70db 51bd
00000050: 3e18 613e 739a 813e 8aa6 3c3e 8be0 943e
00000060: d590 c0be 0e24 72be eb48 cf3e a010 d5be
00000070: 1c19 0ebe f0ab 3a3d 006c 243a 028b 7a3e
00000080: 88f6 cfbe 381d 503d 1205 ccbe 4f40 c5be
00000090: 0d45 59be 94c1 fa3d 7b2f 9fbe c0c6 213d
000000a0: 18b0 0fbd 96d1 7dbe 98ee f7bd 88d9 78bd
000000b0: 18b6 343d 6d8a ac3e e64a 303e ac7d a33d
000000c0: 2684 133e 98f0 07bd eb18 da3e ecab a63d
000000d0: 38a0 7cbd 8de6 813e 3327 a8be 28e7 d2be
000000e0: 4664 283e af36 d73e 6a2c 663e 972a b03e
000000f0: 99f1 833e d7cf c03e 7462 d83d e799 ce3e
00000100: f0ee 343d c0e2 883d e183 c93e a053 f63c
00000110: 4966 a43e 25db bf3e 5255 253e a9be c73e
00000120: fab5 7d3e 7504 cb3e 0528 65be a0f6 b5bc
00000130: 06fe cdbe 2e91 1b3e 30a5 eebd 0613 0e3e
00000140: ead0 86be 1bf3 a1be 0cb4 af3d dacf ccbe
00000150: ea35 133e 58ae 0cbe 2377 953e 24d5 d4bd
00000160: ebe3 883e c0ba d4bb 50e0 6ebe 12c1 123e
00000170: 5287 5abe 392a a9be 9812 82be d486 babe
00000180: 53c8 da3e 45fc 913e 8a1f 373e 81b3 db3e
00000190: 42cf 313e 807f f03c 345a c1be 020b a8be
000001a0: ff82 c43e ba04 c8be b313 a5be 5f93 833e
000001b0: 6ca6 ed3d ce6b 6bbe 91e9 78be 6ca6 d9bd
000001c0: 6a2f 85be a9f1 9d3e 44ae d63d 4f78 64be
000001d0: d425 dbbd 776a d63e 99a8 49be 5422 0ebe
000001e0: 9849 dcbd d600 133e 1744 dcbe 0b72 b93e
000001f0: d785 cd3e 0029 c23a 92a2 8abe 51d4 c93e
00000200: fc26 b33d 80e2 21bc 0b87 b43e ce80 5d3e
00000210: 266f 29be e856 99bd 789c 97be 9954 bb3e
00000220: 20f1 2abd 4559 c43e 9a87 5d3e 9838 233d
00000230: e015 a23c 209b 43bc c7af 64be 8066 a8bc
00000240: da1c b4be 046b 41be 0583 8dbe 6b14 d63e
00000250: 700e 9e3c 58c1 f7bd 4b3e c33e c748 d4be
00000260: fea0 39be 97be d4be df25 ac3e e403 0abe
00000270: 8622 6fbe e45e 96be 4ac0 003e 488f 1dbd
00000280: 0368 bf3e 4060 bf3b 4654 3e3e cbf5 943e
00000290: ff85 d0be 8980 b63e a5ec b53e 1317 babe
000002a0: 1ebc b4be b277 10be 83b1 43be 44d1 37be
000002b0: 2cc6 e93d 40f9 dcbb e68a 23be 2b47 da3e
000002c0: a245 a2be d379 863e 404b f4bb 5e05 793e
000002d0: 90dc 6dbd 003b 8bbc 010b 4dbe d19a da3e
000002e0: e0c1 d5bc 2efc 34be 347e 18be 1ced bb3d
000002f0: c856 38be adfc d13e 9bde af3e feb3 b8be
00000300: a2fe 83be f3b7 d6be e096 7d3d 190c 9d3e
00000310: 0644 d7be bd51 a93e 2c28 ccbd 7480 be3d
00000320: 6512 b23e bc56 87be 54c9 acbe a0da 81bd
00000330: 0731 c93e 632f 84be 86ff b5be dcc3 c33d
00000340: 1a8a 1dbe 1c8d af3d 0010 233b a006 f33c
00000350: 8cf1 72be 89e0 833e 70c3 5ebd 136a 953e
00000360: c0d9 b5be 007f 65bb 40bd aebd 1584 863e
00000370: 1036 d7bc 8e2d c6be 812b 80be e42b e23d
00000380: 788c 363d 5b4d b93e 5ed5 4e3e 43bd bc3e
00000390: 457e ba3e 7ef2 713e cef3 3f3e 2683 9fbe
000003a0: d284 353e 8382 cfbe 9290 11be 8057 37bd
000003b0: ac8e fa3d 8330 a23e d686 56be 5411 88bd
000003c0: c7dc 893e df34 c13e 00a8 ce39 b00e 9abc
000003d0: e9dc 5bbe 05ef 913e f4a0 ae3d 60a1 2e3c
000003e0: eb71 9dbe ca48 3e3e 169c 583e 4a1b 10be
000003f0: 26db 7a3e 6a0f 313e c4e8 b0be 8911 a4be

maxpooling.full.bias f4 [16]
-0.09962469 0.1612755 0.18032736 0.089251935 0.027288854 -0.20449749 0.1740751 -0.090646625
0.17798966 0.24013364 0.16725078 -0.13393703 0.098270655 0.24955192 0.1733424 -0.22355908
00000000: 0808 ccbd 6825 253e bca7 383e b8c9 b63d
00000010: e08c df3c ca67 51be be40 323e f0a4 b9bd
00000020: ec42 363e 98e5 753e ca43 2b3e ca26 09be
00000030: 2042 c93d 8a8a 7f3e ac80 313e acec 64be

mean.full.weight f4 [16, 32]
0.022964299 -0.18461542 0.054761946 -0.01251328 -0.26017615 -0.15588336 -0.19329675 -0.060536206
0.038364977 0.21394864 0.03399977 -0.083376914 -0.20016545 0.2628998 -0.06897622 -0.30627224
-0.27245298 0.2937183 -0.28016979 0.13026738 -0.07047397 0.16369155 0.17395315 0.11501625
-0.041636318 -0.14331143 -0.12820351 0.28755608 0.30354938 0.095051944 0.1157181 -0.26955068
-0.25344285 -0.13549423 -0.26414692 -0.17556067 0.038192302 0.094087094 -0.2121153 -0.14856853
0.0458405 0.15806738 -0.3156187 0.07606557 0.30414453 -0.25085592 -0.25284618 -0.2831451
0.30942014 0.2698277 0.08860883 -0.17033121 -0.21910919 -0.030788451 0.017464727 -0.12929519
-0.09847459 0.010356069 -0.27134246 0.15082303 -0.08163342 0.028123468 -0.2658268 -0.19696087
0.28651354 -0.31216422 0.20804557 0.01701802 -0.075974256 0.3116444 0.094748944 0.15130666
0.2038956 -0.32588437 -0.07939455 -0.34964684 0.28111246 -0.20232075 0.29239294 0.32196406
-0.23329636 0.11586648 -0.06800285 0.24930605 -0.13151814 0.050906897 0.20272353 0.32160643
0.17963925 -0.34724042 0.27646038 -0.02511543 -0.23292266 -0.07419488 -0.21076837 -0.3389549
-0.34240252 -0.31056055 -0.15087228 0.25663337 0.041944504 0.27629474 0.3418462 -0.26587117
-0.0145588815 0.015614361 0.27599463 0.2350001 -0.13410436 0.14858773 -0.3171293 -0.18677051
-0.19398268 0.002097845 0.051112205 -0.33157915 0.09258196 0.33865318 0.009996086 0.27749166
0.09013873 0.010294229 -0.23295489 0.07217032 -0.15380009 -0.34431353 0.2961847 -0.10800652
-0.1398585 -0.03806755 0.251516 -0.15493008 -0.30553114 0.025322318 0.29587266 -0.11010109
0.037347347 0.28502932 -0.08213055 -0.34447473 0.24521407 -0.31916684 -0.22471245 -0.3255221
-0.28050122 0.20498201 -0.18167867 -0.26196486 0.16790047 -0.25156295 -0.0056420267 0.07704085
-0.20114836 -0.25196663 -0.02610141 -0.07698926 -0.2141703 -0.03796959 0.09341386 0.09747937
-0.002315849 0.2313157 -0.24243331 -0.11670387 -0.22163999 -0.18672347 0.06018418 0.24562672
-0.15043922 0.29112878 0.32534018 -0.017392576 0.15269056 0.008958489 0.32503703 -0.08356553
0.22805217 0.2166169 0.3518221 -0.28281307 -0.22621275 0.17496732 -0.17791419 -0.32165745
0.16032866 0.14447749 -0.24685417 -0.3266564 0.28748676 0.25488755 -0.1396078 -0.06196046
0.34400985 0.27182212 0.22917554 -0.3381897 0.32416883 -0.024661332 0.2415975 0.23748001
0.28055593 0.04001844 -0.3319242 0.07386264 -0.09678978 -0.08666769 -0.043382674 0.121212214
0.17545149 -0.16408211 -0.20157506 0.2166703 -0.015524298 -0.070847124 -0.048822016 0.0820567
0.20434198 0.18608126 -0.19669572 -0.33726877 0.11145827 -0.24058546 0.19798556 -0.15031825
0.21238568 -0.16697776 0.16346094 0.07791561 -0.09342006 -0.32556713 0.2437428 -0.0055186152
-0.06629658 0.13982877 -0.31345183 -0.10255799 0.3072048 0.059498996 0.17388406 -0.01293543
-0.25073117 -0.35077864 -0.30662417 0.063800395 -0.2149444 0.110274196 -0.003873676 0.033745795
-0.09087843 -0.16694616 -0.2874459 0.3338386 -0.060935885 0.21150884 -0.2550372 -0.12108384
00000000: a01f bc3c d30b 3dbe 104e 603d 8004 4dbc
00000010: cf35 85be e39f 1fbe 95ef 45be d0f4 77bd
00000020: 9824 1d3d 5a15 5b3e 5843 0b3d 84c1 aabd
00000030: 2cf8 4cbe cd9a 863e 6843 8dbd b7cf 9cbe
00000040: f57e 8bbe 3f62 963e 6a72 8fbe d064 053e
00000050: a854 90bd c29e 273e c620 323e a48d eb3d
00000060: d88a 2abd 3bc0 12be c847 03be 8d3a 933e
00000070: d36a 9b3e 98aa c23d 9cfd ec3d 8c02 8abe
00000080: 43c3 81be 00bf 0abe 443e 87be 2dc6 33be
00000090: 886f 1c3d bcb0 c03d c134 59be 5922 18be
000000a0: 40c3 3b3d 6adc 213e c698 a1be 44c8 9b3d
000000b0: d5b8 9b3e 3070 80be 0e75 81be 65f8 90be
000000c0: 516c 9e3e db26 8a3e 8c78 b53d 4e6b 2ebe
000000d0: 295e 60be 1038 fcbc 3012 8f3c f565 04be
000000e0: 0cad c9bd 80ac 293c 66ed 8abe 5a71 1a3e
000000f0: 6c2f a7bd 3063 e63c 731a 88be 1cb0 49be
00000100: e7b1 923e fdd3 9fbe e609 553e 6069 8b3c
00000110: 6498 9bbd db8f 9f3e bc0b c23d 22f0 1a3e
00000120: 02ca 503e 51da a6be 9c99 a2bd e904 b3be
00000130: f9ed 8f3e 2c2d 4fbe 87b4 953e 79d8 a43e
00000140: 3ee5 6ebe 684b ed3d 1445 8bbd 164a 7f3e
00000150: b1ac 06be c083 503d c296 4f3e 99a9 a43e
00000160: 5af3 373e 7fc9 b1be 378c 8d3e e0be cdbc
00000170: 4783 6ebe 7cf3 97bd aad3 57be 7f8b adbe
00000180: 624f afbe cb01 9fbe 437e 1abe 7365 833e
00000190: 00ce 2b3d 8176 8d3e 7706 af3e 4420 88be
000001a0: 6088 6ebc 60d3 7f3c 2b4f 8d3e dea3 703e
000001b0: a752 09be 6227 183e c65e a2be c540 3fbe
000001c0: 65a3 46be 007c 093b 085b 513d bec4 a9be
000001d0: 9c9b bd3d f363 ad3e a0c6 233c 6313 8e3e
000001e0: a89a b83d 20a9 283c ba8b 6ebe 08ce 933d
000001f0: c57d 1dbe dd49 b0be 85a5 973e 8632 ddbd
00000200: 1137 0fbe b8ec 1bbd b5c6 803e fea5 1ebe
00000210: 946e 9cbe c070 cf3c 9f7c 973e ae7c e1bd
00000220: 88f9 183d 5def 913e 1034 a8bd fe5e b0be
00000230: 6619 7b3e d669 a3be 051b 66be d5aa a6be
00000240: db9d 8fbe cee6 513e f909 3abe 4220 86be
00000250: 1aee 2b3e dccc 80be c0e0 b8bb 98c7 9d3d
00000260: d6f9 4dbe c501 81be a0d2 d5bc 8cac 9dbd
00000270: 764f 5bbe 0086 1bbd c44f bf3d 44a3 c73d
00000280: 80c5 17bb 06de 6c3e 7040 78be 7002 efbd
00000290: 98f5 62be 7034 3fbe b083 763d 9285 7b3e
000002a0: bd0c 1abe d50e 953e fd92 a63e e07a 8ebc
000002b0: ea5a 1c3e a0c6 123c 416b a63e 6824 abbd
000002c0: 8286 693e d2d0 5d3e 0722 b43e e0cc 90be
000002d0: 51a4 67be a22a 333e 232f 36be 49b0 a4be
000002e0: 322d 243e e8f1 133e 57c7 7cbe 823f a7be
000002f0: 7731 933e 9f80 823e 59f5 0ebe 40ca 7dbd
00000300: 0f22 b03e 452c 8b3e feac 6a3e 3327 adbe
00000310: 75f9 a53e 9006 cabc 5665 773e f62d 733e
00000320: 07a5 8f3e 60ea 233d f8f1 a9be 4c45 973d
00000330: b839 c6bd d47e b1bd 08b2 31bd 1c3e f83d
00000340: 8ea9 333e 2405 28be b169 4ebe d2de 5d3e
00000350: a059 7ebc 4c18 91bd 98f9 47bd 580d a83d
00000360: 063f 513e 168c 3e3e 9a6a 49be 7eae acbe
00000370: 3c44 e43d 095c 76be babc 4a3e 07ed 19be
00000380: a27b 593e 38fc 2abe 4e62 273e 3892 9f3d
00000390: 0453 bfbd bcb0 a6be b697 793e 80d5 b4bb
000003a0: 80c6 87bd 462f 0f3e c27c a0be ec09 d2bd
000003b0: f349 9d3e 38b5 733d aa0e 323e 20ef 53bc
000003c0: d65f 80be 4299 b3be d8fd 9cbe c8a9 823d
000003d0: 631a 5cbe 70d7 e13d 80dd 7dbb 0839 0a3d
000003e0: 781e babd eff3 2abe 1c2c 93be e5ec aa3e
000003f0: e897 79bd c695 583e 3c94 82be cefa f7bd

mean.full.bias f4 [16]
0.03127536 -0.12641896 -0.091994345 0.03834237 0.13340877 0.022850677 0.013581887 0.011384115
0.03236568 0.081443414 -0.096910246 -0.0055689216 -0.018888012 0.16754602 -0.1470206 0.0057481974
00000000: 981a 003d f973 01be 8867 bcbd e40c 1d3d
00000010: 4f9c 083e 5831 bb3c 9086 5e3c 7084 3a3c
00000020: e091 043d cecb a63d e178 c6bd 807b b6bb
00000030: 08bb 9abc 2f91 2b3e 918c 16be 605b bc3b
