best_model/loss/cora_dropout=0_wd=0_b=256_lr=0.01_walk=5_best_model.pt (torch_old, 185335 bytes, 4 tensors)

aggregator.full.weight f4 [16, 2866]
0.08327523 -0.6339779 0.1946639 0.3496296 0.17188792 0.65163285 0.7862482 -0.23386343
0.45583302 -0.4819649 -0.05065178 -0.52498645 -0.22737747 -0.5524882 -0.5354871 0.34687862
0.24774563 0.58111244 0.59454024 0.20281623 0.13102631 -0.50936013 -0.106596544 0.39302227
0.062283073 0.6156859 0.15255141 0.5599246 0.042272653 0.019605765 -0.3283918 0.2129933
-0.4617747 0.3662684 -0.4293725 0.11083202 0.43738666 0.44635925 -0.60437566 -0.1664101
0.3059448 0.10172514 -0.09928375 -0.6439224 0.15079366 -0.39441523 -0.06814446 -0.28074095
-0.2070123 0.33581287 -0.82465744 0.5115203 -0.31289127 -0.01003274 -0.37874833 0.54473406
0.27848718 -0.22454782 -0.21174532 -0.15204799 0.31434396 0.5213451 0.6819104 0.68819773
0.24518904 -0.024436627 -0.62143147 -0.6718641 0.051381025 0.13585201 -0.20734039 -0.26568976
-0.2641652 -0.11210686 -0.15111117 -0.34938142 -0.31190625 0.3177948 0.19702886 0.33726156
-0.34272027 -0.63219136 -0.13963167 -0.24730791 0.1020907 -0.01712685 -0.031083446 0.17407776
0.57337487 0.43407047 -0.14120077 0.95322484 0.19381264 -0.24854709 -0.18707599 0.4958582
0.29296473 0.3896076 0.13884573 0.2103598 0.42409843 -0.2223755 0.6050133 0.37407282
0.62637514 -0.26739138 -0.4920844 -0.3322643 -0.45341897 -0.11779585 0.48039654 -0.3618896
-0.068127215 0.004579287 0.28308773 0.13559665 -0.52614486 -0.1233956 0.6922336 -0.5029791
-0.28222722 0.16737853 0.5918833 0.19019179 -0.52929306 0.56300145 0.35178575 -0.12872896
0.28080747 0.5797886 0.035415877 0.36200145 -0.2446739 0.71717435 0.70511043 0.36194623
0.020534925 -0.14622141 0.091613 -0.59013504 0.54145914 -0.23599768 0.0651941 0.20068596
0.24005978 0.36772594 -0.33333194 -0.62697005 0.14434229 -0.54824525 -0.18073687 0.7291644
0.13463472 0.622683 0.13861446 0.3206793 0.041390575 -0.2534365 0.6362173 0.7033499
0.418946 0.7441534 0.58436674 0.40052107 0.38995853 -0.2775962 -0.4868848 0.4021569
-0.504957 -0.1642955 0.2097858 0.21308973 0.43161923 -0.29778334 -0.11960947 0.71596146
0.11239775 -0.27838424 -0.4545847 0.68874496 0.53135234 0.4945869 -0.16251417 -0.14890611
-0.23810773 0.3665024 0.1560014 -0.34661216 -0.39682776 -0.16235742 -0.2778863 0.36629954
0.25876105 0.06662234 -0.19153978 0.688928 -0.29554075 0.6441988 0.682764 0.4321362
-0.5359505 0.022100773 0.36794212 -0.23713197 -0.37772274 0.47743967 -0.3490244 -0.5260978
-0.47492912 -0.32321844 0.48261777 -0.23186335 -0.083853655 0.59054404 0.89943683 -0.25696474
-0.3596649 0.8829734 -0.024266906 0.6808236 0.55695987 -0.35232827 0.1999968 0.040084343
-0.1328463 0.6209023 0.4319346 0.33333194 -0.22637562 -0.07097037 -0.19936694 0.0018160772
0.48390654 0.36953804 0.09175395 0.48037627 0.49572626 0.32869375 0.09435468 -0.11537826
-0.13900113 0.29738864 -0.16554771 0.05026754 0.56667966 0.12817958 0.3780372 0.0755146
0.2917688 -0.25253558 0.6505491 -0.68285424 -0.092470735 -0.39416623 -0.3186171 0.12797609
00000000: 348c aa3d 604c 22bf f955 473e a702 b33e
00000010: 6303 303e 69d1 263f 9047 493f e579 6fbe
00000020: f262 e93e 1ac4 f6be 3e78 4fbd 8365 06bf
00000030: a4d5 68be de6f 0dbf af15 09bf 139a b13e
00000040: 08b1 7d3e c9c3 143f ca33 183f 0faf 4f3e
00000050: c32b 063e 6d65 02bf 4a4f dabd 373a c93e
00000060: 891c 7f3d 979d 1d3f 7036 1c3e 3857 0f3f
00000070: 1726 2d3d 459c a03c f822 a8be ea1a 5a3e
00000080: bc6d ecbe 8887 bb3e b6d6 dbbe e6fb e23d
00000090: 25f1 df3e 3389 e43e 5db8 1abf 6967 2abe
000000a0: cca4 9c3e 4555 d03d 4755 cbbd 19d8 24bf
000000b0: a769 1a3e cbf0 c9be 538f 8bbd 47bd 8fbe
000000c0: 08fb 53be aaef ab3e c01c 53bf fff2 023f
000000d0: 4933 a0be 5d60 24bc 4deb c1be b173 0b3f
000000e0: df95 8e3e ddef 65be c4d3 58be 78b2 1bbe
000000f0: b1f1 a03e df76 053f ae91 2e3f ba2d 303f
00000100: d612 7b3e 522f c8bc 2216 1fbf 49ff 2bbf
00000110: e974 523d ca1c 0b3e 0a51 54be 7d08 88be
00000120: a940 87be 4898 e5bd e3bc 1abe 1fe2 b2be
00000130: 2db2 9fbe 00b6 a23e efc1 493e 8cad ac3e
00000140: 0879 afbe 4bd7 21bf 9bfb 0ebe 493e 7dbe
00000150: ee14 d13d 9c4d 8cbc b6a2 febc 7141 323e
00000160: b2c8 123f 7c3e de3e ef96 10be 8b06 743f
00000170: d276 463e 2183 7ebe d990 3fbe 20e1 fd3e
00000180: 79ff 953e a67a c73e 932d 0e3e 8f68 573e
00000190: 6e23 d93e 67b6 63be 27e2 1a3f 7986 bf3e
000001a0: 1f5a 203f 86e7 88be 7df2 fbbe 8c1e aabe
000001b0: 8826 e8be f33e f1bd 89f6 f53e 9849 b9be
000001c0: 4886 8bbd d80d 963b e0f0 903e d9d9 0a3e
000001d0: 6eb1 06bf d5b6 fcbd 3936 313f 3dc3 00bf
000001e0: 1680 90be 4765 2b3e aa85 173f a3c1 423e
000001f0: c07f 07bf dd20 103f 431d b43e 86d1 03be
00000200: ffc5 8f3e 076d 143f 3d10 113d 4158 b93e
00000210: cb8b 7abe bd98 373f 1e82 343f 0451 b93e
00000220: dc38 a83c 11bb 15be 999f bb3d 1713 17bf
00000230: 119d 0a3f 60a9 71be 7c84 853d 9f80 4d3e
00000240: 3bd2 753e 9346 bc3e 7caa aabe 1c81 20bf
00000250: 77ce 133e cd59 0cbf 1613 39be 85aa 3a3f
00000260: afdd 093e 2768 1f3f f3f0 0d3e 1430 a43e
00000270: 2a89 293d 6ec2 81be 23df 223f bd0e 343f
00000280: 1780 d63e d680 3e3f 0f99 153f 1911 cd3e
00000290: a5a8 c73e 1721 8ebe f748 f9be 82e7 cd3e
000002a0: dd44 01bf 143d 28be 17d2 563e 3234 5a3e
000002b0: 32fd dc3e 0f77 98be cff5 f4bd 4049 373f
000002c0: cb30 e63d 6188 8ebe 53bf e8be 9751 303f
000002d0: b506 083f 7f3a fd3e 1d6a 26be d87a 18be
000002e0: 83d2 73be 34a6 bb3e d5be 1f3e 2677 b1be
000002f0: 022d cbbe 0641 26be 1d47 8ebe 9d8b bb3e
00000300: 547c 843e 4b71 883d 0123 44be 965d 303f
00000310: 1e51 97be 36ea 243f 9fc9 2e3f f540 dd3e
00000320: 0d34 09bf ae0c b53c e962 bc3e b9d2 72be
00000330: e064 c1be f972 f43e 53b3 b2be 58ae 06bf
00000340: e929 f3be e37c a5be ad19 f73e 966d 6dbe
00000350: 77bb abbd e52d 173f 7e41 663f e290 83be
00000360: ff25 b8be 8b0a 623f 64cb c6bc 754a 2e3f
00000370: ec94 0e3f 5f64 b4be f6cb 4c3e 7b2f 243d
00000380: dc08 08be 74f3 1e3f 8826 dd3e 7caa aa3e
00000390: 03cf 67be ea58 91bd d926 4cbe 7009 ee3a
000003a0: 99c2 f73e 1734 bd3e 7fe9 bb3d e1f3 f53e
000003b0: d5cf fd3e 8c4a a83e 073d c13d 704b ecbd
000003c0: 5056 0ebe 5343 983e 5785 29be 56e5 4d3d
000003d0: eb11 113f 8241 033e 188e c13e 66a7 9a3d
000003e0: b862 953e 584c 81be 638a 263f 89cf 2ebf
000003f0: 4c61 bdbd 28d0 c9be c821 a3be 2a0c 033e

aggregator.full.bias f4 [16]
0.30817863 0.3850341 0.2536338 0.46109688 0.40782613 0.18369828 0.2934442 0.3278669
0.2649927 0.26231048 0.33038262 0.31786716 0.38117483 0.32434592 0.1980286 0.31604642
00000000: 97c9 9d3e 3123 c53e 4adc 813e e414 ec3e
00000010: 96ce d03e 671b 3c3e 513e 963e 2cde a73e
00000020: 20ad 873e 8f4d 863e e927 a93e 7cbf a23e
00000030: 5929 c33e ab10 a63e 02c8 4a3e d6d0 a13e

mean.full.weight f4 [7, 32]
0.80407953 -1.1691843 -0.57443976 -0.9439853 1.0368806 -0.9108238 -1.2029018 -0.08244461
1.1486672 0.756105 1.0652987 -1.2113017 1.0244814 1.2247959 -1.1890368 -0.60386974
0.49729636 -0.39520934 0.23856929 -0.7603468 -0.44437858 -0.15796778 -0.8207276 0.054474737
0.7253542 0.24415718 0.76513445 -0.3233159 0.50983083 1.0486131 -0.24344942 -0.8886492
-1.2706771 -1.1043922 0.04746422 0.16176248 -1.3134321 -0.2521566 -0.987798 1.1429987
0.001548819 -0.56845546 0.63031167 0.40836373 1.0677897 -0.69196683 0.32285854 -1.300222
-0.86793226 0.7041406 -0.49699953 0.6799379 -0.74524856 -0.35792834 -0.050044503 0.6753545
0.40857667 -0.52850467 0.51879424 0.6467865 0.59324706 0.09177911 0.017084947 -1.096164
0.5938153 0.8814342 -0.47309396 1.0656122 0.91865075 1.0196481 0.7742272 -0.5250349
-0.97982323 -0.75870365 -0.94097126 0.60075235 -1.0361964 -0.8541092 -1.0939637 -1.1058054
0.7145817 0.7497434 -0.92773783 0.8682502 0.4173065 0.37759182 -0.35366684 -0.9791934
-0.8440182 -0.52610266 -0.62026983 0.26679114 -0.37539306 -0.5107771 -0.491972 -0.49328843
-0.19192189 0.25140125 -0.8738839 -0.71767086 -0.8540996 1.0704768 0.7563389 -0.85108185
0.954998 0.7798292 -0.4916392 1.0375777 -0.5444288 0.05455023 1.1276417 0.25338128
-0.5644091 -0.096402675 0.22716047 -0.89778316 0.15805617 0.82254076 0.5073676 -0.37239328
0.6594505 0.6369874 0.5585406 0.7710181 -0.02989405 -0.6105477 0.7284799 0.29191402
0.07311685 0.95035887 1.0073458 1.0877259 -0.75741565 -0.784219 0.14534044 -0.6577942
-0.9547354 0.16687348 0.9370045 -1.0983366 -1.0090561 0.90559435 0.83046186 0.5913842
0.52934694 -0.55181575 0.7617332 0.30950347 -0.90536124 -0.46635962 0.5338505 -0.23728836
-0.7265567 0.45291504 0.7728436 -0.9903959 -0.68272954 0.97213894 0.34791553 0.73510474
-0.7477017 -0.85236555 1.115195 0.9707324 0.94532716 -0.54834026 -1.0235236 0.38176277
1.0615805 -1.2146754 -1.1991357 0.7748008 -0.9481021 -1.2111844 -0.57584214 1.1076161
0.19934973 -0.88237244 0.24261396 0.33135298 0.08338616 -0.89194626 -0.9949602 0.55872965
0.63839614 -1.0207511 -0.80928946 0.6049358 0.19335432 -0.29825312 -0.8203043 0.87217194
-0.6795116 0.74096304 -0.8453743 -1.2133001 0.87431955 -0.89209 0.24142222 0.9364042
-0.2935296 0.47688532 -1.1654677 -1.0703094 0.8148836 0.41782057 -0.060320113 0.6789231
-0.72354007 0.81602585 -0.8599911 -1.1340282 0.7452587 -0.82972306 0.12570035 0.8892916
-0.8352513 -0.18190269 -0.979798 -0.65335155 0.47620013 -0.31368607 -0.85645753 0.51229674
00000000: 28d8 4d3f d5a7 95bf 7c0e 13bf 05a9 71bf
00000010: 81b8 843f c02b 69bf b0f8 99bf b8d8 a8bd
00000020: 8707 933f 1990 413f b55b 883f ef0b 9bbf
00000030: 3522 833f 1dc6 9c3f 5c32 98bf 3597 1abf
00000040: a19d fe3e e158 cabe 824b 743e 16a6 42bf
00000050: 9785 e3be 4ec2 21be 341b 52bf e720 5f3d
00000060: d0b0 393f 5704 7a3e dadf 433f a989 a5be
00000070: 4684 023f f438 863f ce4a 79be 847e 63bf
00000080: 8ca5 a2bf b95c 8dbf d869 423d 10a5 253e
00000090: 8b1e a8bf ab1a 81be 54e0 7cbf c84d 923f
000000a0: be01 cb3a 4c86 11bf 1b5c 213f 0d15 d13e
000000b0: 55ad 883f bd24 31bf b74d a53e ad6d a6bf
000000c0: cf30 5ebf 8f42 343f b976 febe 6910 2e3f
000000d0: 9cc8 3ebf 6242 b7be 77fb 4cbd 08e4 2c3f
000000e0: f630 d13e 154c 07bf b3cf 043f cd93 253f
000000f0: 0adf 173f b0f6 bb3d bbf5 8b3c 1a4f 8cbf
00000100: 4804 183f aca5 613f 5f39 f2be fb65 883f
00000110: b22c 6b3f d483 823f c133 463f b068 06bf
00000120: b2d5 7abf 673a 42bf 7ee3 70bf e8ca 193f
00000130: 15a2 84bf e7a6 5abf 0107 8cbf 088b 8dbf
00000140: d4ee 363f 2fef 3f3f 3a80 6dbf a545 5e3f
00000150: 33a9 d53e b753 c13e d213 b5be 6bac 7abf
00000160: 9411 58bf aaae 06bf 01ca 1ebf d998 883e
00000170: 8533 c0be 4ac2 02bf c1e3 fbbe 4d90 fcbe
00000180: 2c87 44be aab7 803e dbb6 5fbf 47b9 37bf
00000190: 45a6 5abf 6205 893f 6d9f 413f 80e0 59bf
000001a0: c07a 743f e3a2 473f 22b8 fbbe 59cf 843f
000001b0: b05f 0bbf 1070 5f3d 9056 903f 31bb 813e
000001c0: 1d7d 10bf c46e c5bd c19c 683e 1ed5 65bf
000001d0: 7ad9 213e 0892 523f d8e2 013f 55aa bebe
000001e0: bfd1 283f 9b11 233f 84fc 0e3f 7161 453f
000001f0: 5ee4 f4bc db4c 1cbf a97d 3a3f c175 953e
00000200: 49be 953d b84a 733f b5f0 803f 9a3a 8b3f
00000210: fee5 41bf 94c2 48bf 20d4 143e 3365 28bf
00000220: 8a69 74bf e2e0 2a3e 87df 6f3f 4b96 8cbf
00000230: c028 81bf 08d5 673f 2699 543f f464 173f
00000240: 4883 073f cc43 0dbf f200 433f 3d77 9e3e
00000250: c1c5 67bf b0c6 eebe 6daa 083f b8fb 72be
00000260: 9fff 39bf 7be4 e73e 14d9 453f 968a 7dbf
00000270: 5dc7 2ebf 19de 783f fc21 b23e d32f 3c3f
00000280: 6169 3fbf a134 5abf b6be 8e3f eb81 783f
00000290: f600 723f 0760 0cbf d202 83bf 6976 c33e
000002a0: dfe1 873f 7c7a 9bbf 477d 99bf 5859 463f
000002b0: d2b6 72bf 1708 9bbf 646a 13bf 5dc6 8d3f
000002c0: 5622 4c3e 29e3 61bf cb6f 783e 19a7 a93e
000002d0: 5dc6 aa3d 9756 64bf b6b5 7ebf e808 0f3f
000002e0: ee6d 233f f9a7 82bf 982d 4fbf 13dd 1a3f
000002f0: adfe 453e a2b4 98be 76ff 51bf a946 5f3f
00000300: 79f4 2dbf c1af 3d3f 736a 58bf 6b4d 9bbf
00000310: 68d3 5f3f 0360 64bf 6337 773e 30b8 6f3f
00000320: 8349 96be 502a f43e 0c2e 95bf e6ff 88bf
00000330: 369c 503f 94ec d53e 3912 77bd e7cd 2d3f
00000340: ec39 39bf 12e7 503f 6028 5cbf d627 91bf
00000350: 46c9 3e3f bb68 54bf 98b7 003e 9da8 633f
00000360: 07d3 55bf b344 3abe 0bd4 7abf 0c42 27bf
00000370: 81d0 f33e 769b a0be cd40 5bbf e125 033f

mean.full.bias f4 [7]
-0.07326379 0.12264302 0.37443316 -0.016299864 -0.27853224 0.0002474314 -0.067732066
00000000: 530b 96bd 432c fb3d b4b5 bf3e 4b87 85bc
00000010: c79b 8ebe aeb9 8139 1cb7 8abd
