best_model/loss/pubmed_dropout=0_wd=0_b=256_lr=0.01_walk=0_best_model.pt (torch_old, 33191 bytes, 4 tensors)

aggregator.full.weight f4 [16, 500]
000000 9d 30 c9 3e 3f 8e 50 3f 14 d0 ce 3d ca 15 c5 3d
       0.39294901 0.8146705 0.100982815 0.096232966
000010 f9 2f 09 3f df e1 8e 3b 22 03 cb be ae e4 a2 3e
       0.53588825 0.004360422 -0.39650828 0.31815094
000020 77 a8 0c bf 23 46 f4 3e 19 a4 91 3e ed bb 25 bf
       -0.54944557 0.4770976 0.2844551 -0.64739877
000030 fc c4 62 3e ff e7 90 be 36 a4 a8 3e 36 87 37 be
       0.22145456 -0.28302 0.32937783 -0.17922673
000040 2a 17 1b 40 de ac 21 bd da 08 a0 be 4e b2 8b be
       2.4232888 -0.0394715 -0.31256753 -0.27284473
000050 e0 69 1d 3e 7d 51 55 bf 8b a6 bd 3e 8f 94 61 bf
       0.1537242 -0.83327466 0.37041125 -0.8811731
000060 04 f2 5c 3e 39 36 5e bf 6a 49 c6 3e 20 0e 91 3e
       0.21576697 -0.8680149 0.38727885 0.2833109
000070 05 b9 b5 3e d5 fd 41 3f ab 05 9a 3e 99 4c 18 3e
       0.3549272 0.7577794 0.3008245 0.1487297
000080 8d 03 0f 3e ad bf 87 be 4b 4a d5 3e 8c 02 c3 be
       0.13966198 -0.26513425 0.41658244 -0.3808788
000090 22 84 9c 3e 32 4d 13 3f 6c 35 1c 3f 6b e3 43 bd
       0.3056956 0.57539666 0.61019015 -0.047824305
0000a0 60 47 68 be 38 4e 15 3f 5a c2 d4 be 76 3e 23 3e
       -0.22683477 0.5832248 -0.41554528 0.15941796
0000b0 90 95 42 3f 18 7e 0f 3f 91 fe da 3e 25 bd 81 3e
       0.76009464 0.5605178 0.42772344 0.25339618
0000c0 e2 a7 be be 99 3c ee 3e e5 58 94 be 30 8f 8e bd
       -0.3723746 0.46530607 -0.2897407 -0.069609046
0000d0 59 00 f4 3e 6e 71 47 bf df 8e cb 3e 3c 60 96 bf
       0.47656515 -0.77907455 0.3975744 -1.1748118
0000e0 e6 bc fc be a8 19 c2 3e f5 1e fb 3e 1d ff 04 bf
       -0.49362868 0.379102 0.49047056 -0.5195177
0000f0 6b 20 8e 3e 70 f8 ce be c6 a9 11 be 61 f1 e7 be
       0.27759108 -0.40423918 -0.1422492 -0.45301345
000100 36 5d 98 3e 56 cb b0 3e 39 2e 79 be 53 9c 72 3f
       0.29758614 0.34530133 -0.24334039 0.9476978
000110 1d 72 31 3f e3 b0 b8 3f d8 96 96 3b cb ae 24 3e
       0.6931475 1.4428982 0.0045956187 0.16082303
000120 55 b6 6e be 38 99 48 3f c4 0d c2 bd 69 ab 7f bf
       -0.23311742 0.78358793 -0.09475282 -0.99870926
000130 c8 fd 4d be e5 83 64 be 83 b7 26 3e f4 8e 01 3e
       -0.20116341 -0.22315939 0.16280942 0.12652189
000140 7d 19 ad be 75 6f f4 3e fc 2b 63 be 6b 5f f9 be
       -0.3380851 0.47741285 -0.22184747 -0.4870561
000150 65 05 c5 3d 08 fd 25 3f 76 d6 df be 6c a1 6d 3f
       0.096201696 0.6483922 -0.43718308 0.92824435
000160 42 03 95 3e ef df a5 3e 74 a6 ac 3e 9f b9 52 be
       0.29104048 0.3239741 0.33720744 -0.20578621
000170 6c 10 fa be 8d 23 0b 3f c0 e3 fa bd a8 46 5b 3e
       -0.48840654 0.5435112 -0.12250471 0.21413672
000180 2a b7 ba 3e 6d 77 37 3e 45 ec 04 bf 6d c1 c5 3e
       0.36467868 0.17916651 -0.5192302 0.38624135
000190 c6 cd ae bc 9c 86 c3 3e b8 b1 af 3e af b0 0a be
       -0.021338355 0.38188636 0.34315276 -0.13543962
0001a0 f1 3e 45 be d8 a0 2c 3f 1e 3a 83 3e aa f9 9c 3e
       -0.19262291 0.6743293 0.25630277 0.3065923
0001b0 4e 19 17 bf 2d 0b 19 3f 41 04 52 3f 52 38 a2 be
       -0.59022987 0.5978268 0.8203774 -0.31683594
0001c0 59 b2 cd be 14 0a ed be e3 2f 91 be 13 4e cb b9
       -0.4017513 -0.46296751 -0.28356847 -0.00038777347
0001d0 a5 24 43 3e 82 3a 02 3f f4 fa 0e 3f 76 00 1b 3d
       0.19056948 0.50870526 0.55851674 0.037842236
0001e0 08 00 0e 3e 58 5f d2 be 10 14 f9 bd ac 6b 56 3f
       0.138672 -0.41088367 -0.1216203 0.83758044
0001f0 ff 3f 07 3f f7 7d 82 3e 9f f7 ac 3e c9 80 f8 be
       0.52832025 0.2548673 0.3378267 -0.48535755
000200 43 4e 0c be f4 fe 19 3f 8d 21 9b 3b 7d b7 61 3e
       -0.1370173 0.6015465 0.004734224 0.22042651
000210 52 18 8e 3e a5 7a ce 3d 43 83 ab 3e b5 a2 3d bd
       0.2775293 0.10081986 0.33498582 -0.046297748
000220 c5 b9 9f 3d db 0a fe 3e d0 00 44 be 55 fc 28 c0
       0.077991046 0.49617657 -0.19140935 -2.6404011
000230 c0 16 7a bd be ed 19 bf af 1e 91 3e 88 30 4f 3f
       -0.061056852 -0.6012839 0.28343722 0.8093343
000240 f6 82 f1 3e 50 bf 23 bd c5 18 1c be 62 00 bd 3e
       0.47170228 -0.03997737 -0.15243824 0.36914355
000250 2a f1 2d 3f f5 ca 71 3e c0 c1 2f 3f 48 dd f4 3e
       0.6794611 0.23612578 0.68655014 0.47825074
000260 0e 76 13 3f 96 cf 46 bf 3f 4c d3 be 54 42 ad bd
       0.5760201 -0.776605 -0.4126911 -0.08459917
000270 0d 11 59 3e 0b 7d 4f be a4 f3 4e 3e d3 08 82 3e
       0.2119791 -0.20262544 0.20210129 0.25397357
000280 56 c2 0a 3f 79 5a 1c 3d 0d c4 41 bd 9e cf a1 be
       0.54202783 0.03817222 -0.04730611 -0.31603712
000290 62 24 a6 be cf 45 f6 3e 36 c5 c0 be fb 64 a9 3f
       -0.32449633 0.48100135 -0.3765046 1.3233942
0002a0 c1 f0 c0 be 0b 10 48 3f 55 d0 f5 be ae ff f2 3e
       -0.3768368 0.7814948 -0.48010507 0.47460693
0002b0 a4 4f ce 3e d1 db c9 3e 63 53 06 3e b8 48 1f 3f
       0.40295136 0.3942552 0.13117747 0.62220335
0002c0 c9 b5 dd 3d 16 b1 06 be 72 5c 76 3e 85 f1 b1 3c
       0.108256884 -0.1315349 0.24058703 0.02172161
0002d0 d5 d2 25 3e d4 27 a3 3e 08 14 eb 3e 87 61 38 bd
       0.16193707 0.31866324 0.4591372 -0.045014884
0002e0 37 88 65 bf 17 82 27 bf d5 3e a2 3e 7a b2 77 3e
       -0.8966097 -0.65432876 0.31688562 0.24189177
0002f0 b2 da 71 bd a8 76 27 3e fa 15 af bc 8d 89 ec 3d
       -0.059046455 0.16353858 -0.021372784 0.11549673
000300 50 2e 56 3f 7f 59 a9 be 58 be 99 bd 70 bd 2d 3e
       0.8366442 -0.33076093 -0.07507008 0.16966796
000310 e6 a7 73 3d 46 e4 15 3e 34 52 9f 3e 45 db 12 bf
       0.059486292 0.1463786 0.31117404 -0.5736583
000320 52 e4 9d bf 6f 2d 27 3f c2 5f bc 3d e8 09 5a 3e
       -1.2335303 0.653037 0.09197952 0.21292841
000330 39 db 17 be 11 cb 3d 3e 2b 1c 95 3f a1 63 d8 3c
       -0.1482972 0.18534495 1.1649221 0.026414694
000340 de 7a 2b 3e d6 6f 55 3f 1b c3 a0 3e ae 9b 80 3f
       0.16746089 0.83373773 0.31398854 1.004751
000350 9e 3f f5 3e 46 7f 79 3f 82 64 89 3d 2d a3 25 3e
       0.479001 0.9745983 0.067086235 0.16175528
000360 53 f8 4a 3e 3d 13 30 3f 62 a9 22 3f d7 85 25 3f
       0.1982129 0.68779355 0.6353971 0.6465735
000370 cd 98 93 3e 37 ef 3a 3e e4 54 02 bd e3 56 33 be
       0.28827515 0.18255316 -0.03181924 -0.17513613
000380 4c e3 79 3e 68 2d d7 3e 59 9e 13 3f d3 e1 dd bc
       0.24403113 0.4202683 0.57663494 -0.02708522
000390 71 e5 ae 3d cc 31 f9 3e 0d 0a 45 3f 3b 67 b6 3e
       0.08539856 0.48670805 0.7696846 0.35625634
0003a0 18 e5 38 bd 0a 59 98 3d 27 a9 3b be 75 93 93 3f
       -0.045140356 0.07438858 -0.18326245 1.1529375
0003b0 2c 92 07 3e 1b e0 34 3f 97 c8 93 3b fa ce 02 40
       0.13239354 0.7065446 0.004509996 2.0438828
0003c0 86 67 06 be 62 27 a5 3e c9 1b a2 3e 83 90 0a 3f
       -0.13125429 0.3225661 0.31661823 0.5412676
0003d0 17 96 2a 3f a0 b3 22 3e fa 80 bb 3e 91 b9 1f bf
       0.6663527 0.15888834 0.3662184 -0.62392527
0003e0 a9 70 10 3f 95 57 65 bc 43 ef 0f be a0 a6 d9 3e
       0.56421906 -0.013997932 -0.14056115 0.42509937
0003f0 52 88 ac be 96 39 8f 3f 1b 02 ad bd d9 71 8f 3e
       -0.33697754 1.1189449 -0.08447667 0.28016546

aggregator.full.bias f4 [16]
000000 68 74 74 3e fe ab 6e 3e 40 75 1c 3e 5d 4a a7 3e
       0.2387253 0.23307797 0.15279102 0.32673922
000010 22 fd 91 3e e0 3a 31 3e 90 b7 56 3e fc de 51 3e
       0.28513438 0.17307615 0.20968461 0.20495218
000020 a8 f3 47 3e a2 f4 5b 3e f5 61 5c 3e b2 de 92 3e
       0.19526541 0.21480039 0.21521743 0.28685528
000030 77 91 02 3e 8d 4c 46 3e 7d a8 11 3e 11 6c 54 3e
       0.12750803 0.1936514 0.1422443 0.20744349

mean.full.weight f4 [3, 16]
000000 03 d3 59 be d1 7b 8f bf b1 f5 8c bf 58 36 bd 3f
       -0.21271901 -1.1209661 -1.1012479 1.4782209
000010 55 7c b7 3f f5 f0 ae bf 90 d0 be bf 7a e1 e3 bf
       1.4334818 -1.3667284 -1.4907398 -1.7803185
000020 a3 75 23 bf 5c 92 8a bf e6 79 a7 bf d9 7a 84 3f
       -0.63851374 -1.0825915 -1.3084075 1.034999
000030 e8 78 02 bd b4 81 b1 bf 81 1c cc 3e ee be d6 bf
       -0.031853586 -1.3867707 0.39865497 -1.6777017
000040 b5 d7 c0 3f 6d 7a 50 3f 41 32 dc 3f 97 9f 94 bf
       1.5065829 0.81436807 1.7202836 -1.1611203
000050 e0 28 b3 bf 2f 4a c9 3f 24 7c 69 3f 48 2d 21 3f
       -1.3996849 1.5725764 0.9120505 0.6295972
000060 02 cc a1 3f ec 18 30 bf 70 2a 95 3c 7a fc dd bf
       1.2640383 -0.6878803 0.018208712 -1.7342675
000070 3a 06 eb bf e4 c1 c0 3f 93 ed e6 bf 8a 21 8f bf
       -1.8361275 1.5059171 -1.8041252 -1.118211
000080 d9 c5 c0 bf c3 95 c6 3f 26 13 9f bf 32 f7 11 be
       -1.5060378 1.5514454 -1.2427719 -0.14254454
000090 f9 6d 73 3c 3c 58 16 bf 2a 3c 3f bf 51 bb be 3f
       0.0148577625 -0.58728385 -0.7470118 1.4900914
0000a0 61 6a e7 bf 24 d0 f9 3f 2a 58 d6 3f bf 55 bc be
       -1.8079339 1.9516644 1.6745656 -0.3678417
0000b0 c0 9b f6 3f 4f 03 7c bf 6e 92 3e 3f 72 76 d1 3f
       1.9266281 -0.9844255 0.74442184 1.6364272

mean.full.bias f4 [3]
000000 a0 9d 61 3e 0d 71 87 3c 84 3f 7b be
       0.22032785 0.016533399 -0.24535948
