best_model/loss/pubmed_dropout=0_wd=0_b=256_lr=0.01_walk=4_best_model.pt (torch_old, 65383 bytes, 4 tensors)

aggregator.full.weight f4 [16, 1000]
000000 ca 54 3b 3e ad 5e 28 be f5 a2 09 bd ea 4d 54 3e
       0.18294063 -0.16442366 -0.033602674 0.20732847
000010 06 8d 14 bf f3 8c a0 be 87 10 eb 3d 14 5b 92 3e
       -0.58027685 -0.31357536 0.11477762 0.28585112
000020 ec fc 40 3f ee 4b b9 3d 10 72 ce 3d 33 b3 8a 3f
       0.7538593 0.090476856 0.100803494 1.0835937
000030 46 39 58 bf 7f 1c 16 3f 1d ee a4 bd 77 4d ef 3d
       -0.8446239 0.5863723 -0.08053229 0.11684697
000040 a7 2b 62 c0 eb 48 a3 be 9a a0 16 3d 9e 82 b0 be
       -3.5339143 -0.3189157 0.036774255 -0.34474653
000050 30 54 53 bb fd 87 1c 3f 08 f6 f8 3e c8 4c 56 3f
       -0.0032246225 0.61145 0.48625207 0.8371091
000060 77 f7 35 3e 8f b8 14 3f 3d 67 59 be 07 fe 20 be
       0.17770182 0.58094114 -0.21230789 -0.15721904
000070 69 62 43 3e 2b 8f 39 3e 5b 6f cb 3e fa 0a 85 be
       0.19080509 0.1812102 0.39733395 -0.25984937
000080 66 61 84 3e 5f 19 31 3e 4b 19 7d be 68 d9 7f 3e
       0.2585556 0.17294835 -0.2471668 0.24985278
000090 30 6a 07 3e 0b 95 a6 3e b9 00 38 be 1d ec d8 3e
       0.13224101 0.32535586 -0.17969026 0.4236764
0000a0 d8 03 8c 3e 6d 0e 26 3f 5a 14 1a 3f 17 3c 9d 3e
       0.27346683 0.6486576 0.60187304 0.30709907
0000b0 e2 79 50 bf 58 c6 1e be 88 a1 41 3e 48 6e f5 be
       -0.8143598 -0.1550535 0.18909276 -0.479357
0000c0 de 6f ad 3c e8 dd 0e be ff d1 2f 3e 0c 7b 13 3d
       0.021171506 -0.13951838 0.17169951 0.03600602
0000d0 a0 a2 24 3d c3 61 a2 3e cd a8 8f 3d 7d d3 ce 3e
       0.040194154 0.3171521 0.07014618 0.40395728
0000e0 e7 ab 8b 3e da 27 be be 10 7b 4e 3e cc 0d 80 3d
       0.2727959 -0.3713978 0.20164132 0.062526315
0000f0 5e e7 be 3d fa b0 22 3e 6e 1b fb 3d cc d3 e4 bd
       0.093214735 0.15887824 0.12261091 -0.111732095
000100 92 fc ec be 32 4a 93 3e 17 de 19 bf b1 6f dc 3c
       -0.46286446 0.28767544 -0.6010451 0.026908727
000110 bb 36 07 3e 53 2a 17 bf be 0e 0d 3e 74 dd 35 bf
       0.13204472 -0.59048957 0.13775155 -0.71041036
000120 a7 ce 0e 3f 75 bc c1 be 36 a3 80 bd 31 1f a1 3e
       0.55784076 -0.37839094 -0.0628113 0.3146911
000130 4c 48 c9 3e fb f2 6d 3f 19 94 89 bd bd f6 f3 3e
       0.3931297 0.92948884 -0.067177005 0.47649184
000140 ca 73 4d 3d 0c aa 64 be 14 fd 91 3c 51 95 b8 3c
       0.050159253 -0.22330493 0.017820872 0.022532137
000150 58 a3 73 bd fd 29 8d bc b5 17 3a 3e 22 f2 19 bf
       -0.05948195 -0.017231936 0.18173106 -0.6013509
000160 2a fd 9c 3e 15 fd ce be 61 a3 e4 3e 07 50 4b 3e
       0.306619 -0.4042746 0.44655898 0.19854747
000170 d1 32 00 3f 28 e3 0f 3e f3 6b 8f 3e 9d d9 51 39
       0.5007754 0.14051497 0.28012046 0.0002001286
000180 1b 8a 0b 3d 5e 6f 03 3f bf 38 84 3e b6 18 15 3e
       0.034067255 0.5134181 0.25824544 0.14560208
000190 73 9f 11 be 1a 1a ae bd ad be 8b bd 1c 13 30 be
       -0.14220981 -0.08501072 -0.06823478 -0.1719479
0001a0 15 14 09 3e 62 1c 0e bf 1d 2e 09 3e 99 66 ae 3e
       0.13386567 -0.5551206 0.13396497 0.3406265
0001b0 1e 99 23 3f 05 d8 92 3e ac 19 3c bf 6f 96 22 bc
       0.63905513 0.28680435 -0.7347667 -0.0099235615
0001c0 f7 08 18 3f 33 c9 df 3e 4d 03 03 bd 5f d5 46 3d
       0.5938868 0.4370819 -0.03198557 0.04854333
0001d0 0f 37 a7 3e 8c f3 64 3e 1f 45 26 bb 3d 81 42 3f
       0.32659194 0.22358531 -0.002537079 0.7597845
0001e0 4a 93 50 be f3 56 70 3e bc 9d d8 3d ea bb e5 be
       -0.20368686 0.23470668 0.105769604 -0.4486993
0001f0 35 5b 28 3e 30 76 cb 3e c3 20 64 3e 1a ac d1 bd
       0.16441043 0.39738607 0.22278123 -0.10237904
000200 a7 65 04 3f cd 79 65 be 5b 5d 33 3d ad 4b 72 3d
       0.5171761 -0.22409745 0.043790203 0.0591542
000210 11 c6 45 be 53 20 eb 3e 3f 8c b5 3e 56 02 94 3d
       -0.19313838 0.459231 0.35458562 0.07227008
000220 0d d1 84 be 1a fc 71 bd 79 ee 13 bd 9a de 3a 40
       -0.25940743 -0.059078313 -0.036116097 2.9198365
000230 26 6d ff 3e 3c 69 8e be 9f 9a ef bd 1a 24 14 3f
       0.4988796 -0.27814662 -0.116994135 0.57867587
000240 30 99 0e 3e ec b4 08 3f a4 79 c7 3d c7 82 8c be
       0.13925624 0.53401065 0.09739998 -0.27443525
000250 25 b5 60 be 6b 60 2b 3f 55 05 31 3f 3d cc 3c 3e
       -0.21944101 0.66944 0.6914876 0.18437286
000260 6c 90 d6 bd 04 d5 67 3d 9e 14 29 3e b5 6b d3 3c
       -0.10476765 0.056599632 0.16511771 0.025808195
000270 ef 1b 7f 3e f0 b3 f6 3e 20 84 f9 bd 57 8b a8 3e
       0.24913 0.48184156 -0.12183404 0.32918808
000280 19 f5 7d 3e ef ea aa 3d b9 fa 0d 3f d3 48 1f 3f
       0.24800529 0.08345591 0.554607 0.62220496
000290 04 6f 41 be 6a f7 5e bc 8a e7 b7 3e 10 2c c1 bf
       -0.18890005 -0.013608793 0.35918838 -1.5091572
0002a0 37 0f 9d 3e 50 ca dd 3e 89 c6 be 3e 8a d2 a8 3e
       0.3067567 0.43318415 0.37260845 0.3297313
0002b0 f2 54 7a bb 05 66 bc 3d 9e 28 c4 3e 2a 10 82 3e
       -0.0038197604 0.09199146 0.38312238 0.25402957
0002c0 2a ca e8 3e a0 52 c8 be 61 36 86 3e 5f 9c 73 3d
       0.4546674 -0.39125538 0.26213363 0.0594753
0002d0 13 50 56 3d cd 07 05 bf 71 a1 b7 bd 1e 12 48 3e
       0.05232246 -0.5196503 -0.089663394 0.19538161
0002e0 90 98 19 40 59 7f b9 be 77 cc d4 bd 8e 3f ee bc
       2.3999367 -0.3622997 -0.10390561 -0.02908304
0002f0 bb a4 d1 3e e3 7c 9e 3e 58 21 b9 3d f9 15 c4 bc
       0.40945992 0.30954656 0.09039563 -0.023936259
000300 66 f7 bc 3e 0b e5 24 3e 82 14 e8 be 92 15 ae be
       0.369075 0.16102998 -0.45328146 -0.34000832
000310 b3 87 d3 bb a8 4a f6 be 55 71 a0 be c9 17 4d 3b
       -0.0064553856 -0.48103833 -0.31336465 0.0031294695
000320 b0 79 0a 3f 27 8b 9f be 54 6b 43 be fa e5 25 be
       0.5409193 -0.31160852 -0.19083911 -0.1620101
000330 40 ae 4a be 7e 66 92 be 40 bc 32 bf 60 44 53 3e
       -0.19793034 -0.2859382 -0.69818497 0.20631552
000340 5d a2 38 3f 05 da c9 3e e8 50 ac bd 05 1e e7 be
       0.72122747 0.39424148 -0.08413869 -0.4514009
000350 e2 bb 3f be c9 4f 1f bf 0a 90 12 3f d3 ac d4 bd
       -0.18724015 -0.6223112 0.57251036 -0.10384526
000360 10 51 83 be fb 91 bd be 2e ae 92 3d 50 1d 8d 3d
       -0.25647783 -0.37025437 0.071621284 0.068903565
000370 b6 fa 8c 3e ac d0 07 3e 4a c8 3a 3e e0 b1 6c be
       0.27535027 0.13263196 0.18240467 -0.23114729
000380 aa 24 83 3e 55 ed a1 be 00 f5 05 bf b3 c8 fc be
       0.2561391 -0.31626382 -0.52326965 -0.4937187
000390 92 5a a0 3e db 7f c7 be 1c 8f 08 3e 22 2e 4a be
       0.313191 -0.38964733 0.13335842 -0.19744161
0003a0 69 e3 c8 be 01 c5 2d 3f ba cd b9 3d 4a 93 90 bf
       -0.39236 0.6787873 0.09072442 -1.1294949
0003b0 a1 3a bc 3e 61 b6 52 bf 60 4d f3 be a5 3f 0c c0
       0.3676348 -0.8230954 -0.4751997 -2.1913846
0003c0 83 6f e2 3e f6 34 11 3c 06 3b de 3e 48 b4 8c be
       0.44225702 0.0088627245 0.43404406 -0.27481294
0003d0 d8 1d a3 3c 1b 14 9c 3e c5 98 de be 5f 39 54 3e
       0.019911692 0.3048409 -0.4347593 0.2072501
0003e0 92 7d a7 3b df 0b 5b 3d 99 b2 93 3e 07 25 02 bf
       0.0051114047 0.053478118 0.28847197 -0.5083775
0003f0 f9 5f ca 3e 40 3e 74 bf 4f 34 46 bd 44 a6 06 3f
       0.39526346 -0.95407486 -0.04838973 0.5259745

aggregator.full.bias f4 [16]
000000 73 cb dd 3d 4f d5 30 3e f2 a5 10 3e 83 d5 53 3e
       0.108298205 0.17268871 0.14125803 0.20686917
000010 12 10 59 3e 7b e7 08 3e 85 bb 0f 3e 77 1a 4e 3e
       0.21197537 0.13369553 0.14036377 0.20127283
000020 67 af 40 3e 5a d5 03 3e f1 54 86 3e 79 95 f5 3d
       0.1881691 0.12874356 0.2623668 0.119914
000030 0e 5f 40 3e fe 30 7b 3e 9b 2d 21 3e cb 2f f7 3d
       0.1878626 0.24530408 0.15740053 0.12069663

mean.full.weight f4 [3, 32]
000000 08 1b fc 3e aa d8 c8 3f 9f bb 52 3f 9b 8c ab bf
       0.49239373 1.5691121 0.8231754 -1.3402284
000010 fc 14 8a bf 6a fb ac 3f cd 68 5a bf f2 f1 b8 3f
       -1.0787654 1.3514225 -0.85316163 1.4448836
000020 80 f0 86 3f 73 77 7f 3f c7 15 b6 bf 92 cc 3e be
       1.0542145 0.9979164 -1.4225396 -0.18632725
000030 b7 97 94 bf df e4 9d bf 2d dd a9 bf c1 83 fc 3e
       -1.16088 -1.2335471 -1.3270622 0.4931927
000040 87 62 26 3f 2e 03 cb be 73 6a fc 3d 37 eb 6e be
       0.6499409 -0.39650863 0.12324991 -0.23331915
000050 6f dd 19 be c0 da 7f 3e fd a6 78 be b2 99 e1 be
       -0.15025876 0.2498579 -0.24282451 -0.44062573
000060 76 4e a2 be 09 64 de 3e 1d cd 2b 3d 00 cd 3a bf
       -0.31700486 0.43435696 0.04194366 -0.72969055
000070 30 14 ca be b5 10 bd 3c d3 1d 1a be c1 09 6a be
       -0.39468527 0.023079256 -0.1505044 -0.22855283
000080 53 20 38 c0 e5 24 ae bf 7f ff 64 3f 92 53 7b bd
       -2.876973 -1.3605009 0.89452356 -0.061358996
000090 d4 d3 5b 3f 1b 2c f4 be ab d0 3c bf 0d 66 8e bf
       0.858701 -0.476899 -0.737559 -1.1124893
0000a0 43 56 49 bf 79 78 b8 bf a5 47 5d 3c 03 2a ab 3f
       -0.7864725 -1.4411765 0.013505851 1.3372196
0000b0 fb 99 20 3f 02 1a 40 3f f1 c4 1d bf d5 43 d6 bf
       0.62734956 0.75039685 -0.61628634 -1.6739451
0000c0 70 b9 2f 3e bc fa 4d 3e 1d fb b9 3e 5b 88 55 bd
       0.17160583 0.20115179 0.36324397 -0.05213199
0000d0 d8 15 3d 3f 90 3d 17 3d c1 e6 b7 bd 4d 5d 84 3c
       0.73861456 0.036923945 -0.0897956 0.01615777
0000e0 f3 4d 1c be 6b 5e 6d be f2 3b 95 bb 7f f7 db 3e
       -0.1526411 -0.23180549 -0.004554265 0.42962262
0000f0 79 b5 11 3f 5c 0c b9 3e 0b 02 10 bf ab 02 c4 3c
       0.5691753 0.36142242 -0.5625312 0.023927053
000100 72 80 ae 3f e5 7f 31 be 47 df 9c bf d2 b9 36 3f
       1.3632948 -0.17333944 -1.2255639 0.7137729
000110 25 87 4c bf b7 80 68 bf 5b 32 b2 3f 9c 10 ab bf
       -0.79893714 -0.90821403 1.3921617 -1.3364444
000120 b3 3a ba bf f5 e8 b7 3f 4b 9c 05 3f 25 c5 87 bf
       -1.4549164 1.4367968 0.5219161 -1.0607039
000130 15 ef 93 bf f9 5d c2 3e 6f d5 8d 3f 42 f9 d9 3f
       -1.1557337 0.3796232 1.108076 1.7029192
000140 ab b0 07 bf 5b 66 9c be ba 91 05 bf 3f 0e 3a 3e
       -0.5300395 -0.3054684 -0.52175486 0.18169497
000150 a4 1c e6 be 37 c4 d5 3e 4b 9a 0a 3f 77 91 c6 3e
       -0.44943726 0.41751263 0.5414168 0.38782856
000160 ee d2 92 3e 22 9e 40 3f 9a f9 09 3f 0c 3d 7f be
       0.28676552 0.7524129 0.53896487 -0.24925631
000170 df 12 23 bf b6 1e d1 3e 34 04 1c 3f 56 f5 fb 3e
       -0.6370067 0.40843743 0.60943913 0.49210614

mean.full.bias f4 [3]
000000 d6 aa 57 be a4 03 12 3e 66 ff 31 3d
       -0.21061262 0.14259201 0.043456458
