best_model/loss/pubmed_dropout=0_wd=0_b=256_lr=0.01_walk=5_best_model.pt (torch_old, 65383 bytes, 4 tensors)

aggregator.full.weight f4 [16, 1000]
0.24115832 -0.18618456 0.12385981 0.024365347 -0.270552 -0.30672923 0.24552633 0.26334584
0.8245755 0.092449695 0.19740312 1.043378 -0.7174677 0.69081604 -0.22462162 0.29944658
-3.1123452 -0.12080029 -0.0833622 -0.01127621 0.005578207 0.8058352 0.3971894 0.7307021
0.092907645 0.59935606 -0.10563677 -0.19805756 -0.11286778 0.28501177 0.388009 -0.40809536
0.07035358 0.032542713 -0.39100727 0.19947736 0.27723393 0.2983706 -0.27970177 0.546569
0.20768002 0.48683238 0.6276755 0.25821495 -0.7593069 -0.20022759 0.2700405 -0.46200743
0.08824186 -0.11637083 0.34950823 0.13037288 0.024643695 0.29995683 0.13148965 0.4499649
0.32448253 -0.47313884 0.2643312 0.29611295 0.11872343 0.22105089 0.23696238 -0.0743218
-0.45490816 0.45111507 -0.43533325 -0.011427465 0.15766543 -0.7012558 0.11567072 -0.644412
0.6715169 -0.4615992 -0.050492596 0.25859064 0.5372353 0.6568674 0.040557917 0.32951522
0.20023863 -0.3489872 -0.011003568 -0.046185017 -0.13843293 -0.0006763665 0.3494563 -0.9583445
0.37038064 -0.43881088 0.38451174 0.08890552 0.5819331 0.24792115 0.48053432 0.17371126
-0.17218854 0.31080326 0.28602156 0.15534027 0.06735942 0.13665712 0.0724963 -0.008328662
0.3050199 -0.28801236 0.1398349 0.23501988 0.49379238 0.22120377 -0.6377848 0.05406528
0.59593093 0.5232857 0.24196674 0.053423066 0.06963878 0.054043062 -0.010531624 0.56983733
-0.012509212 0.28907 0.11456957 -0.38566616 0.0853383 0.36141187 0.23928124 0.13930367
0.31819883 -0.0930244 0.034520384 0.02539302 -0.17293006 0.6044352 0.60743004 0.06094806
-0.12166548 -0.05635643 -0.13250402 2.7382715 0.24775426 -0.14967401 -0.20794356 0.3662956
0.25972757 0.34257567 0.18737629 -0.35719198 -0.3460175 0.59539753 0.7047027 0.2582318
0.19756731 0.38986808 0.22664821 -0.11584625 0.13612376 0.45687222 -0.111224845 0.3681208
-0.042151336 0.12902462 0.61427104 0.69714224 0.059257135 0.009628153 0.28824294 -1.283184
0.23702164 0.4802694 0.3252126 0.19239658 0.04095761 -0.120873496 0.17595163 0.22065924
0.5114112 -0.38982153 0.18700975 0.0063543026 -0.02683424 -0.6545018 -0.08001109 0.27718723
2.2119086 -0.21784468 -0.40022996 -0.022980245 0.32693467 0.26062003 0.1005364 0.10165259
0.31124943 0.42662314 -0.7031099 0.05381992 -0.30159488 -0.24065192 -0.41183817 0.08737611
0.7920617 -0.341594 -0.03180373 0.060166597 -0.06106034 -0.18774797 -0.70723367 -0.10249322
0.83037484 0.5579527 -0.041091003 -0.53027934 -0.1809061 -0.89068365 0.6200783 0.13612375
-0.26801586 -0.17074667 0.071692 -0.029249946 0.24156035 0.00507167 0.097656146 0.06541566
0.03007226 -0.3314345 -0.68576956 -0.31752047 0.33661613 -0.35846394 -0.13735116 -0.07880042
-0.23128873 0.24416137 0.07917928 -1.1436944 0.19814377 -0.6577454 -0.25719017 -1.9175833
0.20955157 -0.2653691 0.3376715 -0.35559684 -0.0913908 0.40388948 -0.09517058 0.08988891
0.0963712 -0.014124625 0.46000084 -0.37737235 0.38060364 -0.90512824 -0.00029035768 0.483039
00000000: 35f2 763e 2aa7 3ebe 36aa fd3d d699 c73c
00000010: cb85 8abe 9d0b 9dbe 416b 7b3e 44d5 863e
00000020: 6117 533f 4456 bd3d 0b24 4a3e 698d 853f
00000030: f7ab 37bf 52d9 303f 3603 66be 1051 993e
00000040: aa30 47c0 2466 f7bd cdb9 aabd dabf 38bc
00000050: 64c9 b63b 374b 4e3f 695c cb3e 4b0f 3b3f
00000060: 5d46 be3d 666f 193f 1758 d8bd 9acf 4abe
00000070: 3927 e7bd 10ed 913e 1ea9 c63e e0f1 d0be
00000080: 8a15 903d 824b 053d 1b32 c8be cb43 4c3e
00000090: 9bf1 8d3e 08c4 983e 1235 8fbe f2eb 0b3f
000000a0: 12aa 543e 1842 f93e 57af 203f c034 843e
000000b0: f061 42bf 7608 4dbe c042 8a3e 3d8c ecbe
000000c0: 26b8 b43d d453 eebd bef2 b23e 7880 053e
000000d0: 93e1 c93c f193 993e 39a5 063e cd61 e63e
000000e0: 9322 a63e 413f f2be 6b56 873e 1e9c 973e
000000f0: 4525 f33d 2a5b 623e 44a6 723e 0736 98bd
00000100: b9e9 e8be 8ef8 e63e 00e4 debe 433a 3bbc
00000110: 0c73 213e 8085 33bf c5e4 ec3d 2ff8 24bf
00000120: 88e8 2b3f bb56 ecbe 53d1 4ebd fe65 843e
00000130: 4188 093f 7628 283f 0f20 263d 38b6 a83e
00000140: 5b0b 4d3e 73ae b2be 4f48 34bc 802c 3dbd
00000150: 5dc1 0dbe 304e 31ba f0eb b23e 1156 75bf
00000160: 88a2 bd3e d2ab e0be b9de c43e 1914 b63d
00000170: 91f9 143f 0bdf 7d3e 9808 f63e 5de1 313e
00000180: 3152 30be 9b21 9f3e 6b71 923e 8511 1f3e
00000190: bcf3 893d d8ef 0b3e f178 943d f174 08bc
000001a0: 912b 9c3e 5b76 93be e130 0f3e 0da9 703e
000001b0: 5bd2 fc3e 3e83 623e dd45 23bf 8e73 5d3d
000001c0: ee8e 183f 0df6 053f 21c6 773e 25d2 5a3d
000001d0: c79e 8e3d 425c 5d3d d58c 2cbc dce0 113f
000001e0: 70f3 4cbc fc00 943e 73a3 ea3d 0976 c5be
000001f0: d9c5 ae3d fa0a b93e 2406 753e 9fa5 0e3e
00000200: f5ea a23e 9483 bebd 3f65 0d3d 0605 d03c
00000210: 9414 31be 44bc 1a3f 8980 1b3f aca4 793d
00000220: c02b f9bd 00d6 66bd 22af 07be d73f 2f40
00000230: 4bb3 7d3e 2544 19be 28ef 54be 198b bb3e
00000240: 03fb 843e 1466 af3e 92df 3f3e dee1 b6be
00000250: 3529 b1be f96b 183f 6567 343f f536 843e
00000260: 164f 4a3e ca9c c73e 7816 683e cc40 edbd
00000270: 0764 0b3e 28eb e93e dac9 e3bd 547a bc3e
00000280: e1a6 2cbd 081f 043e de40 1d3f ea77 323f
00000290: 9cb7 723d 67bf 1d3c 9494 933e 603f a4bf
000002a0: cdb5 723e dfe5 f53e 4482 a63e 9c03 453e
000002b0: 2bc3 273d 868c f7bd aa2c 343e 7ff4 613e
000002c0: d8eb 023f b096 c7be 7c7f 3f3e c137 d03b
000002d0: 7bd3 dbbc 6e8d 27bf dbdc a3bd 7ceb 8d3e
000002e0: e98f 0d40 ad12 5fbe f1ea ccbe 1141 bcbc
000002f0: fb63 a73e fd6f 853e 07e6 cd3d 3c2f d03d
00000300: 165c 9f3e 596e da3e 03ff 33bf 4772 5c3d
00000310: a56a 9abe 756d 76be 74dc d2be 3ff2 b23d
00000320: 8ec4 4a3f 69e5 aebe a144 02bd 4071 763d
00000330: 681a 7abd 0141 40be 440d 35bf f7e7 d1bd
00000340: 7293 543f fdd5 0e3f 0a4f 28bd 63c0 07bf
00000350: 733f 39be d803 64bf 74bd 1e3f 0664 0b3e
00000360: 6039 89be 37d8 2ebe 41d3 923d 959d efbc
00000370: 995b 773e 4030 a63b f2ff c73d a5f8 853d
00000380: 1a5a f63c c8b1 a9be 988e 2fbf 0b92 a2be
00000390: f358 ac3e 9688 b7be c8a5 0cbe 1d62 a1bd
000003a0: f4d6 6cbe 7005 7a3e bf28 a23d 9464 92bf
000003b0: 33e6 4a3e 0162 28bf 6eae 83be 5f73 f5bf
000003c0: b094 563e 75de 87be 47e3 ac3e ca10 b6be
000003d0: 1a2b bbbd 9aca ce3e cbe8 c2bd ad17 b83d
000003e0: 445e c53d f96a 67bc 3b85 eb3e f336 c1be
000003f0: 7bde c23e 7cb6 67bf 263b 98b9 e350 f73e

aggregator.full.bias f4 [16]
0.10265737 0.17793371 0.17192371 0.19108953 0.1813517 0.14750366 0.16360475 0.1959013
0.18477096 0.12267797 0.23113401 0.16385044 0.18367723 0.27827048 0.18084443 0.12420728
00000000: 073e d23d 4134 363e c50c 303e f9ac 433e
00000010: 43b4 393e 330b 173e 0188 273e 5a9a 483e
00000020: 9934 3d3e 963e fb3d 65ae 6c3e 69c8 273e
00000030: e215 3c3e 7879 8e3e 482f 393e 6360 fe3d

mean.full.weight f4 [3, 32]
0.46227843 1.4334301 0.8009895 -1.297618 -1.0027817 1.2892336 -0.816788 1.3877231
0.98698163 0.983708 -1.3658043 -0.38768485 -1.154691 -1.1520101 -1.2677046 0.5598348
0.5121509 -0.3427445 0.0911862 -0.19296348 -0.08225933 0.22378793 -0.17851634 -0.41105264
-0.29695144 0.43360794 0.055680048 -0.68953466 -0.3684739 0.047278237 -0.12993205 -0.17244148
-2.6751723 -1.158234 0.83631086 -0.0808945 0.8604427 -0.4409007 -0.6984203 -1.0774422
-0.71117795 -1.3923005 0.00621797 1.2795781 0.624347 0.7385041 -0.6064366 -1.5269057
0.15897703 0.13171211 0.33749235 -0.058763035 0.69137573 0.04144103 -0.094943084 0.0050199097
-0.15342781 -0.21092227 0.019998746 0.39642024 0.54119366 0.37039313 -0.5541518 -0.023488881
1.2297612 -0.18375239 -1.1271564 0.691788 -0.8482958 -0.8348619 1.3183277 -1.2728611
-1.397715 1.4018222 0.4918872 -0.79303306 -1.1598431 0.35471082 1.0523245 1.585826
-0.41679472 -0.3223179 -0.5060643 0.16912696 -0.42484242 0.42695916 0.50961035 0.32523912
0.23188215 0.7053608 0.52307373 -0.20423527 -0.61840403 0.37813726 0.59755325 0.49683338
00000000: c2af ec3e a37a b73f a60d 4d3f 5918 a6bf
00000010: 275b 80bf 9b05 a53f 0519 51bf e9a0 b13f
00000020: d4aa 7c3f 4ad4 7b3f add2 aebf a17e c6be
00000030: eacc 93bf 1175 93bf 2544 a2bf 5551 0f3f
00000040: 521c 033f 357c afbe d5bf ba3d 3898 45be
00000050: 9477 a8bd aa28 653e fdcc 36be 7e75 d2be
00000060: 050a 98be dc01 de3e c310 643d 5885 30bf
00000070: 9ca8 bcbe d3a6 413d e80c 05be 8094 30be
00000080: 0636 2bc0 0341 94bf 7818 563f 04ac a5bd
00000090: f945 5c3f bdbd e1be accb 32bf a0e9 89bf
000000a0: c20f 36bf e736 b2bf 1dc0 cb3b 37c9 a33f
000000b0: 34d5 1f3f 9b0e 3d3f 6e3f 1bbf a571 c3bf
000000c0: e0ca 223e 8adf 063e cccb ac3e 82b1 70bd
000000d0: 00fe 303f 12be 293d 8571 c2bd 0e7e a43b
000000e0: 2e1c 1dbe 02fc 57be 69d4 a33c 98f7 ca3e
000000f0: ab8b 0a3f 2ba4 bd3e e4dc 0dbf c16b c0bc
00000100: d168 9d3f 9629 3cbe a946 90bf 0519 313f
00000110: ea29 59bf 82b9 55bf f6be a83f 1ded a2bf
00000120: 53e8 b2bf e96e b33f a4d8 fb3e 3704 4bbf
00000130: bd75 94bf a89c b53e 92b2 863f 59fc ca3f
00000140: 1e66 d5be da06 a5be 6e8d 01bf 9e2f 2d3e
00000150: f284 d9be 649a da3e d375 023f be85 a63e
00000160: 8472 6d3e 8692 343f 29e8 053f 0d23 51be
00000170: ba4f 1ebf 359b c13e 40f9 183f f260 fe3e

mean.full.bias f4 [3]
-0.20032017 0.13501225 0.039876398
00000000: bb20 4dbe a740 0a3e 6f55 233d
