best_model/loss/pup-b-h_dropout=0_wd=0_b=256_lr=0.01_walk=4_best_model.pt (torch_old, 289431 bytes, 15 tensors)

embedding.full.weight f4 [16, 1433]
000000 d4 c9 5a bc dc b3 85 3c be 68 19 3d cf 0d 58 bd
       -0.013353784 0.016321115 0.037453406 -0.052747544
000010 c4 70 32 bd 96 fa 4e 3d 7e 5d bf bc 70 d3 11 bd
       -0.043564573 0.050531946 -0.02336001 -0.035602033
000020 fa 8c 23 bd c2 14 9b bc 81 81 28 bd 30 59 25 3c
       -0.039929368 -0.018930797 -0.04113913 0.010092065
000030 f4 14 52 3d 58 11 16 bc a0 9b 94 3b 0e 06 60 bd
       0.051289514 -0.0091594085 0.0045351535 -0.054693274
000040 2c 96 b6 bc 16 de 94 bc 00 a2 c4 39 41 32 6b bd
       -0.022288404 -0.018172305 0.00037504733 -0.057420973
000050 f4 dc 09 bc b8 6c fb bb 23 8e 14 bd ac 51 d2 3c
       -0.008414496 -0.0076728724 -0.036268365 0.02567371
000060 f2 9f 0e 3d 86 ab 7b 3d ca b5 28 3d f8 82 ed 3c
       0.034820504 0.061442874 0.041188993 0.028993115
000070 be 26 23 bd b0 56 6d bb ae 40 48 3d ca 92 92 bc
       -0.03983187 -0.0036215 0.04888981 -0.01789226
000080 96 fd 32 bd 1c 09 28 bd b0 06 ba 3b fe d0 44 3d
       -0.04369887 -0.041024312 0.0056770667 0.048050873
000090 e4 c5 ce bc be 21 63 3d cc 5a 42 3d b8 5f 34 bd
       -0.025240846 0.0554521 0.047449872 -0.044036597
0000a0 48 6c 72 3d c8 c9 2f 3c a4 0d e3 3c 5e 74 6c 3d
       0.059185296 0.010729261 0.027716465 0.057728164
0000b0 c3 70 23 bd b6 fd 25 bd a6 d2 5d bd 84 47 5d bd
       -0.03990246 -0.04052516 -0.054155968 -0.05402328
0000c0 a4 d8 5f bd cc 83 73 3d d0 30 61 bb c3 3b 58 bd
       -0.054649964 0.059451863 -0.003436137 -0.05279137
0000d0 5e ab 3a bd aa e1 77 3d dc b0 f1 bc 9d df 6e bd
       -0.045573585 0.060517944 -0.029503278 -0.058318723
0000e0 54 99 5b bd a8 78 2b bd 52 79 2b bd 6c 34 b0 3c
       -0.053613022 -0.041863114 -0.041863747 0.021509372
0000f0 f0 bd 4a 3c 40 fd a0 ba bc ba 20 3d 32 8d 1a 3d
       0.012374386 -0.0012282506 0.039240584 0.03773231
000100 d5 b6 81 3d d0 9f 18 3d 7c c2 e3 3c 06 9c 35 bd
       0.063337006 0.037261784 0.027802698 -0.04433825
000110 9c 8e 34 bd 20 79 36 3c c2 3d 90 bc e0 7f 08 bd
       -0.044081315 0.011137277 -0.017607573 -0.033325076
000120 4c 4a 72 bc 18 62 37 bc fe 5a 25 3d c0 10 88 3c
       -0.014788222 -0.011192821 0.04036998 0.01660955
000130 1c 14 4f 3d 1d 9b 83 3d 56 71 58 3d 8c a2 1e 3d
       0.050556287 0.0642607 0.05284246 0.038729236
000140 c8 6d 1d 3d 40 32 c7 3a 74 51 2c bd 64 25 04 bc
       0.038434774 0.0015197471 -0.042069867 -0.008065555
000150 e8 b6 2f bc 94 ee c5 bc ac 4b da 3c 83 c6 74 bd
       -0.010724761 -0.024161614 0.026647411 -0.059759628
000160 e1 9d 7b bd ba 98 1d 3d ec 79 25 3d 4b 64 83 bd
       -0.061429862 0.03847573 0.040399477 -0.06415614
000170 54 cb 8d 3c 6e a4 35 bd af 23 3b bd 6b 5a 1a bd
       0.017308868 -0.044346265 -0.045688327 -0.037683886
000180 5c fa 40 bd 80 b4 10 ba 2a 9c 4e 3d c0 8b e2 3a
       -0.04711376 -0.00055200607 0.0504419 0.001728408
000190 7a 08 ae bc 00 1a 0d 3b 54 ed 55 bc 00 11 3f 3b
       -0.021244276 0.002153039 -0.013057072 0.002915442
0001a0 db 63 70 bd 80 24 ad 3c 56 d3 55 3d cc cc 2d 3d
       -0.05868898 0.021135569 0.0522035 0.042431638
0001b0 40 5c fc 3a 77 f7 54 bd e8 6a 13 3c 84 b7 5b bd
       0.0019253567 -0.051993813 0.008997656 -0.05364181
0001c0 50 9d 5b 3d 00 30 9c 3c 05 93 64 bd 3e 44 1a 3d
       0.05361682 0.019065857 -0.05580427 0.037662737
0001d0 8c f9 ea 3c b8 ee cf bb bc d5 da 3c 32 81 53 bd
       0.028683446 -0.006345596 0.026713245 -0.051636882
0001e0 da 54 4d bd 40 ce a5 3b 52 6e 81 bc 98 42 4e bd
       -0.05012975 0.0050599873 -0.015799675 -0.050356477
0001f0 e4 ba af 3c f2 b5 cb bc 38 6c d2 bc 6c 4e ba 3c
       0.021451421 -0.024867032 -0.025686368 0.022742473
000200 50 df 64 3d 06 45 35 3d c4 61 a3 3c c4 22 da bc
       0.05587703 0.04425528 0.01994408 -0.026627906
000210 53 d1 49 bd 90 05 7a 3c 9e 08 08 3d 63 29 48 bd
       -0.049271893 0.015260115 0.033211343 -0.048867594
000220 b6 b8 ae bc b2 76 c6 bc 24 e0 65 bd 98 78 14 3d
       -0.021328311 -0.02422652 -0.05612196 0.03624782
000230 94 01 62 3d f8 42 44 3c f1 dc 40 bd 2c 2b 51 3d
       0.055177286 0.011978857 -0.047085706 0.051066563
000240 86 8e ac bc 9a dd 49 3d 9c fc 77 3d 2e 8d 78 3d
       -0.021064054 0.0492836 0.06054364 0.060681514
000250 3a ae 81 bd c0 81 ce ba dc f6 9b bc a8 c3 81 bd
       -0.06332059 -0.0015755221 -0.01903861 -0.063361466
000260 60 86 08 bb 2a 2c 32 3d 3e 7e 2a bd e3 4a 00 bd
       -0.0020832047 0.04349915 -0.0416243 -0.031321418
000270 04 0a 7f bd f6 3d 19 3d b0 df 48 3d 08 92 a4 bb
       -0.06226541 0.037412606 0.04904145 -0.005022291
000280 68 1b e6 bc a0 2b 7e bd fc 82 cb 3c d0 55 c2 3c
       -0.02808924 -0.062053323 0.024842732 0.02372256
000290 f0 4f f2 3b b0 81 fd 3b 70 f4 8a 3c 80 5e 64 3a
       0.007394783 0.007736407 0.01696226 0.00087115914
0002a0 22 db 72 3d cc 34 4d 3d 64 6c 02 3d b0 7b 35 3c
       0.059291013 0.05009918 0.03184165 0.011076853
0002b0 84 50 93 3c 04 05 1b bc 9e 46 0f 3d be 2e 74 3d
       0.017982729 -0.009461645 0.034979455 0.05961489
0002c0 00 d5 0e bb 4c 65 d1 3c 80 c1 c5 3b a4 60 29 bc
       -0.0021794438 0.025560997 0.00603503 -0.010337982
0002d0 0c 5f 02 bd f0 6f 96 3c a8 6d 5f 3c c2 0e d9 bc
       -0.031828925 0.018363923 0.013636984 -0.026496295
0002e0 5a 70 65 3d ac ae 3c 3d fa 81 06 3d 96 0b 1f bd
       0.05601535 0.046065018 0.0328388 -0.03882941
0002f0 4a 06 45 3d 40 55 82 bc 8e 64 5c 3d 7a b4 78 3d
       0.0481017 -0.015909791 0.053806834 0.06071899
000300 4a 2b 76 3d e4 1b 1d bd 98 d3 38 3c a6 c7 77 3d
       0.060099877 -0.038356677 0.011280917 0.060493134
000310 f0 4c 42 bb e7 d7 67 bd bf 93 5d bd b0 42 f1 3c
       -0.002964791 -0.056602385 -0.05409598 0.029450744
000320 00 17 18 3b d0 c6 57 bc 18 2e 64 3d c2 18 dc bc
       0.0023207068 -0.013169959 0.05570802 -0.026867274
000330 56 8f 2f bd 08 8d bf 3c 98 16 44 3c 08 7c f3 3c
       -0.042861305 0.023382679 0.011968277 0.029722229
000340 5a 7a 1c 3d 56 6a 82 bd d4 b4 81 3c 40 9e c5 bb
       0.03820262 -0.06367938 0.015833296 -0.0060308278
000350 5c 88 38 3d 60 91 4e 3c e8 26 1f bd 04 81 74 bd
       0.045051917 0.012607902 -0.038855463 -0.05969335
000360 00 00 d0 ba 70 b6 81 bc f4 c9 6d 3d 8c 4a 04 3d
       -0.0015869141 -0.015834063 0.058053926 0.032297656
000370 18 06 e9 3c 20 c6 52 3b 2c 1c 6d 3d e0 1f bb 3b
       0.028445289 0.0032161549 0.057888195 0.005710587
000380 bc 1f 21 3d 50 cb 8b 3b ac e1 e5 3c c0 a4 e7 bc
       0.039336905 0.00426618 0.02806171 -0.028276801
000390 28 7d c6 bb a4 82 6f bc a4 b6 9e 3c 24 d8 ba 3c
       -0.0060574003 -0.0146185495 0.0193742 0.022808142
0003a0 4c 1a 0e 3d 80 3d 2f 3c 66 aa fd bc c0 66 49 3b
       0.034693047 0.010695815 -0.030965041 0.003073141
0003b0 d0 30 ad bb 9a fd 78 3d d0 f8 94 3c 68 5a 12 bd
       -0.00528536 0.06078873 0.01818505 -0.03573075
0003c0 d9 66 52 bd da 6c df bc 12 8d 13 bd 98 fb 58 3d
       -0.051367614 -0.027273584 -0.036023207 0.052974313
0003d0 74 f8 0a 3d 70 35 af 3b 08 92 5f bd 06 2e 4b bd
       0.03392835 0.0053469464 -0.054582626 -0.04960444
0003e0 5c d1 20 bd da 1d 40 bd 43 95 1b bd 50 11 9b 3b
       -0.03926216 -0.04690347 -0.037984144 0.0047322884
0003f0 f7 7e 1f bd 00 16 a9 3b fa 51 36 3d 10 8b 72 3c
       -0.038939442 0.0051600933 0.044511773 0.014803663

embedding.full.bias f4 [16]
000000 d4 e8 2f bc ba 7b 8d bc 5c 55 bb 3c 30 73 e5 3b
       -0.010736663 -0.017270911 0.022867851 0.007002257
000010 32 d0 9c bc d8 01 59 3b 3e e8 5e bc 1c 95 2e bc
       -0.019142244 0.0033112671 -0.013605176 -0.010655668
000020 59 bd d6 bc 4c 2c fa bb d0 f5 89 3a a4 04 62 3c
       -0.026213335 -0.007634675 0.0010525528 0.013795052
000030 00 58 8a 39 58 95 77 3b 91 82 88 bc 12 53 a3 3c
       0.00026386976 0.0037778225 -0.016663821 0.019937072

aggregator.full.weight f4 [16, 2866]
000000 d8 e3 fb 3c 01 89 e7 3d 63 a0 ad bd ed d3 97 3c
       0.030748293 0.11305428 -0.08477857 0.018533671
000010 0c 6d 55 be e3 4a cc 3d 53 fc 44 3e b7 49 41 be
       -0.2084238 0.09975221 0.19236879 -0.18875776
000020 fd 24 16 bc 06 b4 03 3d 95 e4 c8 3d a7 f4 16 be
       -0.009164092 0.032154106 0.098092236 -0.14741765
000030 e7 9e de bd 7e a8 11 3d 8b 2e 3e be 12 3b 4f bd
       -0.10870152 0.035561077 -0.18572442 -0.050593443
000040 6b 6b f3 bd 8e b8 4f 3e a2 21 b7 bd a2 d5 13 3e
       -0.11885723 0.20285246 -0.08941962 0.14436963
000050 4c 12 ab bd 57 02 16 be cd a8 c5 3d 01 e8 ac 3d
       -0.08353099 -0.1464933 0.09651337 0.08442689
000060 15 8d ac 3d c8 67 06 be 02 51 da bd 04 1a f2 bd
       0.08425347 -0.13125527 -0.10659982 -0.11821368
000070 c9 67 fd bc fd 65 e6 3d 67 42 3f bd a8 54 cc bd
       -0.030933278 0.112499215 -0.046694186 -0.099770844
000080 18 54 36 3e 59 34 db bd 00 a2 dc bd d3 5f 11 be
       0.17805517 -0.10703344 -0.107730865 -0.1419671
000090 32 09 34 3d 6a 3c e0 bd 30 45 95 bd 25 92 d0 3d
       0.04395408 -0.10949023 -0.07288587 0.10184125
0000a0 e2 c0 43 be 16 07 e1 bd 21 a3 76 3d 80 b6 2f 3c
       -0.19116548 -0.1098768 0.060214166 0.010724664
0000b0 db 97 e3 3d c6 fb dd bd 1b 62 26 3e fe be e5 bd
       0.111129485 -0.108390376 0.16248362 -0.112180695
0000c0 16 c5 99 3d 6e 09 a5 3c ca 1e 63 bd 51 74 37 be
       0.07508294 0.020146098 -0.055449285 -0.17915465
0000d0 ce a3 c9 3d ae 2d d5 3c 95 69 62 be 56 40 af 3c
       0.098456964 0.026022758 -0.22110589 0.021392982
0000e0 8a 2f e1 3c 6e 6d 28 3e 5b e0 2d bc 3c 6f 96 bd
       0.027488489 0.16447994 -0.010612573 -0.07345435
0000f0 b1 65 d9 bd 50 e5 09 bd 99 6a 73 3e 81 e5 31 3d
       -0.10615099 -0.033665955 0.23771133 0.043431763
000100 c2 ed f5 3d 17 20 df 3d c3 91 28 3d 38 2b 56 3d
       0.12008239 0.108947925 0.041154634 0.05228731
000110 57 89 e5 3b 37 4c a4 bd 18 bf 44 bd 38 33 b0 3c
       0.0070048976 -0.08022349 -0.048033804 0.021508798
000120 6f a0 4f 3e 88 0f 0b 3e 3a ec 6c bd 47 76 3c 3e
       0.20276044 0.13580143 -0.05784247 0.18404494
000130 a5 52 83 bd b7 84 a4 bd 01 96 4e be c5 4a 41 3d
       -0.064122476 -0.08033126 -0.2017441 0.047190446
000140 49 b4 fe bd 11 d0 51 3d e5 0d 2a be fc 9d 2b bc
       -0.124367304 0.05122382 -0.16606863 -0.010474678
000150 da fd 5f 3d ed 77 3f 3e 46 38 92 bd a5 80 b5 3b
       0.05468545 0.18698092 -0.071396396 0.0055390173
000160 82 21 3d 3e 0e ab 0a 3c 3f b0 66 bd b3 9d 9a bd
       0.18469813 0.008463634 -0.056320425 -0.0754961
000170 73 b9 33 be c7 f6 e7 bd 29 46 69 bb 09 2a ec bd
       -0.17551212 -0.11326366 -0.0035594797 -0.11531455
000180 45 3c 7d 3c 5c f5 00 bc 7c d2 02 3e e9 4c 52 3d
       0.015456264 -0.007870998 0.12775606 0.05134288
000190 65 ed 47 3c ec cf 8f 3d 1c 10 20 be db 7c fd 3c
       0.012202595 0.0702208 -0.15631145 0.030943325
0001a0 88 48 aa bd fb ab 26 3d 45 ea 01 be ee f9 ed 3c
       -0.083146155 0.040691357 -0.12687023 0.02904984
0001b0 bf 1b fb bd 4f 0f 39 3e 92 67 0f 3e ec 9a 26 be
       -0.122611515 0.18072246 0.14004353 -0.16270036
0001c0 37 93 4c be 6a 4c 1e 3d 28 25 02 3e c1 e0 21 3e
       -0.19978033 0.038647093 0.12709486 0.15808393
0001d0 54 6a 6d 3d fc b4 30 3e 92 90 f1 3d 7d 87 27 bd
       0.05796273 0.1725654 0.11795153 -0.040900696
0001e0 d4 b0 f1 3b 73 dd 25 3d ef 6c 20 bc 8d f3 da bc
       0.007375816 0.040494394 -0.009791597 -0.026727462
0001f0 06 25 c6 bd 56 ec 16 bd 82 19 09 3d 31 d5 0c bd
       -0.096750304 -0.03684648 0.03347159 -0.034383003
000200 4c d5 23 3e e4 ba 0d be 4e 4d 01 3e 7f f7 87 3c
       0.15999335 -0.13840824 0.12627146 0.016597508
000210 e8 d3 a1 3d fc 91 22 be a1 ef e4 3c 34 67 95 3b
       0.07901746 -0.15876001 0.027946295 0.004559422
000220 b9 fe b7 3d 5e 41 1c 3e 5e 52 ec bd ea 99 0a be
       0.08984131 0.1525931 -0.11539148 -0.13535276
000230 37 9d ae 3d a8 29 d2 bd 6c 6b dd 3b ee 26 cd 3d
       0.0852608 -0.102618515 0.0067571905 0.10017191
000240 c4 1d 63 bd 83 71 1d be 5c 41 8f 3d a2 19 09 bd
       -0.05544831 -0.15375333 0.06994888 -0.03347171
000250 51 a3 08 3d 58 1f fe bd ba d5 c3 3d 21 78 26 be
       0.033358876 -0.12408322 0.095622495 -0.16256763
000260 dd 11 bb 3d ed 81 1d be 68 a0 18 3e 4b f7 fd bd
       0.091342665 -0.15381594 0.1490494 -0.12400683
000270 89 64 1b 3e 71 20 02 3e 7a cc d8 3d 08 44 a5 3d
       0.1517507 0.12707688 0.10585876 0.080696166
000280 7c 32 5f 3e 56 d7 d1 3d a4 f7 89 3d c0 2e 35 3e
       0.21796602 0.1024615 0.06736687 0.17693615
000290 42 9b a9 3d a5 89 53 3d 61 c6 58 3d 4f 1e 18 3e
       0.08281566 0.05164494 0.052923564 0.14855312
0002a0 cc 37 24 be b9 c9 3d 3e 38 8e 91 3d 7c 5a 7c 3b
       -0.1603691 0.18533982 0.07107204 0.0038506081
0002b0 39 03 89 3c ca 2a 46 bd ea 57 20 3d 9f 37 3f bc
       0.01672517 -0.04838065 0.03914634 -0.011670976
0002c0 61 25 02 3e 6b e6 25 3e 79 32 b3 bc 63 51 3f bd
       0.12709571 0.16201179 -0.021874653 -0.046708476
0002d0 85 8a 06 be ed ab 17 3c b6 82 d8 3c 77 45 a4 bd
       -0.13138779 0.009257299 0.026429515 -0.08021062
0002e0 d6 32 e1 3d 87 18 9f 3b 40 31 c4 bd 01 f9 1e 3c
       0.10996024 0.004855219 -0.09579706 0.009702922
0002f0 29 f5 7a 3c bb 1d c3 3d 52 5a 98 3d 56 f2 f5 3d
       0.01531724 0.09527155 0.07439102 0.120091125
000300 df 14 21 bd 5b a4 fc 3c ec 6f 53 3d 76 c4 2e bd
       -0.039326545 0.03084009 0.05162041 -0.04266783
000310 bd f3 c2 bd 97 1a f2 3d 95 01 94 3d f4 4f 1f 3e
       -0.09519146 0.11821478 0.07226864 0.15557843
000320 a4 b7 0e be 2b f7 de 3d 7f 29 39 bd 33 94 e3 3d
       -0.13937241 0.10886987 -0.04520559 0.11112251
000330 24 37 9e bd 04 ba 66 3d 05 0c de bd 57 c7 78 bd
       -0.07725361 0.056329742 -0.10842136 -0.06073698
000340 31 59 4c 3d eb 9c e0 bd a3 34 6c 3d c4 81 67 be
       0.049889747 -0.1096743 0.057667386 -0.22608095
000350 cc cd 21 be 95 09 2b 3d 1c 36 3f bd b1 f8 09 3e
       -0.15801162 0.041757185 -0.046682462 0.13473774
000360 c9 ee 0d 3e 92 66 e7 3d 68 a5 17 3e 97 29 02 3e
       0.1386062 0.112988606 0.14809191 0.12711178
000370 14 0e 66 3d a9 3e cf 3d 99 fb 2f bd 68 46 03 3e
       0.05616577 0.10119373 -0.04296455 0.12819827
000380 3f 72 1c 3d b7 79 44 3d 21 af 96 bd 21 ea 0e 3e
       0.03819489 0.04796764 -0.07357622 0.139565
000390 37 27 6e bd c4 25 9f bd 7c 52 cf 3d 2e a4 c9 bc
       -0.058142867 -0.07770875 0.101231545 -0.02461442
0003a0 bf 77 18 3b 65 8b 0b 3e e4 66 36 be f8 10 87 3c
       0.0023264734 0.13627394 -0.17812687 0.016487584
0003b0 c1 a9 fc bd bc 38 67 3d 15 b8 17 3e 59 6d 22 be
       -0.123370655 0.05645059 0.14816315 -0.15862025
0003c0 10 ec 18 3e a6 88 1b 3e 1d 89 13 be 08 a9 a3 3d
       0.149338 0.15188846 -0.14407773 0.079912245
0003d0 44 1a 93 3d 00 a1 26 bd 8b 86 33 3d 71 d3 84 3d
       0.07182744 -0.040680885 0.043829482 0.06485642
0003e0 0c d4 34 bc 11 ee 03 be e6 ea 1c be 5b c0 15 bc
       -0.011036884 -0.12883784 -0.15323982 -0.009140099
0003f0 c8 f6 19 3e 00 3a e7 bd 15 6c bb bc ab 22 89 bd
       0.15035546 -0.112903595 -0.022878686 -0.066960655

aggregator.full.bias f4 [16]
000000 c7 74 34 3d f8 31 bd bc b1 13 10 3a fb 67 89 3d
       0.04405668 -0.023095116 0.00054960983 0.06709286
000010 56 55 4c 3d cd 39 cf bb ad 57 1b 3c df 92 26 3c
       0.04988607 -0.006324029 0.009481353 0.010166853
000020 82 82 92 3c 4e dd b6 3d 92 79 61 3d aa c2 59 bd
       0.017884497 0.08928929 0.05504758 -0.05316416
000030 62 3a bd 3d e5 58 a7 3c ad b0 98 3d 9c 9d 82 3c
       0.09239651 0.02042813 0.07455573 0.015944295

step.full.weight f4 [1, 32]
000000 3c de 0b 3d 8f 90 20 be b5 9e 1c 3e fc e6 d8 bd
       0.034147486 -0.15680145 0.15294917 -0.10590932
000010 41 0c 10 be 38 b4 32 3d 71 02 29 3e 3f 6b ab bd
       -0.14067174 0.0436289 0.16504838 -0.08370065
000020 cd 57 17 3e a4 0e 69 bd ca 6e c7 bd bb af a1 bd
       0.14779587 -0.056898728 -0.09737928 -0.07894846
000030 34 a2 23 3d 06 02 e0 3d 8a 69 21 be 20 11 62 bc
       0.03994961 0.10937886 -0.15762916 -0.013798028
000040 aa f3 84 3d 00 c0 f5 ba 02 22 f1 3d 1c 31 2c bd
       0.06491788 -0.0018749237 0.117740646 -0.04203902
000050 86 38 13 be dd 0a 13 3e 58 82 f0 3c 02 7c ae 3d
       -0.1437703 0.14359613 0.029359028 0.08519746
000060 ca 9d d7 3d 5d 2f 20 be 6f 7e 30 be 58 16 f1 bc
       0.10528143 -0.15643068 -0.1723573 -0.0294296
000070 e4 11 02 be 44 6c 0c bd d0 ec 02 be 2a d1 eb bd
       -0.12702137 -0.034282938 -0.1278565 -0.11514504

lstm.lstm.weight_ih_l0 f4 [64, 16]
000000 85 9d 6e 3e d3 88 c7 3c 89 34 a5 3e 70 3b 80 bc
       0.23302276 0.024357235 0.32266644 -0.015653342
000010 de 6d 7b 3e b3 4f 71 3e cb d9 c9 3e e3 e1 cc 3c
       0.2455363 0.23565559 0.39423975 0.025010055
000020 8a 48 87 3e 1c e4 2e 3e 34 43 1e 3d 3f a2 87 3e
       0.2642253 0.17079204 0.03863831 0.2649097
000030 32 79 38 3e de e3 85 3e de 26 d3 3e 06 aa a0 3e
       0.18014982 0.2615041 0.4124059 0.31379718
000040 37 95 75 3e 03 d6 90 bd b3 2a 98 3d 06 eb 87 3b
       0.23982702 -0.070720695 0.07430019 0.00414789
000050 4d 81 e8 bd c5 bb a4 3e ec 12 79 bd 68 cf 35 3e
       -0.11352787 0.32174507 -0.06080906 0.177549
000060 ef 3b ae 3e e6 20 a8 3d f1 73 a3 bd a1 f4 2c 3e
       0.340301 0.082094 -0.079810984 0.16890194
000070 95 68 ad 3d 04 4d 12 3e b1 b6 1a 3d d8 02 b5 3d
       0.08467213 0.14287192 0.037771884 0.08838433
000080 c2 79 ef 3e 60 f7 a7 3e ed 5d 01 3e cc e5 5f 3e
       0.4677258 0.3280592 0.12633486 0.21865004
000090 d7 3b 4d 3c a1 1a 03 3d 35 cd 88 3e 18 67 cb bb
       0.012526474 0.032007817 0.2671906 -0.006207358
0000a0 86 a5 23 3e ed e1 c2 3e bd d4 a4 3e b0 82 4e 3e
       0.15981111 0.38062993 0.32193556 0.20167041
0000b0 06 79 cd 3e 09 f4 e9 3c 1a d4 f5 3d 0e f6 8d 3e
       0.40131396 0.028558748 0.12003346 0.27726787
0000c0 1a b0 a6 3e 1f 26 b3 3e 7f d4 6d bd 60 3a af 3d
       0.3255623 0.34990022 -0.05806398 0.08556056
0000d0 e7 d2 42 3e b5 8f 6d ba 40 78 1e 3d ed 62 b3 bd
       0.19025765 -0.00090622465 0.038688898 -0.08759103
0000e0 67 47 17 3e 98 c0 a1 3e d0 c8 58 3e 44 a5 b2 3e
       0.14773332 0.3159225 0.21170354 0.34891713
0000f0 f5 8f b3 3e ac 64 d1 3e f3 fe cb 3d 06 ad 88 3c
       0.35070768 0.4089712 0.09960737 0.016684067
000100 f9 d3 01 3d ec ec da 3d aa 66 d2 bd 5c f0 b4 3e
       0.031696294 0.106897205 -0.10273488 0.3533963
000110 34 9d 17 bd 28 b2 a8 bb 59 50 50 bc 22 34 c5 3e
       -0.037015155 -0.005148191 -0.012714469 0.38516337
000120 eb db 8b 3d db 0d ee bc 4a af 9b 3d 51 6f 89 3e
       0.068290554 -0.029059341 0.07601793 0.2684274
000130 6c 0f c3 bd b4 36 68 3e 07 f1 c0 3d 44 92 40 3e
       -0.09524426 0.22677118 0.09420972 0.18805796
000140 d7 7b 9c 3e 62 4d 6c 3e f0 4f d1 3e 06 be d2 3e
       0.30563232 0.23076394 0.408813 0.411606
000150 3a f0 e0 3e e1 84 ee 3c cd d3 a7 3e 8a 29 a0 3e
       0.43933278 0.029116096 0.3277878 0.31281692
000160 a8 27 44 bd d3 0c c6 3e fd 72 b7 3d 24 3b cf 3e
       -0.04788938 0.3868166 0.08957479 0.40474808
000170 12 96 ad 3e 15 7b 02 3e e1 c5 b7 3e a6 c1 cc 3e
       0.33903557 0.12742265 0.35893157 0.39991492
000180 8f 0f 4c 3e 86 a6 54 3e e1 88 98 3e 39 6b cb 3e
       0.1992781 0.20766649 0.2979193 0.39730242
000190 be 49 85 3e 6a 4a 15 bc da 2b ce bc 72 24 dd 3d
       0.26032823 -0.00911198 -0.025167394 0.10797967
0001a0 04 cc 18 3d 76 7e 5f 3e 39 40 6f 3e a0 3c 9a 3c
       0.03730394 0.21825585 0.23364343 0.018827736
0001b0 84 bb 0b 3e c9 d8 2d 3e e2 a5 42 3d ba d6 0c 3d
       0.1364575 0.16977228 0.04752148 0.034384467
0001c0 ce 87 22 be 7b eb b2 3d 6e d5 90 3d 24 ad 67 3e
       -0.15872118 0.087363206 0.070719585 0.22624642
0001d0 33 bb fa 3c 4f b0 a9 bd 06 65 48 3e 9a ba 9c 3d
       0.030606842 -0.08285581 0.19569787 0.07652779
0001e0 99 37 c1 3e 3f 3a 00 bc 0a f2 de 3d 9a 3b 7d 3d
       0.3773773 -0.007826387 0.10886009 0.06182442
0001f0 53 04 fc 3d c9 9a b7 3e 93 a9 63 3e b4 97 60 3e
       0.12305512 0.3586028 0.22232656 0.2193287
000200 b3 25 a7 bd 90 4f 14 be dc b1 1e 3e cf 8b 3e 3e
       -0.081614874 -0.14483476 0.15497535 0.1860802
000210 04 f5 1c 3d 73 a5 93 be f1 0e ba bd 58 7b e0 3e
       0.038319603 -0.28837165 -0.09084881 0.43844104
000220 4e 8a 9a be f9 9d 59 be cc 94 86 3c d6 14 04 3e
       -0.30183643 -0.21251668 0.016428374 0.12898573
000230 d6 c3 30 3c 62 2a 1d be e8 20 20 be 4d f7 92 3e
       0.010788878 -0.15348199 -0.15637553 0.287043
000240 d2 0f de 3e c4 3a 1c be 8e 7f cd b9 1c 99 70 3e
       0.43371445 -0.15256792 -0.00039195683 0.23495907
000250 7e 7f 01 be 3d 6f b9 3d 09 c5 a3 3e 66 15 85 3e
       -0.1264629 0.0905442 0.31986263 0.25992888
000260 a5 2d 94 3e 73 5c 71 3e 6e f4 8b 3e be c6 a1 3d
       0.28941074 0.23570423 0.27334923 0.07899235
000270 68 d2 52 3e d1 d1 c4 bd 3e 75 d7 3e 38 f1 27 bd
       0.20588076 -0.09610332 0.42081636 -0.04100153
000280 ab 64 2b 3d 44 7d 79 3e ad fe a7 3d 59 25 a9 3d
       0.04184405 0.24364191 0.082028724 0.082590766
000290 97 99 a8 3e 24 59 15 bc 9e 5e 73 3d 77 55 ac 3e
       0.3292968 -0.009115491 0.059416406 0.33658955
0002a0 67 3e 43 3e c6 d7 6f 3d 0a d7 5f bc 17 65 09 3e
       0.19066773 0.058555387 -0.013662109 0.13417469
0002b0 da a3 bd 3e 42 06 d5 3d 7a 10 e4 3e 51 e0 16 bd
       0.3703907 0.10401584 0.4454382 -0.03683502
0002c0 2e bf bb 3e b1 61 4c 3e 87 42 67 bc 6d c0 78 3e
       0.36669296 0.19959141 -0.014114982 0.24292155
0002d0 5f 8d 2f 3e f8 29 3d 3e 52 0c 45 3e d2 2b a6 3e
       0.17143773 0.18473041 0.19242981 0.32455307
0002e0 15 7a 86 3d ce 44 c5 3d 87 9b 28 3e 91 fa 0f bc
       0.06566254 0.09632264 0.16465579 -0.008787767
0002f0 63 c3 c6 bd 64 df f5 3d 43 ac 28 3e 36 8e a2 3e
       -0.09705236 0.12005499 0.16471963 0.31749123
000300 45 af 42 3e 8e 9c 9d 3d d9 bb 0a 3e 7b bc e9 3e
       0.19012173 0.07695876 0.1354822 0.45651612
000310 e5 a5 fd 3d da 3f 45 be 2d c3 cc bd 13 0a 2b 3e
       0.123851575 -0.19262639 -0.09998164 0.16703062
000320 55 fe 33 3e f0 a0 60 3e c4 ce 0d 3e 51 1f 57 3d
       0.17577489 0.21936393 0.13848406 0.0525201
000330 72 5b 9e 3d 05 33 47 bd a9 aa 74 3e 23 01 97 3d
       0.077322856 -0.04863264 0.23893227 0.07373264
000340 fc d0 b5 3d 80 48 91 bd 9e cc 96 3e 2c c6 6e bd
       0.08877751 -0.070939064 0.29452986 -0.05829446
000350 0f 03 9f 3e 61 f6 b6 3e 06 6b e1 3e 56 7c c2 3e
       0.3105702 0.35734847 0.44026965 0.37985486
000360 49 2e 2e 3e 88 4c 94 3e c4 f3 3a 3e c1 ce a4 3d
       0.17009844 0.2896464 0.18257052 0.08047248
000370 38 f7 39 3c 7f 3b b2 3e a8 05 71 3e 34 0f df 3e
       0.011350445 0.34811017 0.23537314 0.43566287
000380 c4 27 b3 3e 10 9f 71 ba ef 88 e3 3c b8 d2 a8 bd
       0.34991276 -0.00092171226 0.027775256 -0.082433164
000390 0d 6b 48 3d 82 89 87 3e 26 c9 c2 3d 21 5e 32 3c
       0.048930217 0.26472098 0.09511022 0.0108867
0003a0 a2 ad 53 bd 35 29 fd 3d e9 c0 13 bd 29 16 42 3e
       -0.05167926 0.12361375 -0.036072645 0.18953766
0003b0 15 e3 92 3e 51 05 f4 bd 2b 7a d3 3e 13 69 0b 3e
       0.28688875 -0.119150765 0.41304144 0.13614301
0003c0 da 39 4c 3e fb 6d 0c be b9 48 7d bc 3c ac 5c 3e
       0.19943944 -0.13713829 -0.015459233 0.21550077
0003d0 7e 9f 9b 3d ba 08 41 be 33 94 8d be 6c 1e 84 bc
       0.0759878 -0.18850985 -0.2765213 -0.016127788
0003e0 84 e3 c9 bd cf d2 67 3e 22 04 95 3e cb 71 59 be
       -0.09857848 0.22639011 0.29104716 -0.21234815
0003f0 6a e6 94 3e 31 11 92 3e ad 9d ba ba 90 c7 ca bb
       0.29082042 0.2852874 -0.0014237665 -0.0061883405

lstm.lstm.weight_hh_l0 f4 [64, 16]
000000 9d 38 03 be 03 88 72 3e f7 cd 32 3a 18 06 0f be
       -0.12814565 0.23684697 0.0006820852 -0.13967168
000010 57 88 2b be 34 cd bd bd dc 2a ba be 24 1d 94 3d
       -0.16751228 -0.09267655 -0.36360824 0.07232121
000020 6e c4 3c be ad 90 b7 be 41 49 9e be 3f 3d 97 3e
       -0.18434307 -0.35852566 -0.30915263 0.29538915
000030 03 6e d1 3e 0a a1 85 3d 40 2a 89 3e 09 af bf 3e
       0.40904245 0.065248564 0.26790047 0.3743823
000040 2a 7f bf 3b 7c 7c c7 3e 31 df 20 3e 32 bb e4 be
       0.0058440166 0.38962162 0.15710141 -0.4467407
000050 31 5c 87 be 9c 88 d2 3e aa 02 31 be 19 cd 96 bd
       -0.26437524 0.4111985 -0.17286173 -0.07363338
000060 71 7b 88 be 0b e0 00 be 32 8b a9 3b 97 a8 02 3e
       -0.26656678 -0.12585466 0.005174064 0.12759624
000070 78 6e 16 3e fc 26 c7 3d 8c bb 3a 3e 0d 1c 6e 3d
       0.14690578 0.097242326 0.18235606 0.05813222
000080 c6 13 e0 bd 3f 54 ad 3e ed bf 30 3d ad f0 c9 bd
       -0.109412715 0.33853337 0.043151785 -0.098603584
000090 70 2a ab 3b 77 ff 02 3d 5a 06 c2 bd 41 ee 9b 3e
       0.005223565 0.03198191 -0.09473868 0.3045521
0000a0 07 76 e0 be 4b c2 27 be 07 cc bc bd 77 cc 1c 3e
       -0.43840048 -0.1638271 -0.09218603 0.15312372
0000b0 0a 56 93 3e 53 cb 8e 3e d9 23 29 bd 4c 6f 59 3e
       0.2877658 0.278895 -0.041293953 0.21233863
0000c0 ec 5c 30 be ad c5 53 3e fb 0a 3c 3d be a4 0f be
       -0.17222947 0.20680876 0.04590891 -0.14027688
0000d0 cf 33 5c 3c 15 ed 60 3d 02 6b 68 be 45 27 12 3e
       0.0134400865 0.0549136 -0.2269707 0.14272793
0000e0 81 2b 4a 3d 4f a1 c8 be 2e 03 e6 be 21 33 9b 3e
       0.049357895 -0.3918557 -0.449243 0.30312446
0000f0 70 49 35 3d 45 4c a4 3e 22 0d 87 bd c9 74 31 3d
       0.04425949 0.3208944 -0.06594302 0.043324266
000100 d1 af 13 bd d3 ba 90 bd b7 46 f3 bd 38 71 3f be
       -0.036056343 -0.07066884 -0.11878722 -0.18695533
000110 58 0e 7c bd 93 68 54 be af ea 9b 3c 14 3e 63 3b
       -0.061537117 -0.20743017 0.019032804 0.0034674453
000120 59 72 75 be fd 97 bf be 4b 6e 01 be 01 06 bc bd
       -0.23969401 -0.37420645 -0.1263973 -0.09180833
000130 9e 1c 04 3e d8 df 79 3c eb 59 a5 3e be ff d9 bd
       0.12901542 0.015251122 0.32295164 -0.10644482
000140 ab f6 a3 3b 9d c3 24 3e 2e 5f 66 3c ec 78 b1 be
       0.0050037703 0.16090246 0.014060779 -0.3466257
000150 10 f7 02 be 33 d3 92 3d 8b c5 59 be 14 d0 cf 3e
       -0.1278956 0.07169189 -0.21266763 0.4058844
000160 14 7f 91 be 9c 67 97 bd b4 6a b7 3d 47 96 2a 3d
       -0.28417265 -0.07392809 0.08955899 0.041647222
000170 32 3d 94 3d 19 ce b5 3d 7b 38 3e 3e d2 cf 62 3e
       0.072382346 0.08877201 0.18576233 0.2214959
000180 77 3a 38 be 0d 69 d9 3e 50 44 b2 be 4d b6 e8 be
       -0.17991053 0.4246296 -0.34817743 -0.45451584
000190 e0 6e 4a 3d e6 bc d6 3e 6b a6 9f be a5 b9 63 bd
       0.049422145 0.41940993 -0.31181654 -0.055596966
0001a0 cf 6e 7a bd 15 e3 29 3e 5a f6 c7 bc 9e 8b 95 3b
       -0.06114083 0.16590531 -0.024409462 0.004563763
0001b0 9b e0 00 3d 29 88 fd 3e e0 25 78 bd 3a 46 09 3e
       0.0314642 0.49517944 -0.060582995 0.13405696
0001c0 86 2e b3 bd 15 b0 40 3e b3 5f 81 be ff 25 e7 be
       -0.08749108 0.1881717 -0.25268325 -0.45146176
0001d0 81 54 70 3e 08 3d 21 3e 79 80 ba bd e3 ed ae bd
       0.23469736 0.15745938 -0.091065355 -0.08541467
0001e0 17 1e 84 be 0b 66 1d 3e 72 f2 fc 3d 3e 63 c7 3d
       -0.25804207 0.15370958 0.1235093 0.09735726
0001f0 91 42 4d 3e a4 86 a2 3e 1c 97 47 bd 94 cf bf 3e
       0.20044924 0.31743348 -0.048728094 0.37463057
000200 1d c3 b4 3e 19 bb 82 3c 94 a1 9b be d2 65 c6 bd
       0.3530511 0.015958356 -0.30396712 -0.096873894
000210 27 6f 60 be dd 35 20 3b 50 15 9f be ac ab c9 bd
       -0.21917401 0.0024446168 -0.31070948 -0.09847197
000220 ce 80 b4 3d 49 29 2a bd 8d 41 a8 be 3c e6 82 be
       0.0881363 -0.04154328 -0.3286251 -0.2556628
000230 ec 1d bf bd f9 71 4e 3e 9f fd fa 3d dd 33 16 3e
       -0.09331879 0.20160665 0.12255406 0.14668222
000240 09 1c 1c 3e a5 e3 2d 3e 61 34 84 be 0f 92 9b bd
       0.1524507 0.16981371 -0.25821212 -0.07596218
000250 16 c6 cb 3b 12 ba 85 be 33 ae 69 be dc 98 57 be
       0.006218682 -0.26118523 -0.22820358 -0.21054405
000260 0b 92 a1 be a6 7f 99 bd 80 27 9a 3b 27 7d 20 3e
       -0.31556734 -0.0749505 0.004704416 0.15672742
000270 65 4d 2f 3c d9 24 83 be a5 f5 21 3d 74 f3 76 3e
       0.010699605 -0.2561405 0.039540906 0.24116307
000280 02 56 88 3c e2 ba 81 3e 72 5b 01 be 88 e2 9e be
       0.016642574 0.25337893 -0.1263254 -0.31032205
000290 35 1b e0 be 45 31 9e 3c 10 6b 89 3c f4 7a b7 bd
       -0.43770757 0.019310603 0.016774684 -0.08958998
0002a0 4d 75 40 be 3f fe e5 3c 7a a3 16 bd e3 74 d3 3e
       -0.18794747 0.028075336 -0.036776997 0.41300115
0002b0 4b 46 a1 3e 45 62 de bd a7 03 52 3e 8e 43 20 3e
       0.31498942 -0.10858587 0.20509206 0.1565077
0002c0 82 77 96 be 50 3f 78 3d 1f 4b e9 bd 4b 25 0a bd
       -0.29388052 0.060607255 -0.11391281 -0.03372697
0002d0 86 8f ca be e2 f5 dc 3c ec ac 2d bd 7a 96 8f 3e
       -0.39562625 0.026972715 -0.04240124 0.28044492
0002e0 90 8f 0c be ed 1c a7 be 1d b4 90 bc ce 22 21 3e
       -0.1372664 -0.32639256 -0.01766401 0.15735933
0002f0 84 2e a5 bd 84 60 b4 3e 4c 3d a4 bc 89 15 a6 3d
       -0.08065513 0.35229886 -0.02004876 0.08109576
000300 61 71 89 3e cd a3 66 3e e7 5e 33 be 46 a7 8e 3e
       0.26844314 0.22523423 -0.17516671 0.27861995
000310 8b 93 1c be 12 af f1 bc 49 db 5f 3e 55 c4 00 bd
       -0.15290658 -0.029502425 0.21860994 -0.031437237
000320 93 22 46 3d a0 32 19 be 01 d6 16 be 2f d2 96 3e
       0.048372816 -0.14960718 -0.14730074 0.29457232
000330 29 47 93 3e 8f 03 5b be c0 5b 97 bd da 78 cb bd
       0.28765228 -0.21388076 -0.07390547 -0.0993516
000340 b4 09 a0 3d 15 dc 4a 3e 26 ee 78 be c1 7b c8 be
       0.07814351 0.19810517 -0.24309596 -0.39156917
000350 c5 8b 6b be ab ca 48 be 0e c3 c7 bd 6a a3 23 be
       -0.23002537 -0.19608562 -0.097540006 -0.15980306
000360 7e ee 98 be ec 92 a5 3c 3f be 2c bd 09 af bb 3e
       -0.29869455 0.02021166 -0.04217362 0.3665698
000370 bd ee 3b 3e 0d 94 0b 3e 27 49 93 3e c7 0a 85 3e
       0.1835279 0.13630696 0.28766748 0.25984785
000380 c0 a8 ab 3c a5 72 3f 3e 6b 45 45 3d a4 35 33 be
       0.02095449 0.18696077 0.048161905 -0.17500931
000390 6e d2 7a be 66 4f 58 3e 05 03 48 be 26 7e 34 be
       -0.24494335 0.21124038 -0.19532402 -0.17626247
0003a0 1e b1 b1 be 6c 5d 9a 3d 19 91 89 be 7f 5e 97 3e
       -0.34705442 0.0753735 -0.26868513 0.29564282
0003b0 81 8a 03 bd 29 c3 ad bd f4 ce 8f 3e 7c 46 1b 3e
       -0.03211451 -0.084844895 0.2808758 0.15163606
0003c0 fc 0d 4e 3e 0e 4f 71 be f4 d9 c0 bc eb a7 29 3e
       0.20122522 -0.23565313 -0.023541428 0.16567962
0003d0 e3 55 af bd fa aa a4 3e 77 f2 be 3d dd e3 0e 3d
       -0.085613035 0.32161695 0.0932359 0.034885276
0003e0 d3 17 47 be 8c c7 33 be 57 d4 2c 3e 14 a0 70 3d
       -0.19442682 -0.1755659 0.16877876 0.058746412
0003f0 3c d2 e3 3c ac e1 18 be 2a 52 eb bd 12 f2 8f bd
       0.027810208 -0.14929837 -0.11490281 -0.07028593

lstm.lstm.bias_ih_l0 f4 [64]
000000 2c 12 99 3e aa 75 11 bd 2f e8 ca 3e 56 fc 21 3e
       0.29896677 -0.035512604 0.39630267 0.15818915
000010 12 ac 58 3e 39 28 ae 3e b8 63 46 bd b9 df ba 3e
       0.2115939 0.34015062 -0.048434943 0.36498812
000020 31 3e 09 3e 79 53 44 3d a1 7e 7c 3d e2 87 19 bd
       0.1340263 0.04793117 0.0616442 -0.037483104
000030 e1 09 ff 3d 5e f1 a9 3b 44 a2 82 3e 60 dc ca bd
       0.12453056 0.005186244 0.25514424 -0.099053144
000040 cb 13 0b bc aa 09 a5 3e b5 ae e0 3e 76 f3 30 3e
       -0.008488606 0.32233936 0.4388329 0.17280373
000050 18 a4 c4 3b 4e cc 0e 3e ea 1a 49 3e 1a da 81 3e
       0.006001007 0.13945124 0.19639173 0.2536171
000060 5b f5 6b 3e 99 5d 06 3c cc 09 cc 3e 1e c2 a0 bd
       0.23042814 0.008201026 0.39851224 -0.07849525
000070 6b 6a 98 3e 97 2e 78 3e df 6d ca bc 27 a5 3d be
       0.2976869 0.24236523 -0.024710594 -0.18520032
000080 a8 25 27 3e 4a 69 94 3d 81 9c ba bd e3 ed 07 bd
       0.16322958 0.07246645 -0.09111882 -0.03318585
000090 3c 1f f3 3d ed 39 20 be 1e 0a 0c bd f3 64 4c bd
       0.11871192 -0.15647097 -0.034189336 -0.04990096
0000a0 7c 09 48 be 87 94 cf bd 7f 7b 02 bd e7 f6 83 3d
       -0.19534868 -0.10135751 -0.031856056 0.06443577
0000b0 6a d0 94 3d 1d 61 da bd dd 78 89 be 54 14 90 3e
       0.07266314 -0.10663054 -0.26850024 0.2814051
0000c0 65 d0 3d 3e fa f9 aa 3e 2b 9f ee 3e a3 b8 a7 3e
       0.18536527 0.33393842 0.4660581 0.32758054
0000d0 3a cd 36 3d e6 28 ae 3e f4 1e 55 3e 13 41 8b 3e
       0.044629313 0.34015578 0.20812589 0.27198085
0000e0 24 eb 3b 3e c0 ec 4d 3e 0a 5d 76 3e 68 ef c1 3e
       0.18351418 0.20109844 0.24058929 0.37877965
0000f0 bc 60 97 3e dc ef 9b 3d 10 92 25 3d 75 cc ed 3d
       0.2956599 0.07614109 0.0404225 0.11611263

lstm.lstm.bias_hh_l0 f4 [64]
000000 5d ae 43 3e ef ab 89 3e 82 55 a1 3e fb 46 8e bc
       0.19109483 0.26888987 0.3151055 -0.01736783
000010 a8 de 62 3e 67 53 c4 3d 2c d4 5e 3d 7f 6e f6 bc
       0.22155249 0.0958622 0.05440156 -0.030081986
000020 86 68 45 bd 9b 43 94 3e 71 af a8 3e b0 53 7b 3e
       -0.048195384 0.2895783 0.3294635 0.24543643
000030 d6 ba 04 3e 39 41 b2 bc f7 1d ed 3d 12 99 06 3e
       0.12961897 -0.021759616 0.11577981 0.13144329
000040 55 d4 31 bd f0 16 33 3e d2 4f da 3e ee 1a 0c 3e
       -0.043415386 0.17489219 0.42639023 0.13682148
000050 cc 34 d5 3e bd af 35 3e a2 bc 2c 3d 7b 31 75 bc
       0.41641843 0.1774282 0.04217208 -0.01496541
000060 8e 08 96 bc 32 51 ab bc 2a 26 65 3e 64 94 92 3e
       -0.018314626 -0.02091274 0.2237784 0.28628838
000070 28 2f 7d 3e a9 3e 20 3e b2 d6 c7 3c d6 3c 8b 3d
       0.2472502 0.15648903 0.024394367 0.06798713
000080 62 28 88 bd 76 44 c9 bd 17 54 81 3e 5f d7 00 3e
       -0.066483274 -0.09827511 0.25259468 0.12582158
000090 50 00 b5 3d da 87 6b 3d f7 26 5b be bf 4b 47 be
       0.0883795 0.057502605 -0.21401583 -0.19462489
0000a0 c9 7e ce bd 0c 14 23 bb c8 ec 1e bd 6f af 6e 3e
       -0.10082776 -0.0024883775 -0.03880003 0.2330911
0000b0 e3 3a 43 3d 41 85 72 3d 0a b5 31 3e 42 cc bb 3d
       0.04766358 0.059209112 0.17354217 0.091698185
0000c0 cb b0 e6 3c 78 e6 c1 3e f8 cf ba 3e 49 3f ce 3e
       0.028160473 0.37871146 0.36486793 0.40282658
0000d0 f9 42 83 3e 5d 23 de 3c b6 4d b7 3e cb 2d 3c 3e
       0.25637034 0.027116472 0.35801476 0.18376844
0000e0 37 43 1b 3e c7 49 9c 3d 2c 95 2a 3e 91 c8 87 bd
       0.15162359 0.076312594 0.16658467 -0.06630052
0000f0 6a 91 4f 3e b6 9c 63 3e 8f 3d 9e 3e d7 52 20 bc
       0.20270315 0.22227749 0.3090634 -0.009785376

downstream.full.weight f4 [7, 16]
000000 3c 6f f0 be 05 56 45 bb 3f 0c 69 be d7 2c 1b be
       -0.46959865 -0.0030111086 -0.22758578 -0.15153824
000010 8f c8 60 bd c8 88 ea be 96 95 f6 3e 95 48 53 3e
       -0.054878768 -0.4580748 0.48161 0.20633157
000020 09 23 f6 3d 9b fc cb be 21 6b ab be 6f 3e 0c 3f
       0.12018401 -0.3984116 -0.3348017 0.54782766
000030 de f2 8a be d1 05 24 3f 3c 46 eb 3e 49 27 87 be
       -0.27138418 0.64071375 0.45952022 -0.2639716
000040 92 f0 c8 3e 90 5e 36 3e ee 12 ea 3e 17 e0 2a 3f
       0.3924604 0.1780951 0.45717567 0.66748184
000050 34 25 f0 3d b7 16 3f 3f 27 d9 6f 3e 19 96 87 be
       0.11725846 0.74644035 0.23422681 -0.26481703
000060 10 f9 2e 3e 2a 7d 5f be 9d 6b 3b 3f 82 18 0b 3f
       0.17087197 -0.2182509 0.7321108 0.5433427
000070 26 22 fd 3e f5 ca 01 bf f1 e0 e2 be d5 e3 a7 bd
       0.49440116 -0.5070031 -0.44312242 -0.081977524
000080 09 aa 35 3f a0 a3 bf 3e 57 71 84 3e 47 b8 43 3f
       0.7096258 0.37429523 0.2586772 0.7645306
000090 f5 39 dd be 26 9f cc be d6 fd c9 3e 26 de 76 be
       -0.4320828 -0.3996517 0.39451474 -0.2410818
0000a0 33 97 30 be 1e f8 e4 be c8 3d 03 bf 8e f6 c8 bb
       -0.17245178 -0.44720548 -0.51266146 -0.0061329072
0000b0 3f f2 d3 3e 68 bc 24 bf b1 5a 70 be 3e 31 8f 3e
       0.41395757 -0.64349985 -0.23472096 0.27967256
0000c0 83 b8 92 3e dc 87 d8 3e ee 43 2c bf 51 a6 00 bd
       0.28656396 0.42291152 -0.6729115 -0.03140861
0000d0 9b 9c 32 bd ed 73 c2 3d c9 96 d0 be 41 6d 03 bf
       -0.043606382 0.09494767 -0.4074004 -0.51338583
0000e0 44 db 92 be 29 4e 2b bf e4 fb ba be e1 fe da 3d
       -0.2868291 -0.6691614 -0.36520302 0.106931455
0000f0 41 5b aa 3e 4e 83 f0 3e 3d fe 2b 3f bc 11 aa 3d
       0.33272746 0.46975178 0.6718481 0.08304164
000100 e4 7e 18 bf e5 aa 93 3e 8d 73 1b 3f 74 82 85 be
       -0.5956862 0.2884132 0.6072319 -0.2607609
000110 fd 0f bd 3d 85 a9 41 3e 44 b9 c2 be 0f 27 09 3f
       0.09231565 0.18912323 -0.3803197 0.53575224
000120 71 60 ca 3d 6f a7 bc 3e 39 a4 20 3f 02 a4 05 bf
       0.09881676 0.36846492 0.62750584 -0.5220338
000130 a8 a0 09 bc 5b db 3c be 48 48 c0 be 61 89 ff 3e
       -0.00840012 -0.18443052 -0.37555146 0.499095
000140 90 de 22 bf a1 76 d2 be 42 82 84 be aa a0 b7 bd
       -0.63620853 -0.41106132 -0.2588063 -0.08966191
000150 6d bd 25 3f 9a 89 ee 3e 1f 0e 32 3e aa 13 1c 3f
       0.64742166 0.46589357 0.173882 0.60967505
000160 29 8b 61 3e a1 36 12 3e 75 c7 0d be 7c 3b 0f bf
       0.22025742 0.14278652 -0.13845618 -0.5595014
000170 c0 34 6d be 42 f4 db 3e 71 10 ed be 1a 48 58 3e
       -0.23164654 0.4295979 -0.46301606 0.21121255
000180 61 b5 89 be ff a5 d2 be 05 b1 05 bf 48 c3 aa be
       -0.26896194 -0.4114227 -0.52223235 -0.33352113
000190 eb da ec 3e 96 21 0b bf 90 55 0a bf 10 d4 fc be
       0.4626077 -0.54348123 -0.5403681 -0.4938054
0001a0 d9 4b f0 be f5 f1 01 3f 3e 2a 99 be 15 1b 42 bf
       -0.46932867 0.5075982 -0.2991504 -0.75822574
0001b0 7e f4 0e be d2 fa 9a 3e 20 9b ce be 4d 96 ea be
       -0.13960454 0.30269486 -0.40352726 -0.45817795

downstream.full.bias f4 [7]
000000 66 eb 38 3e 5e e0 d2 bd 88 9e 8b be dc b8 cb 3d
       0.18058547 -0.10296701 -0.27269387 0.099473685
000010 7d 2f 53 3e c4 f4 f7 39 e5 0a 8a be
       0.20623584 0.00047293876 -0.26961437

maxpooling.full.weight f4 [16, 16]
000000 7c d4 7b be 1c a1 a6 be be 73 b8 be 50 1a 8c be
       -0.24592775 -0.32544792 -0.36025804 -0.27363825
000010 2b 9d a6 3e 4c 5c 54 be f9 5d 8b 3e 33 38 ac 3e
       0.32541785 -0.20738333 0.27220133 0.33636627
000020 08 fb cf be 0e a5 68 3e 36 de 05 be fe 04 67 3e
       -0.4062121 0.22719213 -0.13073048 0.22560498
000030 73 02 cb 3e 50 0b d3 bd 5c 77 a9 be 92 01 31 be
       0.39650306 -0.10304892 -0.33098876 -0.17285755
000040 e4 a1 0b be 86 42 3a 3e d7 40 4c be 80 67 e6 bd
       -0.13635975 0.18189439 -0.1994661 -0.1125021
000050 5a 55 35 3e 92 40 d4 be 1a 3a cd be dd df c2 3e
       0.1770834 -0.41455513 -0.4008339 0.3806142
000060 ca 42 08 be b5 cf 83 3e 58 84 48 3d 39 a6 b0 be
       -0.13306728 0.25744405 0.048954338 -0.34501818
000070 86 93 6b 3e c0 2a ee 3b 2d 94 c7 be e8 31 ba bd
       0.23005494 0.00726828 -0.38980237 -0.0909155
000080 0b ea b8 3e 58 cb d0 be 4e 6f 63 be af a4 80 3e
       0.3611606 -0.4078014 -0.22210428 0.25125644
000090 af c3 43 be a0 75 fb bc 20 9c 03 bd 1a 35 6c 3e
       -0.19117616 -0.030695736 -0.032131314 0.23067132
0000a0 aa 68 40 3e 8d 3d af 3e 35 ce 85 3e 69 d2 8a 3e
       0.18789926 0.34226647 0.26133886 0.27113655
0000b0 3b c4 ce be 41 41 74 be 6a 48 38 3e 7d 04 b0 3e
       -0.40384087 -0.23853017 0.17996374 0.34378424
0000c0 28 b2 fe bd 82 b1 4b 3e a2 c4 b6 be 7b 7d a4 3e
       -0.12436324 0.19891933 -0.35696894 0.32126984
0000d0 28 a1 32 3d 8d fc 85 3e a1 80 ad be c4 b5 ad 3d
       0.04361072 0.26169243 -0.338872 0.08481935
0000e0 18 36 42 3d d4 ea 4d be 4f 3d b8 3e 69 4c a6 3e
       0.04741487 -0.20109111 0.35984275 0.3248017
0000f0 4b e0 8d 3e 44 e0 9a bd 2d a8 b9 be e1 8b c4 3e
       0.27710184 -0.075623065 -0.3626112 0.3838797
000100 36 d3 75 be c0 9a c1 be f7 3e c2 3e 9b a8 b4 be
       -0.24006352 -0.37813377 0.37938663 -0.35284886
000110 f0 6c dc be 00 c4 b7 3a 96 33 0f be f3 f7 b1 3e
       -0.43051863 0.0014020205 -0.13984522 0.34759483
000120 e1 8c bd be 4a 1c 26 3e 49 95 c4 3e c0 9b 89 3b
       -0.37021545 0.16221729 0.38395146 0.004199475
000130 8e c5 29 3e ab c1 a7 3e 31 03 90 3e de e2 46 3e
       0.16579267 0.32764944 0.28127435 0.1942248
000140 e5 ea c1 be 8e e1 7d 3e 48 c7 94 bd a2 43 4d be
       -0.37874523 0.24793074 -0.072645724 -0.20045331
000150 5e 5f bf be 14 cb 09 be 30 95 d0 3c 80 99 0e bd
       -0.37377447 -0.13456374 0.025461763 -0.034814358
000160 1c a8 9c be 21 42 76 be 10 16 af bd 11 8a bd 3e
       -0.30597007 -0.24048664 -0.0854913 0.370194
000170 78 0f 64 bd bc a9 f8 bd 00 6a 27 be c9 85 b4 3e
       -0.055678815 -0.12141749 -0.1634903 0.3525832
000180 5a 32 6e 3e 00 20 eb b8 84 e5 83 be c0 ec e0 3b
       0.23261395 -0.00011211634 -0.25761044 0.0068641603
000190 46 63 5a 3e 35 75 c8 3e 67 9c c5 3e 3c aa f4 3d
       0.21326932 0.39151922 0.38595888 0.11946532
0001a0 f5 d3 8c 3e d5 59 ab 3e 13 64 81 3e 5d 0c b3 3e
       0.2750546 0.33466974 0.25271663 0.3497037
0001b0 a6 1a 5a 3e 2f b6 80 3e 32 68 20 3e 44 74 c5 be
       0.21299228 0.25138995 0.15664747 -0.38565266
0001c0 1c e1 e6 3d 3d f1 9d 3e e6 40 7a 3e e8 eb 7f bd
       0.11273405 0.30848113 0.2443882 -0.062480837
0001d0 2b a0 81 3e 82 29 46 3e fe 28 3c 3e ca c9 6f 3e
       0.2531751 0.19351771 0.18375012 0.2341682
0001e0 50 63 8f be 09 f8 ae 3e 40 fd ae bd 4a ea 2f 3e
       -0.28005457 0.3417361 -0.08544397 0.17179218
0001f0 4a 26 06 3e fd 0a 97 3e 73 a3 7b be 42 70 5b 3e
       0.13100544 0.2950057 -0.2457407 0.21429542
000200 65 a7 bc be 20 a7 2a bc 88 d3 47 bd a6 64 00 3e
       -0.36846462 -0.010415822 -0.048785716 0.12538394
000210 88 e6 b9 be 2a c9 74 be 75 e0 8b 3e e0 2e 3c 3c
       -0.36308694 -0.23904863 0.27319685 0.011485785
000220 f6 75 b6 be 28 26 d1 be 06 69 28 3e 4b 07 d3 3e
       -0.35636872 -0.40849423 0.16446313 0.41216502
000230 dc 4d c5 3d f2 df 42 3e 31 ca ce 3e f6 49 81 be
       0.09633991 0.19030741 0.40388635 -0.2525174
000240 2d f5 b4 3e 43 8e 5d be 35 77 d9 3e 90 dd b8 3c
       0.35343304 -0.216363 0.4247376 0.022566587
000250 2f f0 b8 3e 54 2f c9 3d 0e 64 0b 3e 60 ea a8 bd
       0.36120746 0.0982348 0.13612387 -0.082478285
000260 25 9d c7 3e 96 74 28 3e 00 1a f3 bb 19 5f a9 3e
       0.3898708 0.16450724 -0.007418871 0.33080366
000270 20 4a 13 3c 08 56 9a be 20 bd 25 bc 9e 2d 29 be
       0.008989841 -0.30143762 -0.010115892 -0.16521308
000280 c8 34 75 3d d0 1d 04 3d 31 45 50 be f4 19 85 be
       0.05986479 0.032254994 -0.20338894 -0.25996363
000290 92 cb d6 be fe 11 59 3e 66 46 56 be 98 75 6f bd
       -0.41952187 0.2119827 -0.20925292 -0.058461756
0002a0 1e 6d 4b 3e 89 a3 9a 3e 8d 7f 4d be 88 f6 06 bd
       0.19865844 0.30202892 -0.20068188 -0.032949954
0002b0 48 55 1b bd 20 95 c9 bd 08 4f cb be 0f 36 d2 be
       -0.037923127 -0.098428965 -0.39708734 -0.41056868
0002c0 24 9e b8 3d c0 da d4 3b 2b a1 af 3e 7c 34 fd 3d
       0.09014538 0.0064958036 0.3430265 0.12363526
0002d0 e2 fd a6 be e2 98 8b be 6c 15 96 be 16 d8 21 be
       -0.32615572 -0.27265078 -0.2931322 -0.15805086
0002e0 b1 64 ad be 02 e3 5e 3e 80 d2 b3 bb f2 78 71 be
       -0.33865884 0.21766284 -0.00548774 -0.23581293
0002f0 80 94 c7 bd 4d b1 8b be be 5a 6e 3e e1 06 4b be
       -0.09745121 -0.27283707 0.23276803 -0.19826843
000300 14 33 fb 3d f2 fd 6a 3e fa 90 2a 3e c2 35 15 be
       0.12265602 0.22948435 0.16656867 -0.14571288
000310 e9 30 ca 3e 5a a1 30 3e 60 29 49 3c 88 14 14 3d
       0.3949044 0.1724905 0.012277931 0.036152393
000320 fb b6 99 3e dd 7f 8d 3e 56 f5 2d 3e 1f 21 d9 be
       0.30022416 0.27636614 0.1698812 -0.42408082
000330 22 a5 04 3e 8a a5 75 3e ad c8 9f 3e c0 a0 4a bd
       0.12953618 0.2398893 0.3120779 -0.04946971
000340 f4 d5 99 3d 72 79 58 3e 00 5f d3 bb 75 85 81 3e
       0.075115114 0.21140078 -0.006450534 0.25297132
000350 3c 0d d7 3d 53 38 d3 3e ff 6c ba 3e 11 30 92 3e
       0.10500571 0.4125391 0.36411282 0.28552297
000360 5e e9 10 3e 4c f7 99 3d 15 03 cf 3e cd 72 bf 3e
       0.14151523 0.07517871 0.4043204 0.37392274
000370 33 bc d5 3e b4 a8 72 be b8 a0 8e bd 68 3c c4 be
       0.41745147 -0.23697168 -0.069642484 -0.38327336
000380 16 dc 37 3e 40 b3 61 bc 40 a1 d2 3b d3 17 70 be
       0.1795505 -0.013775647 0.006427914 -0.23446588
000390 a9 80 d5 3e 9e 26 05 3e 08 74 06 bd cc c4 ec bd
       0.41699722 0.13003013 -0.0328255 -0.115609735
0003a0 b4 a7 21 be 19 a8 51 be c1 d4 96 3e 8f 27 c7 3e
       -0.1578663 -0.2047428 0.29459193 0.38897368
0003b0 4c 32 f1 3d ae a0 60 3e 70 e4 09 3d 4d 7e be be
       0.117771715 0.21936294 0.03366512 -0.37205735
0003c0 b2 e2 5a 3e 3b 41 af 3e ca 28 0f 3e ef 30 a0 be
       0.2137554 0.34229454 0.13980404 -0.31287333
0003d0 40 04 5a 3d 2c 67 b3 bd 38 e1 7b be d6 13 99 be
       0.05322671 -0.08759913 -0.24597633 -0.29897946
0003e0 4d 64 d7 3e 38 24 d0 bd 4b 9b a8 be 60 c6 ac bd
       0.4206871 -0.10163158 -0.3293098 -0.084362745
0003f0 30 72 40 3d 30 52 3f bd db 3a a9 3e 63 6d 90 3e
       0.046983898 -0.04670924 0.33052716 0.28208455

maxpooling.full.bias f4 [16]
000000 36 59 2b 3e 98 58 4c bd 6c 0d 52 be 90 7f 30 be
       0.1673325 -0.049889177 -0.20512933 -0.17236161
000010 00 ec e7 bb f4 27 82 3d 50 84 f1 3d e8 32 19 3e
       -0.007077694 0.06355277 0.11792815 0.14960825
000020 66 e8 58 be cc 68 7b be a4 39 e6 3d d4 a2 21 3e
       -0.21182403 -0.24551696 0.11241463 0.1578477
000030 84 8a f7 bd f8 19 9e bd 18 80 81 3d 10 78 bb 3c
       -0.12086967 -0.07719797 0.0632326 0.022884399
