best_model/loss/pup-b-h_dropout=0_wd=0_b=256_lr=0.01_walk=0_best_model.pt (torch_old, 289431 bytes, 15 tensors)

embedding.full.weight f4 [16, 1433]
0	0xbc5ac9d4	-0.013353784
1	0x3c85b3dc	0.016321115
2	0x3d1968be	0.037453406
3	0xbd580dcf	-0.052747544
4	0xbd3270c4	-0.043564573
5	0x3d4efa96	0.050531946
6	0xbcbf5d7e	-0.02336001
7	0xbd11d370	-0.035602033
8	0xbd238cfa	-0.039929368
9	0xbc9b14c2	-0.018930797
10	0xbd288181	-0.04113913
11	0x3c255930	0.010092065
12	0x3d5214f4	0.051289514
13	0xbc161158	-0.0091594085
14	0x3b949ba0	0.0045351535
15	0xbd60060e	-0.054693274
16	0xbcb6962c	-0.022288404
17	0xbc94de16	-0.018172305
18	0x39c4a200	0.00037504733
19	0xbd6b3241	-0.057420973
20	0xbc09dcf4	-0.008414496
21	0xbbfb6cb8	-0.0076728724
22	0xbd148e23	-0.036268365
23	0x3cd251ac	0.02567371
24	0x3d0e9ff2	0.034820504
25	0x3d7bab86	0.061442874
26	0x3d28b5ca	0.041188993
27	0x3ced82f8	0.028993115
28	0xbd2326be	-0.03983187
29	0xbb6d56b0	-0.0036215
30	0x3d4840ae	0.04888981
31	0xbc9292ca	-0.01789226
32	0xbd32fd96	-0.04369887
33	0xbd28091c	-0.041024312
34	0x3bba06b0	0.0056770667
35	0x3d44d0fe	0.048050873
36	0xbccec5e4	-0.025240846
37	0x3d6321be	0.0554521
38	0x3d425acc	0.047449872
39	0xbd345fb8	-0.044036597
40	0x3d726c48	0.059185296
41	0x3c2fc9c8	0.010729261
42	0x3ce30da4	0.027716465
43	0x3d6c745e	0.057728164
44	0xbd2370c3	-0.03990246
45	0xbd25fdb6	-0.04052516
46	0xbd5dd2a6	-0.054155968
47	0xbd5d4784	-0.05402328
48	0xbd5fd8a4	-0.054649964
49	0x3d7383cc	0.059451863
50	0xbb6130d0	-0.003436137
51	0xbd583bc3	-0.05279137
52	0xbd3aab5e	-0.045573585
53	0x3d77e1aa	0.060517944
54	0xbcf1b0dc	-0.029503278
55	0xbd6edf9d	-0.058318723
56	0xbd5b9954	-0.053613022
57	0xbd2b78a8	-0.041863114
58	0xbd2b7952	-0.041863747
59	0x3cb0346c	0.021509372
60	0x3c4abdf0	0.012374386
61	0xbaa0fd40	-0.0012282506
62	0x3d20babc	0.039240584
63	0x3d1a8d32	0.03773231
64	0x3d81b6d5	0.063337006
65	0x3d189fd0	0.037261784
66	0x3ce3c27c	0.027802698
67	0xbd359c06	-0.04433825
68	0xbd348e9c	-0.044081315
69	0x3c367920	0.011137277
70	0xbc903dc2	-0.017607573
71	0xbd087fe0	-0.033325076
72	0xbc724a4c	-0.014788222
73	0xbc376218	-0.011192821
74	0x3d255afe	0.04036998
75	0x3c8810c0	0.01660955
76	0x3d4f141c	0.050556287
77	0x3d839b1d	0.0642607
78	0x3d587156	0.05284246
79	0x3d1ea28c	0.038729236
80	0x3d1d6dc8	0.038434774
81	0x3ac73240	0.0015197471
82	0xbd2c5174	-0.042069867
83	0xbc042564	-0.008065555
84	0xbc2fb6e8	-0.010724761
85	0xbcc5ee94	-0.024161614
86	0x3cda4bac	0.026647411
87	0xbd74c683	-0.059759628
88	0xbd7b9de1	-0.061429862
89	0x3d1d98ba	0.03847573
90	0x3d2579ec	0.040399477
91	0xbd83644b	-0.06415614
92	0x3c8dcb54	0.017308868
93	0xbd35a46e	-0.044346265
94	0xbd3b23af	-0.045688327
95	0xbd1a5a6b	-0.037683886
96	0xbd40fa5c	-0.04711376
97	0xba10b480	-0.00055200607
98	0x3d4e9c2a	0.0504419
99	0x3ae28bc0	0.001728408
100	0xbcae087a	-0.021244276
101	0x3b0d1a00	0.002153039
102	0xbc55ed54	-0.013057072
103	0x3b3f1100	0.002915442
104	0xbd7063db	-0.05868898
105	0x3cad2480	0.021135569
106	0x3d55d356	0.0522035
107	0x3d2dcccc	0.042431638
108	0x3afc5c40	0.0019253567
109	0xbd54f777	-0.051993813
110	0x3c136ae8	0.008997656
111	0xbd5bb784	-0.05364181
112	0x3d5b9d50	0.05361682
113	0x3c9c3000	0.019065857
114	0xbd649305	-0.05580427
115	0x3d1a443e	0.037662737
116	0x3ceaf98c	0.028683446
117	0xbbcfeeb8	-0.006345596
118	0x3cdad5bc	0.026713245
119	0xbd538132	-0.051636882
120	0xbd4d54da	-0.05012975
121	0x3ba5ce40	0.0050599873
122	0xbc816e52	-0.015799675
123	0xbd4e4298	-0.050356477
124	0x3cafbae4	0.021451421
125	0xbccbb5f2	-0.024867032
126	0xbcd26c38	-0.025686368
127	0x3cba4e6c	0.022742473
128	0x3d64df50	0.05587703
129	0x3d354506	0.04425528
130	0x3ca361c4	0.01994408
131	0xbcda22c4	-0.026627906
132	0xbd49d153	-0.049271893
133	0x3c7a0590	0.015260115
134	0x3d08089e	0.033211343
135	0xbd482963	-0.048867594
136	0xbcaeb8b6	-0.021328311
137	0xbcc676b2	-0.02422652
138	0xbd65e024	-0.05612196
139	0x3d147898	0.03624782
140	0x3d620194	0.055177286
141	0x3c4442f8	0.011978857
142	0xbd40dcf1	-0.047085706
143	0x3d512b2c	0.051066563
144	0xbcac8e86	-0.021064054
145	0x3d49dd9a	0.0492836
146	0x3d77fc9c	0.06054364
147	0x3d788d2e	0.060681514
148	0xbd81ae3a	-0.06332059
149	0xbace81c0	-0.0015755221
150	0xbc9bf6dc	-0.01903861
151	0xbd81c3a8	-0.063361466
152	0xbb088660	-0.0020832047
153	0x3d322c2a	0.04349915
154	0xbd2a7e3e	-0.0416243
155	0xbd004ae3	-0.031321418
156	0xbd7f0a04	-0.06226541
157	0x3d193df6	0.037412606
158	0x3d48dfb0	0.04904145
159	0xbba49208	-0.005022291
160	0xbce61b68	-0.02808924
161	0xbd7e2ba0	-0.062053323
162	0x3ccb82fc	0.024842732
163	0x3cc255d0	0.02372256
164	0x3bf24ff0	0.007394783
165	0x3bfd81b0	0.007736407
166	0x3c8af470	0.01696226
167	0x3a645e80	0.00087115914
168	0x3d72db22	0.059291013
169	0x3d4d34cc	0.05009918
170	0x3d026c64	0.03184165
171	0x3c357bb0	0.011076853
172	0x3c935084	0.017982729
173	0xbc1b0504	-0.009461645
174	0x3d0f469e	0.034979455
175	0x3d742ebe	0.05961489
176	0xbb0ed500	-0.0021794438
177	0x3cd1654c	0.025560997
178	0x3bc5c180	0.00603503
179	0xbc2960a4	-0.010337982
180	0xbd025f0c	-0.031828925
181	0x3c966ff0	0.018363923
182	0x3c5f6da8	0.013636984
183	0xbcd90ec2	-0.026496295
184	0x3d65705a	0.05601535
185	0x3d3caeac	0.046065018
186	0x3d0681fa	0.0328388
187	0xbd1f0b96	-0.03882941
188	0x3d45064a	0.0481017
189	0xbc825540	-0.015909791
190	0x3d5c648e	0.053806834
191	0x3d78b47a	0.06071899
192	0x3d762b4a	0.060099877
193	0xbd1d1be4	-0.038356677
194	0x3c38d398	0.011280917
195	0x3d77c7a6	0.060493134
196	0xbb424cf0	-0.002964791
197	0xbd67d7e7	-0.056602385
198	0xbd5d93bf	-0.05409598
199	0x3cf142b0	0.029450744
200	0x3b181700	0.0023207068
201	0xbc57c6d0	-0.013169959
202	0x3d642e18	0.05570802
203	0xbcdc18c2	-0.026867274
204	0xbd2f8f56	-0.042861305
205	0x3cbf8d08	0.023382679
206	0x3c441698	0.011968277
207	0x3cf37c08	0.029722229
208	0x3d1c7a5a	0.03820262
209	0xbd826a56	-0.06367938
210	0x3c81b4d4	0.015833296
211	0xbbc59e40	-0.0060308278
212	0x3d38885c	0.045051917
213	0x3c4e9160	0.012607902
214	0xbd1f26e8	-0.038855463
215	0xbd748104	-0.05969335
216	0xbad00000	-0.0015869141
217	0xbc81b670	-0.015834063
218	0x3d6dc9f4	0.058053926
219	0x3d044a8c	0.032297656
220	0x3ce90618	0.028445289
221	0x3b52c620	0.0032161549
222	0x3d6d1c2c	0.057888195
223	0x3bbb1fe0	0.005710587
224	0x3d211fbc	0.039336905
225	0x3b8bcb50	0.00426618
226	0x3ce5e1ac	0.02806171
227	0xbce7a4c0	-0.028276801
228	0xbbc67d28	-0.0060574003
229	0xbc6f82a4	-0.0146185495
230	0x3c9eb6a4	0.0193742
231	0x3cbad824	0.022808142
232	0x3d0e1a4c	0.034693047
233	0x3c2f3d80	0.010695815
234	0xbcfdaa66	-0.030965041
235	0x3b4966c0	0.003073141
236	0xbbad30d0	-0.00528536
237	0x3d78fd9a	0.06078873
238	0x3c94f8d0	0.01818505
239	0xbd125a68	-0.03573075
240	0xbd5266d9	-0.051367614
241	0xbcdf6cda	-0.027273584
242	0xbd138d12	-0.036023207
243	0x3d58fb98	0.052974313
244	0x3d0af874	0.03392835
245	0x3baf3570	0.0053469464
246	0xbd5f9208	-0.054582626
247	0xbd4b2e06	-0.04960444
248	0xbd20d15c	-0.03926216
249	0xbd401dda	-0.04690347
250	0xbd1b9543	-0.037984144
251	0x3b9b1150	0.0047322884
252	0xbd1f7ef7	-0.038939442
253	0x3ba91600	0.0051600933
254	0x3d3651fa	0.044511773
255	0x3c728b10	0.014803663

embedding.full.bias f4 [16]
0	0xbc2fe8d4	-0.010736663
1	0xbc8d7bba	-0.017270911
2	0x3cbb555c	0.022867851
3	0x3be57330	0.007002257
4	0xbc9cd032	-0.019142244
5	0x3b5901d8	0.0033112671
6	0xbc5ee83e	-0.013605176
7	0xbc2e951c	-0.010655668
8	0xbcd6bd59	-0.026213335
9	0xbbfa2c4c	-0.007634675
10	0x3a89f5d0	0.0010525528
11	0x3c6204a4	0.013795052
12	0x398a5800	0.00026386976
13	0x3b779558	0.0037778225
14	0xbc888291	-0.016663821
15	0x3ca35312	0.019937072

aggregator.full.weight f4 [16, 2866]
0	0xbc80c0e4	-0.015716977
1	0xbe34dba8	-0.17661917
2	0xbe01aa93	-0.12662725
3	0x3e67deb6	0.22643551
4	0xbe8864b8	-0.26639342
5	0x3e6371f9	0.22211446
6	0x3e480514	0.19533187
7	0x3e447ef7	0.19189058
8	0x3e05b12f	0.13055871
9	0xbe8d5b7c	-0.2760886
10	0x3e87f6bc	0.2655543
11	0x3e0ca578	0.13734996
12	0xbd6bbe95	-0.0575548
13	0x3e329aca	0.1744186
14	0xbe058640	-0.13039494
15	0xbd747ceb	-0.059689444
16	0xbe4eeb1c	-0.20206875
17	0x3e135872	0.14389208
18	0x3d8cfc08	0.06884009
19	0x3e83e0be	0.25757402
20	0x3e788248	0.24268448
21	0xbdb571c0	-0.08859587
22	0x3c72ef1b	0.014827515
23	0xbde9b1ba	-0.11410852
24	0x3e57bad2	0.2106736
25	0xbc83ca2d	-0.016087616
26	0xbe99aa0a	-0.30012542
27	0xbddb6df8	-0.10714334
28	0xbd903f43	-0.07043316
29	0x3d0f513a	0.034989573
30	0xbe229a94	-0.1587928
31	0xbe8451da	-0.25843698
32	0x3eac7ca6	0.3368885
33	0xbe3aa0c8	-0.18225396
34	0x3c8bef6e	0.017081942
35	0xbe3e2dbe	-0.18572137
36	0x3e6ed76a	0.23324361
37	0x3dd29a9d	0.102833964
38	0xbe1da97d	-0.15396686
39	0x3d290cc0	0.041271925
40	0xbe6c4169	-0.23071827
41	0xbe441f5c	-0.19152588
42	0xbd0034b1	-0.03130025
43	0xbd741e4b	-0.059599202
44	0xbe2d600e	-0.16931173
45	0xbe5026a8	-0.20327246
46	0x3e7af985	0.24509247
47	0x3cc99758	0.0246083
48	0x3df6c197	0.12048643
49	0x3c35b475	0.011090388
50	0xbde5b2b5	-0.11215726
51	0xbe95a43c	-0.29226863
52	0x3b32d537	0.002728773
53	0x3e9a42a0	0.30128956
54	0xbe78ed6c	-0.2430932
55	0xbd78af9e	-0.060714357
56	0xbde80df5	-0.11330787
57	0x3dd8b89d	0.10582087
58	0xbe3093c0	-0.17243862
59	0x3cb9ae18	0.022666022
60	0xbd73f3a0	-0.05955851
61	0x3e2329c8	0.15933907
62	0x3e78daea	0.24302259
63	0x3e935262	0.2877379
64	0x3dc2d99c	0.09514162
65	0x3de819ea	0.11333068
66	0x3e86dc3a	0.26339895
67	0xbeb6c0ab	-0.3569387
68	0x3da4bdaa	0.08043988
69	0xbe625ea3	-0.22106414
70	0xbb91bdd1	-0.0044476767
71	0xbde0b9f2	-0.10972966
72	0x3e728363	0.23682933
73	0x3e959673	0.29216346
74	0x3c3f0ddf	0.011661022
75	0x3e678a81	0.22611429
76	0xba35ef9f	-0.00069403084
77	0xbeb65b03	-0.3561631
78	0xbe7cbb54	-0.24680835
79	0xbdadbc18	-0.08483142
80	0x3cf70a97	0.030156417
81	0x3d8f537d	0.06998346
82	0xbd4524a1	-0.048130635
83	0xbe44551f	-0.19173096
84	0xbd08d756	-0.033408485
85	0x3eac3cbc	0.33640087
86	0x3df95974	0.12175265
87	0xbdb07f4d	-0.08618031
88	0x3e1fdce4	0.15611607
89	0xbdb1ee8d	-0.08688078
90	0xbe3dc7ad	-0.18533202
91	0x3d9351d9	0.071933456
92	0xbd3ef576	-0.04662081
93	0xbe11b0de	-0.14227626
94	0xbe1fd1fc	-0.15607446
95	0xbe0c8d69	-0.13725819
96	0x3e1602a7	0.1464945
97	0x3e0754d5	0.13215955
98	0x3e42f0b7	0.19037138
99	0xbc555fa9	-0.013023295
100	0x3dfde834	0.12397805
101	0x3e3d80ca	0.1850616
102	0xbe51f171	-0.20502259
103	0x3e018633	0.12648849
104	0x3ce4c88a	0.027927656
105	0x3e0acd08	0.13554776
106	0xbd80f0c4	-0.062959224
107	0x3e010bc9	0.12602152
108	0xbe4e1e13	-0.2012866
109	0x3e77bd98	0.24193418
110	0x3e662009	0.22473158
111	0xbe37a2cf	-0.179332
112	0xbe90861b	-0.28227314
113	0xbd39046f	-0.045170244
114	0x3e73220c	0.23743457
115	0x3c4a5cd8	0.012351237
116	0xbe03d1e2	-0.12873033
117	0x3db15141	0.08658076
118	0xbe34054c	-0.17580146
119	0xbe90ef1c	-0.28307426
120	0xbd215398	-0.03938636
121	0x3e5bbd87	0.21459018
122	0x3d4645b1	0.048406307
123	0x3c8b64f5	0.017015914
124	0xbd5a6a9b	-0.053324323
125	0xbd12bfa5	-0.035827298
126	0x3e18f2c0	0.14936352
127	0xbda49180	-0.080355644
128	0x3db38c71	0.087670214
129	0xbe7942b5	-0.24341853
130	0x3e8cfbb2	0.27535778
131	0xbdc5dbb2	-0.09661044
132	0x3e798308	0.2436639
133	0xbe52c6b7	-0.20583616
134	0x3bfc90f7	0.007707711
135	0xbe2ec840	-0.17068577
136	0x3e75a544	0.23988825
137	0x3e691d3f	0.22765063
138	0x3e3007cf	0.17190479
139	0xbe0e16b0	-0.13875842
140	0x38d1a981	9.997469e-05
141	0xbe10bb58	-0.14133966
142	0x3e34fa91	0.17673708
143	0x3e9a9894	0.30194533
144	0xbe2112bd	-0.15729804
145	0xbe93adc7	-0.2884352
146	0x3e8b21a3	0.271741
147	0xbe9531ed	-0.29139653
148	0x3df2aec6	0.11849742
149	0xbdd4cbe7	-0.10390454
150	0x3e9a45d1	0.3013139
151	0xbe2b96ac	-0.16756696
152	0x3eb61d1f	0.35569093
153	0xbd857bdb	-0.06517764
154	0x3db2fc91	0.087395795
155	0x3e50a57b	0.20375626
156	0xbd012084	-0.03152515
157	0x3e082b1c	0.13297695
158	0x3d1af7b4	0.037833884
159	0x3d3026ba	0.043005683
160	0x3e9ea0c4	0.3098203
161	0x3e5925c3	0.21205811
162	0xbe861454	-0.26187384
163	0xbd0f73f6	-0.0350227
164	0xbd3a53c0	-0.045490026
165	0xbe2c2add	-0.16813226
166	0x3e11d16c	0.14240044
167	0x3e44582d	0.19174261
168	0xbe87f965	-0.2655746
169	0x3e505367	0.20344315
170	0xbe249b3a	-0.16074839
171	0x3c9b55e5	0.018961856
172	0xbd221175	-0.03956743
173	0xbe647eef	-0.22314046
174	0xbddd7412	-0.10813154
175	0x3e8717ce	0.2638535
176	0x3e05f5a1	0.13081981
177	0x3d20bf7d	0.039245117
178	0xbd576ee5	-0.05259599
179	0xbe073494	-0.1320365
180	0x3dad32ea	0.08456977
181	0xbdeb50c6	-0.11490016
182	0xbdd594f4	-0.10428801
183	0x3cad76d8	0.021174833
184	0x3e68c81b	0.22732584
185	0xbd9a894e	-0.0754572
186	0x3e0fa068	0.14026034
187	0xbe9dfccf	-0.3085694
188	0xbe001305	-0.12507255
189	0x3e46f4a5	0.19429262
190	0x3daf269d	0.08552287
191	0xbe43e544	-0.19130427
192	0x3d800dad	0.062526084
193	0xbe0b2c84	-0.135912
194	0xbe2694be	-0.16267678
195	0x3e303ede	0.17211482
196	0xbe895b78	-0.26827598
197	0xbdc1b112	-0.094576016
198	0x3e6d293e	0.23160264
199	0x3e870096	0.26367635
200	0xbe500180	-0.20313072
201	0x3ded6a10	0.115924954
202	0x3c76d298	0.015064858
203	0x3ea55557	0.32291672
204	0x3de3a060	0.111145735
205	0x3dc80304	0.097662
206	0x3caa01ef	0.020752875
207	0x3dcfddb2	0.10149707
208	0x3db6c3fc	0.089241
209	0xbe6ac004	-0.2292481
210	0xbddf5dd9	-0.10906572
211	0xbe1ca6cf	-0.15298007
212	0xbe64f110	-0.22357583
213	0x3e2ae33d	0.16688247
214	0x3d3dce0f	0.04633909
215	0x3dc6f1a2	0.097140566
216	0x3e650d5b	0.22368376
217	0x3e140de5	0.14458425
218	0x3dfc815b	0.1232936
219	0xbcc9e968	-0.02464743
220	0xbd3c83d8	-0.046024173
221	0x3e1c97b0	0.15292239
222	0x3e808745	0.25103202
223	0x3df36704	0.11884883
224	0xbe51867d	-0.2046146
225	0x3e8e35fd	0.27775565
226	0x3e082508	0.13295376
227	0x3e6840b5	0.22680934
228	0xbc9d2c69	-0.019186215
229	0x3e8d426b	0.27589735
230	0x3d594836	0.05304738
231	0x3e673d17	0.22581898
232	0xbe43b639	-0.19112481
233	0x3e5dd5d5	0.21663602
234	0xbea42ecb	-0.3206695
235	0xbd1b6751	-0.037940327
236	0xbe2e8fd0	-0.17047048
237	0x3dd005e1	0.10157371
238	0x3e60eb47	0.21964751
239	0xbe5c73a4	-0.21528488
240	0x3e36372f	0.17794488
241	0x3e0eeb6e	0.13956997
242	0x3b9080c1	0.00440988
243	0x3e300ca1	0.17192318
244	0x3df3c124	0.11902073
245	0x3dacb216	0.08432405
246	0xbe185dde	-0.14879557
247	0xbd843651	-0.064556725
248	0x3e83841e	0.25686735
249	0xbcf5a96a	-0.02998801
250	0xbdb84eb5	-0.08999387
251	0xbe812aa1	-0.25227836
252	0xbe32750b	-0.17427461
253	0xbc446913	-0.011987942
254	0x3e255373	0.16145115
255	0xbe260646	-0.1621333

aggregator.full.bias f4 [16]
0	0x3d78b33f	0.060717817
1	0x3d632a1d	0.055460084
2	0x3db9af50	0.09066641
3	0x3dfbee08	0.1230126
4	0x3c88e212	0.016709361
5	0xbe0cfebf	-0.13769053
6	0x3c97e12a	0.018539984
7	0x3ca16989	0.019703643
8	0x3da88974	0.08229342
9	0x3de1430f	0.109991185
10	0x3dbbc0db	0.09167644
11	0x3c5a551c	0.013325956
12	0x3e3389b2	0.17532995
13	0x3d62925e	0.055315368
14	0x3e1039c7	0.1408454
15	0x3d691dc0	0.056913137

step.full.weight f4 [1, 32]
0	0x3d0bde3c	0.034147486
1	0xbe20908f	-0.15680145
2	0x3e1c9eb5	0.15294917
3	0xbdd8e6fc	-0.10590932
4	0xbe100c41	-0.14067174
5	0x3d32b438	0.0436289
6	0x3e290271	0.16504838
7	0xbdab6b3f	-0.08370065
8	0x3e1757cd	0.14779587
9	0xbd690ea4	-0.056898728
10	0xbdc76eca	-0.09737928
11	0xbda1afbb	-0.07894846
12	0x3d23a234	0.03994961
13	0x3de00206	0.10937886
14	0xbe21698a	-0.15762916
15	0xbc621120	-0.013798028
16	0x3d84f3aa	0.06491788
17	0xbaf5c000	-0.0018749237
18	0x3df12202	0.117740646
19	0xbd2c311c	-0.04203902
20	0xbe133886	-0.1437703
21	0x3e130add	0.14359613
22	0x3cf08258	0.029359028
23	0x3dae7c02	0.08519746
24	0x3dd79dca	0.10528143
25	0xbe202f5d	-0.15643068
26	0xbe307e6f	-0.1723573
27	0xbcf11658	-0.0294296
28	0xbe0211e4	-0.12702137
29	0xbd0c6c44	-0.034282938
30	0xbe02ecd0	-0.1278565
31	0xbdebd12a	-0.11514504

lstm.lstm.weight_ih_l0 f4 [64, 16]
0	0x3ec2c93b	0.38044152
1	0x3e6c4044	0.2307139
2	0x3ef4833e	0.4775638
3	0x3e1f89f8	0.15579975
4	0x3ed8900b	0.42297396
5	0x3ecdd913	0.40204677
6	0x3f10e4dc	0.5659921
7	0x3e3e823f	0.18604372
8	0x3ed72293	0.42018566
9	0x3eaef684	0.34172451
10	0x3e5013bd	0.2032003
11	0x3eeb5090	0.45959902
12	0x3eb05ba2	0.3444491
13	0x3edcf663	0.43156728
14	0x3f161228	0.58621454
15	0x3ef0a204	0.46998608
16	0x3ed3e8a2	0.41388422
17	0x3ded7289	0.115941115
18	0x3e8c63ba	0.27419835
19	0x3e37ac2c	0.17936772
20	0xbd36cf7a	-0.04463146
21	0x3ef78123	0.4834071
22	0x3dd7bb24	0.10533741
23	0x3eaec1aa	0.3413213
24	0x3f0afb45	0.54289657
25	0x3e8d2e5c	0.27574432
26	0x3dcc1b0b	0.099660955
27	0x3ee1a77a	0.44073087
28	0x3e8ce6e5	0.2751991
29	0x3ea4d38c	0.32192647
30	0x3e63160e	0.22176382
31	0x3e94be47	0.2905142
32	0x3f14e7e8	0.5816636
33	0x3eec68dd	0.46173754
34	0x3e97292d	0.29523602
35	0x3ecac486	0.3960306
36	0x3e2c0555	0.16798909
37	0x3e3239d5	0.17404874
38	0x3edab7b0	0.42718267
39	0x3df81cc7	0.12114864
40	0x3ea6276d	0.32451954
41	0x3f086639	0.5328098
42	0x3ef4226a	0.47682506
43	0x3ebd918a	0.370251
44	0x3f0d82a8	0.5527749
45	0x3df5d222	0.1200297
46	0x3e9045cf	0.2817826
47	0x3ecb0d10	0.39658403
48	0x3efe0b5e	0.49618047
49	0x3f0626ad	0.52402765
50	0x3dd3316e	0.10312162
51	0x3e8ca89f	0.27472398
52	0x3eb1c0ae	0.34717315
53	0x3e17f19e	0.14838263
54	0x3e642c68	0.22282565
55	0x3dccf729	0.100080796
56	0x3ea09c18	0.3136909
57	0x3f02d946	0.5111278
58	0x3ec1b15b	0.37830624
59	0x3f08e494	0.5347378
60	0x3f01ca9a	0.5069977
61	0x3f10991f	0.56483644
62	0x3e9bd3ae	0.30434936
63	0x3e45782c	0.19284123
64	0x3e5e773f	0.21725176
65	0x3ec7a2a6	0.38991278
66	0x3b8a5475	0.004221494
67	0x3f10cc2b	0.56561536
68	0x3d5faec3	0.054610025
69	0x3dabc0cd	0.08386383
70	0x3e236f7a	0.15960494
71	0x3f1605cc	0.58602595
72	0x3e060443	0.13087563
73	0x3e3cb01d	0.18426557
74	0x3e82a431	0.25515893
75	0x3ef5f1ee	0.4803614
76	0x3e27346e	0.16328594
77	0x3ee04736	0.4380433
78	0x3e9d2844	0.30694783
79	0x3ed84382	0.42239004
80	0x3ef55ef5	0.4792401
81	0x3ed3f71c	0.41399467
82	0x3f0e497a	0.55580866
83	0x3f155f29	0.5834833
84	0x3f1fd2cb	0.6243102
85	0x3e546a38	0.20743644
86	0x3f095c41	0.53656393
87	0x3efd33b1	0.494535
88	0x3e0534d0	0.13008428
89	0x3f0f5762	0.5599271
90	0x3e849488	0.2589457
91	0x3f1ed53c	0.6204412
92	0x3f017470	0.50568295
93	0x3e9a0993	0.3008543
94	0x3f0febb6	0.5621904
95	0x3f13fe3a	0.57809794
96	0x3edbf4c6	0.42960185
97	0x3ecfe6d1	0.40605786
98	0x3ee3817f	0.44434735
99	0x3f1dbb75	0.6161416
100	0x3f0a3f5c	0.5400293
101	0x3e95fe14	0.2929541
102	0x3e926429	0.2859204
103	0x3e890ec2	0.26769072
104	0x3e98479a	0.29742128
105	0x3f01bc57	0.5067801
106	0x3eedac07	0.4642031
107	0x3ed7e52b	0.4216703
108	0x3e984362	0.2973891
109	0x3ef9e9db	0.4881123
110	0x3eb9a903	0.36261758
111	0x3e90ae3f	0.2825794
112	0x3e006546	0.12538633
113	0x3e4fe703	0.20302968
114	0x3e718d1e	0.23588988
115	0x3ee1ffdb	0.44140515
116	0x3e5b5c09	0.21421827
117	0x3d782355	0.06058057
118	0x3efb61f0	0.49098158
119	0x3ecf3fb9	0.40478304
120	0x3f0d6853	0.5523731
121	0x3e54ab2d	0.20768423
122	0x3e88b34b	0.2669929
123	0x3ec791e5	0.38978496
124	0x3e908ddf	0.2823324
125	0x3edc9e8b	0.4308971
126	0x3f11c2ee	0.56938064
127	0x3eec7c94	0.46188796
128	0x3e0b2f21	0.13592197
129	0x3dd08ac4	0.101827174
130	0x3ef6cfc6	0.48205394
131	0x3ef1f054	0.47253668
132	0x3ebbdaa2	0.3669024
133	0xbe23ca98	-0.15995252
134	0x3e911d91	0.2834287
135	0x3f231415	0.6370252
136	0x3c0fcca5	0.008776818
137	0x3d8345d8	0.06409806
138	0x3e9e0ec6	0.30870646
139	0x3f1fe270	0.6245489
140	0x3e8a3006	0.26989764
141	0x3d22d05d	0.039749492
142	0x3e52be8b	0.20580499
143	0x3f0fcc1f	0.5617084
144	0x3f139081	0.5764237
145	0x3d130159	0.035889957
146	0x3eb229d6	0.34797543
147	0x3ec2ba3a	0.38032705
148	0x3de0847c	0.109627694
149	0x3ec49749	0.3839667
150	0x3f11b062	0.56909764
151	0x3ed9b75f	0.42522714
152	0x3f2267fc	0.6343992
153	0x3ec9b713	0.39397487
154	0x3ee435f0	0.445724
155	0x3eb9664a	0.36210853
156	0x3ef2e796	0.4744231
157	0x3d86e252	0.06586136
158	0x3f0ca35e	0.5493678
159	0x3e0ab662	0.13546136
160	0x3e33d9a8	0.17563498
161	0x3ee3eb40	0.4451542
162	0x3e828b15	0.25496736
163	0x3e85b5b0	0.2611518
164	0x3f057ae0	0.5214062
165	0x3e30cd76	0.17265877
166	0x3e6c98a7	0.23105107
167	0x3ef92857	0.4866359
168	0x3ec5adb1	0.3860908
169	0x3e775620	0.24153948
170	0x3e182862	0.14859155
171	0x3ea93152	0.3304544
172	0x3f0a7298	0.54081106
173	0x3e98cba1	0.29842857
174	0x3f1f43d1	0.62212855
175	0x3df3ea48	0.1190992
176	0x3f08bace	0.5341004
177	0x3ecf9885	0.4054605
178	0x3e317191	0.17328478
179	0x3edb721a	0.4286049
180	0x3eb4d68a	0.3531993
181	0x3ebe9481	0.37222674
182	0x3ec35e78	0.3815801
183	0x3f00716f	0.50173086
184	0x3e88bcd3	0.2670656
185	0x3e91104d	0.2833275
186	0x3eadc579	0.33939722
187	0x3e45c87c	0.1931476
188	0x3dabb9b5	0.0838503
189	0x3e9ee907	0.3103716
190	0x3eba48a3	0.36383542
191	0x3efe1cc1	0.49631312
192	0x3eee8848	0.4658835
193	0x3e811941	0.2521458
194	0x3ec12551	0.37723783
195	0x3f1d458a	0.61434233
196	0x3e3e1e7f	0.18566321
197	0xbe3b74dd	-0.18306299
198	0x3ead2078	0.33813834
199	0x3eb4b86c	0.35296953
200	0x3e89307e	0.2679481
201	0x3ed85911	0.42255452
202	0x3eac24b3	0.3362175
203	0x3efb42fb	0.4907454
204	0x3e9f5cc1	0.31125453
205	0xbcab1daa	-0.020888168
206	0x3ed8f8b9	0.4237726
207	0x3ef6db72	0.48214298
208	0x3e82b246	0.25526637
209	0x3e27f5ef	0.1640241
210	0x3eed175d	0.46306887
211	0x3e22fb91	0.15916277
212	0x3ef7914a	0.48353034
213	0x3f080aad	0.5314129
214	0x3f1f8e2f	0.6232633
215	0x3f0b4b46	0.54411733
216	0x3eb78a01	0.35847476
217	0x3ef96217	0.4870765
218	0x3ebfd7ed	0.37469426
219	0x3e8cb4ac	0.27481592
220	0x3e3ef70a	0.18648925
221	0x3f0e912f	0.5569028
222	0x3ee224b8	0.4416864
223	0x3f1ccc93	0.61249655
224	0x3f07c8a0	0.53040504
225	0x3e300c9a	0.17192307
226	0x3ed62f1a	0.4183281
227	0x3daf3cd0	0.08556521
228	0x3e933e96	0.28758687
229	0x3f0bb73b	0.5457646
230	0x3d8279ce	0.06370889
231	0x3e73baac	0.23801678
232	0x3e9e5e9c	0.30931556
233	0x3e9767a3	0.29571256
234	0x3d135fcb	0.035980027
235	0x3eecc0ad	0.4624075
236	0x3f115983	0.5677721
237	0xbd1f6f94	-0.03892477
238	0x3f107982	0.56435406
239	0x3ea74f04	0.32677472
240	0x3ec7e4f7	0.39041874
241	0x3dda96bf	0.10673284
242	0x3e8695b1	0.2628608
243	0x3eee91d4	0.46595633
244	0x3e1edda4	0.15514237
245	0xbdbf85e2	-0.09351708
246	0x3d014e4c	0.03156881
247	0x39fb5fa8	0.0004794572
248	0x3d16d764	0.036826506
249	0x3f00beca	0.5029112
250	0x3f182655	0.5943349
251	0xbdc0de3e	-0.09417389
252	0x3f1eff4d	0.6210831
253	0x3f13ebd2	0.5778171
254	0x3deb7d83	0.11498549
255	0x3e49a4e2	0.19691804

lstm.lstm.weight_hh_l0 f4 [64, 16]
0	0xbe257aaa	-0.16160074
1	0x3d840190	0.064456105
2	0x3dc49ae4	0.095998555
3	0x3d54ed68	0.05198422
4	0x3ca39200	0.01996708
5	0xbe618012	-0.22021511
6	0xbe28ba9e	-0.16477439
7	0xbd88e4e4	-0.066842824
8	0xbc16b020	-0.009197265
9	0xbe46c464	-0.19410855
10	0xbe08d216	-0.13361391
11	0x3de3e974	0.11128512
12	0x3e729694	0.23690253
13	0xbd57f898	-0.05272731
14	0x3dd322c0	0.103093624
15	0x3e49019a	0.19629517
16	0xbdd982c0	-0.10620642
17	0x3e21710e	0.15765783
18	0x3e065be2	0.13120988
19	0xbe66d1ce	-0.22540972
20	0xbd660e68	-0.056166083
21	0x3e4e444a	0.20143238
22	0x3d95db04	0.073171645
23	0xbd8f3ecc	-0.069943994
24	0xbe29ac68	-0.16569674
25	0x3d78e5a0	0.060765862
26	0x3e2b102e	0.16705391
27	0x3d416a50	0.047220528
28	0xbced5aa0	-0.028973877
29	0x3dee9e8c	0.11651334
30	0x3d02b7b8	0.03191349
31	0xbe048094	-0.12939674
32	0xbe0140fc	-0.12622446
33	0x3e633586	0.22188386
34	0x3e3abbc6	0.18235692
35	0x3db624c4	0.08893731
36	0x3e2b3bfe	0.16722104
37	0xbd3a2858	-0.04544863
38	0x3db781d0	0.08960307
39	0x3e4ce19a	0.20007935
40	0xbe6b1fb4	-0.22961313
41	0x3c2b7000	0.010463715
42	0x3db3e750	0.08784354
43	0xbda7eb18	-0.081991374
44	0x3db9bbfc	0.09069058
45	0x3e06424e	0.1311123
46	0xbe70beb0	-0.23510242
47	0x3b933280	0.004492104
48	0xbb854900	-0.00406754
49	0xbd18ad20	-0.03727448
50	0x3e2b01ba	0.16699877
51	0x3dba057c	0.09083077
52	0x3e6c178c	0.23055857
53	0x3db3eb68	0.087851346
54	0x3c314fe0	0.010822266
55	0x3df15654	0.11784044
56	0x3e6e5244	0.2327357
57	0xbe4abe4c	-0.19799155
58	0xbe7fc31e	-0.24976775
59	0x3e7825ac	0.2423312
60	0xbe169c6c	-0.14708108
61	0x3df660b0	0.120301604
62	0xbe6d2258	-0.23157632
63	0xbe1b501c	-0.15167278
64	0xbde67ee4	-0.11254671
65	0xbd621700	-0.055197716
66	0x3a567200	0.00081804395
67	0xbde791a0	-0.11307073
68	0x3d1dd928	0.038537174
69	0xbdd4013c	-0.10351798
70	0x3d471fe0	0.048614383
71	0x3d497ef0	0.049193323
72	0xbda10aa0	-0.07863355
73	0xbe67957c	-0.22615618
74	0x3e00019a	0.12500611
75	0xbe21db4a	-0.15806308
76	0x3d1c58f8	0.038170785
77	0x3d004d90	0.03132397
78	0x3e218204	0.15772253
79	0xbe687920	-0.22702456
80	0x3e3f19b6	0.18662152
81	0xbd164600	-0.03668785
82	0x3e15ca4e	0.14627954
83	0xbdd7df2c	-0.105406135
84	0x3d4d5b10	0.050135672
85	0xbd8355f0	-0.06412876
86	0x3c018040	0.007904112
87	0x3e61406c	0.21997231
88	0xbddbb060	-0.10727
89	0x3db73540	0.089457035
90	0x3e785dba	0.24254504
91	0xbddd3cac	-0.10802588
92	0xbdc85a88	-0.097828925
93	0xbe20e74c	-0.15713233
94	0x3d497680	0.049185276
95	0x3d10d750	0.035361588
96	0xbdfb8bf4	-0.12282553
97	0x3e6c30c2	0.23065475
98	0xbe27a4d6	-0.16371474
99	0xbe4bb4c4	-0.19893175
100	0x3c86a8e0	0.016437948
101	0x3e61633c	0.22010511
102	0xbd9eef28	-0.07760459
103	0x3e127124	0.14300972
104	0x3d95e690	0.07319367
105	0x3e018dbe	0.12651727
106	0x3c92cfa0	0.017921269
107	0x3df20ca8	0.1181882
108	0x3c8fe900	0.017567158
109	0x3e731070	0.23736739
110	0xbdbf7fa8	-0.0935052
111	0x3cfb5640	0.030680776
112	0x3dfbd2f0	0.122960925
113	0x3d992cfc	0.07479283
114	0xbe232f04	-0.15935904
115	0xbe6cd2ca	-0.23127285
116	0x3e7ec5e4	0.24880177
117	0x3cc15350	0.023599297
118	0x3df340d8	0.11877602
119	0xbe6f922e	-0.23395607
120	0xbdd1e100	-0.102479935
121	0x3e5cfe1e	0.21581313
122	0x3e23a4b8	0.15980804
123	0x3e4c89a8	0.19974387
124	0x3d64cde8	0.05586043
125	0x3db671bc	0.08908412
126	0xbde8309c	-0.113373965
127	0x3e546ea6	0.20745334
128	0x3e23fffa	0.16015616
129	0xbe28478a	-0.1643354
130	0xbe1698ce	-0.14706728
131	0x3d897904	0.06712535
132	0xbe0fde84	-0.14049727
133	0x3e0cf768	0.13766253
134	0xbe61095a	-0.21976224
135	0x3e2dfb9a	0.1699051
136	0x3e167f18	0.1469692
137	0xbc8bce70	-0.01706621
138	0xbded7950	-0.11595404
139	0xbe408f28	-0.1880461
140	0xbe120a68	-0.14261782
141	0x3e7e69d6	0.2484506
142	0x3d007f90	0.031371653
143	0x3e010650	0.12600064
144	0x3d05ebc0	0.03269553
145	0x3b468b00	0.0030295253
146	0xbdf8712c	-0.12130961
147	0x3d838664	0.06422117
148	0x3e3373cc	0.17524642
149	0xbe673412	-0.22578457
150	0xbdb7cca4	-0.08974579
151	0xbdb0f418	-0.08640307
152	0xbe29674c	-0.16543311
153	0x3d9ddb24	0.077078134
154	0x3e3a3730	0.18185115
155	0xbd39f300	-0.04539776
156	0xbe0dfede	-0.13866755
157	0xbe5bd2c2	-0.21467116
158	0xbde1ce88	-0.11025721
159	0x3dc7efb8	0.097625196
160	0xbe0161de	-0.1263499
161	0x3dd27a88	0.10277277
162	0xbdfbfe94	-0.12304416
163	0xbe4036ce	-0.18770906
164	0xbe78de26	-0.24303493
165	0xbd963364	-0.07334021
166	0x3e552538	0.20814979
167	0xbe3b1232	-0.1826866
168	0x3ce85ce0	0.028364599
169	0x3e5345c8	0.20632088
170	0x3dfdcccc	0.123925775
171	0x3e1bae5a	0.15203229
172	0x3dd57238	0.10422176
173	0xbd9f8718	-0.07789439
174	0x3c762ce0	0.0150253475
175	0xbd5ded98	-0.054181665
176	0xbde494a8	-0.111611664
177	0xbe23f374	-0.16010839
178	0x3d2975a8	0.04137197
179	0x3e522a66	0.20523986
180	0xbe32516e	-0.17413875
181	0xbe0561b4	-0.13025552
182	0x3e3792fe	0.17927167
183	0x3dc9fef0	0.098630786
184	0xbd4bbcb0	-0.049740493
185	0xbe094a06	-0.13407144
186	0x3e1a091a	0.15042534
187	0x3d635c80	0.055508137
188	0xbe6b22a4	-0.22962433
189	0x3dd80fbc	0.10549876
190	0xbe20296a	-0.15640798
191	0xbd9e8ec8	-0.07742077
192	0x3d3c1da8	0.04592672
193	0x3d246c50	0.040142357
194	0xbe6b34a2	-0.22969297
195	0x3e3626c4	0.17788225
196	0x3da36c70	0.07979667
197	0xbe22a912	-0.15884808
198	0x3e68ed56	0.22746786
199	0x3e1d92a6	0.15387973
200	0x3e3a702a	0.1820685
201	0x3d35d558	0.044392914
202	0xbe0c458e	-0.13698408
203	0x3ca14b10	0.019689113
204	0x3e134542	0.14381889
205	0xbd1cf9c0	-0.038324118
206	0xbe482f4c	-0.19549292
207	0xbe34442c	-0.1760413
208	0xbdc28928	-0.09498817
209	0x3ccbf110	0.024895221
210	0xbd841018	-0.06448382
211	0xbe3e6286	-0.18592271
212	0xbcaea750	-0.021320015
213	0xbe4f0934	-0.20218354
214	0x3de1cf54	0.11025873
215	0xbe647234	-0.2230919
216	0xbddeaa78	-0.10872358
217	0x3e67896a	0.22611013
218	0x3e319d16	0.1734508
219	0x3e2bd54a	0.16780582
220	0xba941e00	-0.0011300445
221	0x3c3efa40	0.011656344
222	0x3dd8363c	0.105572194
223	0x3d93a7e8	0.0720976
224	0xbe38f2dc	-0.18061393
225	0x3df122dc	0.11774227
226	0x3e6a79a4	0.22897965
227	0xbdd81c04	-0.105522186
228	0xbdb00d10	-0.085962415
229	0x3e65d10c	0.22443026
230	0xbe37236a	-0.17884603
231	0xbe558f74	-0.20855504
232	0xbe7e814a	-0.24854007
233	0x3e750918	0.2392925
234	0xbe15af0c	-0.14617556
235	0x3d8c2788	0.068434775
236	0xbe1b4074	-0.15161306
237	0xbe44dcd4	-0.19224864
238	0x3e276b62	0.16349557
239	0x3d3be9f8	0.045877427
240	0xbd8ecc2c	-0.069725364
241	0xbe3b2600	-0.18276215
242	0xbe0d25ce	-0.13783953
243	0xbd0b5f28	-0.034026295
244	0xbe093420	-0.1339879
245	0x3e1302e4	0.14356571
246	0x3c955750	0.01823011
247	0xbc2b2020	-0.010444671
248	0xbe0662d8	-0.13123643
249	0xbe536f16	-0.20647845
250	0x3d4b2e98	0.049604982
251	0xbc9bc7a0	-0.019016087
252	0xbca29740	-0.019847512
253	0x3db20524	0.08692387
254	0xbcebdd20	-0.028791964
255	0xbda77020	-0.08175683

lstm.lstm.bias_ih_l0 f4 [64]
0	0x3ef13a19	0.47114637
1	0x3e1c62bb	0.15272038
2	0x3f0f8956	0.56068933
3	0x3ea4cb9b	0.3218659
4	0x3edbfcec	0.42966402
5	0x3f0478d3	0.51746863
6	0x3e6af97c	0.22946733
7	0x3f12cc74	0.5734322
8	0x3f014361	0.5049344
9	0x3e8e55f7	0.2779996
10	0x3e7805f0	0.24221015
11	0x3e19e445	0.15028484
12	0x3ecdde32	0.40208584
13	0x3e45fc7e	0.193346
14	0x3efa7a87	0.48921606
15	0x3dcc8101	0.09985543
16	0xbe4a03de	-0.19728038
17	0x3e3ea03c	0.18615812
18	0x3e6e3442	0.23262122
19	0xbc549d60	-0.012976974
20	0xbe28a9fe	-0.16471097
21	0xbd60ee88	-0.05491498
22	0x3d7cf5f0	0.06175798
23	0x3d948964	0.07252768
24	0x3e4f4e04	0.20244604
25	0xbe3193bc	-0.17341512
26	0x3e385cce	0.18004152
27	0xbe4565ec	-0.19277161
28	0x3e6c7444	0.23091227
29	0x3d8743dc	0.0660474
30	0xbdfc3bc0	-0.12316084
31	0xbe5a955e	-0.21346042
32	0x3dfd0ca8	0.123559296
33	0xbdb4a473	-0.08820429
34	0x3c0de01f	0.008659392
35	0x3cb8ab70	0.022542685
36	0x3e335210	0.17511773
37	0xbeb113e8	-0.345855
38	0x3e10139d	0.14069982
39	0x3c9c8099	0.019104289
40	0x3dc91b85	0.09819702
41	0xbce60c35	-0.028081993
42	0x3c4e3d1f	0.012587815
43	0x3da5fb99	0.08104629
44	0xbd96d8e2	-0.07365586
45	0xbe2498d0	-0.16073918
46	0xbeb869b7	-0.36018154
47	0x3e06ff01	0.13183214
48	0x3eb1140a	0.345856
49	0x3efc7784	0.49309933
50	0x3f18c461	0.5967465
51	0x3ef4b5f5	0.47795072
52	0x3e642912	0.22281292
53	0x3f035368	0.5129914
54	0x3ee9d10f	0.45667312
55	0x3ee6a7d2	0.45049912
56	0x3f057458	0.5213065
57	0x3ec66744	0.3875066
58	0x3ec7c810	0.39019823
59	0x3f10b8b0	0.5653181
60	0x3f0a4d44	0.5402415
61	0x3e721079	0.23639096
62	0x3e823d85	0.2543756
63	0x3eccfbdb	0.400359

lstm.lstm.bias_hh_l0 f4 [64]
0	0x3eb9ff19	0.36327437
1	0x3eea0c02	0.45712286
2	0x3ef57fff	0.47949216
3	0x3e15d202	0.14630893
4	0x3ee11637	0.4396226
5	0x3e8bde45	0.27318016
6	0x3eaa23b9	0.3323038
7	0x3e36a48f	0.17836212
8	0x3ea53a9b	0.32271275
9	0x3f050792	0.51964676
10	0x3f029148	0.5100293
11	0x3eddccf5	0.43320432
12	0x3ed07925	0.40717426
13	0x3e2a64cb	0.16640012
14	0x3eb31fc3	0.3498517
15	0x3ea923e1	0.33035186
16	0xbe6dc7b8	-0.23220718
17	0x3d1e8f60	0.03871095
18	0x3e61767c	0.22017854
19	0xbd488978	-0.048959225
20	0x3e7b9a78	0.24570644
21	0xbc8ac1a0	-0.01693803
22	0xbdbd5c8c	-0.092461675
23	0xbe48c29a	-0.19605485
24	0xbd3da1a8	-0.046296746
25	0xbe4f63bc	-0.2025289
26	0x3badeb00	0.005307555
27	0x3e3023ea	0.172012
28	0x3e38ce94	0.18047553
29	0xbca27010	-0.019828826
30	0xbd97aa9c	-0.07405588
31	0x3d22b8b8	0.039726943
32	0xbdd96707	-0.10615354
33	0xbe84948d	-0.25894585
34	0x3eb46a3d	0.35237303
35	0x3e39e845	0.1815501
36	0x3e144298	0.14478528
37	0xbe070be8	-0.13188136
38	0xbd204340	-0.039126635
39	0xbe00a271	-0.12561966
40	0x3e4557d9	0.19271792
41	0x3d90f8dc	0.07078716
42	0x3bb8f004	0.0056438465
43	0x3e7fb1c6	0.24970159
44	0xbdca0bdc	-0.09865543
45	0x3ba72200	0.0051004887
46	0x3da7a6b3	0.08186092
47	0xbd6d0e1c	-0.057874784
48	0x3e412dc9	0.18865122
49	0x3f09b203	0.5378725
50	0x3efdb98e	0.4955563
51	0x3f0d9e4b	0.5531966
52	0x3ede7ddb	0.43455395
53	0x3e4cc047	0.19995223
54	0x3f1b47a6	0.606562
55	0x3eb97da4	0.3622867
56	0x3efa94bb	0.48941597
57	0x3e868357	0.2627208
58	0x3ea1e421	0.3161936
59	0x3df63f53	0.12023797
60	0x3ee50285	0.44728485
61	0x3ec3da9d	0.38252726
62	0x3f05e46a	0.5230166
63	0x3e8c8625	0.27446094

downstream.full.weight f4 [7, 16]
0	0xbf28b3f7	-0.65899605
1	0xbea03333	-0.31289062
2	0xbea293aa	-0.31753284
3	0xbc5fd645	-0.013661926
4	0xbea0c331	-0.3139892
5	0xbf2deb35	-0.6793702
6	0x3f6af79a	0.9178406
7	0x3f0772b2	0.52909386
8	0x3d2e9f6d	0.04263251
9	0xbf2d419f	-0.67678255
10	0xbf0755c9	-0.5286527
11	0x3f546875	0.8297189
12	0xbf07e49d	-0.5308321
13	0x3f5e164e	0.86752784
14	0x3f2740d0	0.6533327
15	0xbf2fa335	-0.6860841
16	0x3ee5a747	0.44854185
17	0xbe424b0b	-0.18973939
18	0x3f2caaec	0.67448306
19	0x3f608838	0.87707853
20	0x3e901cf7	0.28147098
21	0x3f730d33	0.94942015
22	0x3f37463c	0.71591544
23	0xbe8f3680	-0.27971268
24	0x3ee46f64	0.44616234
25	0xbe81112e	-0.2520842
26	0x3f74582f	0.9544706
27	0x3f3efc17	0.7460341
28	0x3f07723b	0.52908677
29	0xbf3464ec	-0.70466495
30	0xbef1608d	-0.47143975
31	0xbe69b454	-0.22822696
32	0x3f6aef2b	0.9177119
33	0x3f03183d	0.5120886
34	0x3d4d46a2	0.05011619
35	0x3f77b02f	0.9675321
36	0xbf4278f0	-0.75965786
37	0xbf277957	-0.65419525
38	0x3f164209	0.5869451
39	0xbf06702b	-0.52514905
40	0xbf138a2a	-0.57632697
41	0xbf2d8565	-0.6778167
42	0xbf3482db	-0.7051217
43	0x3e7b11b7	0.24518476
44	0x3f36a5b4	0.7134659
45	0xbf588ab9	-0.84586674
46	0xbc362602	-0.01111746
47	0x3f2f3e22	0.6845418
48	0x3ed7f6ea	0.42180568
49	0x3f27693f	0.6539497
50	0xbf60803f	-0.8769569
51	0xbea80b10	-0.3282094
52	0x3eb96db5	0.36216512
53	0x3f04c423	0.5186178
54	0xbf4870ae	-0.78296936
55	0xbf4a0e55	-0.7892812
56	0xbef07cad	-0.4697012
57	0xbf62e8c8	-0.88636446
58	0xbf15109d	-0.58228475
59	0x3e109d7a	0.14122573
60	0x3f1e10db	0.6174447
61	0x3f04877f	0.5176925
62	0x3f6af4eb	0.91779965
63	0x3db1198c	0.08647451
64	0xbf3a8972	-0.72865975
65	0x3f3b9b99	0.732843
66	0x3f4626e9	0.7740312
67	0xbf12576b	-0.5716464
68	0x3e98ea3e	0.29866213
69	0x3ecc60e1	0.39917663
70	0xbf2a8d8c	-0.66622233
71	0x3f32d219	0.69851834
72	0x3e7f2c2b	0.24919192
73	0x3f0f8450	0.5606127
74	0x3f596f95	0.84935886
75	0xbf5c1017	-0.8596205
76	0x3e98677f	0.2976646
77	0xbe977352	-0.2958017
78	0xbf098886	-0.53723943
79	0x3f3a37cc	0.7274139
80	0xbf5f026a	-0.8711306
81	0xbf213ff1	-0.6298819
82	0xbecbbea6	-0.3979389
83	0xbecc4c80	-0.39902115
84	0x3f514e84	0.8176043
85	0x3f30ffa8	0.691401
86	0x3f018bd1	0.5060397
87	0x3f5c9e90	0.8617945
88	0x3f0ca09c	0.5493257
89	0x3ef8df95	0.4860808
90	0xbec28ea0	-0.3799944
91	0xbef5e6db	-0.4802769
92	0xbf1585aa	-0.5840708
93	0x3f294616	0.6612257
94	0xbf35d406	-0.7102665
95	0x3ed6dd34	0.4196564
96	0xbe94858b	-0.29008135
97	0xbf1ea6a4	-0.61973023
98	0xbf1272c8	-0.5720639
99	0xbf10dbf4	-0.5658562
100	0x3f0c2fc6	0.54760396
101	0xbf48b0c2	-0.7839471
102	0xbf1a78aa	-0.6034037
103	0xbf02d027	-0.51098865
104	0xbf201eeb	-0.6254718
105	0x3f441d8c	0.76607585
106	0xbec78ab6	-0.38973016
107	0xbf7b3dad	-0.98140985
108	0xbee93bf6	-0.4555356
109	0x3edd51f6	0.43226594
110	0xbf45150f	-0.7698526
111	0xbf27b19b	-0.6550538

downstream.full.bias f4 [7]
0	0x3e833ee4	0.2563392
1	0xbe0e61d2	-0.13904503
2	0xbe5b795d	-0.21433015
3	0x3e15913a	0.14606181
4	0x3e643a27	0.22287808
5	0xbdba3abc	-0.09093234
6	0xbeb42036	-0.35180825

maxpooling.full.weight f4 [16, 16]
0	0xbe7bd47c	-0.24592775
1	0xbea6a11c	-0.32544792
2	0xbeb873be	-0.36025804
3	0xbe8c1a50	-0.27363825
4	0x3ea69d2b	0.32541785
5	0xbe545c4c	-0.20738333
6	0x3e8b5df9	0.27220133
7	0x3eac3833	0.33636627
8	0xbecffb08	-0.4062121
9	0x3e68a50e	0.22719213
10	0xbe05de36	-0.13073048
11	0x3e6704fe	0.22560498
12	0x3ecb0273	0.39650306
13	0xbdd30b50	-0.10304892
14	0xbea9775c	-0.33098876
15	0xbe310192	-0.17285755
16	0xbe0ba1e4	-0.13635975
17	0x3e3a4286	0.18189439
18	0xbe4c40d7	-0.1994661
19	0xbde66780	-0.1125021
20	0x3e35555a	0.1770834
21	0xbed44092	-0.41455513
22	0xbecd3a1a	-0.4008339
23	0x3ec2dfdd	0.3806142
24	0xbe0842ca	-0.13306728
25	0x3e83cfb5	0.25744405
26	0x3d488458	0.048954338
27	0xbeb0a639	-0.34501818
28	0x3e6b9386	0.23005494
29	0x3bee2ac0	0.00726828
30	0xbec7942d	-0.38980237
31	0xbdba31e8	-0.0909155
32	0x3eb8ea0b	0.3611606
33	0xbed0cb58	-0.4078014
34	0xbe636f4e	-0.22210428
35	0x3e80a4af	0.25125644
36	0xbe43c3af	-0.19117616
37	0xbcfb75a0	-0.030695736
38	0xbd039c20	-0.032131314
39	0x3e6c351a	0.23067132
40	0x3e4068aa	0.18789926
41	0x3eaf3d8d	0.34226647
42	0x3e85ce35	0.26133886
43	0x3e8ad269	0.27113655
44	0xbecec43b	-0.40384087
45	0xbe744141	-0.23853017
46	0x3e38486a	0.17996374
47	0x3eb0047d	0.34378424
48	0xbdfeb228	-0.12436324
49	0x3e4bb182	0.19891933
50	0xbeb6c4a2	-0.35696894
51	0x3ea47d7b	0.32126984
52	0x3d32a128	0.04361072
53	0x3e85fc8d	0.26169243
54	0xbead80a1	-0.338872
55	0x3dadb5c4	0.08481935
56	0x3d423618	0.04741487
57	0xbe4dead4	-0.20109111
58	0x3eb83d4f	0.35984275
59	0x3ea64c69	0.3248017
60	0x3e8de04b	0.27710184
61	0xbd9ae044	-0.075623065
62	0xbeb9a82d	-0.3626112
63	0x3ec48be1	0.3838797
64	0xbe75d336	-0.24006352
65	0xbec19ac0	-0.37813377
66	0x3ec23ef7	0.37938663
67	0xbeb4a89b	-0.35284886
68	0xbedc6cf0	-0.43051863
69	0x3ab7c400	0.0014020205
70	0xbe0f3396	-0.13984522
71	0x3eb1f7f3	0.34759483
72	0xbebd8ce1	-0.37021545
73	0x3e261c4a	0.16221729
74	0x3ec49549	0.38395146
75	0x3b899bc0	0.004199475
76	0x3e29c58e	0.16579267
77	0x3ea7c1ab	0.32764944
78	0x3e900331	0.28127435
79	0x3e46e2de	0.1942248
80	0xbec1eae5	-0.37874523
81	0x3e7de18e	0.24793074
82	0xbd94c748	-0.072645724
83	0xbe4d43a2	-0.20045331
84	0xbebf5f5e	-0.37377447
85	0xbe09cb14	-0.13456374
86	0x3cd09530	0.025461763
87	0xbd0e9980	-0.034814358
88	0xbe9ca81c	-0.30597007
89	0xbe764221	-0.24048664
90	0xbdaf1610	-0.0854913
91	0x3ebd8a11	0.370194
92	0xbd640f78	-0.055678815
93	0xbdf8a9bc	-0.12141749
94	0xbe276a00	-0.1634903
95	0x3eb485c9	0.3525832
96	0x3e6e325a	0.23261395
97	0xb8eb2000	-0.00011211634
98	0xbe83e584	-0.25761044
99	0x3be0ecc0	0.0068641603
100	0x3e5a6346	0.21326932
101	0x3ec87535	0.39151922
102	0x3ec59c67	0.38595888
103	0x3df4aa3c	0.11946532
104	0x3e8cd3f5	0.2750546
105	0x3eab59d5	0.33466974
106	0x3e816413	0.25271663
107	0x3eb30c5d	0.3497037
108	0x3e5a1aa6	0.21299228
109	0x3e80b62f	0.25138995
110	0x3e206832	0.15664747
111	0xbec57444	-0.38565266
112	0x3de6e11c	0.11273405
113	0x3e9df13d	0.30848113
114	0x3e7a40e6	0.2443882
115	0xbd7febe8	-0.062480837
116	0x3e81a02b	0.2531751
117	0x3e462982	0.19351771
118	0x3e3c28fe	0.18375012
119	0x3e6fc9ca	0.2341682
120	0xbe8f6350	-0.28005457
121	0x3eaef809	0.3417361
122	0xbdaefd40	-0.08544397
123	0x3e2fea4a	0.17179218
124	0x3e06264a	0.13100544
125	0x3e970afd	0.2950057
126	0xbe7ba373	-0.2457407
127	0x3e5b7042	0.21429542
128	0xbebca765	-0.36846462
129	0xbc2aa720	-0.010415822
130	0xbd47d388	-0.048785716
131	0x3e0064a6	0.12538394
132	0xbeb9e688	-0.36308694
133	0xbe74c92a	-0.23904863
134	0x3e8be075	0.27319685
135	0x3c3c2ee0	0.011485785
136	0xbeb675f6	-0.35636872
137	0xbed12628	-0.40849423
138	0x3e286906	0.16446313
139	0x3ed3074b	0.41216502
140	0x3dc54ddc	0.09633991
141	0x3e42dff2	0.19030741
142	0x3ececa31	0.40388635
143	0xbe8149f6	-0.2525174
144	0x3eb4f52d	0.35343304
145	0xbe5d8e43	-0.216363
146	0x3ed97735	0.4247376
147	0x3cb8dd90	0.022566587
148	0x3eb8f02f	0.36120746
149	0x3dc92f54	0.0982348
150	0x3e0b640e	0.13612387
151	0xbda8ea60	-0.082478285
152	0x3ec79d25	0.3898708
153	0x3e287496	0.16450724
154	0xbbf31a00	-0.007418871
155	0x3ea95f19	0.33080366
156	0x3c134a20	0.008989841
157	0xbe9a5608	-0.30143762
158	0xbc25bd20	-0.010115892
159	0xbe292d9e	-0.16521308
160	0x3d7534c8	0.05986479
161	0x3d041dd0	0.032254994
162	0xbe504531	-0.20338894
163	0xbe8519f4	-0.25996363
164	0xbed6cb92	-0.41952187
165	0x3e5911fe	0.2119827
166	0xbe564666	-0.20925292
167	0xbd6f7598	-0.058461756
168	0x3e4b6d1e	0.19865844
169	0x3e9aa389	0.30202892
170	0xbe4d7f8d	-0.20068188
171	0xbd06f688	-0.032949954
172	0xbd1b5548	-0.037923127
173	0xbdc99520	-0.098428965
174	0xbecb4f08	-0.39708734
175	0xbed2360f	-0.41056868
176	0x3db89e24	0.09014538
177	0x3bd4dac0	0.0064958036
178	0x3eafa12b	0.3430265
179	0x3dfd347c	0.12363526
180	0xbea6fde2	-0.32615572
181	0xbe8b98e2	-0.27265078
182	0xbe96156c	-0.2931322
183	0xbe21d816	-0.15805086
184	0xbead64b1	-0.33865884
185	0x3e5ee302	0.21766284
186	0xbbb3d280	-0.00548774
187	0xbe7178f2	-0.23581293
188	0xbdc79480	-0.09745121
189	0xbe8bb14d	-0.27283707
190	0x3e6e5abe	0.23276803
191	0xbe4b06e1	-0.19826843
192	0x3dfb3314	0.12265602
193	0x3e6afdf2	0.22948435
194	0x3e2a90fa	0.16656867
195	0xbe1535c2	-0.14571288
196	0x3eca30e9	0.3949044
197	0x3e30a15a	0.1724905
198	0x3c492960	0.012277931
199	0x3d141488	0.036152393
200	0x3e99b6fb	0.30022416
201	0x3e8d7fdd	0.27636614
202	0x3e2df556	0.1698812
203	0xbed9211f	-0.42408082
204	0x3e04a522	0.12953618
205	0x3e75a58a	0.2398893
206	0x3e9fc8ad	0.3120779
207	0xbd4aa0c0	-0.04946971
208	0x3d99d5f4	0.075115114
209	0x3e587972	0.21140078
210	0xbbd35f00	-0.006450534
211	0x3e818575	0.25297132
212	0x3dd70d3c	0.10500571
213	0x3ed33853	0.4125391
214	0x3eba6cff	0.36411282
215	0x3e923011	0.28552297
216	0x3e10e95e	0.14151523
217	0x3d99f74c	0.07517871
218	0x3ecf0315	0.4043204
219	0x3ebf72cd	0.37392274
220	0x3ed5bc33	0.41745147
221	0xbe72a8b4	-0.23697168
222	0xbd8ea0b8	-0.069642484
223	0xbec43c68	-0.38327336
224	0x3e37dc16	0.1795505
225	0xbc61b340	-0.013775647
226	0x3bd2a140	0.006427914
227	0xbe7017d3	-0.23446588
228	0x3ed580a9	0.41699722
229	0x3e05269e	0.13003013
230	0xbd067408	-0.0328255
231	0xbdecc4cc	-0.115609735
232	0xbe21a7b4	-0.1578663
233	0xbe51a819	-0.2047428
234	0x3e96d4c1	0.29459193
235	0x3ec7278f	0.38897368
236	0x3df1324c	0.117771715
237	0x3e60a0ae	0.21936294
238	0x3d09e470	0.03366512
239	0xbebe7e4d	-0.37205735
240	0x3e5ae2b2	0.2137554
241	0x3eaf413b	0.34229454
242	0x3e0f28ca	0.13980404
243	0xbea030ef	-0.31287333
244	0x3d5a0440	0.05322671
245	0xbdb3672c	-0.08759913
246	0xbe7be138	-0.24597633
247	0xbe9913d6	-0.29897946
248	0x3ed7644d	0.4206871
249	0xbdd02438	-0.10163158
250	0xbea89b4b	-0.3293098
251	0xbdacc660	-0.084362745
252	0x3d407230	0.046983898
253	0xbd3f5230	-0.04670924
254	0x3ea93adb	0.33052716
255	0x3e906d63	0.28208455

maxpooling.full.bias f4 [16]
0	0x3e2b5936	0.1673325
1	0xbd4c5898	-0.049889177
2	0xbe520d6c	-0.20512933
3	0xbe307f90	-0.17236161
4	0xbbe7ec00	-0.007077694
5	0x3d8227f4	0.06355277
6	0x3df18450	0.11792815
7	0x3e1932e8	0.14960825
8	0xbe58e866	-0.21182403
9	0xbe7b68cc	-0.24551696
10	0x3de639a4	0.11241463
11	0x3e21a2d4	0.1578477
12	0xbdf78a84	-0.12086967
13	0xbd9e19f8	-0.07719797
14	0x3d818018	0.0632326
15	0x3cbb7810	0.022884399

mean.full.weight f4 [16, 16]
0	0x3ed45889	0.41473797
1	0xbcf20660	-0.029544055
2	0xbe5bd2fb	-0.21467201
3	0x3e4d1306	0.20026788
4	0xbd920aac	-0.07130942
5	0x3e79ec8e	0.24406645
6	0xbe0ad554	-0.1355794
7	0x3e71ec2a	0.23625246
8	0x3e953aaf	0.29146335
9	0xbea3b88d	-0.3197674
10	0x3e973aff	0.29537198
11	0x3e88431d	0.26613703
12	0xbe6f8829	-0.23391785
13	0x3e3355ca	0.17513195
14	0xbd97c448	-0.074104846
15	0x3e960245	0.29298607
16	0xbe5f6808	-0.21817029
17	0xbe93658d	-0.28788415
18	0x3df79fac	0.12091002
19	0x3e4f56ae	0.2024791
20	0xbd85e46c	-0.06537709
21	0x3e734546	0.23756894
22	0xbbd0eac0	-0.0063756406
23	0xbe4ae076	-0.19812188
24	0xbdba1908	-0.090868056
25	0x3ceff190	0.02928999
26	0xbdc9b060	-0.09848094
27	0x3da9dcdc	0.08294079
28	0x3ebfb32f	0.37441394
29	0x3e769d5a	0.24083462
30	0x3e0c1afa	0.13682166
31	0xbeb8e6e9	-0.3611367
32	0xbdedb47c	-0.1160669
33	0x3e9eceef	0.31017253
34	0x3e303e6a	0.17211309
35	0x3edbce97	0.42931053
36	0xbe8b92a8	-0.27260327
37	0x3ec246f7	0.37944767
38	0xbdd97a88	-0.10619074
39	0x3e4c428a	0.19947258
40	0xbd33b878	-0.043877095
41	0x3e42c6c2	0.19021133
42	0x3e72461a	0.23659554
43	0x3e02e98e	0.12784407
44	0x3e861dab	0.2619451
45	0x3eaf4bf3	0.34237632
46	0x3ea093d7	0.31362793
47	0x3e7c3102	0.2462807
48	0xbc952550	-0.018206269
49	0xbe68c013	-0.2272952
50	0x3eb551e9	0.35414055
51	0xbe0fb8ca	-0.14035335
52	0xbe876e39	-0.2645128
53	0x3eb70e91	0.357533
54	0x3e9e124b	0.3087333
55	0xbe5a22b9	-0.21302308
56	0xbe8f5ddc	-0.28001297
57	0xbe882942	-0.26593977
58	0xbe859dc0	-0.26096916
59	0xbdd45a94	-0.10368839
60	0x3ed1ef17	0.41002724
61	0x3e939a2d	0.28828564
62	0xbe93a498	-0.28836513
63	0x3d5d16d0	0.053976834
64	0xbe5e3edd	-0.21703668
65	0x3ed12ed1	0.4085603
66	0x3eb418a5	0.35175052
67	0xbed5c3e3	-0.41751012
68	0xbd539b58	-0.05166182
69	0x3e23529e	0.15949485
70	0x3e39c672	0.18142107
71	0x3ead657d	0.33866492
72	0x3df15c54	0.11785188
73	0xbe2c2ff0	-0.16815162
74	0xbead3f34	-0.33837283
75	0xbec38c9c	-0.38193214
76	0x3ecc4fbf	0.3990459
77	0x3ecdc5d1	0.40189984
78	0x3e9325f7	0.28739902
79	0xbe178004	-0.14794928
80	0xbea698e0	-0.3253851
81	0xbe6b4c16	-0.22978243
82	0x3d0b9168	0.034074217
83	0x3d05e618	0.032690138
84	0x3d17ec28	0.03709045
85	0x3ed3bc51	0.41354612
86	0x3e403e72	0.18773821
87	0x3ddb4854	0.10707155
88	0xbe4f5207	-0.20246135
89	0xbe920182	-0.28516775
90	0xbe9aae82	-0.30211264
91	0xbdacccf4	-0.08437529
92	0x3cc2d0c0	0.02378118
93	0x3e0bc8f6	0.1365088
94	0x3eaa6895	0.33282915
95	0x3eceed05	0.40415207
96	0xbdd90734	-0.10597077
97	0xbe85aa33	-0.26106414
98	0x3e9284e1	0.28617004
99	0xbed4139d	-0.41421214
100	0xbed993bb	-0.42495522
101	0xbddbe5c4	-0.10737184
102	0x3e831f2b	0.25609717
103	0xbeae7304	-0.34072125
104	0xbebb37e8	-0.3656609
105	0x3d443d10	0.047909796
106	0xbec037ac	-0.37542474
107	0xbed403b5	-0.41409078
108	0xbe6c3408	-0.23066723
109	0x3ec6a605	0.38798538
110	0x3e49ae72	0.19695452
111	0xbd58b918	-0.052910894
112	0xbd4e9018	-0.050430387
113	0xbe810d6c	-0.25205553
114	0x3dd989f4	0.106220156
115	0xbc2644c0	-0.010148227
116	0x3e64dfca	0.22350994
117	0xbdb99240	-0.09061098
118	0xbe3760e2	-0.17908052
119	0x3de88b5c	0.11354706
120	0x3eb92e5b	0.3616818
121	0x3e42aa3a	0.19010249
122	0xbe4e16b0	-0.20125842
123	0xbdbaab2c	-0.0911468
124	0x3c12aa20	0.008951694
125	0xbda85a14	-0.08220306
126	0x3de7ebc4	0.113242656
127	0x3e8de62b	0.27714667
128	0x3dfad67c	0.12247941
129	0x3e953369	0.29140785
130	0x3e57b3fe	0.21064755
131	0x3eba6445	0.36404625
132	0x3ecaf1b5	0.39637533
133	0xbe70f6a3	-0.23531584
134	0xbe8f883c	-0.28033626
135	0x3ec2327b	0.3792914
136	0xbe355788	-0.17709172
137	0xbdfaafd0	-0.12240565
138	0x3bfd7280	0.0077345967
139	0xbe79967d	-0.24373813
140	0xbeae1e57	-0.34007522
141	0xbca39800	-0.01996994
142	0x3dee1b14	0.116262585
143	0xbc893bf0	-0.016752213
144	0x3ed40747	0.41411802
145	0x3d60dd30	0.05489844
146	0x3e2cb866	0.16867217
147	0xbe0506f6	-0.12990937
148	0x3e995e23	0.29954633
149	0x3bad5f40	0.0052908957
150	0xbe009f38	-0.12560737
151	0xbd759d58	-0.059964508
152	0x3dfd9b6c	0.1238316
153	0xbeabe669	-0.33574226
154	0x3ec82ac3	0.39095125
155	0xbb4ce580	-0.0031264722
156	0xbe4f00ad	-0.20215102
157	0x3c0ee1e0	0.008720845
158	0x3eb560e5	0.35425487
159	0xbdf7e1d8	-0.12103623
160	0xbe26618c	-0.16248149
161	0x3e7303a6	0.2373186
162	0x3eaf35df	0.34220788
163	0x3deff094	0.117158085
164	0xbe051964	-0.12997967
165	0xbedc963e	-0.43083376
166	0x3e9f3057	0.31091568
167	0x3db89d94	0.09014431
168	0xbe9dfe9b	-0.3085831
169	0xbe4a66f6	-0.19765839
170	0x3eba4db3	0.36387405
171	0xbe0cdd14	-0.1375621
172	0xbc901e70	-0.017592639
173	0x3e23b3ca	0.15986553
174	0x3dc0d08c	0.09414777
175	0x3ecb753f	0.3973789
176	0xbe70c036	-0.23510823
177	0xbe88620b	-0.266373
178	0xbe1282f4	-0.14307767
179	0x3d87c834	0.066299826
180	0xbe88b90e	-0.26703686
181	0x3e976f43	0.29577073
182	0xbdb87318	-0.090063274
183	0xbddf33d8	-0.1089856
184	0xbeb50144	-0.35352528
185	0x3d9772c4	0.07394937
186	0xbc23a640	-0.009988368
187	0xbd454d28	-0.048169285
188	0xbe6e0759	-0.2324499
189	0x3e906ef1	0.28209642
190	0xbe00c2c8	-0.12574303
191	0xbe8d93d0	-0.27651834
192	0xbe017c34	-0.12645036
193	0x3d3eaad0	0.04654962
194	0xbed2f2fd	-0.4120101
195	0x3d07d960	0.03316629
196	0x3eb9d861	0.36297897
197	0x3bac3e80	0.005256474
198	0xbd54a868	-0.051918417
199	0xbe727b3d	-0.23679824
200	0x3de92fc4	0.11386064
201	0x3ed762d3	0.42067584
202	0x3dbaf164	0.09128073
203	0x3e909009	0.2823489
204	0x3e160676	0.14650902
205	0xbe69a4bc	-0.22816747
206	0x3d25f2f8	0.040514916
207	0xbce52ea0	-0.027976334
208	0x3cac54a0	0.021036446
209	0xbbcfc440	-0.0063405335
210	0xbe60b65c	-0.21944565
211	0x3eb4e2b5	0.35329214
212	0x3ea46a2f	0.32112262
213	0x3ea1d33d	0.31606475
214	0xbeb0cecc	-0.34532773
215	0x3ebb1723	0.3654109
216	0xbe12070e	-0.14260504
217	0xbcf3b900	-0.0297513
218	0xbe04f9fc	-0.12985986
219	0xbdddb610	-0.10825741
220	0xbe541a58	-0.20713174
221	0x3e3c2b3e	0.1837587
222	0x3e0676f2	0.13131312
223	0x3ec83087	0.39099523
224	0xbe483d70	-0.19554687
225	0x3daeddac	0.08538374
226	0xbd342328	-0.04397884
227	0xbe1f4b6a	-0.15556112
228	0x3e0777c2	0.13229278
229	0xbcb747c0	-0.02237308
230	0xbed6292e	-0.41828293
231	0xbe8e907c	-0.27844608
232	0xbe0799a0	-0.13242197
233	0x3de7e3c4	0.1132274
234	0xbd90194c	-0.07036075
235	0xbccdc760	-0.025119483
236	0xbe9f599b	-0.3112305
237	0xbe9baba2	-0.30404383
238	0x3e1d0dca	0.15337291
239	0x3ebfbd73	0.37449226
240	0x3e47fc6a	0.19529882
241	0xbd730788	-0.059333354
242	0xbd813968	-0.063097775
243	0x3ea6c091	0.32568792
244	0xbec2d4d1	-0.3805299
245	0xbe3bad27	-0.18327771
246	0xbea2d54b	-0.31803355
247	0xbd3c5cb8	-0.04598686
248	0xbe1dac72	-0.15397814
249	0x3b1f3b00	0.0024296641
250	0xbd8cefa4	-0.06881645
251	0x3e0165d2	0.12636498
252	0xbdad6800	-0.08467102
253	0x3e3b180e	0.18270895
254	0x3e518956	0.20462546
255	0xbea67863	-0.32513723

mean.full.bias f4 [16]
0	0x3da5eca4	0.08101776
1	0x3e754b38	0.23954475
2	0x3ce8c940	0.028416276
3	0x3e680e0c	0.22661608
4	0xbdc67d78	-0.096919
5	0xbd691580	-0.05690527
6	0xbe330232	-0.17481306
7	0x3cbf3ab0	0.023343414
8	0xbe4f3200	-0.20233917
9	0x3e51dd82	0.20494655
10	0x3dc674a8	0.09690219
11	0xbe774daa	-0.2415072
12	0x3e2b4094	0.16723853
13	0xbd461228	-0.04835716
14	0x3e4d07b4	0.2002247
15	0x3de368b0	0.11103952
