best_model/loss/reddit2_dropout=0_wd=0_b=256_lr=0.0001_walk=1_best_model.pt (torch_old, 660036 bytes, 4 tensors)

aggregator.full.weight f4 [128, 1204]
0.082972616 0.0681472 0.00023333666 -0.010783312 -0.028510144 0.040255282 -0.016829379 -0.014299774
-0.011053248 0.029149994 -0.08053315 -0.083746284 0.0003199768 0.012984869 0.061406616 -0.07861225
0.007911772 -0.026933657 0.058423646 -0.015464153 -0.031110033 -0.031160982 0.011712119 -0.061691105
0.094682194 -0.034939982 0.0061467397 -0.045115694 -0.026560707 0.065643966 0.051510483 0.0352675
0.10484913 -0.049476914 0.07830104 0.08291776 -0.021989077 -0.018127589 -0.0067078224 0.023328472
0.08379998 -0.057275813 0.006223612 0.04762865 -0.04554693 0.04248901 0.008259542 0.06428946
-0.03501765 0.027457658 -0.058644526 0.0028085632 -0.015649673 0.012119042 0.051418006 -0.0029698196
0.05464454 0.049586575 0.0033523876 0.045237504 0.041468274 0.0009400217 0.026946915 -0.00065897166
-0.0011841024 0.11270488 -0.08438781 -0.04066976 0.04583686 0.0045584524 -0.011880706 -0.037216324
-0.030481583 0.005735981 -0.008916111 0.024100268 -0.061473686 0.049795937 -0.033144597 -0.011461822
-0.011161035 0.013266403 0.049543813 -0.055695023 -0.020131875 -0.017151749 -0.0014856252 -0.023870604
0.026719397 0.033948563 0.024163378 0.11332952 -0.08659319 0.018897882 -0.024975454 -0.029196503
-0.06924435 0.015034061 -0.00024118923 0.011831212 0.030840222 -0.030445786 0.054675415 0.010056152
0.023642547 -0.010730662 0.015431214 0.01949525 0.0008892334 -0.026804693 0.006841282 -0.07188776
-0.062375583 -0.03917942 -0.021737628 0.03777191 0.0364148 -0.03465042 -0.09178623 0.04119119
-0.024913613 0.016897487 -0.038799185 0.009893193 -0.0039598136 -0.08962523 0.058812656 0.0039341715
-0.09182044 -0.038459245 -0.029226653 0.023591505 -0.017889507 -0.07690199 0.008225066 0.06536221
-0.023813665 0.046989005 -0.06665866 -0.0010695639 0.025424259 0.037948072 0.0005966178 0.016288146
0.05303181 0.08593332 -0.036049288 -0.08010931 -0.03906148 0.049350977 0.026624123 -0.078870654
-0.04305753 -0.027625935 0.06394317 0.00978888 -0.034610104 0.062359095 0.048550386 0.0015015937
-0.054778993 -0.01762275 0.0053538363 -0.013867678 0.008649751 0.03214791 0.07559159 0.041707
0.079928815 0.020683296 0.036127817 -0.008669735 -0.09974338 -0.051526166 -0.024310388 -0.059949894
-0.0073049767 -0.0117874555 -0.037770305 0.013333299 0.023131108 -0.030529337 0.005827697 0.016354552
-0.024811404 -0.022441614 -0.023589587 -0.06274394 0.032210857 0.034975655 0.0416077 0.05736311
0.013832914 -0.027368017 0.09892664 0.016616793 0.09872072 0.034387615 -0.05511287 -0.008732937
-0.0276074 -0.06241055 0.090597026 0.0397017 0.008329415 0.023055533 -0.032745235 -0.0100323865
0.045643236 0.00826761 -0.013116507 -0.05482403 -0.038547434 0.0054857996 0.012916688 -0.049941245
-0.015186016 0.021995388 0.015453444 0.083038375 -0.011734132 0.05684861 -0.0005209651 0.022305662
0.013447706 -0.031508453 0.028374175 0.004569028 -0.020441106 0.07505865 -0.0018314386 0.018688766
-0.039951947 -0.03735814 0.046970565 0.03034568 -0.08246823 0.07303616 -0.027798334 0.048542332
0.009074185 -0.03196083 -0.03661662 -0.014135627 -0.003824091 0.063845105 -0.052399993 0.023625532
-0.030494856 0.016119264 0.008906861 -0.03677062 0.012422211 -0.05870896 0.068790816 0.038482424
00000000: 8ced a93d c290 8b3d d5ab 7439 7dac 30bc
00000010: 1b8e e9bc b9e2 243d c4dd 89bc 9949 6abc
00000020: af18 35bc f8cb ee3c 90ee a4bd 2c83 abbd
00000030: 8fc2 a739 7dbe 543c 8185 7b3d 76ff a0bd
00000040: 60a0 013c f9a3 dcbc a24d 6f3d 5c5d 7dbc
00000050: 78da febc 5145 ffbc 30e4 3f3c d0af 7cbd
00000060: bde8 c13d 3a1d 0fbd 976a c93b 3ccb 38bd
00000070: d795 d9bc 5870 863d a8fc 523d a774 103d
00000080: 24bb d63d 4ea8 4abd 4c5c a03d c9d0 a93d
00000090: 7022 b4bc 4f80 94bc 4bcd dbbb 5a1b bf3c
000000a0: 539f ab3d 0b9a 6abd 71ef cb3b 4216 433d
000000b0: 6b8f 3abd f508 2e3d 0853 073c 31aa 833d
000000c0: ab6e 0fbd e2ee e03c 3e35 70bd df0f 383b
000000d0: be33 80bc f28e 463c b09b 523d 4ea1 42bb
000000e0: f4d2 5f3d 4b1b 4b3d bbb3 5b3b f64a 393d
000000f0: a3da 293d ca6b 763a c7bf dc3c d7be 2cba
00000100: e233 9bba d1d1 e63d 84d3 acbd 5695 26bd
00000110: 6ebf 3b3d 125f 953b 4ba7 42bc 2570 18bd
00000120: 83b4 f9bc e5f4 bb3b e114 12bc ed6d c53c
00000130: d5cb 7bbd d3f6 4b3d a1c2 07bd 5eca 3bbc
00000140: c6dc 36bc 545b 593c 74ee 4a3d 7720 64bd
00000150: 9aeb a4bc d381 8cbc 4fb9 c2ba 498c c3bc
00000160: a3e2 da3c a60d 0b3d 47f2 c53c 4f19 e83d
00000170: c557 b1bd bbcf 9a3c 5399 ccbc 812d efbc
00000180: fbcf 8dbd 6c51 763c bee7 7cb9 b3d7 413c
00000190: a2a4 fc3c 7169 f9bc 54f3 5f3d 8fc2 243c
000001a0: 04ae c13c a9cf 2fbc 34d3 7c3c 81b4 9f3c
000001b0: 711b 693a 8495 dbbc d52c e03b e439 93bd
000001c0: 8a7d 7fbd 997a 20bd 1c13 b2bc b8b6 1a3d
000001d0: af27 153d 99ed 0dbd 6bfa bbbd 18b8 283d
000001e0: a217 ccbc 996c 8a3c e5eb 1ebd 0f17 223c
000001f0: 53c1 81bb 6f8d b7bd 8ae5 703d 39ea 803b
00000200: 5b0c bcbd 7187 1dbd bc6c efbc f942 c13c
00000210: 048d 92bc ca7e 9dbd 6dc2 063c 9fdc 853d
00000220: e014 c3bc 8b77 403d 5684 88bd 9c30 8cba
00000230: 8946 d03c 706f 1b3d 5866 1c3a b86e 853c
00000240: e237 593d cffd af3d 6ba8 13bd 5a10 a4bd
00000250: eefe 1fbd 4024 4a3d d51a da3c f086 a1bd
00000260: 185d 30bd c94f e2bc a3f4 823d 8a61 203c
00000270: 53c3 0dbd 406c 7f3d c5dc 463d 20d1 c43a
00000280: f05f 60bd 965d 90bc 3c6f af3b 4235 63bc
00000290: afb7 0d3c 87ad 033d c3cf 9a3d f6d4 2a3d
000002a0: b8b1 a33d 0470 a93c c3fa 133d 810b 0ebc
000002b0: 4246 ccbd 1a0d 53bd 9426 c7bc 058e 75bd
000002c0: 965e efbb 2c20 41bc 09b5 1abd e973 5a3c
000002d0: 737d bd3c a918 fabc 44f6 be3b fbf9 853c
000002e0: 4941 cbbc 7ad7 b7bc f33e c1bc e57f 80bd
000002f0: 88ef 033d a242 0f3d d66c 2a3d 95f5 6a3d
00000300: 72a3 623c e432 e0bc 0d9a ca3d f11f 883c
00000310: 172e ca3d 07da 0c3d 08be 61bd 9814 0fbc
00000320: ea28 e2bc 34a2 7fbd ef8a b93d 409e 223d
00000330: 1978 083c f5de bc3c de1f 06bd e15e 24bc
00000340: 67f4 3a3d df74 073c 9ee6 56bc 298f 60bd
00000350: eae3 1dbd 39c2 b33b 84a0 533c 318f 4cbd
00000360: c5ce 78bc ac2f b43c 7130 7d3c 0610 aa3d
00000370: 8440 40bc 17da 683d 6091 08ba 5dba b63c
00000380: c453 5c3c 020f 01bd f570 e83c c9b7 953b
00000390: 1b74 a7bc 59b8 993d e20c f0ba 2f19 993c
000003a0: a7a4 23bd d904 19bd 3564 403d 8197 f83c
000003b0: 1ae5 a8bd fb93 953d 55b9 e3bc 53d4 463d
000003c0: e4ab 143c 5ce9 02bd 4ffb 15bd 1e99 67bc
000003d0: 9a9d 7abb 39c1 823d 60a1 56bd 558a c13c
000003e0: 59d0 f9bc 8c0c 843c 15ee 113c ca9c 16bd
000003f0: 8786 4b3c ce78 70bd 33e2 8c3d bf9f 1d3d

aggregator.full.bias f4 [128]
0.05934725 0.14925572 0.04365975 0.13017602 0.0457174 0.060524356 0.06410919 0.084431045
0.10701766 0.0688884 0.13037305 0.083866924 0.09882482 0.04023591 0.08930513 0.06460053
0.07647704 0.07242999 0.09540037 0.08263479 0.04191723 0.11301875 0.02842568 0.0756973
0.038580224 0.059137248 0.06703086 0.11486012 0.089317136 0.093288995 0.033373263 0.0654698
0.048832465 0.070250645 0.11099789 0.077428296 0.12742071 0.05423212 0.033899788 0.06235789
0.08411694 0.08183527 0.109379284 0.0642126 0.053261355 0.062490787 0.0466102 0.076695435
0.085745834 0.10803092 0.056738656 0.053168856 0.058256928 0.08384071 0.056120507 0.08321692
0.05740399 0.08459489 0.10601091 0.062303323 0.104039736 0.044939835 0.07879695 0.040568065
0.05783049 0.10598796 0.03871419 0.04307972 0.0386435 0.13035251 0.052733768 0.07073512
0.107303366 0.08603672 0.052540045 0.1131935 0.10178606 0.1107819 0.08452664 0.05317626
0.022249116 0.045526568 0.08841799 0.07678529 0.043298177 0.096705355 0.12610903 0.08932763
0.061591092 0.08601279 0.1256582 0.035861745 0.059809808 0.05561594 0.08568599 0.0519289
0.08748588 0.11112276 0.048063383 0.11416478 0.06519913 0.14119346 0.14123836 0.08343438
0.06349126 0.10160667 0.08031321 0.12988196 0.03455117 0.04661017 0.057806097 0.08725966
0.08136477 0.07450308 0.09643389 0.083804466 0.11516467 0.09484438 0.08792254 0.066171
0.035202347 0.055192254 0.100752026 0.08628868 0.087278455 0.060575366 0.079318866 0.034902677
00000000: 1a16 733d 7ed6 183e 91d4 323d dd4c 053e
00000010: 2b42 3b3d 63e8 773d ae4b 833d 2fea ac3d
00000020: 132c db3d 5d15 8d3d 8380 053e 6cc2 ab3d
00000030: ab64 ca3d 69ce 243d 9ce5 b63d 484d 843d
00000040: ff9f 9c3d 2d56 943d 4561 c33d 6e3c a93d
00000050: 67b1 2b3d 6076 e73d f9dc e83c 3007 9b3d
00000060: 4c06 1e3d e639 723d 7a47 893d c83b eb3d
00000070: e7eb b63d 4d0e bf3d 67b2 083d 0815 863d
00000080: 8d04 483d 92df 8f3d dd52 e33d ba92 9e3d
00000090: 937a 023e 8022 5e3d 81da 0a3d fd6a 7f3d
000000a0: 8145 ac3d 4099 a73d 3f02 e03d e581 833d
000000b0: 9428 5a3d 57f6 7f3d 56ea 3e3d 7f12 9d3d
000000c0: 839b af3d 513f dd3d cb66 683d 96c7 593d
000000d0: d19e 6e3d aeb4 ab3d 9ede 653d a26d aa3d
000000e0: 7220 6b3d 1640 ad3d 3f1c d93d c531 7f3d
000000f0: c912 d53d d512 383d 4c60 a13d b32a 263d
00000100: aadf 6c3d 3710 d93d c592 1e3d 5c74 303d
00000110: a648 1e3d 217b 053e 5dff 573d 93dd 903d
00000120: dec1 db3d 0534 b03d 3b34 573d fed1 e73d
00000130: 3675 d03d 9fe1 e23d 4e1c ad3d 5acf 593d
00000140: c743 b63c 117a 3a3d 7e14 b53d 9b41 9d3d
00000150: 6e59 313d 750d c63d ba22 013e 68f1 b63d
00000160: f146 7c3d 7927 b03d 8bac 003e c4e3 123d
00000170: 21fb 743d 8acd 633d 237c af3d 66b3 543d
00000180: cc2b b33d 5494 e33d 1cde 443d 39cf e93d
00000190: 1f87 853d 0595 103e caa0 103e a5df aa3d
000001a0: b507 823d 2817 d03d 417b a43d c7ff 043e
000001b0: 8785 0d3d 4eea 3e3d 16c6 6c3d 31b5 b23d
000001c0: 93a2 a63d 1295 983d 227f c53d ada1 ab3d
000001d0: 74db eb3d c53d c23d bc10 b43d a984 873d
000001e0: 5630 103d 4611 623d 1457 ce3d 1fb8 b03d
000001f0: 0cbf b23d e01d 783d ee71 a23d 1cf6 0e3d

mean.full.weight f4 [41, 256]
-0.24971087 -0.02070776 0.02757875 -0.1927665 -0.05582264 0.14774129 0.02201328 0.051914953
0.010758993 -0.027481377 -0.15086162 -0.12647714 -0.22002302 -0.18259183 -0.07941892 -0.17354971
0.008947554 -0.03924619 0.1849738 -0.250603 -0.16649339 -0.13105138 -0.06460925 -0.09036474
-0.10989761 0.13357794 0.009139554 0.068630636 0.19320199 0.12115788 -0.17223243 -0.22207592
-0.18557191 0.10054856 0.018679297 0.21939297 0.093030415 -0.1817149 0.008863657 0.08523414
-0.17047377 -0.20984161 -0.01861389 -0.1257205 -0.02663886 0.21967243 -0.010100231 -0.17229891
0.09006492 -0.13705195 -0.006747107 0.11213689 0.0086811725 0.05797492 -0.02990693 0.19415699
-0.18120141 -0.04465709 0.020012725 -0.0042241127 0.09226996 -0.19320758 -0.19108394 -0.1284815
-0.15320426 0.09692654 -0.10149467 -0.10032479 0.0725239 0.017164122 -0.06354751 0.05689681
0.0684399 0.22095557 -0.010891012 -0.06242318 -0.18114923 0.16288185 -0.078305595 -0.009443259
-0.16426444 0.17991365 0.0016071388 -0.12631352 0.14241177 0.05599334 0.08774371 0.08610892
0.088179514 -0.14713939 0.015595205 -0.14278246 0.01206242 0.20255247 0.07759268 0.11601829
-0.24135052 0.13739489 -0.1946222 0.0019641437 0.19597308 -0.13423762 0.20599833 0.12623754
-0.20594603 0.028654974 -0.105609514 -0.25538987 -0.1859493 0.098550364 0.1735123 -0.18185925
0.029629165 0.011262743 -0.117968805 0.13023284 0.11374202 0.007246665 0.04523584 0.14685239
-0.07749296 0.16128194 -0.060347904 0.090603665 -0.19916354 0.13126251 -0.06676108 0.120653465
-0.0130047705 -0.07482062 0.13199183 0.133322 -0.04804161 -0.064234234 0.09604126 -0.060709532
0.069527484 -0.03139026 0.09358954 -0.11356587 -0.08224816 0.08023223 -0.028025381 -0.08851945
-0.06538858 0.06223641 0.019502306 0.021995345 0.066000305 -0.045712017 0.029022828 0.122666806
-0.03481346 -0.1630538 -0.07199369 -0.012579372 -0.017867327 0.017570028 -0.10593019 -0.039114073
-0.03872478 -0.014432815 0.0891238 0.016242394 -0.022472413 -0.112181544 -0.06820951 -0.03030334
-0.09650053 0.03889523 0.08249309 -0.08934744 -0.05296617 0.08361626 0.06353982 0.07132083
0.051791694 -0.15841952 0.04284765 0.015912417 -0.04291082 -0.058286887 0.122925 0.020104814
-0.08463706 0.12677826 0.020605676 0.057182454 -0.022727812 -0.09732612 0.123160005 -0.06640879
0.15449594 -0.061269343 -0.11414071 -0.051177554 0.11533312 0.026897518 -0.057367932 0.09641756
0.15450639 -0.011793216 0.08412107 -0.12847771 0.0047735604 -0.007598865 -0.07752153 0.07171953
-0.13486859 -0.06230615 -0.070194624 0.08545364 -0.06545969 0.12827581 0.0020594585 -0.12428542
0.02440779 0.024916125 -0.10287047 -0.022859657 -0.019201793 0.0060274093 -0.022063479 -0.0230953
0.13548934 0.089415506 0.08653562 -0.037905227 0.11596512 -0.16456857 -0.020796161 0.11741781
0.022082753 0.051294643 0.0124210445 -0.0017007296 0.1159917 -0.05572482 0.021706983 -0.057827003
0.036979888 -0.031133307 -0.13693684 -0.041183155 0.04085873 -0.10794236 0.0652599 0.11735223
-0.069952406 -0.12807551 -0.06317236 0.01178011 0.008992122 0.042162262 0.06414475 0.13170129
00000000: 35b4 7fbe 52a3 a9bc d5ec e13c 9564 45be
00000010: 48a6 64bd 7e49 173e 3255 b43c c6a4 543d
00000020: 7d46 303c a020 e1bc 787b 1abe 3983 01be
00000030: b74d 61be 5af9 3abe 63a6 a2bd 04b7 31be
00000040: c398 123c 9dc0 20bd c669 3d3e 094f 80be
00000050: 3e7d 2abe 5532 06be db51 84bd 2611 b9bd
00000060: 0012 e1bd a8c8 083e 11be 153c 388e 8c3d
00000070: bed6 453e 9f21 f83d b35d 30be df67 63be
00000080: 9006 3ebe 67ec cd3d 5305 993c 8da8 603e
00000090: bb86 be3d 7913 3abe df38 113c 3d8f ae3d
000000a0: ad90 2ebe b8e0 56be 287c 98bc e0bc 00be
000000b0: bd39 dabc cff1 603e 707b 25bc 206f 30be
000000c0: f573 b83d 5957 0cbe d616 ddbb 07a8 e53d
000000d0: 7a3b 0e3c 1c77 6d3d 61ff f4bc 17d1 463e
000000e0: dd8c 39be 5aea 36bd baf1 a33c 6d6a 8abb
000000f0: 08f8 bc3d 35d8 45be 82ab 43be a890 03be
00000100: 94e1 1cbe 6c81 c63d 70dc cfbd 1577 cdbd
00000110: 6987 943d c69b 8c3c 3225 82bd a10c 693d
00000120: 382a 8c3d 2d42 623e 3770 32bc 73af 7fbd
00000130: 2f7f 39be 80ca 263e af5e a0bd e6b7 1abc
00000140: f034 28be 493b 383e a1a6 d23a 5558 01be
00000150: 64d4 113e 4659 653d f9b2 b33d e059 b03d
00000160: 7697 b43d b5ab 16be 0883 7f3c 9135 12be
00000170: 75a1 453c ea69 4f3e e9e8 9e3d ff9a ed3d
00000180: 9724 77be 3fb1 0c3e 0b4b 47be ddb8 003b
00000190: 2bad 483e 9675 09be 3af1 523e 6a44 013e
000001a0: 84e3 52be d6bd ea3c cd49 d8bd 76c2 82be
000001b0: 7e69 3ebe c6d4 c93d 35ad 313e 5039 3abe
000001c0: ddb8 f23c 5e87 383c a199 f1bd c25b 053e
000001d0: 94f1 e83d 6f75 ed3b 3749 393d 7960 163e
000001e0: a1b4 9ebd 1827 253e 5d2f 77bd 6a8e b93d
000001f0: 87f1 4bbe ae69 063e 08ba 88bd 2a19 f73d
00000200: f611 55bc 8e3b 99bd de28 073e 9085 083e
00000210: 47c7 44bd 3d8d 83bd 48b1 c43d 8faa 78bd
00000220: 6d64 8e3d 1393 00bd dfab bf3d 3995 e8bd
00000230: b971 a8bd cc50 a43d 7c95 e5bc af49 b5bd
00000240: 73ea 85bd 9beb 7e3d 4dc3 9f3c 952f b43c
00000250: 2b2b 873d 863c 3bbd 48c1 ed3c bc38 fb3d
00000260: 8f98 0ebd 93f7 26be 6e71 93bd b619 4ebc
00000270: 805e 92bc 05ef 8f3c edf1 d8bd 1436 20bd
00000280: e09d 1ebd 9d77 6cbc 8a86 b63d c50e 853c
00000290: 1118 b8bc 70bf e5bd 6db1 8bbd b63e f8bc
000002a0: 12a2 c5bd 9b50 1f3d 23f2 a83d cafb b6bd
000002b0: 0ef3 58bd 003f ab3d 2a21 823d a810 923d
000002c0: 8723 543d ba38 22be 0481 2f3d c25a 823c
000002d0: 42c3 2fbd 3bbe 6ebd 1ac0 fb3d dab2 a43c
000002e0: 3256 adbd 29d2 013e 3ccd a83c 2638 6a3d
000002f0: ad2f babc eb52 c7bd 503b fc3d 5501 88bd
00000300: 2f34 1e3e 90f5 7abd 9bc2 e9bd 8e9f 51bd
00000310: c533 ec3d 2f58 dc3c a3fa 6abd 9276 c53d
00000320: ec36 1e3e 5538 41bc ab47 ac3d a98f 03be
00000330: 876b 9c3b e6ff f8bb 9cc3 9ebd b0e1 923d
00000340: fe1a 0abe bc34 7fbd 33c2 8fbd 5102 af3d
00000350: bb0f 86bd bc5a 033e fbf7 063b 5b89 febd
00000360: d8f2 c73c e71c cc3c c1ad d2bd 2d44 bbbc
00000370: 144d 9dbc 9381 c53b 78be b4bc 5b32 bdbc
00000380: b8bd 0a3e 7a1f b73d 9639 b13d 8342 1bbd
00000390: 1f7f ed3d aa84 28be b65c aabc c078 f03d
000003a0: e4e6 b43c 551a 523d a381 4b3c 04eb deba
000003b0: 0e8d ed3d b53f 64bd d8d2 b13c 02dc 6cbd
000003c0: 3978 173d 470b ffbc 2c39 0cbe abaf 28bd
000003d0: 7c5b 273d e210 ddbd fca6 853d 5e56 f03d
000003e0: 3543 8fbd 3a26 03be 8360 81bd 5d01 413c
000003f0: b153 133c 56b2 2c3d 535e 833d b4dc 063e

mean.full.bias f4 [41]
0.027294356 0.023409007 0.05197417 -0.012888517 -0.034951154 -0.04825929 0.0989772 0.006375531
-0.052397404 0.034214094 0.007967635 0.018531177 -0.014738488 0.03901986 0.031888712 0.007981942
0.03922541 0.011299465 0.020899393 0.015924044 -0.068403 -0.016563714 -0.06565036 0.07457502
-0.011490208 -0.06702879 -0.042113528 -0.065020695 0.014562472 0.027787874 0.018827377 0.018412715
-0.04547471 -0.008554915 0.017220754 -0.051425777 0.009746919 -0.04148617 -0.016734889 0.024835577
0.020382466
00000000: 6a98 df3c 3fc4 bf3c dee2 543d 5c2a 53bc
00000010: f128 0fbd 89ab 45bd 8fb4 ca3d d5e9 d03b
00000020: a99e 56bd 1424 0c3d af8a 023c b2ce 973c
00000030: b379 71bc 4ad3 1f3d bd9d 023d b1c6 023c
00000040: d3aa 203d 6421 393c 3435 ab3c 2473 823c
00000050: df16 8cbd a0b0 87bc b273 86bd caba 983d
00000060: 6d41 3cbc 6446 89bd 3c7f 2cbd 9229 85bd
00000070: 6f97 6e3c 65a3 e33c df3b 9a3c 43d6 963c
00000080: b143 3abd ea29 0cbc 8a12 8d3c d6a3 52bd
00000090: 8bb1 1f3c 67ed 29bd 9b17 89bc fb73 cb3c
000000a0: 21f9 a63c
